models/batch_8/ConvNet_5.pth (torch, 127512 bytes, 7 tensors)

conv_1.weight f4 [8, 1, 3, 3]
00000000: 5667 863e c57d 913e c169 91bd 0ca4 a03e
00000010: 7de8 85bd 54bc 983d f7e8 1ebe 4b0d 503e
00000020: 2526 9a3e 7ceb 66be f34a 9e3e c09e a73d
00000030: 8ffb 873e 8c6f 843d d49b 383e 98be e4bc
00000040: 758e 8d3e 42f9 8c3d 1859 1fbe b402 ae3d
00000050: c843 1dbe d81d 20bd a8a2 0abe 3e6e 623e
00000060: 1cb8 86be b35b 1dbe 90c4 c0bd 053c 4dbe
00000070: 5bdd 003d 5590 a8be 4b22 9a3e d6f9 90be
00000080: a6c2 833e 653e 633d 93a8 ddbd f0ee 523e
00000090: d510 993d dba9 953e 359d 733d b003 a9bd
000000a0: c509 e63d 004a 8abd bcda 263e 3110 a43e
000000b0: 68c0 5c3e ebf9 14be f68a 453e 642a 763d
000000c0: 3c45 2d3e 104b 50be fafd a8be 2a3c 04be
000000d0: a119 83be 0afe 8b3e cd4a c23d ef23 0c3e
000000e0: 7ad4 d43d 4b7b e6bb d7dd 843e 5849 74be
000000f0: abbe 9f3c 7aba 6abe 5fbd ce3d 3533 f6bd
00000100: e304 c63d 6515 99bd c1e5 8a3e 9cad 4fbe
00000110: d7e3 50be 6eb3 50be 1e08 973e 2c8e d93d
0.26250714 0.28416267 -0.07100249 0.31375158 -0.06538484 0.07457796 -0.15518557 0.20317571
0.30107227 -0.22550768 0.30916557 0.08184576 0.2655911 0.064665884 0.18028194 -0.027922913
0.2764775 0.0688348 -0.1556133 0.08496609 -0.15357888 -0.03909096 -0.13538611 0.22112367
-0.2631234 -0.15367012 -0.09412491 -0.20042427 0.0314611 -0.32922617 0.30104288 -0.2831561
0.25734442 0.055479426 -0.108231686 0.2059896 0.074739136 0.29231152 0.059476096 -0.082526565
0.11232332 -0.06752396 0.16294378 0.32043603 0.21557772 -0.14548461 0.1929129 0.06009902
0.16920942 -0.20341134 -0.3300627 -0.12913576 -0.2560549 0.27342254 0.09486923 0.13685583
0.10392089 -0.0070337406 0.259505 -0.23856103 0.019500097 -0.22922698 0.100947134 -0.12021486
0.09668901 -0.07474784 0.27128413 -0.2028107 -0.20399414 -0.20380947 0.2949838 0.1062282

conv_1.bias f4 [8]
00000000: 2eae 9d3e 149a 71be bb47 a9be 8d84 85be
00000010: 1e11 37be b42b 0e3e e67b ef3d 8672 8e3e
0.3079695 -0.23593932 -0.33062539 -0.2607769 -0.17877623 0.13883859 0.116935536 0.2782175

conv_2.weight f4 [16, 8, 3, 3]
00000000: 8b9f 79bd e0ae a4bd 41f6 7f3d cb75 43bd
00000010: 5556 923d f6a3 e5bc 5b36 8a3d d66f bbbd
00000020: d97d 73bd 7b9e 133d 17fe cc3c 8448 f5bc
00000030: 6b23 903d b65f a43d d6c0 aebd fc84 80bd
00000040: cd5d dd3d 6040 22bd ac21 2bbd ac89 e9bd
00000050: 1c38 8abd 6c2b f13c b0dc 7ebc ff32 afbd
00000060: e02a 353b 32de a4bd adc4 ccbd 46e8 84bd
00000070: 883d d3bd bbae 99bd 3144 f13d 9a59 b63c
00000080: a9c1 143d 8e1c e1bd a684 9ebd a9ac 20bd
00000090: 6f0b 973c 9c58 d4bd c2e6 4fbd 9778 90bd
000000a0: 0a73 b839 227d 33bd eef2 04bc f774 a3bd
000000b0: 4e95 a5bd b67a 8dbd 3c93 26bd 5430 bfbd
000000c0: 53ae c93d bb92 c2bc 5dee ce3d c1f0 143d
000000d0: 5219 cdbd 4357 a63d 4595 05bd 3ec9 39bd
000000e0: 25b4 c8bd 6f59 f0bd 685b 093d 195d d4bc
000000f0: 7077 3b3d 0c49 c6bd a6fc b23d 552a b2bd
00000100: 69bd aabc 419f c53c 5b3d 773d a5dc c13d
00000110: 8ed8 da3d 102e c0bd 8ca1 ef3c a856 51bd
00000120: 5842 59bc d5a9 b3bd 7592 de3d e3b0 b0bd
00000130: 2193 833d 6784 323d f0b5 1e3d 1bbe 7ebd
00000140: 7e44 e03d d73c de3c 2a69 883c b573 d1bd
00000150: 47ce 503d e320 82bc dead 55bd e08b d23d
00000160: e9e8 e53c 8fb0 81bd 8e52 74bd a06b b8bb
00000170: fdc3 863d a0b3 f6bc a4b6 89bd ac4d 25bd
00000180: 3650 b4bd 2a27 2c3d 59d2 ba3d be38 e3bd
00000190: 9b3c e03c 8460 793d 8312 af3c 7ae8 2bbd
000001a0: 4af3 7b3d eaac 7d3d ee80 343d bea4 a9bc
000001b0: 52e2 f2bc f6fe 6e3c f65c 98bc 282f 08bd
000001c0: 391a 9f3d d0b5 d43d 4fe9 1ebc 02f0 c4bc
000001d0: d7a2 8d3b c7ca 0cbc c222 da3c fc49 ff3c
000001e0: 29fb debd 710b 3abd 250d c73d c560 343d
000001f0: 737c 00bc d2f8 95bd b724 94bd 0981 d8bd
00000200: 010f 1dbd 53a2 223d 9939 9a3d 1336 603d
00000210: 1644 d5bd 1c96 90bd 9e94 94bc 2c49 e63d
00000220: 996e 7e3c a617 03bd dab8 403d 8b83 3ebd
00000230: 086f 9fbd e186 ac3d df79 62bd ac46 cfbc
00000240: 1f00 f1bd 66d0 a13d dc24 b73d 8f65 2e3d
00000250: 014c a8bd f469 eebd ea9f c4bd 582e b43d
00000260: 658b 673d 00f8 cb3d d2e2 7e3d 12d4 f83c
00000270: 14f9 4dba e1a3 b6bd 62d7 cdbd 4204 e1bd
00000280: c862 473d c22f 6bbd ec4b c2bc 48e7 8abd
00000290: e0ec afbc 81e0 a9bd 34b5 9dbd 721f 203d
000002a0: 4e76 0fbd 5d00 953d 38dc 1abd 440d b1bd
000002b0: 5257 aabc cbfe 69bd a7ae 13bd d3c5 e5bd
000002c0: d809 873d ef08 a8bd 949e 723d 420d 5b3d
000002d0: 8804 ae3d 944f b7bd dda8 af3d 9240 61bd
000002e0: cf9d 363d af8c e43d d42d 82bc 8371 5fb8
000002f0: 2006 d7bc 4b8a cabd b8b9 653d 74c6 f0bd
00000300: c8d1 943d 038c b33d 7e35 e33d a1e5 e7bc
00000310: 7648 c7bd c8d1 d43c aef4 843d bf5b f0bd
00000320: fcb4 dbbc 2322 91bd 1425 2bbc c02c 6ebd
00000330: d73a 46bd 40c9 19bd 5bb5 e5bd c88e c63d
00000340: 4115 cb3d 3205 95bc 49a2 57bc 0998 43bd
00000350: 4563 d9bd 6d55 eabd bcfc 343d f9e4 83bd
00000360: 0a2a 9bbd 20a7 16bc 24c0 20bd 5c2b 1cbd
00000370: 402a 783b f4c7 ccbc b634 26bd db20 67bd
00000380: b66c c4bd 16b9 c93d 6b78 42bd 3b01 fd3c
00000390: 0cc3 28bd 76f7 173c ce54 e03d a531 5d3d
000003a0: 21bc d1bd ea4d 3e3d c11b e53d 84fd fd3c
000003b0: 29d0 a13d f3f3 ed3d d0ee 93bc 7461 c83c
000003c0: c8c0 a7bd 50f4 c6bc 25bf b23d 7876 773d
000003d0: c6ba 98bd d48a c1bd a1ef a4bd 2f31 eebd
000003e0: fb3d babd 08c0 eebc 1de3 a23d c398 a13c
000003f0: 189a b7bd c4a7 c1bd 43f3 6f3d 558e b3bd
-0.060943168 -0.08041167 0.062490705 -0.047719758 0.07145373 -0.028032284 0.06748649 -0.091521904
-0.05944619 0.03603981 0.025023503 -0.029941805 0.070380054 0.08026068 -0.08532874 -0.06275365
0.10808907 -0.039612174 -0.04178016 -0.11403212 -0.06748983 0.02943965 -0.015555546 -0.085546486
0.0027643964 -0.08050193 -0.099984504 -0.06489615 -0.103144705 -0.0750403 0.117805846 0.022259522
0.0363175 -0.109917745 -0.077401444 -0.03922716 0.01843807 -0.103684634 -0.050757177 -0.07054251
0.00035180926 -0.043820508 -0.00811456 -0.07981294 -0.08085118 -0.06908171 -0.040667757 -0.0933539
0.09847703 -0.023751607 0.10104058 0.036362413 -0.10014595 0.081221126 -0.032613058 -0.045357935
-0.09799985 -0.11735808 0.033534437 -0.025923299 0.0457682 -0.09681901 0.08739595 -0.086994804
-0.02084227 0.02412379 0.060361248 0.09465913 0.10685836 -0.09383786 0.029251836 -0.051108032
-0.0132604465 -0.08772627 0.10867778 -0.086274885 0.06424547 0.0435833 0.038747728 -0.062193017
0.10950564 0.02712862 0.016651709 -0.102271475 0.05097797 -0.015884822 -0.052167766 0.10280585
0.028065162 -0.06332504 -0.059649043 -0.0056280643 0.065803505 -0.030114949 -0.06724289 -0.040357277
-0.088043615 0.042029537 0.09122152 -0.11094807 0.027372649 0.06088306 0.021371132 -0.041969754
0.061511315 0.06193248 0.04406827 -0.020708438 -0.029648934 0.014587155 -0.018599015 -0.033248097
0.077686734 0.103862405 -0.00969918 -0.024040226 0.0043223905 -0.008593268 0.026627902 0.031163208
-0.10887749 -0.045421068 0.09719304 0.0440376 -0.007842171 -0.07322849 -0.07233565 -0.105714865
-0.038344387 0.039705586 0.07530517 0.05473907 -0.10413377 -0.07059881 -0.018137272 0.11244425
0.015529298 -0.032004975 0.04705129 -0.046512168 -0.077848494 0.084241636 -0.055292007 -0.025302254
-0.11767601 0.07901077 0.08942577 0.042577323 -0.082176216 -0.11641303 -0.09600814 0.08797902
0.05652942 0.099594116 0.06222803 0.03037456 -0.0007857245 -0.08917976 -0.10050847 -0.1098714
0.04867819 -0.057418592 -0.023717843 -0.06782395 -0.021475255 -0.08294774 -0.077005774 0.03909249
-0.035024934 0.0727546 -0.037807673 -0.08645108 -0.02079359 -0.057127755 -0.036055233 -0.112193726
0.065936744 -0.08204829 0.059233263 0.05347944 0.08496958 -0.08950725 0.0857713 -0.05499322
0.04458409 0.11159646 -0.015890993 -5.327306e-05 -0.026248038 -0.098896585 0.05608532 -0.11756602
0.07266575 0.087669395 0.11094187 -0.028307738 -0.09730618 0.025978938 0.064919814 -0.11736249
-0.026819699 -0.07086589 -0.010445852 -0.058148146 -0.048395958 -0.037545443 -0.112162314 0.09695202
0.09916163 -0.018190954 -0.01316125 -0.047752414 -0.10614637 -0.11442075 0.04418634 -0.064401574
-0.07576378 -0.009195119 -0.03924574 -0.03812729 0.003786698 -0.024997689 -0.040577613 -0.056427818
-0.095910475 0.098497555 -0.04747812 0.030884376 -0.041201636 0.009275308 0.10953675 0.054002423
-0.10240961 0.046461023 0.11186934 0.031004675 0.079010315 0.11618795 -0.01805821 0.024460532
-0.08191067 -0.02428642 0.08727864 0.060415715 -0.07457499 -0.094503075 -0.08053518 -0.11630475
-0.09093853 -0.029144302 0.07953475 0.019726163 -0.08964938 -0.09455827 0.0585816 -0.08767382

conv_2.bias f4 [16]
00000000: f805 f73c 2a22 003d 542f b43d eb01 53bd
00000010: d204 d7bc 4988 e63c f232 553c d751 fe3d
00000020: aea8 3abd 51a3 f7bb 3161 e03c c5c5 fbbc
00000030: b198 a43d d6eb 2b3d 8675 c9bd 9e21 b2bc
0.030154213 0.03128258 0.087980896 -0.0515155 -0.026247416 0.028141158 0.013012635 0.124179535
-0.04557102 -0.0075573106 0.027390094 -0.030733952 0.08036936 0.041972958 -0.09836869 -0.021744546

conv_3.weight f4 [32, 16, 3, 3]
00000000: 71ce 1abd 75b2 043c 7fa7 1ebc 7a49 a9bd
00000010: 5ac7 78bc 17c1 02bc ce4a c9bc ccce 9c3d
00000020: 99f2 94bc af46 5b3d 4211 a93c df11 90bd
00000030: 6566 a03c d26b 8d3d e247 5fbd 0da5 5cbd
00000040: 9408 a73d 721e 893d 386c 3ebd ba61 4d3d
00000050: d5a8 2ebc d542 a8bd ed13 cd3b 8892 dc3c
00000060: b6be ccbc 4578 ed3c 35ef 91bd 808c 6c3d
00000070: ce7f 913d cf3b 3c3d 1a69 673c d8d5 e03c
00000080: 98f8 76bd d794 aabc cd58 02bc 84f2 3dbd
00000090: 761c 7cbd db93 653d 73a6 673d cafe 9abd
000000a0: 9f39 d93c b6db 0a3d 3121 a23d 427b 453d
000000b0: b6e6 9c3d f68c dfbc 41fe 6e3d 9fcb 8a3d
000000c0: 8f2e a1bd e407 89bd 5411 8a3c f057 3a3d
000000d0: eaa4 29bd e71d 163c 096a f2b8 82d5 ac3c
000000e0: eb64 37bd 568c 403d c503 633d c2cf 6cbd
000000f0: 7d3f 553a 508a 7839 f241 db3c fefa 9e3d
00000100: 1e2c c83c 3124 9bbc 1247 993d 99e9 01bd
00000110: ca4b c6bc 286c ba3b 25f8 81bd a17f 143c
00000120: 8b95 67bd 4678 0c3c d8de 023c e4c3 3c3c
00000130: 7ced 8fbd 9516 a2bd 49f6 1c3d 9953 923d
00000140: 3876 97bd b1d8 fc3c 3545 7bbd 7a34 ab3b
00000150: f1c7 9e3d cf77 813d 718f 79bd 5824 533d
00000160: 6e47 323d b5c7 05b9 3751 a53d 3d97 07bd
00000170: b6e3 9ebc c786 2cbd ec5d 443c 31b6 b43c
00000180: 5389 d93b 6810 40bd 13ad 19bd 4a1b e83c
00000190: 8fae 95bd e1ef 54bc 36b8 f4ba da64 0abd
000001a0: 4d3b f83c 6a24 af3b f87e 6f3d 548f f3bb
000001b0: 806d 57bd 8629 713d dfaa 3e3c 2a83 c3bc
000001c0: f0f9 60bd 2802 a03c f6c5 a2bd 69cd b33c
000001d0: 63c5 283d 83b6 95bd 7779 5fbd a066 75bd
000001e0: 5271 8f3d e114 913d d8e1 aa3b 8938 a03d
000001f0: 473b e4bc 20b0 a5bd 787a ee3c 67db f13c
00000200: 8851 a73d 67c6 afb7 66cd 823d 003a 513d
00000210: 6b0c 773d fd5b a9bd ac87 8c3d 667d 91bd
00000220: 71fc 983d 4da1 62bb 843f 97bd 84c2 bd3c
00000230: db02 8bbc 654c 99bd 8c95 f7bc ffa5 0c3c
00000240: d6ec 843d f1dc d1bc c2ba 4a3d a60d 2b3c
00000250: f842 383b c59f 823c edfb 5fbd 22da 8dbd
00000260: 587e d6bc 5d03 9fbd 5b1c 1fbd 504e 7c3b
00000270: 97c7 60bd 1e88 0dbd 741a 75bc f631 1dbc
00000280: bc5e 3cbd 00a4 833b 3887 3fbc 294b c33c
00000290: e2f7 763b 3765 2abd cded eabc 3379 79ba
000002a0: f1f0 54bd 6f60 d63b 4541 c0bb 936f 043d
000002b0: 1e93 a13c 2474 7f3d 69fa 33bb 3535 7cbd
000002c0: f995 183d 99af 66bd 5fa1 3bbc 4907 ddbc
000002d0: 7084 01bd 518c fcbc 24d5 9c3d 3265 433d
000002e0: 7940 bd3c 4641 a03d d5a8 9abd 3e64 5c3c
000002f0: dd86 5a3d 59d4 623d 27c8 87bd 6d14 f33c
00000300: 015e 42bd abca 53bb 2f4e 8ebc d773 8ebd
00000310: 20c2 a2bd 4a82 60bd dae6 1a3d 2b2a 1c3d
00000320: 006f 94bd 402d 00bd 6298 b33a 188c 93bd
00000330: 0d57 403d 2697 9a3d fb86 713c 1681 7dbd
00000340: 705c 9f3c 18f0 f73c ee39 873d 7f85 35bd
00000350: 7ae2 98bd da30 163d cf59 ab3b 504a debc
00000360: 19be 0ebd 0069 2fbd 058b 8a3d 7b3d 6bbc
00000370: 89bc 763d b2bf 983d a2c1 2c3c 9626 923c
00000380: 8b8f b4bb 427a 6a3d b1c5 99bd 02cb 073d
00000390: 4f4b 5ebc 0fe6 1b3d f0cd bbb9 70bd fcbc
000003a0: a309 13bc a763 383d c5e6 6cbd 1599 57bd
000003b0: f0a7 98bc 3e3e f7bc e647 063d efcf 653d
000003c0: 6065 11bc 2a7e a13d 6f7b 0ebd db80 3fbd
000003d0: e2ba 18bd f508 6bbd ac3e 6fbd 5909 98bd
000003e0: 262f 97bd 722c b23c 2a35 503d 4a4b a03d
000003f0: c55f 913d 4135 9dbb 6f77 843c 7538 4cbd
-0.037794534 0.008099188 -0.009683489 -0.08265968 -0.015184248 -0.0079806065 -0.024571802 0.07656631
-0.018182086 0.053534206 0.020638112 -0.07034659 0.019580076 0.06905331 -0.054511912 -0.053868342
0.08155933 0.0669526 -0.046489924 0.050142027 -0.01066037 -0.08215872 0.006258479 0.02692534
-0.024993282 0.028988013 -0.07125703 0.05775118 0.07104455 0.045955475 0.014124179 0.027445719
-0.06029567 -0.020822925 -0.007955742 -0.04637386 -0.06155058 0.05604921 0.056555223 -0.075681284
0.026516734 0.03390094 0.07916487 0.04821325 0.07661192 -0.027288895 0.058347944 0.06777119
-0.078702085 -0.06690958 0.016853966 0.04549402 -0.04141704 0.009162403 -0.0001155921 0.021097902
-0.044773977 0.047008835 0.055423517 -0.05781532 0.00081347657 0.00023702648 0.026764844 0.07762717
0.0244351 -0.018938156 0.07484259 -0.031716917 -0.02420606 0.0056891628 -0.06346158 0.009063632
-0.0565391 0.008573597 0.0079877 0.011521313 -0.070277184 -0.079144634 0.038320813 0.07144851
-0.07395595 0.030865045 -0.061345298 0.0052247616 0.077529795 0.0632168 -0.060927812 0.051548332
0.043525152 -0.00012758265 0.08072131 -0.033103216 -0.01939569 -0.04212072 0.011985283 0.022059532
0.006638685 -0.046890646 -0.037518572 0.028333325 -0.07308685 -0.012996645 -0.0018670622 -0.033787586
0.030301714 0.005344917 0.058470696 -0.0074328575 -0.05259466 0.05887749 0.0116374185 -0.023866255
-0.05492586 0.019532278 -0.07947914 0.021948533 0.041203868 -0.07310202 -0.054559197 -0.059912324
0.07004036 0.070840605 0.005214911 0.07823283 -0.027860297 -0.08090234 0.029111132 0.029523565
0.08169848 -2.0954014e-05 0.06386833 0.051080704 0.060314577 -0.082694985 0.06861815 -0.07103996
0.074700244 -0.0034581006 -0.073851615 0.023164041 -0.016969135 -0.07485274 -0.030222677 0.008584498
0.06490485 -0.025618048 0.049494512 0.010440266 0.0028116088 0.015945325 -0.054683615 -0.06926371
-0.026183292 -0.07764313 -0.0388454 0.0038498826 -0.054877844 -0.03455364 -0.01495992 -0.009594431
-0.045988783 0.004017353 -0.0116899535 0.02383955 0.003768437 -0.041600432 -0.028677845 -0.0009516656
-0.051987592 0.0065422575 -0.0058671557 0.032332968 0.019723471 0.06236662 -0.0027462489 -0.06157418
0.0372524 -0.056319807 -0.011452048 -0.026981013 -0.031620443 -0.030828627 0.07657841 0.04770393
0.023102032 0.0782495 -0.075517334 0.013451634 0.053351272 0.05537829 -0.06629973 0.029672826
-0.04745293 -0.0032316844 -0.017371265 -0.069556884 -0.07947183 -0.054811753 0.037817813 0.038126152
-0.07247734 -0.031293154 0.001370203 -0.07204455 0.046958018 0.075483605 0.0147416545 -0.061890684
0.019453257 0.030265853 0.06602846 -0.044316765 -0.07465072 0.036667682 0.005229212 -0.027135044
-0.03484926 -0.042824745 0.06764797 -0.01435792 0.060238395 0.07458438 0.010544213 0.017840665
-0.0055102757 0.0572455 -0.0750841 0.033152588 -0.01356776 0.038061198 -0.00035820855 -0.03085205
-0.008974466 0.04501691 -0.057837266 -0.052636225 -0.018634766 -0.030181047 0.03278341 0.056106504
-0.008874267 0.07885392 -0.034785684 -0.046753746 -0.0372876 -0.05738159 -0.058409378 -0.07423658
-0.0738204 0.021749709 0.05083195 0.0782686 0.07098345 -0.004797608 0.016170232 -0.04985853

conv_3.bias f4 [32]
00000000: 1ce1 8cbd 6872 4ebd b618 123d 8100 873d
00000010: f1f2 41bd f2ec 05bd 977a 40bd e116 e7bb
00000020: dbba 86bd 3e4f 85bd a631 d4bb ec4d ca3d
00000030: a0f1 803c 49d0 e1bc f430 6c3d c342 783d
00000040: 29e4 843d a042 e13b 1b91 04bc 023d 5d3d
00000050: 3e93 673d f468 953d e0e0 993d a8c1 88bc
00000060: a8b9 3b3d bcf7 4e3c 6cb6 b03d 961d b03d
00000070: 6dbf 9b3d 74c8 853d c036 a13d c074 20bd
-0.06878874 -0.050402075 0.035668097 0.06591893 -0.047350828 -0.03269667 -0.04699191 -0.007052288
-0.065786086 -0.06509255 -0.006475645 0.09878144 0.015740216 -0.027565138 0.057663873 0.060610544
0.064888306 0.0068743974 -0.008091236 0.05401326 0.056536905 0.07295409 0.075135946 -0.016693905
0.045831352 0.012632307 0.08628544 0.08599393 0.07604871 0.06532374 0.07871771 -0.03917384

linear_1.weight f4 [1, 25088]
00000000: 2b28 21bb 98e2 c0ba 4ac9 53bb fcf2 973b
00000010: 835c 1b3a b8b2 ceba 1841 38bb e922 b8bb
00000020: d94c f439 f95e b63b ea8f 883b eabc a43b
00000030: 63f3 8d3b 82d1 2e3b 0277 2fb9 1e89 98bb
00000040: 2eeb 983b 8595 90bb 5d7c 77bb dded 263b
00000050: ead0 633b 7a51 57bb 09f3 823b 9e9e c1bb
00000060: a02a c53a 14a5 363b e8ac 993a 48e0 68bb
00000070: 04be 8bbb d658 a53b 0063 b63a 4ab7 31bb
00000080: b437 c73b b329 acba e95b 98ba 74ee d73a
00000090: 31d3 ac3b 286e 37bb ba5a 2f38 8133 39bb
000000a0: d1d3 3abb 8368 5fba 5792 a035 3f4d 5e3b
000000b0: 7b4e 9abb d774 703b ce11 a23b 28ef 36ba
000000c0: 654f 0bba 4d87 ce3a 5557 bdbb c439 983b
000000d0: d0c2 90ba 701f 8539 e028 443b 5049 2c3b
000000e0: ab80 3fbb c8f4 97bb e893 c7bb e6bf acbb
000000f0: c1fc adba d588 a0bb 8d52 21ba cf58 59bb
00000100: 97fb 6a3b c8d3 8d3b 8260 af3b 884d 87bb
00000110: d9b8 91bb 0852 103b 4530 bbba 684a 9d3b
00000120: 5f7a bdbb 3e38 c03b 9339 8fbb b4d8 a5bb
00000130: 6de1 2dba b221 35bb 03f0 80bb bd54 6d3b
00000140: f0d6 9f3b fe7c 663b b263 4a3a 54b2 6dba
00000150: b2ce 61bb 762e c53b a645 61bb e55f b5bb
00000160: 3af8 af3b b1c0 00ba 869d 8b3b 3542 08bb
00000170: 2ab9 a13b 8d34 91bb 6a30 7a3b 1563 a13b
00000180: 71c3 c8b8 7d91 893b e519 7d39 74d9 bcbb
00000190: 0493 363b face a0bb 4d63 5939 e8bb b9bb
000001a0: 5da0 44bb d1a4 f5ba de5b 1fbb 78a8 cabb
000001b0: a7f6 4cbb d6a2 bfbb b4d4 acbb b083 cebb
000001c0: 5e74 6ebb 47bd b9ba f861 ba3b 8a04 91bb
000001d0: 1fc8 9cbb 8af5 a7bb 0c17 c23b c837 4eba
000001e0: 885e d9ba d9cb 633b 5411 74bb 0578 dcba
000001f0: 14ae bc3b d014 5c3b 4aad a0bb 2d15 e5ba
00000200: 94e5 1b3a 2b70 143b d194 3ebb 9b19 913b
00000210: a4a9 ee38 c194 b2bb dd30 df3a 3d56 c8bb
00000220: b5ce f039 b890 ccbb fdd5 ebba b74a c0ba
00000230: 32b8 b9bb 7ce6 e8ba 4a1d 7839 c328 68bb
00000240: 3245 6e3a 0e80 5b3b 6624 483a a66b cabb
00000250: da22 d3b6 3d57 42bb 8a52 ea3a 6b5c a6bb
00000260: b4be 8fbb eb32 6db9 95bd 6d3b d28b deba
00000270: d75f bbb9 c6b3 34ba 319f a3bb a0a9 01ba
00000280: 1984 21b9 38db 8b3a 4319 3a3b a472 f83a
00000290: 4caf 673b 87ca 9bba 81a1 31bb c926 b03b
000002a0: b21d a53b e6eb 623b 377f 973b acfd 4a3b
000002b0: 1d3a b73b 8295 b43b f09a a7bb 8d84 c2bb
000002c0: a745 56bb e305 9e3b ba72 ba3b a516 d239
000002d0: b64c 99bb fe96 43bb dd06 433b 9d40 c03b
000002e0: ab91 9c3a 38ba 89bb a0ef bf3b de59 b23b
000002f0: 34a0 36bb c67f 5dbb f2cb 6e3b b33c 95bb
00000300: f12a ad3b bf12 a1ba ca02 61b8 1a91 5cbb
00000310: b447 ccbb b6a9 bd3a 58bc 12bb 98e0 71bb
00000320: da5d a53b f36c 9b3a 529b dcba 960e bfbb
00000330: bd1f 6abb e8d7 07bb c7c0 2c3b 1a32 bdbb
00000340: f63d 6e3b 92db bb3b b5e2 fd3a 7a7d cdbb
00000350: 2118 563a 009a 28bb 8c89 003b 8988 a8b9
00000360: 849b 453b f856 06ba a84d 983a 1191 253b
00000370: 12ae 98bb a995 8c3a 3612 b93b cfb1 903b
00000380: 598f d439 0a91 8fba c48a 2b3b 0662 b5bb
00000390: e343 f7ba a69b b33b 1a12 503a 47fb f4b8
000003a0: e7de a3bb 1caf 86bb d3c3 5f3a 760f 9cbb
000003b0: 0532 f0ba 0b59 4cbb bdc0 fe3a b7fc 7e3a
000003c0: f273 c7bb 924e 083b 87c4 19ba f7b4 4abb
000003d0: 8225 973b ea12 89bb 8881 bcbb da19 393a
000003e0: 65c7 5fbb 72a9 27bb 768e b4bb cfc2 ccba
000003f0: e82e a53b 8552 bbbb 9386 8bbb 12c6 b2ba
-0.0024590592 -0.0014715968 -0.0032316023 0.0046371203 0.0005926566 -0.0015769815 -0.002811497 -0.005619396
0.00046596563 0.005565521 0.0041675465 0.005027403 0.0043319925 0.002667517 -0.00016733634 -0.0046550175
0.0046667075 -0.0044123554 -0.0037763335 0.0025471367 0.0034761974 -0.003285496 0.003996257 -0.005908801
0.001504261 0.002786939 0.0011724504 -0.0035534073 -0.004264595 0.0050459905 0.0013915002 -0.0027117305
0.0060796384 -0.0013134986 -0.0011624071 0.0016474263 0.0052741994 -0.0027989242 4.1807747e-05 -0.0028259458
-0.00285076 -0.00085223484 1.196352e-06 0.0033920554 -0.0047090626 0.0036690736 0.00494597 -0.0006978386
-0.000531426 0.0015756876 -0.005778233 0.004645558 -0.0011044387 0.0002539116 0.002993159 0.0026288815
-0.002922098 -0.0046373345 -0.00609063 -0.0052718995 -0.0013274179 -0.004899124 -0.00061539636 -0.0033164506
0.0035855526 0.004328225 0.005352081 -0.0041291155 -0.0044470844 0.002202155 -0.0014281353 0.0048001297
-0.00578241 0.0058660796 -0.004370877 -0.0050612334 -0.00066330173 -0.0027638492 -0.0039348616 0.0036213838
0.0048779175 0.0035169716 0.0007720544 -0.00090674055 -0.0034455475 0.0060175015 -0.003437379 -0.005535113
0.005370167 -0.0004911526 0.0042607216 -0.0020791416 0.0049354034 -0.0044313134 0.003817583 0.0049251416
-9.573147e-05 0.0041982518 0.00024137607 -0.005763227 0.0027858624 -0.004907486 0.00020731725 -0.005668152
-0.003000281 -0.0018741136 -0.0024316232 -0.006184634 -0.0031274946 -0.005848269 -0.0052743796 -0.0063023195
-0.0036385278 -0.0014170789 0.0056879483 -0.00442559 -0.0047845985 -0.005125706 0.0059231576 -0.00078665884
-0.0016583959 0.0034758954 -0.0037241774 -0.0016820437 0.0057580564 0.003358174 -0.00490347 -0.0017477624
0.00059469906 0.0022649865 -0.00290804 0.0044281012 0.000113803224 -0.0054498618 0.0017028112 -0.006113796
0.00045930376 -0.0062428378 -0.0017992851 -0.0014670704 -0.0056677097 -0.0017768885 0.00023662034 -0.0035424687
0.00090892904 0.0033493075 0.00076348183 -0.0061773835 -6.2923473e-06 -0.002965405 0.0017877382 -0.005076935
-0.0043867473 -0.0002262105 0.003627633 -0.0016978926 -0.00035738826 -0.00068932434 -0.0049933423 -0.00049462356
-0.00015403367 0.0010670191 0.0028396405 0.0018955064 0.0035352288 -0.0011885919 -0.002710432 0.0053757173
0.0050389403 0.003462547 0.0046233195 0.0030973954 0.0055916444 0.005510987 -0.0051149055 -0.0059362114
-0.0032695325 0.004822479 0.005689946 0.00040071193 -0.004678334 -0.0029844637 0.002975873 0.0058670775
0.0011945268 -0.004203107 0.005857423 0.005442842 -0.0027866485 -0.0033798083 0.003643748 -0.004554355
0.00528466 -0.0012288912 -5.3646778e-05 -0.0033655823 -0.0062341336 0.0014470133 -0.0022390094 -0.003690755
0.0050465884 0.0011858031 -0.0016830957 -0.005830596 -0.0035724484 -0.0020728055 0.0026360021 -0.005773795
0.003635285 0.005732962 0.0019369932 -0.0062710615 0.00081670476 -0.0025726557 0.0019613234 -0.00032145184
0.003015251 -0.00051246537 0.0011619823 0.0025263468 -0.0046594227 0.0010725755 0.005647923 0.0044157277
0.00040542593 -0.0010953259 0.002617524 -0.005535367 -0.0018864836 0.005481201 0.00079372677 -0.00011681631
-0.0050009373 -0.00411023 0.0008535955 -0.0047625853 -0.0018325454 -0.0031181003 0.0019436103 0.00097269885
-0.00608682 0.0020798785 -0.00058657717 -0.0030930617 0.0046126256 -0.004183163 -0.005752746 0.0007061042
-0.0034145948 -0.0025583175 -0.0055101467 -0.0015622022 0.005040992 -0.005716624 -0.004257986 -0.0013639352
