models/batch_8/ConvNet_0.pth (torch, 127512 bytes, 7 tensors)

conv_1.weight f4 [8, 1, 3, 3]
0.25486353 0.27666482 -0.078137465 0.30620342 -0.07302907 0.06723592 -0.16232468 0.19574451
0.29380322 -0.24426918 0.29000813 0.06266774 0.24654083 0.045413516 0.16100639 -0.04678891
0.25723493 0.049552638 -0.1556133 0.08496609 -0.15357888 -0.03909096 -0.13538611 0.22112367
-0.2631234 -0.15367012 -0.09412491 -0.20042427 0.03146102 -0.3292264 0.30103475 -0.28315806
0.25734144 0.055471737 -0.108236715 0.20598198 0.052534446 0.26990387 0.03705109 -0.10453994
0.09015057 -0.08977878 0.14087082 0.29819983 0.19329435 -0.14563394 0.19253995 0.059737846
0.1693464 -0.20311108 -0.32990003 -0.1287329 -0.2556281 0.27357045 0.09616236 0.13822636
0.10553111 -0.0056624934 0.26100233 -0.23674488 0.021088263 -0.22742663 0.102856256 -0.115168385
0.101755455 -0.06982592 0.276101 -0.19793001 -0.1991641 -0.19915532 0.29948393 0.11074061
00000000: 797d 823e 03a7 8d3e 8906 a0bd b2c6 9c3e
00000010: 4490 95bd fcb2 893d 7138 26be 4071 483e
00000020: 606d 963e b321 7abe f27b 943e f257 803d
00000030: 3375 7c3e 8603 3a3d dcde 243e baa5 3fbd
00000040: 4cb4 833e b5f7 4a3d 1859 1fbe b402 ae3d
00000050: c843 1dbe d81d 20bd a8a2 0abe 3e6e 623e
00000060: 1cb8 86be b35b 1dbe 90c4 c0bd 053c 4dbe
00000070: 45dd 003d 5d90 a8be 3a21 9a3e 18fa 90be
00000080: 42c2 833e 5536 633d 36ab ddbd f1ec 523e
00000090: 5c2e 573d d730 8a3e e2c2 173d 0919 d6bd
000000a0: dda0 b83d f0dd b7bd 7140 103e a6ad 983e
000000b0: f4ee 453e 1021 15be 3129 453e acaf 743d
000000c0: 2569 2d3e 5afc 4fbe a8e8 a8be 8fd2 03be
000000d0: b0e1 82be 6d11 8c3e c5f0 c43d 368b 0d3e
000000e0: b220 d83d 708c b9bb 19a2 853e 406d 72be
000000f0: 4bc1 ac3c 87e2 68be 4da6 d23d 67dd ebbd
00000100: 2a65 d03d e400 8fbd 1c5d 8d3e 2aae 4abe
00000110: adf1 4bbe 5fef 4bbe f555 993e f9cb e23d

conv_1.bias f4 [8]
0.3206889 -0.2744817 -0.33062539 -0.26078933 -0.22296771 0.13435937 0.11871308 0.27729458
00000000: 5631 a43e de88 8cbe bb47 a9be 2e86 85be
00000010: a651 64be 8195 093e d81f f33d 8ef9 8d3e

conv_2.weight f4 [16, 8, 3, 3]
-0.06086402 -0.08034197 0.062533915 -0.047630474 0.07153294 -0.02795814 0.06744057 -0.09155133
-0.059462663 0.035925914 0.024911184 -0.03005039 0.07024417 0.080115125 -0.085464194 -0.06291642
0.107912764 -0.039768293 -0.04178016 -0.11403212 -0.06748983 0.02943965 -0.015555546 -0.085546486
0.0027643964 -0.08050193 -0.099984504 -0.0648962 -0.10314472 -0.0750403 0.117805034 0.022259071
0.036317017 -0.10991789 -0.07740152 -0.039227463 0.018432297 -0.103695504 -0.05077434 -0.07054951
0.00033197398 -0.043846447 -0.008155668 -0.07985126 -0.0808857 -0.06881242 -0.040398553 -0.09307804
0.09875827 -0.023450803 0.10133747 0.036655355 -0.09985844 0.08149786 -0.03248594 -0.04523584
-0.09788346 -0.11722284 0.033660136 -0.025800912 0.04583186 -0.0967661 0.08744706 -0.08665495
-0.020500707 0.024465544 0.060709085 0.09500656 0.10721876 -0.093571536 0.029526217 -0.050825898
-0.013652063 -0.08889014 0.106782265 -0.087199055 0.062387027 0.040943693 0.03760075 -0.06428681
0.106671676 0.025637796 0.014903028 -0.10410941 0.049217656 -0.017922333 -0.054231882 0.10097345
0.026030036 -0.065438464 -0.059649043 -0.0056280643 0.065803505 -0.030114949 -0.06724289 -0.040357277
-0.088043615 0.042029537 0.09122152 -0.11094978 0.027371028 0.0608811 0.021369789 -0.04196982
0.061511368 0.0619323 0.044067774 -0.020708792 -0.03164502 0.012181078 -0.0212294 -0.0355379
0.074935384 0.10089551 -0.012082258 -0.026784059 0.0013461269 -0.0066837147 0.028663162 0.033341847
-0.106711216 -0.043172598 0.09954676 0.046228826 -0.0055445447 -0.07077275 -0.07211878 -0.10558845
-0.038398117 0.039790627 0.07516054 0.05444849 -0.10417817 -0.07084711 -0.01854869 0.11437425
0.01741759 -0.03013824 0.049102694 -0.044523377 -0.07590984 0.08635162 -0.05323462 -0.023272697
-0.117283024 0.07889096 0.089249715 0.042926293 -0.08216428 -0.1163581 -0.09570917 0.087920085
0.056560185 0.09915668 0.06172195 0.029810023 -0.0011653396 -0.089635804 -0.10098294 -0.11023889
0.048233546 -0.057871882 -0.023717843 -0.06782395 -0.021475255 -0.08294774 -0.077005774 0.03909249
-0.035024934 0.0727546 -0.037807673 -0.08645167 -0.020793764 -0.057128012 -0.0360555 -0.112193786
0.06593664 -0.08204851 0.059233822 0.053478952 0.08418229 -0.09040875 0.0847483 -0.055724293
0.04372331 0.110669106 -0.016623594 -0.0009147194 -0.027140107 -0.09840505 0.056560244 -0.117006965
0.07315695 0.08817346 0.111444466 -0.027798276 -0.09682145 0.026495105 0.06509732 -0.11728668
-0.026755124 -0.07065581 -0.010304247 -0.058017675 -0.04817453 -0.037398934 -0.11199782 0.09673299
0.09885713 -0.018459773 -0.013382766 -0.048039008 -0.10639645 -0.11464322 0.04386676 -0.06467138
-0.07576378 -0.009195119 -0.03924574 -0.03812729 0.003786698 -0.024997689 -0.040577613 -0.056427818
-0.095910475 0.09879365 -0.047187626 0.031200755 -0.04091432 0.009553803 0.109846726 0.054274093
-0.10215049 0.046751983 0.11186934 0.031004675 0.079010315 0.11618795 -0.01805821 0.024460532
-0.08191067 -0.02428642 0.08727864 0.060415834 -0.074574925 -0.094503015 -0.08053518 -0.11630466
-0.09093853 -0.02914428 0.079535015 0.01972618 -0.08963872 -0.094544485 0.058624197 -0.087662876
00000000: 8d4c 79bd 558a a4bd c811 803d 2c18 43bd
00000010: dd7f 923d 7808 e5bc 481e 8a3d 447f bbbd
00000020: 1f8f 73bd 0d27 133d 8a12 cc3c 3c2c f6bc
00000030: 2ddc 8f3d 6613 a43d da07 afbd 53da 80bd
00000040: 5e01 dd3d 14e4 22bd ac21 2bbd ac89 e9bd
00000050: 1c38 8abd 6c2b f13c b0dc 7ebc ff32 afbd
00000060: e02a 353b 32de a4bd adc4 ccbd 4de8 84bd
00000070: 8a3d d3bd bbae 99bd c443 f13d a858 b63c
00000080: 27c1 143d a11c e1bd b084 9ebd faac 20bd
00000090: 54ff 963c 4f5e d4bd c1f8 4fbd 437c 90bd
000000a0: cb0c ae39 5598 33bd 5a9f 05bc 0f89 a3bd
000000b0: 67a7 a5bd 87ed 8cbd f478 25bd b39f bebd
000000c0: c741 ca3d e61b c0bc 058a cf3d ed23 163d
000000d0: 9582 ccbd 5ae8 a63d fa0f 05bd 3749 39bd
000000e0: 2077 c8bd 8712 f0bd 36df 093d 6f5c d3bc
000000f0: 30ba 3b3d 4e2d c6bd 7217 b33d 2778 b1bd
00000100: 19f1 a7bc f76b c83c 17aa 783d cd92 c23d
00000110: 8295 db3d 6fa2 bfbd f7e0 f13c d12e 50bd
00000120: e7ac 5fbc 090c b6bd a9b0 da3d 6b95 b2bd
00000130: 8a89 7f3d 93b4 273d 3e03 1a3d cea8 83bd
00000140: ae76 da3d 5b06 d23c d42b 743c 5037 d5bd
00000150: 7498 493d dbd1 92bc 4022 5ebd 2bcb ce3d
00000160: f13c d53c 9a04 86bd 8e52 74bd a06b b8bb
00000170: fdc3 863d a0b3 f6bc a4b6 89bd ac4d 25bd
00000180: 3650 b4bd 2a27 2c3d 59d2 ba3d a339 e3bd
00000190: 3539 e03c 765e 793d b20f af3c 8ce8 2bbd
000001a0: 58f3 7b3d b9ac 7d3d 6980 343d 7ca5 a9bc
000001b0: 359e 01bd 2593 473c 47e9 adbc 3090 11bd
000001c0: b977 993d 4ea2 ce3d aaf4 45bc 3e6a dbbc
000001d0: 8670 b03a 1003 dbbb 02cf ea3c 7691 083d
000001e0: 698b dabd c0d5 30bd 2cdf cb3d 705a 3d3d
000001f0: 03af b5bb 4ef1 90bd 03b3 93bd c23e d8bd
00000200: 5847 1dbd 7ffb 223d c5ed 993d 6105 5f3d
00000210: 5d5b d5bd 4a18 91bd 6cf3 97bc 0c3d ea3d
00000220: 55af 8e3c 78e4 f6bc e81f 493d 255e 36bd
00000230: 9e76 9bbd 1ed9 b03d 8b0c 5abd 62a6 bebc
00000240: 1532 f0bd 9591 a13d 8ec8 b63d 7bd3 2f3d
00000250: bf45 a8bd 284d eebd 2b03 c4bd 720f b43d
00000260: a7ab 673d a812 cb3d 28d0 7c3d 2634 f43c
00000270: 4fbe 98ba fa92 b7bd 25d0 cebd edc4 e1bd
00000280: 8a90 453d 110b 6dbd ec4b c2bc 48e7 8abd
00000290: e0ec afbc 81e0 a9bd 34b5 9dbd 721f 203d
000002a0: 4e76 0fbd 5d00 953d 38dc 1abd 930d b1bd
000002b0: af57 aabc 10ff 69bd efae 13bd dbc5 e5bd
000002c0: ca09 873d 0d09 a8bd 2a9f 723d bf0c 5b3d
000002d0: c467 ac3d 3928 b9bd 8490 ad3d 283f 64bd
000002e0: 3717 333d 7ca6 e23d 342e 88bc c8c9 6fba
000002f0: ee54 debc 9688 c9bd b7ab 673d 59a1 efbd
00000300: 50d3 953d 4994 b43d ff3c e43d 36b9 e3bc
00000310: 534a c6bd 430c d93c be51 853d 0034 f0bd
00000320: 902d dbbc feb3 90bd 25d3 28bc f1a3 6dbd
00000330: a852 45bd a02f 19bd 1d5f e5bd f21b c63d
00000340: 9b75 ca3d f338 97bc 6443 5bbc 8dc4 44bd
00000350: 62e6 d9bd 11ca eabd a2ad 333d 6e72 84bd
00000360: 0a2a 9bbd 20a7 16bc 24c0 20bd 5c2b 1cbd
00000370: 402a 783b f4c7 ccbc b634 26bd db20 67bd
00000380: b66c c4bd 5354 ca3d d047 41bd ba98 ff3c
00000390: c695 27bd 8e87 1c3c 52f7 e03d 834e 5e3d
000003a0: 4734 d1bd 027f 3f3d c11b e53d 84fd fd3c
000003b0: 29d0 a13d f3f3 ed3d d0ee 93bc 7461 c83c
000003c0: c8c0 a7bd 50f4 c6bc 25bf b23d 9876 773d
000003d0: bdba 98bd cc8a c1bd a1ef a4bd 2331 eebd
000003e0: fb3d babd fcbf eebc 41e3 a23d cc98 a13c
000003f0: 8194 b7bd 8aa0 c1bd ed1f 703d 9888 b3bd

conv_2.bias f4 [16]
0.03162646 0.039991368 0.08982553 -0.050733738 -0.026408225 0.031481773 0.012734714 0.09805134
-0.061967522 -0.0044463095 0.02258746 -0.031240845 0.080374725 0.014387015 -0.108707 -0.01318711
00000000: bf8a 013d fdcd 233d 73f6 b73d 2ece 4fbd
00000010: 1056 d8bc 08f3 003d 43a5 503c 24cf c83d
00000020: a8d1 7dbd 59b2 91bb 5609 b93c cdec ffbc
00000030: 819b a43d 84b7 6b3c c7a1 debd c00e 58bc

conv_3.weight f4 [32, 16, 3, 3]
-0.03779621 0.008097717 -0.009684668 -0.082661115 -0.015185452 -0.0079816505 -0.024573144 0.07656497
-0.0181833 0.05353436 0.020640712 -0.070345834 0.019582141 0.06905858 -0.0545096 -0.053865116
0.08156754 0.06695714 -0.046491135 0.05014417 -0.010661019 -0.0821609 0.0062596384 0.026924295
-0.024996765 0.028988823 -0.071258575 0.05775131 0.07104451 0.045955554 0.014124235 0.02744573
-0.060295656 -0.020822797 -0.007955658 -0.04637385 -0.061551556 0.05605055 0.056553777 -0.07568221
0.02651725 0.033900235 0.0791641 0.04821277 0.07661141 -0.02728408 0.05836062 0.06777944
-0.078695975 -0.06689707 0.016863337 0.04550101 -0.04140523 0.009173782 -0.00012066011 0.021092623
-0.04477865 0.04700356 0.055417825 -0.05782092 0.00080766075 0.0002316605 0.026760083 0.07763166
0.024438322 -0.018935768 0.074844085 -0.03171183 -0.024199188 0.0056892713 -0.063459784 0.00906686
-0.05654067 0.0085673 0.007983246 0.011533378 -0.07027602 -0.0791492 0.03834143 0.07146417
-0.07394834 0.030866075 -0.061343856 0.0052241827 0.07752961 0.06321761 -0.060928397 0.05154743
0.04352591 -0.00012780979 0.080726825 -0.033098653 -0.019393433 -0.042118236 0.01199032 0.022064462
0.0066395123 -0.046887405 -0.037514996 0.028345514 -0.07307048 -0.0129801715 -0.0018460455 -0.033764783
0.03032463 0.0053710733 0.058503516 -0.007402933 -0.052594814 0.058878783 0.011637405 -0.023866381
-0.054925334 0.019532377 -0.079479255 0.021948148 0.041203614 -0.073100016 -0.054556523 -0.05991052
0.07004233 0.07084303 0.0052167596 0.07823404 -0.027858663 -0.08090185 0.029108651 0.029523125
0.0816995 -2.3068911e-05 0.06386757 0.051081568 0.06031487 -0.08269375 0.06862268 -0.07103744
0.074708275 -0.0034535197 -0.07385076 0.02317323 -0.0169625 -0.07484888 -0.030212842 0.008591649
0.064903714 -0.025619028 0.0494972 0.010436235 0.0028093664 0.015945684 -0.054688368 -0.069266215
-0.026184052 -0.077655144 -0.03886378 0.0038319682 -0.054885346 -0.034568142 -0.014976266 -0.009600918
-0.04600186 0.004002647 -0.011698442 0.023830798 0.0037617567 -0.041615613 -0.02869217 -0.00096237566
-0.051999893 0.006522442 -0.005885398 0.032331184 0.019722046 0.06236522 -0.0027473853 -0.06157565
0.037250455 -0.056319986 -0.011454465 -0.026983676 -0.031620577 -0.030831939 0.07657664 0.04770495
0.023095682 0.07824698 -0.07551789 0.013448312 0.0533489 0.055358388 -0.06632107 0.029657539
-0.047472905 -0.0032552315 -0.017389057 -0.069578886 -0.07949192 -0.05482486 0.037812125 0.038117517
-0.072483264 -0.031297658 0.0013592003 -0.072051324 0.046951994 0.075475246 0.014735198 -0.06191745
0.019431977 0.030250393 0.06598759 -0.044338603 -0.07465974 0.036614563 0.0051895855 -0.027152924
-0.03493824 -0.042984534 0.067444414 -0.014403082 0.060082197 0.0743748 0.010531974 0.017733373
-0.005686559 0.057235178 -0.075090766 0.033139687 -0.013577472 0.038051125 -0.0003710364 -0.030856071
-0.008994716 0.04500049 -0.05787592 -0.052673303 -0.018664733 -0.03022564 0.03273864 0.05608163
-0.008923079 0.0788017 -0.034816254 -0.046763428 -0.03730798 -0.057414327 -0.058411427 -0.074252404
-0.073857054 0.021749245 0.050820652 0.07823628 0.07098279 -0.0047999183 0.016170027 -0.04986038
00000000: 33d0 1abd 49ac 043c 71ac 1ebc 3b4a a9bd
00000010: 67cc 78bc 78c5 02bc 9e4d c9bc 18ce 9c3d
00000020: 25f5 94bc d846 5b3d b616 a93c 7a11 90bd
00000030: ba6a a03c 966e 8d3d 7545 5fbd aba1 5cbd
00000040: e20c a73d d320 893d 7d6d 3ebd f963 4d3d
00000050: 8eab 2ebc f943 a8bd a71d cd3b 5790 dc3c
00000060: 04c6 ccbc f879 ed3c 04f0 91bd a38c 6c3d
00000070: c97f 913d e43b 3c3d 5669 673c ded5 e03c
00000080: 94f8 76bd 9294 aabc 7358 02bc 82f2 3dbd
00000090: 7c1d 7cbd 4395 653d efa4 673d 46ff 9abd
000000a0: b43a d93c f9da 0a3d ca20 a23d c17a 453d
000000b0: 71e6 9c3d dd82 dfbc 8c0b 6f3d f2cf 8a3d
000000c0: 5b2b a1bd 5501 89bd fb24 8a3c 445f 3a3d
000000d0: 8898 29bd a14d 163c e70a fdb8 70ca ac3c
000000e0: d169 37bd ce86 403d cdfd 623d a1d5 6cbd
000000f0: 32b9 533a e4e9 7239 f637 db3c 59fd 9e3d
00000100: e032 c83c 2f1f 9bbc db47 993d 44e4 01bd
00000110: 603d c6bc 116d ba3b 34f7 81bd 2b8d 143c
00000120: 3197 67bd dc5d 0c3c 29cc 023c 7ef6 3c3c
00000130: e0ec 8fbd fa18 a2bd e70b 1d3d cf5b 923d
00000140: 3a72 97bd dada fc3c b243 7bbd 9f2f ab3b
00000150: d8c7 9e3d 3c78 813d 0e90 79bd 6623 533d
00000160: 3948 323d ae04 06b9 1b54 a53d 7492 07bd
00000170: fade 9ebc 2c84 2cbd 0c73 443c 88c0 b43c
00000180: 4490 d93b 020d 40bd 53a9 19bd da34 e83c
00000190: faa5 95bd c9aa 54bc 02f7 f1ba f14c 0abd
000001a0: 5c6b f83c d4ff af3b 62a1 6f3d 4e94 f2bb
000001b0: a96d 57bd e12a 713d d0aa 3e3c 6e83 c3bc
000001c0: 63f9 60bd 5d02 a03c 05c6 a2bd 9acc b33c
000001d0: 1fc5 283d 76b5 95bd a976 5fbd bc64 75bd
000001e0: 5a72 8f3d 2716 913d 5af1 aa3b 2b39 a03d
000001f0: da37 e4bc deaf a5bd 4475 ee3c 7bda f13c
00000200: 1152 a73d 1c84 c1b7 00cd 823d e83a 513d
00000210: ba0c 773d 575b a9bd 0c8a 8c3d 147c 91bd
00000220: a700 993d 7254 62bb 113f 97bd c9d5 bd3c
00000230: f1f4 8abc 5f4a 99bd ec80 f7bc fdc3 0c3c
00000240: 3dec 843d ffde d1bc 93bd 4a3d befc 2a3c
00000250: 591d 383b 86a0 823c e900 60bd 72db 8dbd
00000260: f07f d6bc a909 9fbd a12f 1fbd c221 7b3b
00000270: 75cf 60bd 5397 0dbd 035f 75bc 2b4d 1dbc
00000280: 726c 3cbd a328 833b d2aa 3fbc ce38 c33c
00000290: ce87 763b 2275 2abd d70b ebbc f047 7cba
000002a0: d7fd 54bd 36ba d53b 4cda c0bb b46d 043d
000002b0: 2190 a13c ac72 7f3d 7a0d 34bb c036 7cbd
000002c0: ef93 183d c9af 66bd 82ab 3bbc df0c ddbc
000002d0: 9484 01bd 4393 fcbc 37d4 9c3d 4466 433d
000002e0: 2833 bd3c f43f a03d 20a9 9abd 4f56 5c3c
000002f0: 6084 5a3d 7abf 623d 57d3 87bd 5ef4 f23c
00000300: f372 42bd b955 55bb 7f73 8ebc 607f 8ebd
00000310: a9cc a2bd 0890 60bd e3e0 1a3d 1d21 1c3d
00000320: 1b72 94bd f931 00bd 3227 b23a a58f 93bd
00000330: bc50 403d c492 9a3d e66b 713c 279d 7dbd
00000340: cf2f 9f3c accf f73c 8024 873d 659c 35bd
00000350: 35e7 98bd 27f9 153d 660d aa3b cf6f debc
00000360: 661b 0fbd 8d10 30bd 4c20 8a3d e8fa 6bbc
00000370: c018 763d d151 983d 4d8e 2c3c 9445 913c
00000380: 5056 babb 6f6f 6a3d 30c9 99bd 7bbd 073d
00000390: 0c74 5ebc 7fdb 1b3d aa87 c2b9 dfc5 fcbc
000003a0: 935e 13bc 6f52 383d 4d0f 6dbd f6bf 57bd
000003b0: c8e6 98bc c39b f7bc f418 063d dab5 653d
000003c0: 1b32 12bc c962 a13d 7d9b 0ebd 028b 3fbd
000003d0: 41d0 18bd 492b 6bbd d240 6fbd a511 98bd
000003e0: 5e42 97bd 792b b23c 5129 503d 583a a03d
000003f0: 6d5f 913d a248 9dbb 0177 843c 663a 4cbd

conv_3.bias f4 [32]
-0.06874666 -0.050772876 0.028358046 0.06510193 -0.04932356 -0.033498544 -0.046823896 -0.007274554
-0.068761975 -0.065704726 -0.018298972 0.083574854 0.013966953 -0.033952598 0.056562483 0.061672013
0.060236793 0.00133504 -0.0072147544 0.05468136 0.04489593 0.06528585 0.062326927 -0.023378331
0.07008327 0.015964761 0.08463702 0.08435888 0.07209716 0.05846709 0.06691257 -0.039430976
00000000: 0dcb 8cbd 38f7 4fbd 224f e83c 2954 853d
00000010: 8007 4abd c535 09bd 6aca 3fbd 625f eebb
00000020: 14d3 8cbd 3390 86bd bae7 95bc 4b29 ab3d
00000030: a6d5 643c e111 0bbd 10ae 673d cb9b 7c3d
00000040: dbba 763d 82fc ae3a bf69 ecbb 90f9 5f3d
00000050: cbe4 373d 96b4 853d 854a 7f3d ea83 bfbc
00000060: d187 8f3d 88c8 823c 2d56 ad3d 59c4 ac3d
00000070: ada7 933d 307b 6f3d 7509 893d 6082 21bd

linear_1.weight f4 [1, 25088]
-0.0024578068 -0.0014713556 -0.0032314071 0.004638367 0.0005902235 -0.0015960424 -0.0028263587 -0.005617637
0.00045623913 0.0055538844 0.004155116 0.0050078575 0.0043166643 0.0026594943 -0.00017894429 -0.0046665496
0.0046466673 -0.0044376487 -0.0037904882 0.0025371597 0.0034705629 -0.0032829738 0.0039958777 -0.00590856
0.0015045023 0.0027871802 0.0011726916 -0.003552624 -0.0042638276 0.0050459905 0.0013908898 -0.0027123003
0.006081065 -0.0013164008 -0.0011662297 0.0016272222 0.005257561 -0.00280924 3.2781456e-05 -0.0028339243
-0.0028592702 -0.0008598157 -5.647105e-06 0.0033862023 -0.004714872 0.0036642004 0.004933943 -0.00071568566
-0.0005615949 0.0015604023 -0.005780091 0.004645558 -0.0011044387 0.0002539116 0.002993159 0.0026288815
-0.0029213307 -0.0046373345 -0.00609063 -0.005271918 -0.0013272036 -0.004901281 -0.00063548767 -0.003334385
0.003577761 0.004318928 0.0053417245 -0.0041394928 -0.004454926 0.0021906756 -0.0014416677 0.0047883103
-0.005791415 0.005855051 -0.004378772 -0.0050623277 -0.00066948915 -0.0027921605 -0.003976047 0.0036044018
0.004876023 0.0035150712 0.0007706252 -0.00090851216 -0.0034447804 0.0060175015 -0.003438653 -0.0055354917
0.005356475 -0.0005080179 0.0042433604 -0.0020954295 0.004917499 -0.0044520013 0.0037994885 0.0049136686
-8.895791e-05 0.0041871457 0.00022387678 -0.0057812696 0.0027652327 -0.004908481 0.00019857142 -0.0056791133
-0.0030059472 -0.001881172 -0.0024497758 -0.006216152 -0.0031358053 -0.0058498858 -0.0052780234 -0.0062987944
-0.0036370421 -0.0014147433 0.0056876363 -0.00444118 -0.004800357 -0.0051395455 0.0059064766 -0.0008073966
-0.0016792503 0.003461618 -0.0037304112 -0.001670627 0.0057835737 0.0033609513 -0.0048997044 -0.001736449
0.0006188679 0.0022803457 -0.002905831 0.004421248 9.915478e-05 -0.0054587554 0.0016917484 -0.0061269533
0.00044124646 -0.006244185 -0.0018011074 -0.0014672801 -0.005671243 -0.001785318 0.00021263027 -0.00355636
0.0008961215 0.003334087 0.00074511813 -0.0061960015 -1.9188532e-05 -0.0029611413 0.0017969803 -0.0050694407
-0.004373106 -0.00021558814 0.0036367401 -0.0016903931 -0.00033669177 -0.0006300485 -0.0049414127 -0.0005002287
-0.00017655751 0.0010450226 0.002825829 0.0018804093 0.0035225572 -0.0012025791 -0.002727976 0.0053622434
0.005035021 0.0034445971 0.0046000797 0.0030924154 0.0055809272 0.005492166 -0.0051330226 -0.0059483675
-0.0032768073 0.004823984 0.005697861 0.0004081834 -0.004672431 -0.0029725158 0.0029953497 0.005876432
0.0012185534 -0.0041589346 0.0059846914 0.0055405237 -0.0027698705 -0.0034105997 0.0036295522 -0.0045623053
0.005269958 -0.0012728891 -8.640654e-05 -0.0033710205 -0.0062417723 0.0014286338 -0.002249031 -0.0037012275
0.005032529 0.0011709186 -0.0016932552 -0.005824448 -0.0035575787 -0.0020635931 0.002652764 -0.0057552806
0.003645921 0.005741971 0.0019506181 -0.0062704193 0.000821638 -0.0025523712 0.0019911577 -0.00024102702
0.0030884305 -0.0005133545 0.0011389648 0.002515405 -0.004677549 0.0010527907 0.005627386 0.004410122
0.00039218788 -0.0011102278 0.0026121687 -0.0055499733 -0.0019011358 0.005476343 0.0008116906 -8.413745e-05
-0.00497264 -0.0040937266 0.0008728888 -0.0047453376 -0.0018241275 -0.0031097692 0.0019470247 0.0009644201
-0.006097335 0.0020802543 -0.00057285035 -0.003063065 0.004649234 -0.004155633 -0.005759574 0.0006889378
-0.0034261935 -0.0025636496 -0.0055216146 -0.0015672754 0.005016969 -0.005728165 -0.004267597 -0.0013806459
00000000: 2813 21bb 80da c0ba 04c6 53bb 71fd 973b
00000010: 3bb9 1a3a 4c32 d1ba 6e3a 39bb 2814 b8bb
00000020: 6133 ef39 5cfd b53b a427 883b f418 a43b
00000030: ce72 8d3b e94a 2e3b fea2 3bb9 dbe9 98bb
00000040: 1243 983b b269 91bb d769 78bb 7a46 263b
00000050: 6272 633b 2927 57bb daef 823b 989c c1bb
00000060: b832 c53a 20a9 363b 00b5 993a 24d3 68bb
00000070: 94b7 8bbb d658 a53b 844e b63a d9c0 31bb
00000080: ac43 c73b 158b acba 2ddc 98ba 8448 d53a
00000090: 9e47 ac3b 3a1b 38bb d27e 0938 5cb9 39bb
000000a0: 9862 3bbb 4165 61ba 437c bdb6 0ceb 5d3b
000000b0: 377f 9abb 1523 703b eaac a13b da9c 3bba
000000c0: ff37 13ba 6a86 cc3a eb66 bdbb c439 983b
000000d0: d0c2 90ba 701f 8539 e028 443b 5049 2c3b
000000e0: cc73 3fbb c8f4 97bb e893 c7bb 0ec0 acbb
000000f0: 90f5 adba ed9a a0bb db96 26ba b385 5abb
00000100: de78 6a3b cb85 8d3b a209 af3b 95a4 87bb
00000110: a1fa 91bb 7091 0f3b 57f6 bcba 42e7 9c3b
00000120: e9c5 bdbb badb bf3b cd7b 8fbb e2e1 a5bb
00000130: a880 2fba aefc 36bb 8049 82bb d437 6c3b
00000140: 0cc7 9f3b 1c5d 663b c803 4a3a 3829 6eba
00000150: d3c1 61bb 762e c53b 065b 61bb 1263 b5bb
00000160: 5e85 af3b 812c 05ba e30b 8b3b 7953 09bb
00000170: f922 a13b 18e2 91bb d700 793b d702 a13b
00000180: ea8e bab8 5334 893b 77c0 6a39 ce70 bdbb
00000190: e838 353b 53d7 a0bb 9c37 5039 db17 babb
000001a0: 6dff 44bb a891 f6ba 6b8c 20bb ddb0 cbbb
000001b0: 1582 4dbb 66b0 bfbb 45f3 acbb 1e66 cebb
000001c0: 715b 6ebb e86e b9ba 5a5f ba3b 5187 91bb
000001d0: 504c 9dbb a269 a8bb 1e8b c13b 78a7 53ba
000001e0: 4a1a dcba 50dc 623b ea79 74bb f1f8 daba
000001f0: 2284 bd3b 6843 5c3b b38d a0bb 8f99 e3ba
00000200: 863b 223a da71 153b c16f 3ebb 1ee0 903b
00000210: 51f1 cf38 5cdf b2bb a8bd dd3a 9cc4 c8bb
00000220: 1957 e739 059c ccbb 2313 ecba c051 c0ba
00000230: d6d5 b9bb 5501 eaba 81f5 5e39 d211 69bb
00000240: b2e9 6a3a b380 5a3b 0854 433a d407 cbbb
00000250: 0ff7 a0b7 b50f 42bb a788 eb3a 8d1d a6bb
00000260: 464c 8fbb 800f 62b9 6056 6e3b 2e90 ddba
00000270: 0186 b0b9 d729 25ba 93eb a1bb c821 03ba
00000280: 4c22 39b9 24f9 883a 8b31 393b 1178 f63a
00000290: b4da 663b dc9f 9dba d8c7 32bb c2b5 af3b
000002a0: d1fc a43b c0be 613b 44bc 963b 1faa 4a3b
000002b0: 36e0 b63b a1f7 b33b ea32 a8bb 86ea c2bb
000002c0: b4bf 56bb 8312 9e3b 1fb5 ba3b 7301 d639
000002d0: 311b 99bb 8ace 42bb a14d 443b 168f c03b
000002e0: deb7 9f3a ac47 88bb 3b1b c43b 488d b53b
000002f0: b786 35bb 5e84 5fbb c8dd 6d3b 647f 95bb
00000300: 9daf ac3b 12d7 a6ba 2835 b5b8 57ec 5cbb
00000310: c887 ccbb ff40 bb3a 7b64 13bb 4b90 72bb
00000320: eae7 a43b 8279 993a 37f0 ddba 03db bebb
00000330: 4426 69bb 593d 07bb ffd9 2d3b cb96 bcbb
00000340: 67f0 6e3b 2527 bc3b e2ab ff3a 1778 cdbb
00000350: 3163 573a af45 27bb 157e 023b 33bc 7cb9
00000360: 4467 4a3b a392 06ba 5149 953a 7ed9 243b
00000370: 2046 99bb cbfd 893a ef65 b83b c982 903b
00000380: 919e cd39 1085 91ba eb30 2b3b 8ddc b5bb
00000390: 882f f9ba e572 b33b a2c7 543a f372 b0b8
000003a0: 87f1 a2bb ab24 86bb 93d2 643a c77e 9bbb
000003b0: 9017 efba 45cd 4bbb 4f33 ff3a 23d1 7c3a
000003c0: 27cc c7bb e054 083b 562b 16ba b4bd 48bb
000003d0: 9a58 983b fa2b 88bb cfba bcbb d599 343a
000003e0: fd89 60bb e702 28bb a9ee b4bb 096d cdba
000003f0: 6365 a43b 55b3 bbbb 33d7 8bbb caf6 b4ba
