models/BEST/ConvNet_65.pth (torch, 127524 bytes, 7 tensors)

conv_1.weight f4 [8, 1, 3, 3]
0	0x3dddd2e1	0.108312376
1	0x3ee36fc6	0.44421214
2	0x3ebcd8b3	0.36884078
3	0x3f3a3f07	0.7275242
4	0x3f7f5530	0.9973936
5	0x3f42f2ee	0.7615193
6	0x3edf13e6	0.4356987
7	0x3ece0fda	0.4024647
8	0x3f667b30	0.9003172
9	0xbf37a007	-0.7172856
10	0xbe58191c	-0.21103328
11	0x3e892f98	0.26794124
12	0xbe12ff1a	-0.14355126
13	0x3e6395fd	0.22225185
14	0x3ea108fc	0.31452167
15	0x3e0e6002	0.13903812
16	0x3e99f111	0.30066732
17	0x3e9f98df	0.3117132
18	0xbe1f5918	-0.1556133
19	0x3dae02b4	0.08496609
20	0xbe1d43c8	-0.15357888
21	0xbd201dd8	-0.03909096
22	0xbe0aa2a8	-0.13538611
23	0x3e626e3e	0.22112367
24	0xbe86b81c	-0.2631234
25	0xbe1d5bb3	-0.15367012
26	0xbdc0c490	-0.09412491
27	0xbe54eaa6	-0.20792636
28	0x3cbc8695	0.023013392
29	0xbea9a157	-0.33130905
30	0x3e966a9b	0.2937821
31	0xbe8b1b69	-0.2716935
32	0x3e8368cd	0.25665894
33	0x3d776928	0.06040302
34	0xbdb5636d	-0.088568546
35	0x3e56acb1	0.20964314
36	0x3d14f8a2	0.036369927
37	0x3e1242e7	0.14283334
38	0x3ef9d0ce	0.48792118
39	0x3ec57995	0.38569322
40	0x3f72a907	0.94789165
41	0x3f25dbc8	0.64788485
42	0x3f337490	0.70099735
43	0x3f21abe5	0.63152915
44	0x3f73f4b5	0.9529527
45	0xbf895d15	-1.0731531
46	0xbeec1742	-0.46111494
47	0xbf34e6ea	-0.70664847
48	0xbf1813f8	-0.5940547
49	0xbf464743	-0.77452487
50	0xbf88bffb	-1.0683588
51	0xbf7c633b	-0.98588914
52	0xbf851efd	-1.0400082
53	0xbef4694b	-0.47736582
54	0xbf3f2466	-0.74664915
55	0xbf23b218	-0.63943624
56	0xbf526f1a	-0.8220078
57	0xbf2c638e	-0.6733941
58	0xbe86599b	-0.2624024
59	0xbf49f3ef	-0.7888784
60	0xbf561833	-0.83630675
61	0xbf4c598e	-0.7982415
62	0xbf39627c	-0.724159
63	0xbf8455f4	-1.0338731
64	0xbef7c409	-0.4839175
65	0xbf5bd649	-0.8587385
66	0xbe46df41	-0.19421102
67	0xbeeae014	-0.45874083
68	0xbf66d76a	-0.90172446
69	0xbf64ba6d	-0.89346963
70	0xbe0a73a5	-0.13520677
71	0xbf23a1a7	-0.63918537

conv_1.bias f4 [8]
0	0xbf470197	-0.777368
1	0xbfda2223	-1.7041668
2	0xbea947bb	-0.33062539
3	0xbe904da9	-0.2818425
4	0xbf387cfb	-0.72065705
5	0x3f1313d6	0.5745214
6	0x3f3956b8	0.7239795
7	0x3efdd2eb	0.4957498

conv_2.weight f4 [16, 8, 3, 3]
0	0x3e31e252	0.1737149
1	0xbe67bd42	-0.2263079
2	0x3d15914d	0.036515523
3	0xbf6071c0	-0.8767357
4	0xbe952dab	-0.29136404
5	0xbe9d5f38	-0.3073671
6	0x3f04df92	0.5190364
7	0xbe3461e3	-0.17615466
8	0xbebb3012	-0.36560112
9	0x3d68b984	0.056817546
10	0xbe64e4c6	-0.22352895
11	0xbd977f4b	-0.07397326
12	0xbf090564	-0.5352385
13	0xbef972a3	-0.48720273
14	0xbf0d32ac	-0.55155444
15	0x3e9a2bfe	0.30111688
16	0x3d6de23f	0.058077093
17	0xbea62167	-0.3244736
18	0xbd2b21ac	-0.04178016
19	0xbde989ac	-0.11403212
20	0xbd8a381c	-0.06748983
21	0x3cf12b6c	0.02943965
22	0xbc7edcb0	-0.015555546
23	0xbdaf32ff	-0.085546486
24	0x3b352ae0	0.0027643964
25	0xbda4de32	-0.08050193
26	0xbdccc4ad	-0.099984504
27	0xbd73750b	-0.059437793
28	0xbdc51a70	-0.09624183
29	0xbd93a496	-0.07209127
30	0x3ded02e5	0.11572818
31	0x3c66ef70	0.014095172
32	0x3d0092c3	0.031389963
33	0xbdee579d	-0.11637805
34	0xbdae04ba	-0.08496995
35	0xbd4c7351	-0.04991466
36	0x3ce120bc	0.02748143
37	0xbe9e4468	-0.30911565
38	0xbd4861c0	-0.048921347
39	0xbf4aa2fe	-0.79154956
40	0xbebe9593	-0.3722349
41	0xbeda6fd9	-0.42663458
42	0x3f176a9a	0.59147036
43	0xbe2b02a4	-0.16700226
44	0xbef2cefc	-0.47423542
45	0xbe4c4c93	-0.19951086
46	0x3b66cc3f	0.0035216955
47	0xbe86fb53	-0.2636362
48	0x3e9ae0d0	0.30249643
49	0x3e8afa57	0.2714412
50	0x3ec9a096	0.3938033
51	0xbd936fd5	-0.07199065
52	0xbe68244c	-0.22670096
53	0x3e51cc1f	0.20488022
54	0xbdd1cba9	-0.10243923
55	0x3d0f1a56	0.034937225
56	0xbecd3eef	-0.40087077
57	0x3e808065	0.25097957
58	0x3eafd8fa	0.34345227
59	0x3e20a6f5	0.15688689
60	0x3d17568d	0.036947776
61	0xbdb80356	-0.08985011
62	0x3e4fb3ce	0.20283434
63	0xbec19d63	-0.3781539
64	0x3de7e84b	0.11323603
65	0xbdaab418	-0.083351314
66	0x3e42fcf9	0.19041814
67	0x3eb69e42	0.35667616
68	0x3e9886ec	0.29790437
69	0xbe7e23b6	-0.2481831
70	0x3d1579a6	0.036492966
71	0x3cf535c3	0.029932862
72	0xbd95605c	-0.0729377
73	0xbe674be9	-0.22587551
74	0xbe0a28de	-0.13492152
75	0xbe1709e9	-0.14749874
76	0xbc617de1	-0.013762922
77	0xbd8894db	-0.06669017
78	0xbc6698cb	-0.014074515
79	0x3d011577	0.03151461
80	0x3e3d3620	0.18477678
81	0xbd6f08eb	-0.058358114
82	0xbd7dd7fd	-0.06197356
83	0xbe26261b	-0.16225474
84	0xbd57d2a5	-0.05269112
85	0xbda75135	-0.08169786
86	0xbdcbf9c3	-0.09959748
87	0x3cb2807a	0.021789778
88	0x3c70022a	0.014648953
89	0xbdac559f	-0.084147684
90	0xbd74528e	-0.059649043
91	0xbbb86ba0	-0.0056280643
92	0x3d86c3fd	0.065803505
93	0xbcf6b3a0	-0.030114949
94	0xbd89b6a4	-0.06724289
95	0xbd254dac	-0.040357277
96	0xbdb45036	-0.088043615
97	0x3d2c272a	0.042029537
98	0x3dbad259	0.09122152
99	0xbde2e133	-0.110781096
100	0x3cdaa003	0.026687628
101	0x3d78683e	0.060646288
102	0x3c9de419	0.019273805
103	0xbd30200c	-0.042999312
104	0x3d7a57e4	0.061118975
105	0x3d7debe1	0.06199253
106	0x3d3362c2	0.043795355
107	0xbcb3da83	-0.02195478
108	0xbd9391f6	-0.07205574
109	0xbd3132aa	-0.043261208
110	0xbe0229fb	-0.12711327
111	0xbdd43656	-0.10361926
112	0x3cfe8c66	0.031072807
113	0x3d762f21	0.06010354
114	0xbe27241d	-0.1632237
115	0xbdc6a4cd	-0.09699402
116	0xbda7e4f7	-0.081979685
117	0x3e39ccd2	0.18144539
118	0x3e6df72b	0.23238818
119	0x3e12d079	0.14337339
120	0xbd1868e9	-0.037209425
121	0x3cdb0665	0.026736448
122	0x3de406d9	0.111341186
123	0x3d8ffe7b	0.0703096
124	0xbd09548c	-0.033527896
125	0xbdfce63b	-0.123486005
126	0xbc463564	-0.01209769
127	0xbd9c04cf	-0.07618105
128	0xbd9944f6	-0.074838564
129	0x3d335873	0.043785524
130	0x3d371be5	0.044704337
131	0xbb90221e	-0.0043985983
132	0xbe241b2d	-0.16025992
133	0xbe16ff43	-0.14745812
134	0xbdb59ffa	-0.08868404
135	0x3e9e3570	0.30900145
136	0x3e4952cd	0.19660492
137	0x3b93847c	0.0045018774
138	0x3e02e561	0.12782814
139	0xbd610078	-0.054932088
140	0xbe6760d4	-0.22595531
141	0x3d8ea238	0.069645345
142	0xbe248ffc	-0.1607055
143	0xbe350148	-0.1767627
144	0xbe6d939b	-0.23200838
145	0xbe7bfd9d	-0.24608465
146	0x3efb14eb	0.49039397
147	0xbe4aa7e9	-0.19790615
148	0xbe40c6ae	-0.1882579
149	0xbecc4849	-0.398989
150	0xbeb1c038	-0.34716964
151	0xbe0e3f8f	-0.13891433
152	0xbe0f9e06	-0.14025125
153	0xbe30060a	-0.17189804
154	0xbe9fc289	-0.31203106
155	0x3e827277	0.25477955
156	0xbe19d446	-0.15022382
157	0xbe6d17fe	-0.23153684
158	0xbe77d686	-0.24202928
159	0xbe0a53bb	-0.13508503
160	0xbcd34111	-0.025787862
161	0xbefa8f73	-0.48937568
162	0xbcc24bec	-0.023717843
163	0xbd8ae748	-0.06782395
164	0xbcafece0	-0.021475255
165	0xbda9e081	-0.08294774
166	0xbd9db534	-0.077005774
167	0x3d201f72	0.03909249
168	0xbd0f764e	-0.035024934
169	0x3d95005d	0.0727546
170	0xbd1adc38	-0.037807673
171	0xbdb0e63d	-0.086376645
172	0xbc9feef3	-0.01952312
173	0xbd68be9a	-0.056822397
174	0xbd05950c	-0.032612845
175	0xbdd93eea	-0.10607703
176	0x3d89f692	0.06736483
177	0xbdadafa0	-0.084807634
178	0x3d53d85c	0.05172001
179	0x3d474350	0.04864818
180	0xbe4f61be	-0.2025213
181	0xbf028936	-0.5099062
182	0x3eab4ea6	0.33458441
183	0xbe9e78c7	-0.3095152
184	0xbe118c7f	-0.14213751
185	0x3c9ddf8b	0.019271633
186	0xbe661081	-0.22467233
187	0xbe85570b	-0.2604297
188	0xbe80028b	-0.2500194
189	0x3e7a9c2e	0.2447364
190	0x3ed636ad	0.4183859
191	0xbee3d5ea	-0.4449914
192	0x3c043c78	0.0080710575
193	0x3d5130ee	0.051072054
194	0xbc8bf76b	-0.017085752
195	0xbec6fa85	-0.38863006
196	0xbe94c451	-0.29056028
197	0xbd5f7761	-0.054557208
198	0x3e95407a	0.29150754
199	0x3e0f81c8	0.14014351
200	0xbe394dc2	-0.18096069
201	0xbba60fcf	-0.0050678025
202	0x3db555b3	0.088542365
203	0xbd928827	-0.07154875
204	0xbe9cd690	-0.30632448
205	0xbe1783da	-0.14796391
206	0xbe7a33d1	-0.24433829
207	0x3f07c23a	0.5303074
208	0x3f04a7cd	0.51818544
209	0xbe981ed5	-0.29711023
210	0x3e55fcaf	0.20897172
211	0x3e05357b	0.13008682
212	0xbe71469a	-0.23562089
213	0xbeb9053b	-0.36136803
214	0x3d20ac3c	0.039226755
215	0xbd84ffe4	-0.0649412
216	0xbe66aa89	-0.22525991
217	0xbe1c16fb	-0.15243141
218	0x3e4dc429	0.2009436
219	0xbe8c5290	-0.2740674
220	0xbe1c9188	-0.15289891
221	0xbed1556b	-0.4088548
222	0x380d475b	3.3683475e-05
223	0xbe622c7d	-0.22087283
224	0xbe22ac53	-0.15886049
225	0xbd8c8d82	-0.06862928
226	0xbeb3f33d	-0.35146514
227	0x3e05c2e7	0.1306263
228	0xbe158c5e	-0.14604327
229	0xbe39358c	-0.18086833
230	0xbda9c16e	-0.08288847
231	0x3e8a6ec9	0.27037647
232	0xbe925ee8	-0.28588033
233	0xbe82709b	-0.25476536
234	0x3de51bc1	0.11186934
235	0x3cfdfd84	0.031004675
236	0x3da1d029	0.079010315
237	0x3dedf3f3	0.11618795
238	0xbc93eed0	-0.01805821
239	0x3cc86174	0.024460532
240	0xbda7c0c8	-0.08191067
241	0xbcc6f450	-0.02428642
242	0x3db2bf25	0.08727864
243	0x3d874a7e	0.06606005
244	0xbd8bed7c	-0.06832406
245	0xbdb4c679	-0.08826918
246	0xbda23aca	-0.079213694
247	0xbdec9bfb	-0.115531884
248	0xbdbb959c	-0.09159395
249	0xbcefe235	-0.029282669
250	0x3da13a7e	0.078724846
251	0x3c8e15b4	0.017344333
252	0xbe6fef3e	-0.23431107
253	0xbec585c8	-0.3857863
254	0x3e9887ba	0.2979105
255	0xbe8fe493	-0.28104076

conv_2.bias f4 [16]
0	0xbd84c921	-0.06483675
1	0x3dd83fa5	0.10559014
2	0x3da458aa	0.08024724
3	0x3e815b07	0.2526476
4	0xbe3a6d1b	-0.18205683
5	0xbdcee219	-0.101017185
6	0xbde85908	-0.11345106
7	0x3e1a8875	0.15091117
8	0xbed23290	-0.410542
9	0x3e687640	0.22701359
10	0x3ddb70dd	0.10714886
11	0xbe249c30	-0.16075206
12	0x3ebfa4a7	0.37430307
13	0xbdd0691d	-0.10176299
14	0xbea4deb3	-0.32201156
15	0xbd6b24b8	-0.057408065

conv_3.weight f4 [32, 16, 3, 3]
0	0x3e8850e7	0.26624224
1	0x3ea78423	0.32718
2	0xbdf4b9b2	-0.11949481
3	0xbe63fcf0	-0.22264457
4	0x3d20796e	0.039178304
5	0x3dfc87c7	0.12330585
6	0xbd78832f	-0.06067198
7	0xbde96890	-0.11396897
8	0x3d02d9b6	0.031945907
9	0x3d42ede3	0.047590148
10	0x3c8764ad	0.016527498
11	0xbd67e401	-0.056613926
12	0x3c741eb3	0.014899897
13	0x3dae19d2	0.085010186
14	0xbcc3d1c7	-0.02390374
15	0xbd586c5b	-0.05283771
16	0x3db25e1a	0.08709355
17	0x3d932a64	0.0718582
18	0xbda82959	-0.082110114
19	0x3be0ce43	0.006860526
20	0xbce8d5ec	-0.028422318
21	0xbe1cacf4	-0.15300351
22	0xbd8947f1	-0.06703175
23	0xbc8b6d40	-0.017019868
24	0x3dc2a594	0.09504238
25	0xbd0bfce6	-0.03417673
26	0xbe094b52	-0.13407639
27	0x3d3e1164	0.046403304
28	0x3dbb0b43	0.091330074
29	0xbd5fc07e	-0.054626934
30	0x3c049530	0.00809221
31	0xbd713b9c	-0.05889474
32	0xbdeef2a2	-0.11667372
33	0x3d4bec3d	0.04978584
34	0xbdc5e133	-0.09662094
35	0xbdcf8f4e	-0.10134755
36	0xbe55c658	-0.20876443
37	0x3ebcb8ea	0.36859828
38	0x3ed2496a	0.41071635
39	0xbeb56e91	-0.35435918
40	0x3e9997fa	0.2999876
41	0xbce46d6c	-0.027884208
42	0xbe0a8360	-0.13526678
43	0x3c81191c	0.015759043
44	0x3d104a65	0.0352272
45	0xbea46a18	-0.32112193
46	0x3e899d2f	0.26877734
47	0x3e87375c	0.26409423
48	0xbea4f42a	-0.32217532
49	0x3db16c76	0.086632654
50	0xbddc00e3	-0.10742357
51	0xbc8a2d2a	-0.016867239
52	0xbe0b7968	-0.13620532
53	0xbe2dc1cb	-0.16968457
54	0x3e3069e1	0.1722789
55	0x3d239f62	0.03994692
56	0xbe0f57b2	-0.13998297
57	0xbd0dcb1a	-0.03461752
58	0x3d6dfed3	0.058104347
59	0xbdcd3a9b	-0.10020944
60	0xbe551447	-0.20808516
61	0xbe4ffbe9	-0.2031094
62	0x3e19b609	0.15010847
63	0xbcae9f31	-0.021316143
64	0x3db9f6bf	0.09080266
65	0x3ced27ae	0.028949585
66	0xbbf14795	-0.0073632696
67	0xbc63a8e8	-0.013895251
68	0xbdabdc58	-0.083916366
69	0x3c002f34	0.007823754
70	0xbdf77326	-0.1208251
71	0xbd364ef8	-0.044508904
72	0xbe1c8b32	-0.15287474
73	0xbdbe9c00	-0.093070984
74	0x3e3aef47	0.1825534
75	0xbd68b274	-0.05681081
76	0x3dfb5f92	0.12274088
77	0xbdd30afc	-0.103048295
78	0x3c95830d	0.018250966
79	0x3e93b975	0.2885243
80	0xbdf0e4d9	-0.11762399
81	0xbc6447be	-0.01393312
82	0xbe01fe89	-0.12694754
83	0x3c8a724f	0.01690021
84	0xbd5bf58a	-0.05370096
85	0x3d16bbbb	0.036800127
86	0xbdaa154c	-0.08304843
87	0x3e6c2b9a	0.23063508
88	0x3cb74d98	0.022375867
89	0xbc9a38f3	-0.018825984
90	0xba531153	-0.0008051593
91	0x3e1dd71e	0.15414092
92	0x3d8b9217	0.06814974
93	0xbd5ed8b0	-0.054405868
94	0x3cc22ac1	0.023702027
95	0xbdc60f87	-0.0967093
96	0x3c870057	0.016479654
97	0xbe86480d	-0.26226845
98	0xbdfce61b	-0.12348577
99	0x3ccd4055	0.02505509
100	0xbd9b214c	-0.0757471
101	0xbc7b1111	-0.015323893
102	0xbb796556	-0.0038054786
103	0xbd14ae91	-0.036299292
104	0x3ce52128	0.027969912
105	0x3b0b2a7b	0.0021235037
106	0x3d6517e7	0.055931
107	0xbc1779fb	-0.009245391
108	0x3c06b059	0.0082207555
109	0x3e309b58	0.17246759
110	0x3d865b17	0.06560343
111	0x3ce40e10	0.027838737
112	0xbdca68fa	-0.09883304
113	0x3cc41bfe	0.023939129
114	0xbdc6b628	-0.09702712
115	0xbd8686fd	-0.06568716
116	0x3dcae5f7	0.099071436
117	0xbe842dfb	-0.2581633
118	0x3e2febd3	0.17179804
119	0xbcf2b26f	-0.0296261
120	0xbe07d77c	-0.13265795
121	0x3e1b5fac	0.15173215
122	0xbc489555	-0.012242635
123	0xbcc58ee4	-0.024115987
124	0xbe25d0a7	-0.16192876
125	0xbe0ae423	-0.1356359
126	0xbc2f2772	-0.010690557
127	0xbc20a604	-0.009805206
128	0x3d3da96c	0.04630415
129	0xbd2e5844	-0.042564645
130	0x3c9e66c7	0.019336117
131	0x3c2316e8	0.009954192
132	0x3cbaadd6	0.02278797
133	0xbdf60ac6	-0.120137736
134	0x3cff5a2f	0.031170933
135	0xbe10bdac	-0.14134854
136	0x3e38c234	0.18042833
137	0xba6df7c0	-0.000907775
138	0xbdaa8d12	-0.08327688
139	0x3b6c8e14	0.0036095427
140	0xbde4edeb	-0.11178192
141	0xbd925777	-0.07145589
142	0xbdc51e33	-0.09624901
143	0xbd6eec74	-0.058330968
144	0xbe21886d	-0.15774699
145	0xbdb530e5	-0.088472165
146	0x3c322cf0	0.010874972
147	0x3ccf70ae	0.025322285
148	0x3d8fb9c3	0.07017853
149	0xbe45d9a6	-0.19321308
150	0xbe181271	-0.14850785
151	0x3e24cc6a	0.16093603
152	0x3d09815d	0.033570636
153	0xbd89c37e	-0.0672674
154	0xbd5de8f7	-0.05417725
155	0x39adbe91	0.00033139114
156	0xbd4b40f3	-0.049622487
157	0xbd0eebbd	-0.034892786
158	0xbcdab484	-0.026697405
159	0xbba56367	-0.00504725
160	0xbcf5743f	-0.029962657
161	0xbc7d147e	-0.01544678
162	0xbde7f31e	-0.11325668
163	0xbe2dcc36	-0.16972432
164	0xbd3e1b51	-0.04641277
165	0xbccdce9b	-0.025122931
166	0xbe13768f	-0.14400695
167	0xbce2640c	-0.027635597
168	0xbe1ed6af	-0.15511583
169	0xbd8c00f8	-0.06836122
170	0x3e5c5b4a	0.21519199
171	0xbde6397f	-0.11241435
172	0xbe64c89e	-0.22342154
173	0x3d5a767b	0.053335648
174	0xbdfe39c5	-0.124133624
175	0xbe2f8938	-0.17142189
176	0xbd11cc8b	-0.035595458
177	0xbe1e6ac5	-0.15470417
178	0x3caf7116	0.021416228
179	0x3e055177	0.13019358
180	0xbe43d314	-0.19123489
181	0xbe1b4767	-0.15163957
182	0x3e826580	0.25468063
183	0xbe79d535	-0.24397738
184	0xbe0aff2f	-0.13573907
185	0x3e29bb86	0.16575441
186	0xbe454992	-0.19266346
187	0xbde4ca10	-0.11171353
188	0xbe096af0	-0.134197
189	0xbc1238c6	-0.008924669
190	0xbe1f67b2	-0.155669
191	0x3e07f391	0.13276507
192	0xbe1aec8a	-0.15129295
193	0xbc8b0bea	-0.016973455
194	0x3d699e33	0.057035636
195	0xbe302e9c	-0.1720528
196	0xbb8b9690	-0.004259892
197	0xbe5eea0f	-0.21768974
198	0xbda3b039	-0.07992596
199	0xbcc5d582	-0.02414966
200	0xbde5670a	-0.11201294
201	0xbee9a704	-0.45635235
202	0x3e95eb3b	0.2928103
203	0xbf18e75b	-0.5972802
204	0xbeeaa647	-0.45829985
205	0x3eceaa81	0.4036446
206	0xbe5a370c	-0.21310061
207	0xbdaf2dfb	-0.08553692
208	0xbd830165	-0.0639675
209	0xbd5bd8ef	-0.05367368
210	0x3bbebf0c	0.0058211144
211	0xbdde6786	-0.10859589
212	0xbe630a13	-0.22171812
213	0xbdb38890	-0.087662816
214	0xbd9f8979	-0.07789893
215	0xbe6159c9	-0.22006907
216	0xbda14541	-0.07874537
217	0xbe01b27f	-0.12665747
218	0xbdb7686b	-0.08955463
219	0xbd82198e	-0.063525304
220	0x3cf2ca70	0.029637545
221	0x3d56e53e	0.052464716
222	0xbde8c93e	-0.11366509
223	0xbccc2180	-0.024918318
224	0xbe3e6436	-0.18592915
225	0xbd0cd784	-0.03438522
226	0xbecd9b56	-0.40157574
227	0xbd14d8d1	-0.036339585
228	0xbd558923	-0.052132737
229	0xbda731ff	-0.08163833
230	0x3d7ddcc0	0.0619781
231	0xbd9eebd3	-0.07759824
232	0xbe56e51f	-0.2098584
233	0x3f0fc72e	0.561633
234	0xbe6410da	-0.22272053
235	0xbe59e043	-0.21276955
236	0x3d488ba0	0.04896128
237	0xbdc55b27	-0.096365266
238	0x3d08d5de	0.033407085
239	0xbe2d4f25	-0.16924722
240	0xbe27db45	-0.16392238
241	0x3ed26749	0.41094425
242	0xbeaac8f1	-0.3335643
243	0xbd451026	-0.048111103
244	0xbd2066f1	-0.039160673
245	0xbd6d96bd	-0.058005083
246	0xbd74f29b	-0.05980168
247	0xbd9bf635	-0.0761532
248	0xbd988384	-0.074469596
249	0x3ca30b8c	0.019902967
250	0x3d48c838	0.04901907
251	0x3d9cd13a	0.07657094
252	0xbcb3858a	-0.021914262
253	0xbdebd5a3	-0.11515357
254	0x3d1ae104	0.037812248
255	0xbe0d2c51	-0.13786437

conv_3.bias f4 [32]
0	0xbed78320	-0.42092228
1	0xbd568f14	-0.052382544
2	0xbe8c8d47	-0.27451536
3	0xbfae3ca0	-1.3612251
4	0xbe31b188	-0.17352879
5	0xbe582642	-0.21108344
6	0xbf29509a	-0.66138613
7	0xbe71cf59	-0.23614253
8	0xbee5090b	-0.44733462
9	0xbe7008ae	-0.23440811
10	0xbcfdc4f1	-0.030977698
11	0xbe68ec50	-0.22746396
12	0xbd628da9	-0.05531088
13	0xbf4493b8	-0.767879
14	0x3e042291	0.12903811
15	0x3dbbe053	0.09173646
16	0x3e623d70	0.22093749
17	0xbeee0750	-0.46489954
18	0xbd4e9b1d	-0.050440896
19	0x3e35989c	0.17733997
20	0xbc4ba225	-0.012428795
21	0x3ddbe78c	0.107375234
22	0xbf4a05d5	-0.7891515
23	0xbe1c18ab	-0.15243785
24	0xbdbb7a15	-0.09154145
25	0xbe90e63d	-0.28300658
26	0xbf0cc08c	-0.54981303
27	0xbf0a3515	-0.53987247
28	0x3e01a30f	0.12659858
29	0xbe2de53a	-0.16981974
30	0x3e8a90dc	0.27063644
31	0xbfa554ba	-1.2916481

linear_1.weight f4 [1, 25088]
0	0x3d16e28f	0.036837157
1	0xbcef1314	-0.029183902
2	0xbce3228e	-0.027726438
3	0xbdb2ad43	-0.08724453
4	0x3d7014b4	0.058613494
5	0x3e025896	0.12729105
6	0x3d627811	0.055290285
7	0xbd6ccfd5	-0.05781539
8	0xbd904f47	-0.07046371
9	0xbcd66c59	-0.026174711
10	0x3cd5e49e	0.02610999
11	0xbd06fd1d	-0.03295623
12	0xbd110b83	-0.03541137
13	0xbd24aaa2	-0.04020179
14	0xbd1adeff	-0.037810322
15	0xbc9e1764	-0.019298263
16	0xbd4a2bf6	-0.04935833
17	0xbd227628	-0.039663464
18	0xbd95565b	-0.072918616
19	0xbd4c74c9	-0.049916063
20	0xbd7836d4	-0.060599163
21	0xbc5b1c9c	-0.01337352
22	0x3c67efdf	0.014156311
23	0xbc9e40e4	-0.019318052
24	0xbcbee14c	-0.02330079
25	0xbcafeeb7	-0.021476133
26	0xbcb6507e	-0.022255179
27	0xbc9c8f2f	-0.019111244
28	0xbc56956c	-0.013097148
29	0xbc4d62df	-0.01253578
30	0xbc3ea352	-0.011635618
31	0xbc976561	-0.018480958
32	0xbd06573b	-0.032798033
33	0xbc7f538c	-0.015583884
34	0x3c60e91d	0.013727454
35	0x3c41d48f	0.011830463
36	0xbc45a6d6	-0.012063703
37	0xbd4b6e0b	-0.049665492
38	0xbce2c9b4	-0.02768407
39	0xbb960977	-0.004578765
40	0x3d371db4	0.04470606
41	0x3d48b065	0.048996348
42	0xbc78281d	-0.0151462825
43	0x3d27a315	0.04092701
44	0x3bab83cc	0.0052342173
45	0xbb35f832	-0.0027766344
46	0xbcc4eafe	-0.024037834
47	0x3cc5f176	0.02416299
48	0x3cf19de6	0.029494237
49	0xbaab9ecf	-0.0013093593
50	0xbc5f60ae	-0.01363389
51	0xbc4b7073	-0.012416947
52	0xbc8f7587	-0.017512096
53	0xbc8c7bc8	-0.017148867
54	0xbc709a3b	-0.014685209
55	0xbc600ae6	-0.013674473
56	0xbc679490	-0.014134541
57	0xbae6267a	-0.0017559074
58	0xbc6e57d0	-0.014547303
59	0xbc55f3d0	-0.013058618
60	0xbbb24c7f	-0.005441248
61	0xbc26972d	-0.010167879
62	0x3dcc5bd9	0.09978456
63	0x3de32a44	0.11092046
64	0x3cefa5d3	0.029253876
65	0x3d896a2b	0.06709703
66	0x3caf66ef	0.021411387
67	0x3cc491a5	0.02399523
68	0x3cca58ce	0.024700548
69	0xbd457af8	-0.048212975
70	0x3d10a503	0.035313617
71	0x3cf912ed	0.030404532
72	0x3e249bd7	0.16075073
73	0x3d06d2e3	0.03291596
74	0x3d38ba83	0.045099746
75	0xbd03e69a	-0.03220234
76	0xbd042275	-0.032259423
77	0x3c2d768c	0.010587346
78	0x3c94b79d	0.01815396
79	0xbbdbefb3	-0.006711924
80	0xbc041339	-0.008061224
81	0xbc4f8ab4	-0.012667347
82	0xbc611ad2	-0.013739305
83	0xbc7f9804	-0.015600208
84	0xbc3663cd	-0.011132193
85	0xbc3a2bed	-0.011363012
86	0xbc958787	-0.018253101
87	0xbbb0c96a	-0.005395104
88	0x3cf9c045	0.03048719
89	0x3b620a93	0.0034491166
90	0x3ddbf41a	0.10739918
91	0x3d5a4e5c	0.053297386
92	0x3e06df2a	0.13171068
93	0x3d773052	0.060348816
94	0x3dd52a61	0.10408474
95	0x3d8ed260	0.069737196
96	0x3d1219e2	0.035669215
97	0xbccd36c7	-0.025050534
98	0x3e2c8f13	0.16851453
99	0x3ded385d	0.11583016
100	0x3cb318df	0.021862445
101	0x3d0b9b35	0.034083564
102	0x3c84ed5d	0.016226465
103	0x3a9b896d	0.0011866518
104	0x392ac387	0.00016285303
105	0xbaf68553	-0.0018808044
106	0x3d30bc7a	0.043148495
107	0x3d861e16	0.06548707
108	0x3db576d6	0.08860557
109	0x3d2270e8	0.039658457
110	0x3c575d43	0.013144794
111	0xbb87a4df	-0.004139527
112	0x3cda493c	0.026646249
113	0xbc10d273	-0.0088392375
114	0xbbce5a59	-0.0062973914
115	0x3ca2c928	0.01987131
116	0xbb5bcbb1	-0.0033538158
117	0x3c57b776	0.013166299
118	0xbaa97acd	-0.0012930274
119	0xbc110390	-0.008850947
120	0xbccf0f16	-0.025275748
121	0xbd7b618f	-0.061372336
122	0xbd8ca08d	-0.0686656
123	0x3d509188	0.05092004
124	0x3cd04444	0.025423177
125	0x3c7039d5	0.014662226
126	0xbcd18c9f	-0.025579749
127	0x3d426c93	0.047466826
128	0x3daa916a	0.08328517
129	0x3db1d651	0.08683456
130	0xbb8017c2	-0.003909082
131	0x3c001298	0.007816933
132	0x3c77d58a	0.015126595
133	0xbd4aacd3	-0.049481224
134	0xbc8d47e7	-0.0172462
135	0x3b91d70b	0.004450684
136	0x3cb0d090	0.021583825
137	0x3d213375	0.039355714
138	0x3d630d81	0.0554328
139	0xbba79d61	-0.0051151966
140	0x3d8cf59c	0.06882784
141	0xbcbd9bea	-0.023145635
142	0x3cf809ac	0.03027805
143	0xbc6460dc	-0.013939109
144	0xbce189f0	-0.027531594
145	0x3c8a8c21	0.016912522
146	0x3c872f9a	0.01650219
147	0xbd7e2279	-0.062044594
148	0x3d19751d	0.037465204
149	0x3bde9659	0.006792825
150	0xbe229b7b	-0.15879624
151	0x3e2c9bc6	0.16856298
152	0xbcfa95c1	-0.030588986
153	0xbe0926b7	-0.13393675
154	0x3de137fa	0.10997005
155	0x3c8548e2	0.016270105
156	0xbbb09c79	-0.0053897467
157	0xbe4e1ca9	-0.2012812
158	0x3c84a17a	0.01619028
159	0x3d1bdffc	0.038055405
160	0x3d094e43	0.0335219
161	0xbcbe3399	-0.023217963
162	0xbd630444	-0.05542399
163	0x3d791527	0.060811188
164	0x3d9fbb21	0.07799364
165	0xbdc4efe9	-0.09616072
166	0x3c0322bb	0.008003886
167	0x3dae9c45	0.085259
168	0x3e72af2c	0.23699635
169	0x3dc2e9e7	0.095172696
170	0x3de02927	0.10945349
171	0xbd39311e	-0.045212857
172	0x3d651081	0.055923942
173	0x3cc2208a	0.023697156
174	0x3df6db5a	0.12053557
175	0xbe3caea4	-0.18425995
176	0x3d11f9a1	0.035638455
177	0xbdba40e8	-0.09094411
178	0x3d0f382b	0.034965675
179	0x3c8ed1f9	0.017434107
180	0x3c2ae853	0.010431367
181	0xbe0336b4	-0.12813836
182	0xbdbb57d3	-0.091476105
183	0xbe1a74f2	-0.15083674
184	0x3cea0dd7	0.028571052
185	0xbd57db55	-0.052699406
186	0xbde36425	-0.111030854
187	0xbda63d0f	-0.08117115
188	0x3e33d6b4	0.17562371
189	0x3e3ebdda	0.1862711
190	0x3d02c88b	0.031929534
191	0x3c76b44b	0.015057634
192	0x3e41fccb	0.18944089
193	0x3deb7362	0.11496617
194	0x3d8a18ca	0.067430094
195	0x3cf2fec7	0.029662503
196	0xbcc01864	-0.02344913
197	0x3de645d1	0.11243785
198	0xbd56073c	-0.052252993
199	0xbc802c5d	-0.015646154
200	0x3cd7c4c9	0.026338952
201	0x3e59a128	0.21252882
202	0x3da3fd7c	0.08007333
203	0xbd8916be	-0.06693791
204	0xbd31aad4	-0.043375805
205	0xbd038cbb	-0.032116633
206	0xbd838930	-0.06422651
207	0xbe2c8b90	-0.16850114
208	0x3d8d19e5	0.068897046
209	0x3dc5dba8	0.09661037
210	0xbbf3fe59	-0.007446092
211	0xbd04ac19	-0.032390688
212	0xbd8cea5d	-0.06880639
213	0x3d9b1e29	0.07574112
214	0xbd06b250	-0.032884896
215	0xbd9353f9	-0.07193751
216	0x3cbf50d8	0.023353979
217	0x3e1819ed	0.1485364
218	0x3e25c97b	0.1619014
219	0xbcee692c	-0.029102884
220	0x3dadadf2	0.08480443
221	0x3de11abc	0.10991427
222	0x3ca0c26d	0.01962396
223	0xbbf656f1	-0.0075176884
224	0xbcf06b5b	-0.029348066
225	0x3d845d7e	0.06463145
226	0x3d2cc3dc	0.042178974
227	0xbd4084bb	-0.04700158
228	0x3cdc7877	0.02691291
229	0x3e827981	0.25483325
230	0xbc2649a1	-0.01014939
231	0xbda4b138	-0.08041614
232	0xbdfecdc1	-0.12441588
233	0xbdb1e294	-0.086857945
234	0xbd13b2f3	-0.03605933
235	0xbdad0877	-0.0844888
236	0xbdb28564	-0.087168485
237	0xbdd9524f	-0.10611402
238	0xbbb58ca8	-0.005540449
239	0x3e0eb227	0.13935147
240	0xbdbbceff	-0.09170341
241	0x3d4b3e56	0.049619995
242	0x3b234a09	0.0024915955
243	0xbc365e4e	-0.011130882
244	0xbd6d5de4	-0.05795087
245	0x3d8dcd7d	0.069239594
246	0xbdd1cf9f	-0.10244679
247	0x3e0eebed	0.13957186
248	0xbc1dfe5e	-0.009643165
249	0x3db714d8	0.089395225
250	0x3d409b89	0.04702333
251	0x3c01d757	0.007924876
252	0xbabf3c3c	-0.0014590095
253	0x3d77bf9b	0.060485464
254	0x3cd7f135	0.026360134
255	0xbd632bde	-0.055461757
