models/BEST/ConvNet_70.pth (torch, 127524 bytes, 7 tensors)

conv_1.weight f4 [8, 1, 3, 3]
0.27646756 0.5286105 0.50021654 0.7170288 0.99070144 0.9020085 0.21368195 0.25747243
0.93608224 -0.7172856 -0.21103328 0.26794124 -0.14355126 0.22225185 0.31452167 0.13903812
0.30066732 0.3117132 -0.1556133 0.08496609 -0.15357888 -0.03909096 -0.13538611 0.22112367
-0.2631234 -0.15367012 -0.09412491 -0.20671305 0.023857731 -0.33096054 0.30070496 -0.27185696
0.2565228 0.067517795 -0.087458216 0.21192195 0.043559466 -0.014392579 0.2234919 0.31210142
0.6777516 0.40747333 0.6441352 0.39032176 0.81632274 -1.0760735 -0.48783973 -0.7570988
-0.5538205 -0.75788397 -1.0761801 -0.9302071 -1.0037718 -0.36785302 -0.839867 -0.7106271
-0.85874045 -0.62299514 -0.2324316 -0.74502754 -0.7283442 -0.68788165 -0.6425005 -1.030437
-0.4181276 -0.83915186 -0.11288207 -0.29620782 -0.8621588 -0.7899976 -0.057331234 -0.6142125
00000000: 288d 8d3e 0553 073f 310e 003f 338f 373f
00000010: 9c9e 7d3f 07ea 663f 71cf 5a3e 6dd3 833e
00000020: 16a3 6f3f 07a0 37bf 1c19 58be 982f 893e
00000030: 1aff 12be fd95 633e fc08 a13e 0260 0e3e
00000040: 11f1 993e df98 9f3e 1859 1fbe b402 ae3d
00000050: c843 1dbe d81d 20bd a8a2 0abe 3e6e 623e
00000060: 1cb8 86be b35b 1dbe 90c4 c0bd 96ac 53be
00000070: 4a71 c33c a973 a9be 00f6 993e d630 8bbe
00000080: f556 833e c546 8a3d 4b1d b3bd 1102 593e
00000090: 696b 323d dace 6bbc 10db 643e c2cb 9f3e
000000a0: 2181 2d3f 58a0 d03e 0be6 243f 41d8 c73e
000000b0: 87fa 503f c7bc 89bf 21c6 f9be 3ad1 41bf
000000c0: 2ec7 0dbf af04 42bf 45c0 89bf 0d22 6ebf
000000d0: 987b 80bf 3b57 bcbe 8601 57bf a8eb 35bf
000000e0: 6ad6 5bbf 9c7c 1fbf 8d02 6ebe 20ba 3ebf
000000f0: c474 3abf 0319 30bf ea7a 24bf 5ce5 83bf
00000100: d214 d6be a8d2 56bf b72e e7bd 8da8 97be
00000110: 70b6 5cbf 483d 4abf 28d4 6abd 083d 1dbf

conv_1.bias f4 [8]
-1.0628831 -1.7041668 -0.33062539 -0.27482447 -1.2831317 0.692959 0.5788115 0.7006501
00000000: 8e0c 88bf 2322 dabf bb47 a9be cbb5 8cbe
00000010: a93d a4bf c365 313f fe2c 143f ce5d 333f

conv_2.weight f4 [16, 8, 3, 3]
0.3647349 -0.18378854 -0.017438423 -0.8175068 -0.31019902 -0.35102803 0.65204304 -0.18758026
-0.37629724 0.056817546 -0.22352895 -0.07397326 -0.5352385 -0.48720273 -0.55155444 0.30111688
0.058077093 -0.3244736 -0.04178016 -0.11403212 -0.06748983 0.02943965 -0.015555546 -0.085546486
0.0027643964 -0.08050193 -0.099984504 -0.059151392 -0.09683947 -0.0721955 0.11597785 0.013884009
0.03129743 -0.11601553 -0.084401734 -0.04834013 0.15422061 -0.28894794 -0.12674712 -0.83516103
-0.43415046 -0.4349176 0.6352781 -0.28380588 -0.42329028 -0.248517 0.024469106 -0.24964735
0.2328541 0.29878175 0.4490025 -0.13929358 -0.30533588 0.29323334 -0.101205386 0.08564697
-0.47647676 0.21855192 0.47006005 0.24248488 -0.13825831 -0.10275867 0.25919208 -0.3585979
0.14177512 -0.15476786 0.15960386 0.36279723 0.27267408 -0.31709823 -0.00033583253 0.05738102
-0.08261136 -0.22669125 -0.17122568 -0.17274013 -0.034584455 -0.13730854 -0.08060189 -0.038602456
0.09752425 -0.058358114 -0.06197356 -0.16225474 -0.05269112 -0.08169786 -0.09959748 0.021789778
0.014648953 -0.084147684 -0.059649043 -0.0056280643 0.065803505 -0.030114949 -0.06724289 -0.040357277
-0.088043615 0.042029537 0.09122152 -0.11077195 0.026693309 0.060653526 0.019284958 -0.041842327
0.061959323 0.061980873 0.04383426 -0.021897698 -0.07114568 -0.03980992 -0.14379519 -0.08766893
0.0395544 0.04078151 -0.15882929 -0.100469545 -0.08069494 0.02006692 0.07160084 -0.04915497
-0.22551501 -0.1655479 -0.09709427 -0.11399403 -0.1986483 -0.3236751 -0.17687763 -0.25276053
-0.26723358 -0.14827815 -0.14772701 -0.20487826 -0.35838678 -0.3208274 -0.28694177 0.13790551
0.03527207 -0.17244977 -0.04946986 -0.22792096 -0.39551836 -0.08480689 -0.2860571 -0.32708195
-0.2922161 -0.39077136 0.52257884 -0.23308885 -0.23894972 -0.46441668 -0.42311388 -0.13709433
-0.12417499 -0.17189804 -0.31203106 0.25477955 -0.15022382 -0.23153684 -0.24202928 -0.13508503
-0.025787862 -0.48937568 -0.023717843 -0.06782395 -0.021475255 -0.08294774 -0.077005774 0.03909249
-0.035024934 0.0727546 -0.037807673 -0.08659032 -0.019977285 -0.05674825 -0.033027165 -0.10669303
0.06687001 -0.08478046 0.051994838 0.048966512 -0.12652923 -0.51307327 0.4598663 -0.34043762
-0.195169 -0.039258096 -0.36311513 -0.3199466 -0.3082831 0.2813162 0.41528577 -0.44894427
0.054809276 0.054265272 -0.0018438284 -0.35684147 -0.3242416 -0.06785231 0.34361538 0.07414009
-0.22068524 0.07572075 0.09305413 -0.059574872 -0.24511763 -0.14974403 -0.21981955 0.5706542
0.46758085 -0.32516888 0.2926017 0.13784145 -0.26198772 -0.30413097 0.014032406 -0.10053343
-0.40754807 -0.2822309 -0.108435765 -0.35472468 -0.16975705 -0.4748211 0.08042306 -0.2267414
-0.23075359 -0.06862928 -0.35146514 0.1306263 -0.14604327 -0.18086833 -0.08288847 0.27037647
-0.28588033 -0.25476536 0.11186934 0.031004675 0.079010315 0.11618795 -0.01805821 0.024460532
-0.08191067 -0.02428642 0.08727864 0.06543909 -0.06833953 -0.08790423 -0.07954628 -0.11561434
-0.0915819 -0.027309628 0.07853361 0.01834615 -0.28073552 -0.39667904 0.15701322 -0.2705396
00000000: 88be ba3e 1033 3cbe 06db 8ebc 2048 51bf
00000010: 68d2 9ebe f2b9 b3be 4bec 263f 0a15 40be
00000020: 08aa c0be 84b9 683d c6e4 64be 4b7f 97bd
00000030: 6405 09bf a372 f9be ac32 0dbf fe2b 9a3e
00000040: 3fe2 6d3d 6721 a6be ac21 2bbd ac89 e9bd
00000050: 1c38 8abd 6c2b f13c b0dc 7ebc ff32 afbd
00000060: e02a 353b 32de a4bd adc4 ccbd bb48 72bd
00000070: c653 c6bd 3cdb 93bd cc85 ed3d c179 633c
00000080: bc31 003d 8d99 edbd d1da acbd 4d00 46bd
00000090: 02ec 1d3e fcf0 93be ffc9 01be 1dcd 55bf
000000a0: f848 debe 85ad debe 96a1 223f 014f 91be
000000b0: 81b9 d8be 3e7b 7ebe 6f73 c83c 8ea3 7fbe
000000c0: 4e71 6e3e ecf9 983e a8e3 e53e faa2 0ebe
000000d0: fc54 9cbe ae22 963e c544 cfbd ae67 af3d
000000e0: c3f4 f3be 13cc 5f3e b6ab f03e f54d 783e
000000f0: 9693 0dbe 2373 d2bd d3b4 843e 259a b7be
00000100: 7f2d 113e 777b 1ebe 326f 233e 8fc0 b93e
00000110: f09b 8b3e b35a a2be ae12 b0b9 5c08 6b3d
00000120: 2530 a9bd c021 68be c955 2fbe cae2 30be
00000130: 6ea8 0dbd 9c9a 0cbe 9b12 a5bd 9c1d 1ebd
00000140: cbba c73d eb08 6fbd fdd7 7dbd 1b26 26be
00000150: a5d2 57bd 3551 a7bd c3f9 cbbd 7a80 b23c
00000160: 2a02 703c 9f55 acbd 8e52 74bd a06b b8bb
00000170: fdc3 863d a0b3 f6bc a4b6 89bd ac4d 25bd
00000180: 3650 b4bd 2a27 2c3d 59d2 ba3d 67dc e2bd
00000190: edab da3c d56f 783d 7dfb 9d3c dc62 2bbd
000001a0: 0fc9 7d3d a8df 7d3d 8e8b 333d cd62 b3bc
000001b0: d4b4 91bd ba0f 23bd 0c3f 13be c58b b3bd
000001c0: cb03 223d 830a 273d 25a4 22be fac2 cdbd
000001d0: 6443 a5bd 6263 a43c 76a3 923d b956 49bd
000001e0: 68ed 66be 6485 29be 5cd9 c6bd b475 e9bd
000001f0: 766a 4bbe beb8 a5be 691f 35be d469 81be
00000200: d7d2 88be 3ad6 17be c045 17be 9bcb 51be
00000210: 797e b7be 7d43 a4be 08ea 92be 1a37 0d3e
00000220: 7279 103d ac96 30be e8a0 4abd 1d64 69be
00000230: 6281 cabe 3caf adbd 1476 92be 4977 a7be
00000240: 599d 95be 2f13 c8be bac7 053f d8ae 6ebe
00000250: 3caf 74be 06c8 edbe 62a2 d8be 7562 0cbe
00000260: 754f febd 0a06 30be 89c2 9fbe 7772 823e
00000270: 46d4 19be fe17 6dbe 86d6 77be bb53 0abe
00000280: 1141 d3bc 738f fabe ec4b c2bc 48e7 8abd
00000290: e0ec afbc 81e0 a9bd 34b5 9dbd 721f 203d
000002a0: 4e76 0fbd 5d00 953d 38dc 1abd 4456 b1bd
000002b0: 67a7 a3bc da70 68bd 7e47 07bd e081 dabd
000002c0: 25f3 883d 61a1 adbd 8af8 543d 1c91 483d
000002d0: e190 01be c558 03bf 9873 eb3e d74d aebe
000002e0: 62da 47be 19cd 20bd 3aea b9be 0ad0 a3be
000002f0: 48d7 9dbe ad08 903e 56a0 d43e 06dc e5be
00000300: b17f 603d 4345 5e3d 9dac f1ba edb3 b6be
00000310: ff02 a6be 27f6 8abd 5bee af3e c2d6 973d
00000320: 50fb 61be 7b13 9b3d 2a93 be3d c804 74bd
00000330: 1e00 7bbe 8056 19be 6018 61be 6516 123f
00000340: c266 ef3e 897c a6be e4cf 953e 4f26 0d3e
00000350: 4123 86be 0eb7 9bbe 2de8 653c 79e4 cdbd
00000360: 24aa d0be 9280 90be 9213 debd 799e b5be
00000370: cbd4 2dbe c01b f3be d8b4 a43d e62e 68be
00000380: ab4a 6cbe 828d 8cbd 3df3 b3be e7c2 053e
00000390: 5e8c 15be 8c35 39be 6ec1 a9bd c96e 8a3e
000003a0: e85e 92be 9b70 82be c11b e53d 84fd fd3c
000003b0: 29d0 a13d f3f3 ed3d d0ee 93bc 7461 c83c
000003c0: c8c0 a7bd 50f4 c6bc 25bf b23d ee04 863d
000003d0: 98f5 8bbd 2207 b4bd 29e9 a2bd 36c7 ecbd
000003e0: 4b8f bbbd 71b8 dfbc 3bd6 a03d aa4a 963c
000003f0: 91bc 8fbe 8419 cbbe 13c8 203e 2b84 8abe

conv_2.bias f4 [16]
-0.12632449 -0.1334204 0.13939539 0.18531196 -0.06084457 -0.15476288 -0.09130364 0.34553093
-0.42192346 0.118728764 0.16296689 -0.16016161 0.3036352 -0.065308765 -0.32201156 -0.14771664
00000000: 355b 01be 5b9f 08be aabd 0e3e 6bc2 3d3e
00000010: 2838 79bd 297a 1ebe 67fd babd 6ee9 b03e
00000020: 5a06 d8be 1128 f33d cbe0 263e 6801 24be
00000030: 1376 9b3e 9ac0 85bd b3de a4be 0843 17be

conv_3.weight f4 [32, 16, 3, 3]
0.20199133 0.24839807 -0.14740728 -0.23517536 0.026629781 0.024378886 -0.07498539 -0.11457375
-0.007140133 0.03741243 -0.018956779 -0.093211636 0.019470183 0.073800154 -0.047458354 -0.0347372
0.112084724 0.06223578 -0.08451164 0.0020202836 -0.042440053 -0.1487184 -0.055771086 -0.069486424
0.15404989 -0.014078056 -0.1402798 0.07322871 0.0805043 -0.0913921 0.020648861 -0.06757419
-0.15591052 0.055960037 -0.10876766 -0.13251281 -0.22496065 0.3386923 0.39823148 -0.43536156
0.26027045 -0.031118318 -0.12304722 -0.02224788 0.020587342 -0.35372904 0.21553537 0.2207712
-0.31839114 0.12663843 -0.1041621 0.009398905 -0.11799669 -0.19429111 0.1597992 0.021547964
-0.15938269 -0.022812396 -0.0008920345 -0.114286855 -0.18603404 -0.20561305 0.24454695 -0.016687332
0.119565755 -0.010696862 0.020255327 -0.0068860054 -0.098705664 0.05059524 -0.13364166 -0.043931022
-0.14760141 -0.07143507 0.1719848 -0.059925895 0.11717673 -0.10274401 -0.03742124 0.33407298
-0.0671216 -0.02342578 -0.1304104 -0.0043737637 -0.033682067 -0.006810542 -0.10330468 0.26146722
0.0669638 -0.051732965 -0.031681944 0.15808123 0.08042656 -0.035415657 0.05399424 -0.1692381
0.072622225 -0.2441078 -0.16342728 0.025055084 -0.07575045 -0.015321838 -0.003806166 -0.036295813
0.027978174 0.00212347 0.055931006 -0.009239214 0.017252436 0.16048466 0.07085445 0.031145012
-0.12274966 0.04143273 -0.086551346 -0.061869267 0.17980202 -0.24111533 0.15126373 -0.022154205
-0.08461536 0.19503981 -0.055958994 0.055734675 -0.12935595 -0.14983569 -0.010690557 -0.009805206
0.04630415 -0.042564645 0.019336117 0.009954192 0.02278797 -0.120137736 0.031170933 -0.24557258
0.11844193 0.011391932 -0.17686878 -0.06538794 -0.1519251 -0.15479453 -0.10103629 -0.046729963
-0.2213883 -0.042440232 -0.00950375 0.005962104 0.008460427 -0.25726274 -0.18506882 0.111051194
-0.029951824 -0.061506584 -0.047171663 0.014302776 -0.052495833 -0.029155381 -0.015868949 -0.008258619
-0.025746677 0.002551553 -0.112477265 -0.14041328 -0.0064325454 -0.046890926 -0.17986062 0.06047246
-0.12681319 -0.09184961 0.29876876 -0.12601247 -0.26285782 -0.0063557373 -0.13827065 -0.14271486
-0.01286582 -0.17248069 -0.027319092 0.113740675 -0.22347154 -0.18241063 0.26704004 -0.25128627
-0.18012351 0.18927528 -0.2018299 -0.09092411 -0.059503615 -0.03919695 -0.11184715 0.20444794
-0.123963624 -0.012277346 0.11087164 -0.16183925 0.029293261 -0.16751967 -0.021451665 0.054512843
-0.08222249 -0.4748842 0.39750776 -0.62714785 -0.5251612 0.48592657 -0.3195238 -0.07849315
-0.039265964 0.03768236 0.03959059 -0.06776262 -0.112736866 -0.052368425 -0.023903681 -0.14892645
-0.041391835 -0.09868525 -0.12197377 -0.07335543 0.024231857 0.09264411 -0.0993367 -0.07315859
-0.10931423 -0.046954736 -0.4123222 0.028097732 -0.07424571 -0.08655066 0.17144044 -0.061447978
-0.24938814 0.66653174 -0.20187506 -0.28674015 0.042047914 -0.07975448 0.04541162 -0.21886076
-0.1979758 0.3667835 -0.38431388 -0.048108377 -0.03918752 -0.058006614 -0.059801795 -0.07614652
-0.074469596 0.019902952 0.049013514 0.076527186 -0.041880235 -0.13597304 0.036954444 -0.13671099
00000000: d1d6 4e3e 105c 7e3e eff1 16be cfd1 70be
00000010: b326 da3c 3bb6 c73c f191 99bd a4a5 eabd
00000020: c7f7 e9bb c73d 193d 3f4b 9bbc bee5 bebd
00000030: ef7f 9f3c 8924 973d b163 42bd 9848 0ebd
00000040: ad8c e53d f2ea 7e3d 7014 adbd bc66 043b
00000050: 9fd5 2dbd a349 18be 3970 64bd e64e 8ebd
00000060: 41bf 1d3e a6a7 66bc 82a5 0fbe eff8 953d
00000070: 70df a43d c82b bbbd cd27 a93c 5664 8abd
00000080: 02a7 1fbe 5a36 653d 94c1 debd 70b1 07be
00000090: 165c 66be 1469 ad3e ffe4 cb3e b6e7 debe
000000a0: 2b42 853e d8eb febc 2e00 fcbd 3041 b6bc
000000b0: c9a6 a83c f91b b5be 4eb5 5c3e d811 623e
000000c0: 2a04 a3be 81ad 013e f052 d5bd ddfd 193c
000000d0: 40a8 f1bd 40f4 46be 67a2 233e 5b85 b03c
000000e0: 3735 23be 10e1 babc 6cd7 69ba 3a0f eabd
000000f0: b57f 3ebe 3a8c 52be 846a 7a3e dfb3 88bc
00000100: e4de f43d e441 2fbc 80ee a53c 00a4 e1bb
00000110: 3226 cabd f43c 4f3d 5cd9 08be 04f1 33bd
00000120: d324 17be 8d4c 92bd c91c 303e db74 75bd
00000130: 5afa ef3d 746b d2bd 0447 19bd 9d0b ab3e
00000140: 0d77 89bd 6ce7 bfbc 4e8a 05be ca51 8fbb
00000150: 35f6 09bd f82a dfbb 6791 d3bd 08df 853e
00000160: 5124 893d f2e5 53bd edc4 01bd 0ce0 213e
00000170: aeb6 a43d 0210 11bd 1029 5d3d c14c 2dbe
00000180: f6ba 943d 65f7 79be 7b59 27be 5240 cd3c
00000190: 0d23 9bbd 7208 7bbc de70 79bb ebaa 14bd
000001a0: 7c32 e53c ea29 0b3b e917 653d 1260 17bc
000001b0: fb54 8d3c 1756 243e 231c 913d d323 ff3c
000001c0: 2c64 fbbd 5eb5 293d d541 b1bd a16a 7dbd
000001d0: 051e 383e f0e6 76be e1e4 1a3e bc7c b5bc
000001e0: d14a adbd 84b8 473e 4235 65bd 0b4a 643d
000001f0: e375 04be 876e 19be 7227 2fbc 04a6 20bc
00000200: 6ca9 3d3d 4458 2ebd c766 9e3c e816 233c
00000210: d6ad ba3c c60a f6bd 2f5a ff3c 6177 7bbe
00000220: af91 f23d 3aa5 3a3c 171d 35be 1dea 85bd
00000230: 4192 1bbe 7582 1ebe 1dec cebd eb67 3fbd
00000240: 9db3 62be cfd5 2dbd 9eb5 1bbc c15d c33b
00000250: 9a9d 0a3c f1b7 83be ae82 3dbe cf6e e33d
00000260: 875d f5bc 54ee 7bbd 1337 41bd 3156 6a3c
00000270: df05 57bd 44d7 eebc 99ff 81bc 294f 07bc
00000280: b2ea d2bc f537 273b 7b5a e6bd 80c8 0fbe
00000290: 1ac8 d2bb b310 40bd 622d 38be f8b1 773d
000002a0: 51db 01be a61b bcbd 38f8 983e 6a09 01be
000002b0: 4d95 86be ca43 d0bb d296 0dbe d823 12be
000002c0: 29cb 52bc c79e 30be 4acc dfbc dff0 e83d
000002d0: b9d5 64be dac9 3abe 79b9 883e 98a8 80be
000002e0: 4c72 38be 61d1 413e 7fac 4ebe 6b36 babd
000002f0: 10ba 73bd fb8c 20bd 1e10 e5bd cd5a 513e
00000300: a4e0 fdbd ec26 49bc ac10 e33d 30b9 25be
00000310: 6cf8 ef3c 478a 2bbe 67bb afbc dc48 5f3d
00000320: 4464 a8bd 0624 f3be 2386 cb3e c38c 20bf
00000330: f770 06bf 5ecb f83e a098 a3be 04c1 a0bd
00000340: 59d5 20bd d158 1a3d be29 223d 21c7 8abd
00000350: 96e2 e6bd 4680 56bd a7d1 c3bc 2d80 18be
00000360: 7c8a 29bd 7e1b cabd 62cd f9bd 5f3b 96bd
00000370: e381 c63c 32bc bd3d 0a71 cbbd 2cd4 95bd
00000380: 24e0 dfbd 9c53 40bd e51b d3be 372d e63c
00000390: 230e 98bd 7941 b1bd 158e 2f3e e0b0 7bbd
000003a0: 9b5f 7fbe d3a1 2a3f 56b8 4ebe 9bcf 92be
000003b0: 6f3a 2c3d 5156 a3bd 8901 3a3d 091d 60be
000003c0: 2bba 4abe 0ccb bb3e cac4 c4be 4a0d 45bd
000003d0: 1883 20bd 5898 6dbd baf2 74bd b5f2 9bbd
000003e0: 8483 98bd 840b a33c 65c2 483d 49ba 9c3d
000003f0: 9c8a 2bbd 843c 0bbe 8b5d 173d f7fd 0bbe

conv_3.bias f4 [32]
-0.48250175 -0.025898473 -0.44788182 -1.3447384 -0.17248358 -0.17893812 -0.62850827 -0.2280086
-0.42213213 -0.15571587 -0.026615158 -0.31779754 -0.107250765 -0.73944557 0.2229702 0.15072905
0.14372517 -0.6165432 -0.061382864 0.1706455 -0.32929152 -0.18055579 -0.8532411 -0.20239452
-0.121094614 -0.40313494 -0.5099688 -0.58916444 0.09695911 -0.3151646 0.37806928 -1.4125926
00000000: 780a f7be 0929 d4bc c450 e5be 6320 acbf
00000010: 899f 30be 8e3b 37be ebe5 20bf 167b 69be
00000020: b421 d8be fb73 1fbe 0808 dabc 5cb6 a2be
00000030: 4aa6 dbbd 4e4c 3dbf 4d52 643e b758 1a3e
00000040: b12c 133e c6d5 1dbf 996c 7bbd b2bd 2e3e
00000050: e698 a8be 9ee3 38be 026e 5abf 8240 4fbe
00000060: 7400 f8bd b467 cebe 518d 02bf 7bd3 16bf
00000070: 7f92 c63d 415d a1be 4c92 c13e d6cf b4bf

linear_1.weight f4 [1, 25088]
0.041599415 -0.03015483 -0.027157422 -0.116288826 0.08661065 0.13085903 0.070343785 -0.058260534
-0.060677204 -0.01157243 0.0041640443 -0.035438087 -0.02937244 -0.03648281 -0.028684158 -0.0016323854
-0.06275163 -0.040741116 -0.08931603 -0.054441273 -0.07528609 -0.013364824 0.015185253 -0.020792473
-0.024771424 -0.022287412 -0.023068683 -0.018927127 -0.016314583 -0.012629961 -0.010892458 -0.018480957
-0.0015765168 0.012576368 0.012805417 0.034497797 -0.032496613 -0.086478226 -0.05294773 -0.008447552
0.04832927 0.046943266 -0.01288523 0.06614135 -0.025273263 -0.018014235 -0.031534962 0.03327157
0.028803235 -0.0027798887 -0.0114819985 -0.009829564 -0.017512096 -0.017148947 -0.014685209 -0.013720989
-0.017167777 -0.0017559074 -0.014546957 0.009882053 0.0024330511 0.006803643 0.12596844 0.114702515
-0.00023341457 0.055017225 0.006696423 0.015839653 0.01653163 -0.07170512 0.03813936 -0.012852779
0.13902484 0.024103953 0.02839935 -0.041318752 -0.022245439 0.02123992 0.01977333 -0.0068247574
-0.008061221 -0.012666764 -0.013732553 -0.015639188 -0.014518549 -0.011363258 -0.018252485 0.008346374
0.07879459 0.02896917 0.06551909 0.031323053 0.13691294 0.06627879 0.11927776 0.05199767
0.009003926 -0.0016617691 0.11615843 0.09894311 -0.0077943746 0.0047895224 -0.022812966 -0.010593995
-0.03141997 -0.025307035 0.05607433 0.06563582 0.10987196 0.059121333 0.008085545 -0.0013136778
0.032869305 -0.008823797 -0.008724436 0.025020018 0.054608468 -0.008840213 -0.028838577 -0.06141264
-0.056906343 -0.08981118 -0.04584762 0.06503526 0.02597747 0.011136172 -0.043177526 0.047176808
0.09437608 0.09042916 -0.03258414 -0.031504817 0.0053486144 -0.051077962 -0.025755873 0.017504241
0.021705614 0.027865242 0.07633611 -3.471649e-05 -0.03508731 -0.02191458 0.02094943 0.026361953
-0.01632185 -0.020703401 -0.009727241 -0.07585092 0.03440166 0.029856984 -0.14818752 0.19526584
-0.06665805 -0.18624152 0.19147584 0.048087034 0.052392017 -0.21467449 0.0019621965 0.012617799
-0.013569406 -0.01744497 -0.05357703 0.08261722 0.08417793 -0.12886296 0.0068418905 0.08453282
0.13510951 0.10317981 0.09402383 -0.015887076 0.051831562 -0.028131375 0.13217887 -0.22798683
0.06727842 -0.036984097 0.0045777797 0.022578344 -0.006376509 -0.17147219 -0.18066914 -0.17106514
0.09908301 -0.0002515327 -0.098951146 -0.06063254 0.17212448 0.1535074 -0.008827587 0.015217989
0.1886756 0.050101366 0.06398542 0.03422378 -0.039420072 0.12010221 -0.027964806 -0.023168404
0.0020111282 0.20724809 0.06956075 -0.052558944 0.028642816 -0.011939574 -0.11379836 -0.13165681
0.086187944 0.12069182 -0.006030421 0.0030157194 -0.09282363 0.14790264 0.005509787 -0.049637634
0.029199744 0.11378869 0.1556394 -0.035236854 0.07147633 0.075366974 -0.038518544 -0.022783242
-0.03101148 0.08458368 0.036295336 -0.088436745 -0.0983435 0.13130872 -0.022958152 -0.008420308
-0.1033646 -0.068389386 0.00078587857 -0.03184854 -0.07100334 -0.1285042 -0.023831148 0.12852474
-0.010343879 0.058753207 -0.02027221 0.00042243596 -0.057349496 0.07529153 -0.121137045 0.12354125
-0.0062913005 0.054313384 -0.021686679 0.001018262 -0.0011148362 0.054165985 -0.008464324 -0.01829658
00000000: 2664 2a3d 4307 f7bc 3e79 debc d628 eebd
00000010: ed60 b13d e9ff 053e 6710 903d 99a2 6ebd
00000020: a988 78bd 4a9a 3dbc 8972 883b 8727 11bd
00000030: 799e f0bc 006f 15bd 0afb eabc c4f5 d5ba
00000040: ed83 80bd 28e0 26bd 53eb b6bd d0fd 5ebd
00000050: 982f 9abd 22f8 5abc 91cb 783c fa54 aabc
00000060: 71ed cabc 1794 b6bc 89fa bcbc 100d 9bbc
00000070: 29a6 85bc e5ed 4ebc 4876 32bc 6065 97bc
00000080: 20a3 ceba 1c0d 4e3c d0cd 513c 904d 0d3d
00000090: 2b1b 05bd 7f1b b1bd b8df 58bd 9a67 0abc
000000a0: eaf4 453d 9547 403d 921c 53bc 1e75 873d
000000b0: e009 cfbc 9792 93bc ce2a 01bd c547 083d
000000c0: c3f4 eb3c cb2e 36bb fe1e 3cbc 2e0c 21bc
000000d0: 8775 8fbc f37b 8cbc 3b9a 70bc 00ce 60bc
000000e0: 70a3 8cbc 7a26 e6ba 5c56 6ebc 56e8 213c
000000f0: d373 1f3b 18f1 de3b dffd 003e 27e9 ea3d
00000100: bfc0 74b9 be59 613d ab6d db3b 29c2 813c
00000110: 576d 873c 22da 92bd 0438 1c3d 7694 52bc
00000120: 875c 0e3e a775 c53c c1a5 e83c da3d 29bd
00000130: 113c b6bc 57ff ad3c aefb a13c 37a2 dfbb
00000140: 3613 04bc 4288 4fbc 81fe 60bc c11d 80bc
00000150: 35df 6dbc f52c 3abc 3c86 95bc 3bbf 083c
00000160: 0f5f a13d c150 ed3c df2e 863d 9a4c 003d
00000170: e832 0c3e 2dbd 873d e647 f43d 82fb 543d
00000180: 3485 133c b8cf d9ba 79e4 ed3d afa2 ca3d
00000190: f467 ffbb 6df1 9c3b 42e2 babc 7092 2dbc
000001a0: 3ab2 00bd b350 cfbc 32ae 653d 136c 863d
000001b0: 8d04 e13d 3629 723d 3c79 043c b62f acba
000001c0: f7a1 063d b091 10bc f0f0 0ebc c8f6 cc3c
000001d0: 21ad 5f3d 8ad6 10bc e13e ecbc d28b 7bbd
000001e0: a016 69bd edee b7bd b7ca 3bbd 3531 853d
000001f0: b4ce d43c 7e74 363c ebda 30bd 783c 413d
00000200: 3f48 c13d ec32 b93d f276 05bd 320b 01bd
00000210: 6e43 af3b 2037 51bd fbfd d2bc 0e65 8f3c
00000220: f9cf b13c a645 e43c 1b56 9c3d 8c9c 11b8
00000230: b6b7 0fbd 3586 b3bc 249e ab3c 06f5 d73c
00000240: 66b5 85bc 2e9a a9bc 015f 1fbc ba57 9bbd
00000250: c1e8 0c3d a296 f43c 78be 17be c5f3 473e
00000260: 0484 88bd 19b6 3ebe 3e12 443e e9f6 443d
00000270: 0399 563d a1d3 5bbe 3298 003b e3ba 4e3c
00000280: 3752 5ebc c1e8 8ebc 9673 5bbd 3833 a93d
00000290: 7b65 ac3d a7f4 03be f031 e03b 8b1f ad3d
000002a0: 265a 0a3e f04f d33d 918f c03d 9d25 82bc
000002b0: 554d 543d c573 e6bc e659 073e 6175 69be
000002c0: 45c9 893d a37c 17bd 3301 963b 38f6 b83c
000002d0: 09f2 d0bb 6896 2fbe 5501 39be b32b 2fbe
000002e0: 08ec ca3d 26e0 83b9 e6a6 cabd d459 78bd
000002f0: 6641 303e 0b31 1d3e 95a1 10bc df54 793c
00000300: 2d34 413e 1737 4d3d ca0a 833d 3c2e 0c3d
00000310: f176 21bd 26f8 f53d 7316 e5bc aacb bdbc
00000320: 22cd 033b d838 543e de75 8e3d 0c48 57bd
00000330: 57a4 ea3c 349e 43bc 1d0f e9bd 0bd1 06be
00000340: 4e83 b03d 462d f73d d69a c5bb 60a3 453b
00000350: 511a bebd ca73 173e 718b b43b d550 4bbd
00000360: 4d34 ef3c 0b0a e93d ef5f 1f3e 8554 10bd
00000370: 2f62 923d 005a 9a3d 9fc5 1dbd eca3 babc
00000380: ca0b febc 353a ad3d 6baa 143d 531e b5bd
00000390: 5168 c9bd cb75 063e bc12 bcbc 55f5 09bc
000003a0: d2b0 d3bd bc0f 8cbd 6b03 4e3a 9d73 02bd
000003b0: 336a 91bd 9b96 03be 8a39 c3bc fd9b 033e
000003c0: 6079 29bc 34a7 703d e811 a6bc 657a dd39
000003d0: 4ee7 6abd 7232 9a3d b316 f8bd 3203 fd3d
000003e0: 4127 cebb b677 5e3d 43a8 b1bc 3477 853a
000003f0: b21f 92ba 27dd 5d3d f3ad 0abc b6e2 95bc
