models/BEST/ConvNet_89.pth (torch, 127524 bytes, 7 tensors)

conv_1.weight f4 [8, 1, 3, 3]
0.05065388 0.32567605 0.5023989 0.63346094 0.8833462 0.6241481 0.28005597 0.45136172
1.1783531 -0.7172856 -0.21103328 0.26794124 -0.14355126 0.22225185 0.31452167 0.13903812
0.30066732 0.3117132 -0.1556133 0.08496609 -0.15357888 -0.03909096 -0.13538611 0.22112367
-0.2631234 -0.15367012 -0.09412491 -0.20993912 0.020498628 -0.33213353 0.28411022 -0.28918985
0.23343995 0.04641994 -0.111678466 0.19068117 -0.09935843 0.20615292 0.6987795 0.22934897
0.83800524 0.2574491 1.0385287 0.6141896 1.00942 -1.1115367 -0.5551192 -0.93783045
-0.6536227 -0.82975394 -1.1591464 -1.1343253 -1.2899017 -0.67219085 -0.74049807 -0.5883982
-0.80450845 -0.5333004 -0.13187829 -0.6219132 -0.6860679 -0.65743196 -0.7121831 -1.2226527
-0.5754093 -1.0249617 -0.28093415 -0.2779456 -0.95247155 -1.1128887 -0.3400049 -0.8943014
00000000: 717a 4f3d 03bf a63e 379d 003f 7f2a 223f
00000010: fa22 623f 2bc8 1f3f 7f63 8f3e e218 e73e
00000020: 46d4 963f 07a0 37bf 1c19 58be 982f 893e
00000030: 1aff 12be fd95 633e fc08 a13e 0260 0e3e
00000040: 11f1 993e df98 9f3e 1859 1fbe b402 ae3d
00000050: c843 1dbe d81d 20bd a8a2 0abe 3e6e 623e
00000060: 1cb8 86be b35b 1dbe 90c4 c0bd 48fa 56be
00000070: bdec a73c 680d aabe e576 913e b110 94be
00000080: e20a 6f3e d622 3e3d aeb7 e4bd ed41 433e
00000090: 6f7c cbbd c019 533e 37e3 323f 75da 6a3e
000000a0: 8387 563f 5ed0 833e 82ee 843f 883b 1d3f
000000b0: ad34 813f d646 8ebf 4b1c 0ebf a815 70bf
000000c0: d153 27bf c16a 54bf e95e 94bf 9231 91bf
000000d0: 801b a5bf b314 2cbf 4891 3dbf 44a1 16bf
000000e0: 44f4 4dbf 6086 08bf 1a0b 07be b435 1fbf
000000f0: 25a2 2fbf 764d 28bf a251 36bf e27f 9cbf
00000100: 064e 13bf f231 83bf 9ad6 8fbe e34e 8ebe
00000110: 2dd5 73bf 2373 8ebf 1f15 aebe f0f0 64bf

conv_1.bias f4 [8]
-0.8307166 -1.7041668 -0.33062539 -0.29691666 -1.0344871 0.8121659 -0.5896009 0.87185186
00000000: d8a9 54bf 2322 dabf bb47 a9be 7605 98be
00000010: 136a 84bf 1bea 4f3f 16f0 16bf af31 5f3f

conv_2.weight f4 [16, 8, 3, 3]
0.010244108 -0.45322427 -0.18434556 -0.96851414 -0.31216678 -0.52437824 0.7347189 -0.10970105
-0.36636704 0.056817546 -0.22352895 -0.07397326 -0.5352385 -0.48720273 -0.55155444 0.30111688
0.058077093 -0.3244736 -0.04178016 -0.11403212 -0.06748983 0.02943965 -0.015555546 -0.085546486
0.0027643964 -0.08050193 -0.099984504 -0.059439752 -0.09664464 -0.07214037 0.11634761 0.012581816
0.030277634 -0.117897116 -0.08355368 -0.048303 0.24172302 -0.41967678 -0.27644074 -0.8397466
-0.5204533 -0.48931506 0.60342073 -0.1746586 -0.38488188 -0.33192965 -0.110300384 -0.28852102
0.29579705 0.13788761 0.4638838 -0.2537827 -0.48577744 0.17547716 -0.03458357 0.121917866
-0.5809962 0.20268829 0.38331842 0.08531103 -0.0991801 -0.11501147 0.18290828 -0.25392902
0.2075255 0.037324827 0.34767112 0.49899516 0.3963505 -0.07144662 0.25928757 0.32719132
-0.082797796 -0.22675829 -0.17139585 -0.17268533 -0.034600932 -0.1356526 -0.080710955 -0.034360576
0.10562941 -0.058358114 -0.06197356 -0.16225474 -0.05269112 -0.08169786 -0.09959748 0.021789778
0.014648953 -0.084147684 -0.059649043 -0.0056280643 0.065803505 -0.030114949 -0.06724289 -0.040357277
-0.088043615 0.042029537 0.09122152 -0.11080699 0.026605679 0.060570557 0.01920667 -0.04193266
0.061959323 0.061980873 0.04383426 -0.021897575 -0.07114568 -0.03980986 -0.14379543 -0.087716125
0.039542273 0.040768888 -0.15883273 -0.1004654 -0.08066526 0.008726902 0.06062125 -0.05045923
-0.22554581 -0.16554144 -0.09702 -0.11399343 -0.19863565 -0.32368156 -0.17699473 -0.25275406
-0.26723152 -0.14827815 -0.14772701 -0.20487826 -0.35838652 -0.3208274 -0.28694177 0.12813012
0.026126431 -0.17319873 -0.049048796 -0.22793072 -0.39557907 -0.08487797 -0.2860798 -0.32708737
-0.17284672 -0.38301703 0.2162043 -0.18384202 -0.22447479 -0.107155286 -0.52827877 -0.37237707
-0.02596998 -0.17189804 -0.31203106 0.25477955 -0.15022382 -0.23153684 -0.24202928 -0.13508503
-0.025787862 -0.48937568 -0.023717843 -0.06782395 -0.021475255 -0.08294774 -0.077005774 0.03909249
-0.035024934 0.0727546 -0.037807673 -0.08532465 -0.02060177 -0.055574823 -0.03120452 -0.1051258
0.06902431 -0.08487107 0.051890388 0.04882019 -0.19623542 -0.2776217 0.8613639 -0.48964113
-0.27756792 0.12820731 -0.32362327 -0.406312 -0.2997087 0.34800705 0.44727668 -0.56893456
0.12433095 0.059794832 -0.17823978 -0.55184484 -0.43574363 -0.050053667 0.32043114 0.16730443
-0.13925259 0.06334472 0.16160305 -0.10893841 -0.3073475 -0.09964876 -0.24001649 0.44436002
0.44998115 -0.32850078 0.11858974 0.07163364 -0.26757425 -0.6215072 -0.12458171 -0.07805683
-0.28180322 -0.30729818 0.33616424 -0.33660594 -0.29677004 -0.56809056 0.20840886 -0.40300226
-0.28810686 -0.06862928 -0.35146514 0.1306263 -0.14604327 -0.18086833 -0.08288847 0.27037647
-0.28588033 -0.25476536 0.11186934 0.031004675 0.079010315 0.11618795 -0.01805821 0.024460532
-0.08191067 -0.02428642 0.08727864 0.066724315 -0.06653297 -0.087082714 -0.07931859 -0.11606119
-0.09088396 -0.031611975 0.07547924 0.014573884 -0.4356227 -0.42976367 0.2662675 -0.5173996
00000000: e7d6 273c 030d e8be 15c5 3cbe 8bf0 77bf
00000010: 53d4 9fbe a73d 06bf 8a16 3c3f f2aa e0bd
00000020: 7694 bbbe 84b9 683d c6e4 64be 4b7f 97bd
00000030: 6405 09bf a372 f9be ac32 0dbf fe2b 9a3e
00000040: 3fe2 6d3d 6721 a6be ac21 2bbd ac89 e9bd
00000050: 1c38 8abd 6c2b f13c b0dc 7ebc ff32 afbd
00000060: e02a 353b 32de a4bd adc4 ccbd 1977 73bd
00000070: a0ed c5bd 55be 93bd a847 ee3d f623 4e3c
00000080: cd08 f83c 0b74 f1bd 311e abbd 5ed9 45bd
00000090: 3d86 773e e0df d6be a489 8dbe a2f9 56bf
000000a0: 6d3c 05bf 8187 fabe c879 1a3f b4d9 32be
000000b0: 3d0f c5be aff2 a9be 2be5 e1bd 07b9 93be
000000c0: b672 973e 6932 0d3e 2d82 ed3e ceef 81be
000000d0: d2b7 f8be 49b0 333e 80a7 0dbd 13b0 f93d
000000e0: 2bbc 14bf 858d 4f3e 5042 c43e 8db7 ae3d
000000f0: f01e cbbd 228b ebbd 4f4c 3b3e fc02 82be
00000100: 9181 543e ebe1 183d f301 b23e 4b7c ff3e
00000110: 74ee ca3e 9b52 92bd 57c1 843e 9f85 a73e
00000120: e491 a9bd 5333 68be 6582 2fbe 6cd4 30be
00000130: b5b9 0dbd 84e8 0abe c94b a5bd adbd 0cbd
00000140: 3b54 d83d eb08 6fbd fdd7 7dbd 1b26 26be
00000150: a5d2 57bd 3551 a7bd c3f9 cbbd 7a80 b23c
00000160: 2a02 703c 9f55 acbd 8e52 74bd a06b b8bb
00000170: fdc3 863d a0b3 f6bc a4b6 89bd ac4d 25bd
00000180: 3650 b4bd 2a27 2c3d 59d2 ba3d c6ee e2bd
00000190: 27f4 d93c d518 783d 4e57 9d3c 95c1 2bbd
000001a0: 0fc9 7d3d a8df 7d3d 8e8b 333d 8b62 b3bc
000001b0: d4b4 91bd aa0f 23bd 1c3f 13be 83a4 b3bd
000001c0: 14f7 213d 47fd 263d 0ca5 22be cec0 cdbd
000001d0: d433 a5bd 48fb 0e3c fd4d 783d 56ae 4ebd
000001e0: 7bf5 66be b283 29be 6cb2 c6bd 6375 e9bd
000001f0: 2567 4bbe 97b9 a5be 1b3e 35be fb68 81be
00000200: 92d2 88be 3ad6 17be c045 17be 9bcb 51be
00000210: 707e b7be 7d43 a4be 08ea 92be 8b34 033e
00000220: 1907 d63c 025b 31be 64e7 48bd ac66 69be
00000230: 5789 cabe 80d4 adbd 0d79 92be ff77 a7be
00000240: bbfe 30be cf1a c4be a964 5d3e 1541 3cbe
00000250: b8dc 65be 3b74 dbbd 473d 07bf 35a8 bebe
00000260: ffbe d4bc 0a06 30be 89c2 9fbe 7772 823e
00000270: 46d4 19be fe17 6dbe 86d6 77be bb53 0abe
00000280: 1141 d3bc 738f fabe ec4b c2bc 48e7 8abd
00000290: e0ec afbc 81e0 a9bd 34b5 9dbd 721f 203d
000002a0: 4e76 0fbd 5d00 953d 38dc 1abd b1be aebd
000002b0: 0bc5 a8bc 6da2 63bd 9fa0 ffbc 324c d7bd
000002c0: 9e5c 8d3d e2d0 adbd 048b 543d aef7 473d
000002d0: f0f1 48be 6e24 8ebe 5882 5c3f 3eb2 fabe
000002e0: 621d 8ebe c748 033e f3b1 a5be 2008 d0be
000002f0: 6b73 99be fb2d b23e 7301 e53e b2a5 11bf
00000300: 3aa1 fe3d 6deb 743d 7d84 36be b445 0dbf
00000310: ca19 dfbe 1305 4dbd 8d0f a43e da51 2b3e
00000320: 3b98 0ebe e0ba 813d 457b 253e 1a1b dfbd
00000330: a75c 9dbe a614 ccbd e2c6 75be 2883 e33e
00000340: ee63 e63e 4131 a8be 2ddf f23d a8b4 923d
00000350: 7eff 88be 191b 1fbf b224 ffbd 42dc 9fbd
00000360: 8348 90be 3056 9dbe b81d ac3e 9d57 acbe
00000370: 3ef2 97be 626e 11bf 2269 553e 5056 cebe
00000380: be82 93be 828d 8cbd 3df3 b3be e7c2 053e
00000390: 5e8c 15be 8c35 39be 6ec1 a9bd c96e 8a3e
000003a0: e85e 92be 9b70 82be c11b e53d 84fd fd3c
000003b0: 29d0 a13d f3f3 ed3d d0ee 93bc 7461 c83c
000003c0: c8c0 a7bd 50f4 c6bc 25bf b23d c2a6 883d
000003d0: 7042 88bd 6c58 b2bd c971 a2bd 7db1 edbd
000003e0: 5f21 babd 8f7b 01bd dc94 9a3d 4dc7 6e3c
000003f0: f009 dfbe fc09 dcbe 3754 883e 4d74 04bf

conv_2.bias f4 [16]
0.03864404 -0.14763086 0.07164927 0.39733735 -0.0115872985 0.11304374 -0.3001023 0.22020496
-0.2756549 0.12776937 0.2719467 -0.15476058 0.14480528 0.14711858 -0.32194567 -0.7820861
00000000: 3649 1e3d 8b2c 17be dabc 923d cd6f cb3e
00000010: a7d8 3dbc 7a83 e73d 02a7 99be 697d 613e
00000020: a422 8dbe f9d5 023e 993c 8b3e 8f79 1ebe
00000030: d647 143e 41a6 163e 10d6 a4be cb36 48bf

conv_3.weight f4 [32, 16, 3, 3]
0.46687147 0.36490864 -0.29534876 -0.28290668 -0.014976427 -0.027695883 0.043112785 -0.17557064
0.026069263 0.03750193 -0.019081652 -0.09257039 0.019447338 0.07385182 -0.04724686 -0.034770753
0.11208218 0.062235642 -0.05825287 -0.022983205 -0.040923506 -0.18926333 -0.03721009 -0.040098004
0.031390935 -0.10252875 -0.17437544 0.036472734 0.078735135 -0.18964781 0.024403354 -0.121148236
-0.19279377 0.06772547 -0.19329283 -0.14190269 -0.3394188 0.46750522 0.2537356 -0.49478024
0.08695892 -0.07192451 -0.08732397 -0.11442362 0.020453056 -0.41080877 0.28970587 0.096715234
-0.40194324 0.06981036 -0.269348 0.055648483 -0.17713255 -0.26387686 0.1294904 0.01404623
-0.2403619 -0.11518127 0.032891635 -0.20208004 -0.34445602 -0.26794633 0.26703173 -0.13223137
0.07772348 -0.043876633 -0.04916224 0.037849724 -0.17420277 0.070996016 -0.1990193 -0.11942902
-0.17704721 -0.18013886 0.29746452 -0.1092798 0.13475569 -0.15984812 0.031663325 0.29689685
-0.02527188 0.004337146 -0.06728642 0.081399046 0.07336156 0.035674643 -0.013441014 0.071790114
-0.0073992545 -0.10338259 -0.10752037 0.14556204 -0.035595067 -0.09142002 -0.09213754 -0.20514907
0.025928846 -0.38413832 -0.1436312 0.024406333 -0.07579239 -0.015437635 -0.003847449 -0.036794063
0.027462421 0.0022404576 0.05593331 -0.009128646 0.08988951 0.33609718 0.058812317 0.15321276
-0.09672335 0.014520325 -0.017847432 -0.08784271 0.13402855 -0.3041922 -0.013056376 -0.29501998
-0.06391333 0.20473239 -0.12374502 0.101267606 -0.20877096 -0.1589726 -0.010690915 -0.00980529
0.04630415 -0.042564645 0.019332316 0.009957211 0.02278797 -0.120137736 0.031166743 -0.3039519
0.17400607 0.12160076 -0.21307866 -0.0594689 -0.10053491 -0.17871706 -0.09760487 -0.011730248
-0.25905037 -0.013643809 -0.15345937 -0.034871127 -0.003225551 -0.4006855 -0.28816444 0.1500976
-0.013272356 -0.061508812 -0.047084343 0.014945068 -0.052509636 -0.029149074 -0.015867578 -0.008255153
-0.025747169 0.0025502671 -0.15997803 -0.24354076 -0.08308939 0.024881285 -0.22250853 -0.02187455
-0.17593184 -0.16362749 0.31499183 -0.25332195 -0.31106013 -0.06807313 -0.17769663 -0.19860443
-0.06752833 -0.32320607 -0.13573298 0.2101046 -0.21517417 -0.23759891 0.45221195 -0.29091415
-0.16931392 0.15061648 -0.19615284 -0.07223807 -0.12886116 -0.1758564 -0.19556466 0.06929524
-0.15729801 0.0027136388 0.052420594 -0.23642996 0.0015303221 -0.15211463 -0.004365339 0.14513369
-0.2747833 -0.43873394 0.4737417 -0.7365348 -0.6259529 0.41933486 -0.5577184 -0.13005927
-0.044159338 0.08801978 0.021485537 -0.03396473 -0.072767355 -0.16761774 -0.05294478 -0.005171105
0.019480046 -0.20300448 -0.113173306 -0.10381555 -0.074654266 0.069384955 -0.16514967 -0.11644526
0.030408563 0.10616059 -0.36217877 0.05824565 -0.07622563 -0.07118524 0.20787263 -0.0038834438
-0.35920167 0.6569233 -0.29644755 -0.25687343 0.14949183 -0.120937906 0.12388477 -0.27539405
-0.37037852 0.45096081 -0.39851466 -0.0485473 -0.038888887 -0.058093216 -0.059647035 -0.07569306
-0.07463262 0.019913249 0.04842402 0.07687646 -0.12795465 -0.227527 -0.08413917 -0.20194487
00000000: c709 ef3e 4ed5 ba3e f437 97be 25d9 90be
00000010: b05f 75bc 7ae2 e2bc 0897 303d cac8 33be
00000020: 358f d53c a09b 193d 2051 9cbc 8b95 bdbd
00000030: 0650 9f3c 9f3f 973d ec85 41bd c76b 0ebd
00000040: 588b e53d cdea 7e3d 909a 6ebd 4647 bcbc
00000050: 689f 27bd 3fce 41be 9b69 18bd ce3d 24bd
00000060: c893 003d 98fa d1bd 7a8f 32be 6f64 153d
00000070: e33f a13d 0933 42be 8be9 c73c 911c f8bd
00000080: bb6b 45be a7b3 8a3d 8eee 45be f04e 11be
00000090: 4dc8 adbe d85c ef3e a2e9 813e d653 fdbe
000000a0: 8517 b23d 284d 93bd e9d6 b2bd ee56 eabd
000000b0: 2b8d a73c 8755 d2be 5454 943e a312 c63d
000000c0: 81cb cdbe bcf8 8e3d fbe7 89be aaef 633d
000000d0: 3c62 35be de1a 87be 2299 043e 2922 663c
000000e0: 6e21 76be 28e4 ebbd 61b9 063d 12ee 4ebe
000000f0: 8a5c b0be 4330 89be 62b8 883e a967 07be
00000100: 7d2d 9f3d fcb7 33bd 585e 49bd 5008 1b3d
00000110: 3662 32be 5c66 913d b7cb 4bbe 3497 f4bd
00000120: dd4b 35be 5276 38be 454d 983e 16ce dfbd
00000130: 65fd 093e 3aaf 23be 67b1 013d dd02 983e
00000140: f906 cfbc 9e1e 8e3b 76cd 89bd 8bb4 a63d
00000150: 963e 963d 931f 123d b337 5cbc b206 933d
00000160: 7275 f2bb 40ba d3bd a433 dcbd 370e 153e
00000170: 22cc 11bd 6b3a bbbd 9bb2 bcbd 9912 52be
00000180: bb68 d43c c7ad c4be 0f14 13be caef c73c
00000190: 0a39 9bbd 22ee 7cbc 7c25 7cbb 5fb5 16bd
000001a0: dff8 e03c a4d4 123b 541a 653d 5190 15bc
000001b0: fe17 b83d ee14 ac3e 2fe5 703d cee3 1c3e
000001c0: e416 c6bd a8e6 6d3c c734 92bc e1e6 b3bd
000001d0: c83e 093e 14bf 9bbe 69ea 55bc dc0c 97be
000001e0: fee4 82bd 5ea5 513e 076e fdbd 6465 cf3d
000001f0: 0ec8 55be b7c9 22be f328 2fbc 5ea6 20bc
00000200: 6ca9 3d3d 4458 2ebd ce5e 9e3c 9223 233c
00000210: d6ad ba3c c60a f6bd 6651 ff3c 959f 9bbe
00000220: a62e 323e d209 f93d 4b31 5abe a995 73bd
00000230: 3fe5 cdbd 9b01 37be 10e5 c7bd 3a30 40bc
00000240: 40a2 84be 488a 5fbc 7424 1dbe 07d5 0ebd
00000250: c463 53bb a626 cdbe 4a8a 93be 2fb3 193e
00000260: 4c74 59bc aaf0 7bbd 83db 40bd 29dc 743c
00000270: 5814 57bd 0aca eebc b9fc 81bc 9f40 07bc
00000280: baeb d2bc 6222 273b 48d1 23be c062 79be
00000290: c52a aabd d6d3 cb3c 47d9 63be 4232 b3bc
000002a0: 7a27 34be f78d 27be 9c46 a13e 6ab3 81be
000002b0: 4643 9fbe ed69 8bbd 1bf6 35be f65e 4bbe
000002c0: 4b4c 8abd 447b a5be 96fd 0abe a925 573e
000002d0: 9e56 5cbe 214d 73be 5388 e73e b3f2 94be
000002e0: a160 2dbe 353b 1a3e 4adc 48be 8ef1 93bd
000002f0: 2ef4 03be b313 34be 1a42 48be aaea 8d3d
00000300: bb12 21be 4ed7 313b fab6 563d b21a 72be
00000310: 1795 c83a f0c3 1bbe 1e0b 8fbb ed9d 143e
00000320: 66b0 8cbe bca1 e0be 468e f23e 8b8d 3cbf
00000330: 733e 20bf 0fb3 d63e a2c6 0ebf 422e 05be
00000340: 6ce0 34bd b743 b43d 7002 b03c 9a1e 0bbd
00000350: 0d07 95bd fca3 2bbe a0dc 58bd 5f72 a9bb
00000360: 9e94 9f3c 68e0 4fbe 68c7 e7bd 3f9d d4bd
00000370: 56e4 98bd b319 8e3d ff1c 29be da7a eebd
00000380: 611b f93c b96a d93d 7f6f b9be fe92 6e3d
00000390: 2f1c 9cbd 91c9 91bd 90dc 543e 6081 7ebb
000003a0: 48e9 b7be 202c 283f f9c7 97be ea84 83be
000003b0: 6314 193e 4bae f7bd 4cb7 fd3d 7300 8dbe
000003c0: 41a2 bdbe 56e4 e63e 1d0a ccbe 89d9 46bd
000003d0: f449 1fbd 27f3 6dbd 7350 74bd f704 9bbd
000003e0: fdd8 98bd 1c21 a33c 4458 463d 6871 9d3d
000003f0: 8b06 03be d6fc 68be 2851 acbd a3ca 4ebe

conv_3.bias f4 [32]
-0.59721977 -0.14307246 -0.46151745 -1.66438 -0.3222749 -0.12497139 -0.72516793 -0.010481109
-0.5714683 -0.21624096 -0.17287017 -0.06162195 -0.13234282 -0.6246289 0.16862072 0.1274667
0.16096887 -0.49715227 -0.07059588 0.098633036 -0.22878718 -0.03389475 -1.1246803 -0.13627468
-0.26320836 -0.38858843 -0.7443033 -0.80340683 0.0023239332 0.045031305 0.14118823 -2.1362736
00000000: 65e3 18bf 9681 12be 044c ecbe 670a d5bf
00000010: 3701 a5be 00f1 ffbd 9ba4 39bf f5b8 2bbc
00000020: bf4b 12bf 456e 5dbe e104 31be 4c67 7cbd
00000030: e084 07be aee7 1fbf e9aa 2c3e a186 023e
00000040: 06d5 243e be8a febe 9394 90bd 1e00 ca3d
00000050: 3047 6abe 39d5 0abd 86f5 8fbf 978b 0bbe
00000060: 3fc3 86be 10f5 c6be a98a 3ebf 12ac 4dbf
00000070: 214d 183b bf72 383d a693 103e b5b8 08c0

linear_1.weight f4 [1, 25088]
0.047009982 -0.026959201 -0.022000952 -0.13536792 0.117425874 0.29869837 -0.012218342 -0.17483109
-0.10850499 -0.10148566 0.0048343246 0.031474933 -0.005097569 -0.017135235 -0.005853149 0.039446298
-0.11589525 -0.05686681 -0.20094252 -0.13201217 -0.19918673 -0.08996517 -0.009056638 -0.04569222
-0.02744691 -0.024216639 -0.023742057 0.049921006 -0.009063587 -0.00841284 -0.0042068767 -0.013962061
0.0121325245 0.025294673 0.029526498 -0.00982504 -0.051218152 -0.09761208 -0.03692637 -0.06083359
0.028638462 0.00449095 -0.04972918 0.082512595 -0.056777023 -0.046744425 0.0021487097 0.04873812
0.03732617 -0.016733117 -0.006211508 -0.0068087606 -0.013672217 -0.013361062 -0.010539467 -0.0010550771
-0.01937154 0.0035093885 -0.007827009 0.015031666 0.019809134 0.012166561 0.14424497 0.03212854
-0.027545001 0.0033823247 -0.062065955 0.037499897 0.004982587 -0.11858833 0.028070696 -0.0072291656
0.16308862 0.00059998315 0.048937928 -0.070426404 0.016439816 0.03378365 0.030799067 -0.0027600648
-0.0025713176 -0.006432509 -0.008613819 0.0010142996 -0.04745393 -0.0057804286 -0.012430593 0.023115395
0.099968515 0.050799835 0.1520642 0.087422155 0.16171904 0.010970122 0.11202469 0.035630755
0.09406436 -0.057136517 0.1886076 0.087382324 -0.0013894379 -0.015984226 -0.07588745 -0.09162063
-0.084699996 -0.04792174 0.09220417 0.096114054 0.14221779 0.120265774 0.06880347 0.050353725
0.05770491 0.0068337964 -0.015249857 0.05167145 0.08226114 -0.059206877 -0.07753714 -0.031977754
-0.10160643 -0.022413047 -0.04025975 0.056730982 0.08201708 -0.10782346 -0.080344 0.06519071
0.12542225 0.06071842 -0.0538353 -0.066389486 -0.019611618 -0.114283994 -0.05331663 0.021271508
0.036843915 0.030039862 0.102858536 0.018787477 -0.07709811 -0.036148183 0.039719917 0.040982924
0.019153073 0.016171493 0.033873897 -0.06538981 -0.01282263 -0.06882669 -0.2173893 0.1716356
-0.0987921 -0.23820251 0.43467465 0.068504274 0.09801343 -0.08308114 0.054692633 -0.0055558234
-0.10700064 -0.09461953 -0.08023475 0.12998079 0.18550082 -0.09141054 0.10102914 0.11501266
0.16761586 0.06864569 0.070564546 -0.027424255 0.083830856 -0.065570906 0.1690897 -0.32751206
-0.011598802 -0.17728862 -0.035167705 0.01779506 0.11795473 -0.14006391 0.05944315 -0.08223401
0.11394273 0.013526103 -0.04302675 -0.11669043 0.15980414 0.20159791 -0.1031671 -0.029039118
0.20740588 -0.034196954 0.11711793 0.06131098 -0.079684034 0.16155303 -0.053318955 0.01112897
0.003043835 0.26432064 0.015514918 -0.000895918 -0.009444194 -0.018541006 -0.21434654 -0.17967547
0.13108034 0.043941535 -0.028170222 0.03438454 0.0028223498 0.25703272 -0.0046829293 0.041765794
0.03486684 0.07091764 0.1279119 -0.10396939 -0.028951675 0.037696555 0.031260148 -0.024522914
-0.045229893 0.10453543 0.16323963 -0.09175095 -0.16952473 0.108308144 0.017699786 0.053034313
-0.25751263 -0.052402608 -0.056324825 -0.01986243 -0.1575252 -0.20231393 -0.15327099 0.051111918
-0.05727591 0.16051057 0.060610898 0.096392006 -0.0008901661 0.14904039 -0.05289586 0.17252813
-0.13797395 0.061121307 0.0122596575 0.086091354 -0.012678096 0.109812714 0.05403959 -0.039600644
00000000: 8a8d 403d 8bd9 dcbc 573b b4bc e39d 0abe
00000010: fa7c f03d feee 983e 712f 48bc ec06 33be
00000020: dd37 debd b7d7 cfbd 4169 9e3b dceb 003d
00000030: 8209 a7bb 315f 8cbc c6cb bfbb 7192 213d
00000040: 7d5a edbd 2ced 68bd e0c3 4dbe 332e 07be
00000050: 9bf7 4bbe a93f b8bd 4b62 14bc c427 3bbd
00000060: 58d8 e0bc f961 c6bc b47e c2bc f879 4c3d
00000070: 707f 14bc 02d6 09bc d7d9 89bb 21c1 64bc
00000080: 7fc7 463c c636 cf3c 8ee1 f13c 34f9 20bc
00000090: 20ca 51bd d8e8 c7bd 1b40 17bd a42c 79bd
000000a0: 359b ea3c d228 933b d3b0 4bbd 5dfc a83d
000000b0: 068f 68bd 1577 3fbd 5ed1 0c3b 9fa1 473d
000000c0: 53e3 183d e413 89bc e889 cbbb 061c dfbb
000000d0: 6f01 60bc 5be8 5abc bbad 2cbc 834a 8aba
000000e0: 10b1 9ebc c5fd 653b db3c 00bc 6047 763c
000000f0: c446 a23c 4156 473c f4b4 133e 3799 033d
00000100: 0ea6 e1bc fea9 5d3b df38 7ebd 7e99 193d
00000110: f844 a33b 70de f2bd 84f4 e53c a3e2 ecbb
00000120: b400 273e 3048 1d3a 2373 483d b83b 90bd
00000130: cbac 863c b960 0a3d 534e fc3c 34e2 34bb
00000140: 8d83 28bb ccc7 d2bb fa20 0dbc 3ff2 843a
00000150: 0d5f 42bd c069 bdbb b0a9 4bbc 7f5c bd3c
00000160: 4bbc cc3d 7d13 503d b8b6 1b3e 630a b33d
00000170: ad99 253e 07bc 333c 336d e53d 8ef1 113d
00000180: d1a4 c03d fb07 6abd 5a22 413e 81f5 b23d
00000190: cd1d b6ba 5af1 82bc e16a 9bbd 99a3 bbbd
000001a0: 3177 adbd 9649 44bd 8ad5 bc3d 72d7 c43d
000001b0: 8aa1 113e e74d f63d d5e8 8c3d b53f 4e3d
000001c0: fc5b 6c3d 0aee df3b 89da 79bc 71a5 533d
000001d0: 8778 a83d e982 72bd cbcb 9ebd 1bfb 02bd
000001e0: 0817 d0bd 919b b7bc 68e7 24bd bf5e 683d
000001f0: 92f8 a73d 8cd2 dcbd 658b a4bd b582 853d
00000200: b16e 003e e1b3 783d 6782 5cbd 36f7 87bd
00000210: 8ba8 a0bc ba0d eabd 8a62 5abd 9641 ae3c
00000220: a5e9 163d 2816 f63c 7fa7 d23d 32e8 993c
00000230: 9de5 9dbd 1e10 14bd 5ab1 223d b6dd 273d
00000240: e8e6 9c3c 147a 843c 5bbf 0a3d 18eb 85bd
00000250: 0216 52bc 02f5 8cbd 4d9b 5ebe 3ec1 2f3e
00000260: 8353 cabd 5ceb 73be ad8d de3e f84b 8c3d
00000270: 44bb c83d 7226 aabd 6205 603d a00d b6bb
00000280: 2723 dbbd e2c7 c1bd 1e52 a4bd af19 053e
00000290: edf3 3d3e 7335 bbbd 5ee8 ce3d c28b eb3d
000002a0: 7ea3 2b3e 1d96 8c3d 2584 903d d5a8 e0bc
000002b0: 83af ab3d 0a4a 86bd da25 2d3e a9af a7be
000002c0: e708 3ebc 268b 35be 030c 10bd f2c6 913c
000002d0: 4092 f13d ea6c 0fbe a97a 733d 4e6a a8bd
000002e0: ce5a e93d 979c 5d3c d13c 30bd 64fb eebd
000002f0: b2a3 233e af6f 4e3e 4649 d3bd 72e3 edbc
00000300: 3562 543e 1b12 0cbd 86db ef3d 3921 7b3d
00000310: 6231 a3bd 286e 253e fa64 5abd 4956 363c
00000320: 147b 473b 0955 873e 4832 7e3c 0adc 6aba
00000330: d2bb 1abc 4fe3 97bc a97d 5bbe d9fc 37be
00000340: ed39 063e 0afc 333d 3dc5 e6bc ced6 0c3d
00000350: 2cf7 383b cb99 833e 4273 99bb 9c12 2b3d
00000360: 88d0 0e3d 453d 913d 56fb 023e e7ed d4bd
00000370: 102c edbc b467 1a3d a40a 003d 47e4 c8bc
00000380: fb42 39bd ac16 d63d 4a28 273e ece7 bbbd
00000390: e497 2dbe a9d0 dd3d 24ff 903c 823a 593d
000003a0: b2d8 83be 1ea4 56bd dcb4 66bd 89b6 a2bc
000003b0: 494e 21be 622b 4fbe 12f3 1cbe bb5a 513d
000003c0: 259a 6abd e25c 243e 2243 783d 2c69 c53d
000003d0: 095a 69ba 0b9e 183e 54a9 58bd 37ab 303e
000003e0: 0b49 0dbe 565a 7a3d bbdc 483c aa50 b03d
000003f0: cab7 4fbc 7de5 e03d 9e58 5d3d 4934 22bd
