models/BEST/ConvNet_60.pth (torch, 127524 bytes, 7 tensors)

conv_1.weight f4 [8, 1, 3, 3]
00000000: 4980 a63d 4b9c b03e 6dcb d63e dc22 2e3f
00000010: b350 553f 2ae5 3a3f 4167 a53e d416 893e
00000020: ff51 373f 07a0 37bf 1c19 58be 982f 893e
00000030: 1aff 12be fd95 633e fc08 a13e 0260 0e3e
00000040: 11f1 993e df98 9f3e 1859 1fbe b402 ae3d
00000050: c843 1dbe d81d 20bd a8a2 0abe 3e6e 623e
00000060: 1cb8 86be b35b 1dbe 90c4 c0bd dc61 54be
00000070: 1425 c03c 1857 a9be 4feb 943e 65e2 8bbe
00000080: 1ecd 813e f085 5f3d 2da4 bebd 1fb3 513e
00000090: 3acb 8cbc 064a 253e a442 123f 2d09 4f3e
000000a0: f99a 643f d9fc 313f 2ec8 f23e 5d04 0b3f
000000b0: fe01 783f 01c3 86bf bc7a f9be 832c 28bf
000000c0: ff6a 12bf 1c9d 49bf 4d0c 7bbf ce1d 79bf
000000d0: c7bb 84bf 7188 dabe 3d83 37bf ce19 13bf
000000e0: 646b 3ebf 7dfc 1dbf b381 79be e2d2 49bf
000000f0: 6cf4 40bf 33a2 40bf e16c 42bf 04cc 7dbf
00000100: 1405 0cbf d469 5bbf 11ec 6fbe 575a 0cbf
00000110: 6e27 65bf ccaa 6dbf d501 4cbe a68f 22bf
0.08129937 0.34494242 0.41952077 0.6802194 0.8332626 0.73005927 0.3230534 0.2677523
0.7160949 -0.7172856 -0.21103328 0.26794124 -0.14355126 0.22225185 0.31452167 0.13903812
0.30066732 0.3117132 -0.1556133 0.08496609 -0.15357888 -0.03909096 -0.13538611 0.22112367
-0.2631234 -0.15367012 -0.09412491 -0.20740455 0.02345518 -0.3307426 0.29085776 -0.27321163
0.25351804 0.054571092 -0.09308658 0.20478486 -0.01718675 0.16141519 0.57132936 0.20218344
0.8929897 0.6952644 0.4741835 0.5430353 0.9687804 -1.052826 -0.4872645 -0.6569292
-0.57194513 -0.78755355 -0.98065645 -0.97311103 -1.0369805 -0.42682222 -0.7168463 -0.5746125
-0.74382615 -0.6171339 -0.24365883 -0.78837407 -0.7537296 -0.75247496 -0.75947386 -0.9913943
-0.5469525 -0.85708356 -0.23429896 -0.5482535 -0.8951329 -0.9283874 -0.19922574 -0.6350044

conv_1.bias f4 [8]
00000000: 4a44 4abf 2322 dabf bb47 a9be caa2 92be
00000010: 5a81 34bf bebd 203f 6ccf 253f 120c 103e
-0.7901045 -1.7041668 -0.33062539 -0.28639823 -0.70509875 0.62789524 0.64769626 0.14067104

conv_2.weight f4 [16, 8, 3, 3]
00000000: 841e 7c3e 1d5c 8cbe bc10 b23d 8f1d 0bbf
00000010: 3c14 93be 3db6 a3be b062 213f e451 1dbe
00000020: f948 b4be 84b9 683d c6e4 64be 4b7f 97bd
00000030: 6405 09bf a372 f9be ac32 0dbf fe2b 9a3e
00000040: 3fe2 6d3d 6721 a6be ac21 2bbd ac89 e9bd
00000050: 1c38 8abd 6c2b f13c b0dc 7ebc ff32 afbd
00000060: e02a 353b 32de a4bd adc4 ccbd eab0 74bd
00000070: 4ae4 c5bd 00b2 92bd 86bb ed3d 14d6 7b3c
00000080: 32d1 053d 0f51 ecbd b38c a9bd adfe 4bbd
00000090: 1f2a 5f3d 3740 94be e01e 8b3d 2777 0ebf
000000a0: a410 cdbe b333 efbe bc7d 213f f9cc a3bd
000000b0: 3884 e4be 9bc8 30be 2313 e83d 8942 90be
000000c0: cee5 4a3e 9b5f 8d3e 0ac8 be3e acd0 2abe
000000d0: af76 64be 71d8 433e b566 d2bd 957c 063e
000000e0: 74fe b4be d641 c73d 8a64 a53e a938 3c3e
000000f0: 37f4 c6bd a4d5 42be 2008 653e 1327 c7be
00000100: 0363 2f3e 7347 c4bd 967d 523d 83b1 b93e
00000110: 2cd7 953e 45c8 a8be e512 d93d 7092 d13c
00000120: 8af2 7cbd fe59 60be 8b2b fdbd fd7e 14be
00000130: 46af b2bc 916e 92bd a9b1 d13b f626 283c
00000140: f4fc 1c3e eb08 6fbd fdd7 7dbd 1b26 26be
00000150: a5d2 57bd 3551 a7bd c3f9 cbbd 7a80 b23c
00000160: 2a02 703c 9f55 acbd 8e52 74bd a06b b8bb
00000170: fdc3 863d a0b3 f6bc a4b6 89bd ac4d 25bd
00000180: 3650 b4bd 2a27 2c3d 59d2 ba3d c5ec e2bd
00000190: 3cf2 de3c 8a15 773d 79cf a03c 292e 31bd
000001a0: a017 793d 8e76 7c3d 43e1 323d 2483 b4bc
000001b0: 6cfe 93bd af50 3fbd 5a7c 22be 57bb debd
000001c0: 9847 e7bb 8335 3dbc 87c6 0ebe b07d f5bd
000001d0: 67a6 e4bd 66a0 023e 84da 233e b33b a93d
000001e0: 4f6c b3bd b18e 9fbc fc42 b73d a431 e33c
000001f0: 0ae0 2ebd d2a9 f1bd 9212 a7bd ed4c 03be
00000200: 301a ddbd 3ac9 6ebc e1e7 703c 5985 9fbc
00000210: 38a7 39be eb56 1bbe 6f63 a5bd ee81 7d3e
00000220: 2086 fb3d 47e8 4abd 5f3e cd3d 11eb 9cbd
00000230: 0fc6 5fbe 2b29 953d 8869 17be 1f70 18be
00000240: c861 90be 6a3e 76be 7fd8 f63e 54d4 46be
00000250: 8c54 73be cf2c 84be c188 b2be 2edb 6bbe
00000260: 8a2e 1cbe 0a06 30be 89c2 9fbe 7772 823e
00000270: 46d4 19be fe17 6dbe 86d6 77be bb53 0abe
00000280: 1141 d3bc 738f fabe ec4b c2bc 48e7 8abd
00000290: e0ec afbc 81e0 a9bd 34b5 9dbd 721f 203d
000002a0: 4e76 0fbd 5d00 953d 38dc 1abd e448 b0bd
000002b0: 1919 9bbc c186 69bd 446e 06bd 1d9d dabd
000002c0: 48d8 893d 43e1 acbd c38e 583d d72d 493d
000002d0: fff4 7dbe 2eea efbe c113 e23e ca27 b9be
000002e0: be64 60be 9936 383e c27f 49be 3002 7cbe
000002f0: c8c6 8fbe 6a5c a53e 51ed d73e 68fb ddbe
00000300: 9e1e 023e 1219 223e e820 143d 9122 8cbe
00000310: e551 31be 83d6 1c3c 3c69 903e df8c 4f3d
00000320: 3a7b 7cbe e964 823c df06 c43d 76b9 fdbd
00000330: 062b 87be 1c23 43bd 3cd5 2cbe a3ee ee3e
00000340: 87fc ca3e 3b04 c7be d71c 323e 69ce f93d
00000350: 4c81 83be 0250 a2be 47cd 233e 1dec 7bbc
00000360: 30f6 a8bd fbad 18be 29be de3d a0fb 39be
00000370: 781e fbbd c46c a8be 2554 533c 1f72 39be
00000380: 61e4 09be 828d 8cbd 3df3 b3be e7c2 053e
00000390: 5e8c 15be 8c35 39be 6ec1 a9bd c96e 8a3e
000003a0: e85e 92be 9b70 82be c11b e53d 84fd fd3c
000003b0: 29d0 a13d f3f3 ed3d d0ee 93bc 7461 c83c
000003c0: c8c0 a7bd 50f4 c6bc 25bf b23d ba9f 853d
000003d0: a447 8cbd 1998 b4bd 81e8 a2bd 767c ecbd
000003e0: 418f bbbd 56c0 eebc a5d5 a13d dc61 8f3c
000003f0: ffdb 0bbe 4334 cbbe 2369 8f3e 6150 79be
0.24621016 -0.27414027 0.08694598 -0.5434198 -0.28726375 -0.31974974 0.6304121 -0.1536327
-0.35211924 0.056817546 -0.22352895 -0.07397326 -0.5352385 -0.48720273 -0.55155444 0.30111688
0.058077093 -0.3244736 -0.04178016 -0.11403212 -0.06748983 0.02943965 -0.015555546 -0.085546486
0.0027643964 -0.08050193 -0.099984504 -0.05973903 -0.09662683 -0.07162857 0.11608033 0.015370864
0.032670207 -0.11538898 -0.08278789 -0.049803425 0.05448353 -0.28955242 0.06792998 -0.5565056
-0.40051758 -0.4671913 0.6308248 -0.0799808 -0.44632125 -0.17264025 0.11331775 -0.28175762
0.19814226 0.27612004 0.37261993 -0.16681165 -0.22310899 0.19125535 -0.10273496 0.13133462
-0.35350382 0.09729354 0.32303268 0.18380989 -0.09714549 -0.1902681 0.2236638 -0.38897
0.17127614 -0.0958394 0.0513893 0.36268243 0.29265726 -0.32965294 0.10599307 0.025582522
-0.06175474 -0.2190933 -0.12361821 -0.14501567 -0.021812093 -0.07149995 0.0063993526 0.010263195
0.15330869 -0.058358114 -0.06197356 -0.16225474 -0.05269112 -0.08169786 -0.09959748 0.021789778
0.014648953 -0.084147684 -0.059649043 -0.0056280643 0.065803505 -0.030114949 -0.06724289 -0.040357277
-0.088043615 0.042029537 0.09122152 -0.110803165 0.027215116 0.060323276 0.01963018 -0.043256912
0.060813546 0.0616365 0.043671858 -0.022035189 -0.072262615 -0.046707805 -0.15867749 -0.10875576
-0.007058095 -0.011548403 -0.1394292 -0.119868636 -0.11164551 0.127565 0.16001326 0.0826334
-0.087608926 -0.01947722 0.08948323 0.027733631 -0.04269413 -0.11799969 -0.08157839 -0.12822314
-0.107960105 -0.014574343 0.014703722 -0.019472765 -0.18130195 -0.15169875 -0.08075606 0.24756595
0.12281442 -0.049537923 0.10021662 -0.07662023 -0.21852897 0.07283243 -0.1478635 -0.14886521
-0.281996 -0.24047247 0.48212048 -0.19416934 -0.23762721 -0.25815436 -0.3486996 -0.23032829
-0.15252128 -0.17189804 -0.31203106 0.25477955 -0.15022382 -0.23153684 -0.24202928 -0.13508503
-0.025787862 -0.48937568 -0.023717843 -0.06782395 -0.021475255 -0.08294774 -0.077005774 0.03909249
-0.035024934 0.0727546 -0.037807673 -0.08607653 -0.018932866 -0.057013277 -0.03282 -0.10674498
0.067307055 -0.08441403 0.052870523 0.049115982 -0.2480049 -0.46858352 0.44155696 -0.3616317
-0.2191343 0.17989577 -0.19677642 -0.2461021 -0.28081346 0.3229707 0.42173246 -0.4335587
0.12706992 0.15829876 0.036164194 -0.27370122 -0.17316397 0.009572628 0.28205287 0.050671455
-0.24656382 0.015917258 0.09571623 -0.123888895 -0.26400012 -0.047640905 -0.16878217 0.4666644
0.39645788 -0.38870415 0.17393814 0.12197573 -0.25684583 -0.31701666 0.15996276 -0.015376118
-0.082500815 -0.14910118 0.10876114 -0.18162394 -0.12261671 -0.32895482 0.01289848 -0.1810994
-0.13466026 -0.06862928 -0.35146514 0.1306263 -0.14604327 -0.18086833 -0.08288847 0.27037647
-0.28588033 -0.25476536 0.11186934 0.031004675 0.079010315 0.11618795 -0.01805821 0.024460532
-0.08191067 -0.02428642 0.08727864 0.06524606 -0.06849602 -0.08818073 -0.07954503 -0.115471765
-0.09158183 -0.029144447 0.079020776 0.017502718 -0.1365814 -0.3968831 0.280099 -0.24347068

conv_2.bias f4 [16]
00000000: 6ec6 813e 60ea b83d 703e a93c 4845 b93e
00000010: 3cb2 b3bd 6e8c e33d e12f 3dbe ce89 aa3d
00000020: f524 98be f741 8ebd 57bf 183e 7342 22be
00000030: 6863 993e bbae 0f3e e9de a4be 2fec 3bbe
0.25346702 0.090290785 0.020659655 0.3618567 -0.0877423 0.11110769 -0.18475296 0.083270654
-0.29715696 -0.069461755 0.1491674 -0.15845661 0.29958653 0.14031498 -0.32201317 -0.18351816

conv_3.weight f4 [32, 16, 3, 3]
00000000: 495d 793e 4eb9 673e df93 f8bd 27c1 37be
00000010: c8a4 d63c a253 903d af19 7bbd 6949 91bd
00000020: 5185 df3d 392c 323d e75c e13b d5b4 a6bd
00000030: 322a 113c fb76 663d 4f2f 6fbd e038 47bd
00000040: 123f bd3d 84b0 8e3d c846 d8bd 2cb9 d1bc
00000050: 69d2 5bbd 230c 16be 161e abbd 219d 35bd
00000060: 1d65 f13d c26d 1cbc c891 f0bd ca30 1c3d
00000070: 1eec 3d3d 84d5 5dbd 2e6e b23c adf5 79bd
00000080: c26e cdbd a05d 8f3d 496c b4bd 642c 8ebd
00000090: 6b44 5cbe 514e ba3e 2486 9f3e 3ed5 c1be
000000a0: c392 8a3e f96c 63bd fd22 ebbd c9e1 433d
000000b0: e621 053d bf25 9dbe bb3e f63d 1350 3a3e
000000c0: 1342 9ebe afaf babc 919c 2bbe f716 0abd
000000d0: a9fc 18be d603 efbd d252 223e 0757 353d
000000e0: 0b47 11be 0898 d4bc 2331 f13c 649b 60bd
000000f0: b86b 4dbe bde0 36be 15c6 2a3e 6bc6 f9bc
00000100: 1a94 4a3d 523e 80bc c0d1 38bc 6791 14bc
00000110: 11e6 94bd f074 be3c 1073 d8bd 67f3 a0bc
00000120: 84b4 0bbe 2479 d6bd 2f9b fc3d a837 3abd
00000130: c65f 2d3d 8f82 14be 4443 383c 32c2 683e
00000140: e54f 03be 6acc 76bd d101 27be c6f8 ad39
00000150: 37a6 96bc ea7f 223d 79ff d7bd 8a1d a33e
00000160: 3d4d 4f3d cd83 06bd 8ab3 043d 5b3a ac3d
00000170: fddc f83c 9717 b8bc 230c 343c 242c c0bd
00000180: 5b77 0c3d 0615 5ebe 5941 c9bc 8a59 cd3c
00000190: 3ddd 9abd ca36 7abc 7f84 79bb f7b3 14bd
000001a0: 341e e53c 7b2a 0b3b e717 653d 44b6 17bc
000001b0: f575 483b bc87 333e fae2 813d 6ad2 2f3d
000001c0: e67a d0bd 0eee 153d 9441 a2bd 85a1 54bd
000001d0: 0861 0b3e f471 7cbe 9bf9 9c3d a44d b6bd
000001e0: 5e4e b3bd 3d00 073e 58ed 10bd 6ab8 5c3b
000001f0: 1026 f0bd 6378 c5bd 7227 2fbc 04a6 20bc
00000200: 6ca9 3d3d 4458 2ebd c766 9e3c e816 233c
00000210: d6ad ba3c c60a f6bd 2f5a ff3c d965 16be
00000220: ef4d 2b3e 4af8 3e3c 5c9b babd 0b51 3dbc
00000230: 02da b2bd 40fd c5bd 0222 d6bd 8851 42bd
00000240: 665a 20be f697 70bd 6312 cfbc e362 1dbc
00000250: 64e0 0cbd 5306 80be 9e96 fdbd 8e7f a63d
00000260: c9b6 9abc 03a8 8bbd 6e94 49bd fb71 483c
00000270: 2d10 66bd 2a02 e5bc e8b5 97bb 5acc 98ba
00000280: aeda 99bc 92d3 ed39 5de5 00be 99ee f1bd
00000290: a222 813c 735d a0bc df52 07be a302 853c
000002a0: e84f 1bbe f088 37bd 318b 583e a0dd d8bd
000002b0: 648a 5abe 8087 963c 17ce cfbd 7501 3bbe
000002c0: d495 97bd 287a 0ebe 50a3 c83c 3a78 133e
000002d0: 2c4d 5dbe 4454 ecbd 6df5 4b3e face 71be
000002e0: cdb0 eebd 0302 ff3d c982 57be c8e6 d3bd
000002f0: 5e64 13be 8a0c 72bc 14f4 25be 351d e73b
00000300: 720f 19be 1e28 70bd c3dd a2bb 02b4 3fbe
00000310: 2ae6 92bd f589 7ebe 984f 20bd 07ac 553d
00000320: b45c 17be 754b edbe 696b c93e 8b74 14bf
00000330: cf72 a9be df23 003f 71e8 6cbe b439 a5bd
00000340: 4da1 5cbd af5a 61bd e550 b7bb b91d cfbd
00000350: e53e 5abe 7d24 abbd 6051 82bd 1884 69be
00000360: 98a0 08be 42be 14be 37e4 58bd 4749 abbd
00000370: 543a 173c 7e3c 833d 1c65 07be 298e 88bc
00000380: 7e58 cabd f67b f83c a6ef b1be 64dd 6bbd
00000390: fb67 66bc 1b9b 6dbd 32d7 633d cb56 bdbd
000003a0: 12c1 18be 2c2c 0b3f 70ab 55be 1c20 3dbe
000003b0: 96a0 433c d54b cebd 869d dc3c 3df7 53be
000003c0: e57a 16be 7564 c23e c655 92be 2f10 45bd
000003d0: 1565 20bd b0a8 6dbd 47ea 74bd b2e2 9bbd
000003e0: 8f82 98bd ee0a a33c 8ddf 483d 12d4 9c3d
000003f0: 0cdd 0bbd e6a7 dbbd dd06 803b 7b50 15be
0.24351992 0.22629282 -0.12137579 -0.17944776 0.02620162 0.07047202 -0.06130379 -0.0709408
0.109141 0.043499205 0.00687753 -0.0813996 0.008860158 0.056265812 -0.058394726 -0.048638225
0.09240545 0.069672614 -0.105603755 -0.025600992 -0.05366746 -0.14653067 -0.08355348 -0.044339303
0.11786864 -0.009547653 -0.117465556 0.038132466 0.046367757 -0.054158702 0.021781053 -0.06102531
-0.10030891 0.070002794 -0.08809716 -0.069420606 -0.21510474 0.36387876 0.3115703 -0.37858003
0.27065095 -0.055523846 -0.11481283 0.047822747 0.03250303 -0.3069286 0.12023684 0.18194608
-0.30909786 -0.02278885 -0.16758944 -0.033713307 -0.14940132 -0.116706535 0.15851906 0.04427245
-0.14187257 -0.0259514 0.029442376 -0.054835692 -0.20060623 -0.17859168 0.16677125 -0.03049012
0.049457647 -0.015654717 -0.011280477 -0.00906787 -0.07270444 0.02324912 -0.105688214 -0.019647313
-0.1364308 -0.104723245 0.123342864 -0.045463234 0.042327665 -0.14502929 0.011246506 0.2273033
-0.12823446 -0.06025354 -0.16309287 0.00033182482 -0.018389804 0.03967277 -0.105467744 0.31858474
0.05061077 -0.03284054 0.032397784 0.08409568 0.030378813 -0.022472186 0.010989222 -0.09383419
0.034293514 -0.21687707 -0.024567293 0.02506711 -0.07561729 -0.015271852 -0.0038073359 -0.03630444
0.027968504 0.0021235037 0.055931 -0.009259764 0.0030587886 0.17532247 0.063421205 0.042925276
-0.10179691 0.03660398 -0.07922664 -0.05191185 0.13611233 -0.24652845 0.07664796 -0.089015275
-0.08755182 0.13183685 -0.0353826 0.0033679255 -0.1172601 -0.096421026 -0.010690557 -0.009805206
0.04630415 -0.042564645 0.019336117 0.009954192 0.02278797 -0.120137736 0.031170933 -0.1468729
0.16728948 0.011655876 -0.09111664 -0.011554967 -0.08732988 -0.09667444 -0.10455705 -0.047441036
-0.15659484 -0.05873867 -0.025277322 -0.009606096 -0.034393683 -0.25004825 -0.123822436 0.08129798
-0.018885987 -0.06819155 -0.04921382 0.012234206 -0.05616777 -0.027955133 -0.004629839 -0.0011657581
-0.018781032 0.00045361795 -0.12587495 -0.11813087 0.015763585 -0.01957581 -0.13215207 0.016236609
-0.151672 -0.04480833 0.21146847 -0.105891466 -0.21341854 0.018375158 -0.101467304 -0.18262275
-0.07401624 -0.13913786 0.024491936 0.14401332 -0.2161147 -0.1153951 0.19917841 -0.23614112
-0.11654816 0.124515556 -0.21045984 -0.103467524 -0.14393756 -0.014773497 -0.1620639 0.0070530423
-0.14947298 -0.05863201 -0.0049702837 -0.18721011 -0.071728066 -0.24857314 -0.039138407 0.05216601
-0.14781457 -0.46346632 0.3933976 -0.5799033 -0.33095405 0.50054735 -0.23135544 -0.080676466
-0.053864766 -0.055018123 -0.00559436 -0.10113091 -0.21313055 -0.08356569 -0.06363177 -0.22804296
-0.13342512 -0.14525703 -0.052952018 -0.08363586 0.009230215 0.06408022 -0.13222164 -0.01666935
-0.0988016 0.030332547 -0.3475315 -0.05758418 -0.014062877 -0.05800925 0.055625148 -0.0924507
-0.149174 0.54364276 -0.2086618 -0.1846928 0.011940142 -0.100730576 0.026930582 -0.20699783
-0.14695318 0.37967268 -0.28581065 -0.048111137 -0.0391589 -0.0580222 -0.059793737 -0.07611598
-0.07446777 0.019902673 0.04904132 0.07657637 -0.034146354 -0.107253835 0.003907068 -0.14581482

conv_3.bias f4 [32]
00000000: 3181 cbbe 7eff 9ebd edb1 92be 4b87 92bf
00000010: a2b1 84be 69a4 a6be 50ea 24bf b878 09be
00000020: e9f4 d6be e975 53be a5db 69be 6999 57be
00000030: 8aa2 2abe 969f 40bf 6299 053e 5187 bc3d
00000040: 8178 4d3e 1228 f7be d7c9 0ebe 698f 943d
00000050: 9ff5 6bbd 5b0c f2bc ed56 49bf 9d34 5abe
00000060: 8683 f0bd c611 93be e2da edbe 1a03 1abf
00000070: 1dfc 6c3d 4b56 0fbe 512b a93e be39 94bf
-0.39747003 -0.07763575 -0.28651372 -1.1447538 -0.25916773 -0.3254731 -0.6442003 -0.13424957
-0.41983727 -0.20650448 -0.22837694 -0.21054615 -0.16663566 -0.7524351 0.13046792 0.09205497
0.200655 -0.4827276 -0.13944183 0.07253916 -0.05760729 -0.029546907 -0.78648263 -0.21309133
-0.11743836 -0.28724498 -0.46456057 -0.6016098 0.05785762 -0.13997762 0.3304086 -1.1580122

linear_1.weight f4 [1, 25088]
00000000: a085 253d ad18 a5bc 02ab 96bc d31f 94bd
00000010: 7477 603d a9f6 973d 39ab 3c3d 1d3c 15bd
00000020: 12b3 69bd 239f 4cbb e96f 223d a7ba 91bc
00000030: 3111 b9bc ddac 9abc 9706 9abc 6419 89bc
00000040: 3f41 8fbc e2de 53bc 93c9 20bd 6b74 e1bc
00000050: 1d5e ffbc 3475 9bbb a110 1f3c 88c4 8fbc
00000060: e490 65bc 38a1 4dbc e9d6 5dbc 22b6 9abc
00000070: c7e7 05bc 462b 44bc b96b 35bc 95c9 92bc
00000080: 9905 04bd 03e3 d7bc b5d8 113b 2227 643c
00000090: fc5c 49bc 068e 48bd b8e0 e7bc 8cce 37bb
000000a0: d095 343d 7cfb 5e3d f771 87bc 9337 203d
000000b0: c84d 773b ad93 f4bb a9fc 6abc 49fd 803c
000000c0: babc af3c 6143 3cba a7a1 47bc 3028 3cbc
000000d0: bbd9 8abc fcdf 87bc a262 67bc fd62 5ebc
000000e0: ec33 48bc 7336 aabc 3720 65bc 1578 54bc
000000f0: 3756 a0bb fedb 83bc ed29 ab3d 9d5d d53d
00000100: 2565 e53c cd56 693d aaca b73c 9e08 e33c
00000110: ff5e e13c f8ab 0bbd c387 053d 5b96 9f3c
00000120: 866e 163e c691 4c3c 4c5e d73c 1aa6 8abc
00000130: 68c6 33bc caa9 823c 3e52 433c baff c6bb
00000140: a6b8 f5bb 1b53 46bc 65e3 57bc 2798 7fbc
00000150: e2c8 fdbb 817d 37bc 5ff0 90bc b95a 9ebb
00000160: d214 fe3c c7c3 813b abe0 d13d 4b44 243d
00000170: 64a1 f23d 4beb 523d ef43 a73d f88d a93d
00000180: 7e84 003d c8db 28bc b41f 2b3e 3cc1 a13d
00000190: b34c 703c de74 183d 4304 383c d194 85bb
000001a0: 5968 64bb b1c8 3d3c 2d47 3e3d 2c2f 653d
000001b0: ed93 8e3d 853e 233d f317 603c edb3 87bb
000001c0: 9466 3a3c dd21 0cbc 70ea f7bb ea5e a73c
000001d0: d5ed 2ebb f0b1 843c 1734 07bc b15b e13a
000001e0: c915 15bd 3cd9 4fbd 375d 74bd fab6 653d
000001f0: bd59 d23c ab7e 0d3d b096 29bd 9dfd 1d3d
00000200: bcbc a13d 9941 833d 4da1 3a3c 23c2 1b3c
00000210: 1d85 753b 35d8 4bbd dee7 6abb e1e7 7e3c
00000220: 4850 a63c 3b41 ad3c 6de5 ce3c 3352 e4bb
00000230: 284a 273c bbcc 1dbd b94a 093d 0eb6 7bbc
00000240: 9065 eebc 872e 2a3c fc7a f63c af1a cf3b
00000250: ddce 883d d86c 713a e5d8 11be c3fe 233e
00000260: 7990 82bb 309e d4bd e7f8 ed3d 2ca4 653a
00000270: 4c93 1fbb 2ed6 28be d30c e13c 96a5 b63d
00000280: c2cc d43c bd34 15bd 2e86 7ebd b9be 7b3d
00000290: 1cb0 743d d9ea ddbd 549a 09bd 4b21 383d
000002a0: ddc8 783e 38b3 843d 0205 e23d 0394 1dbd
000002b0: f9a3 823d 7f09 033d 037e 213e 5b6c 07be
000002c0: 69f9 453d c894 43bd 8002 c8bc d8c6 013c
000002d0: e770 233d 8b24 e5bd fa03 80bd 4495 f4bd
000002e0: 3cd0 463d a783 40bd 7b0a 94bd 100b 20bd
000002f0: 96af 673e c236 403e 843a 423d 24ff f63b
00000300: 3893 1c3e c8aa 443d d6e3 ba3c 282f ff3c
00000310: c3d8 a9bc 056d e43d 9199 83bd a7e9 363c
00000320: 893e af3c 7ab8 6a3e aa49 043e ca13 37bd
00000330: ab3d d03c 19de e7bc ce37 85bc 5f63 27be
00000340: 29e2 1b3d e20c be3d a35c f5bc db02 7ebd
00000350: 2c40 a5bd c53e 8b3d 3b9f 2fbd 79ae 4abd
00000360: 5a2d 3f3d 1189 283e 32b3 1a3e 9f99 a0bc
00000370: 9dc6 62bc 5b62 b23d 6649 a73c 1bae a4bb
00000380: e0d6 cbbc d0ac 893d 5ed6 5f3d 7353 23bd
00000390: a3ae c9b9 6d8c 7d3e 488b 883d 6cac efbc
000003a0: 7cd2 12be b0ff 57bd d3a7 2abd bef2 c1bd
000003b0: c198 8cbd 61de d2bd c002 3f3b 3b60 da3d
000003c0: a897 a2bd 5a5f a0bb ad22 94bb a3fb 63bd
000003d0: 0c38 36bd d5de 4c3d 15b1 76bd 74d8 063e
000003e0: 38f9 dcbd 1640 943d a1b4 583d 257a 503c
000003f0: 9373 283c feb3 7e3d cc66 0f3d 69f6 88bd
0.040410638 -0.020153368 -0.01839209 -0.072326325 0.05480142 0.074200936 0.04606173 -0.03643428
-0.05705554 -0.0031222783 0.039657507 -0.017789198 -0.022591205 -0.018881256 -0.01880197 -0.01673574
-0.017487166 -0.012931557 -0.039254736 -0.027521333 -0.031172806 -0.0047441963 0.0097085545 -0.017549768
-0.014011595 -0.012550645 -0.013540008 -0.018885676 -0.008172936 -0.011973208 -0.011073046 -0.017918387
-0.0322319 -0.026353365 0.0022254412 0.013925346 -0.012290236 -0.04896357 -0.028305396 -0.0028046696
0.044088185 0.054439053 -0.016533835 0.0391155 0.003773557 -0.0074638934 -0.014342465 0.015745776
0.021452297 -0.0007181671 -0.012184537 -0.011484191 -0.016949525 -0.016586296 -0.014122637 -0.013573405
-0.01221941 -0.020777917 -0.013984731 -0.012968083 -0.00489309 -0.016096111 0.08357606 0.10418246
0.028002331 0.056967545 0.022435505 0.02771407 0.027511118 -0.03409955 0.032600176 0.019480875
0.14690599 0.012485927 0.026290081 -0.016924907 -0.010972597 0.015950102 0.0119214635 -0.0060729655
-0.0074988184 -0.012104775 -0.013176774 -0.015600241 -0.0077448944 -0.011199356 -0.017692743 -0.0048325923
0.031015787 0.003960106 0.1024793 0.04010419 0.11847189 0.051493924 0.08167254 0.082790315
0.031376354 -0.010306306 0.16711313 0.07898185 0.014666724 0.03722083 0.011231485 -0.004076578
-0.0034852235 0.011583493 0.046454597 0.05595319 0.06961808 0.039854545 0.013677585 -0.004141322
0.011376996 -0.0085529955 -0.007565789 0.020431 -0.0026692052 0.016198128 -0.008252165 0.0017193464
-0.03639773 -0.05074428 -0.05965921 0.056082703 0.025677556 0.034544628 -0.041403472 0.038571943
0.07897326 0.06408996 0.011390996 0.009506735 0.0037463375 -0.049766738 -0.003584377 0.015558214
0.020301953 0.021149268 0.025255883 -0.0069678067 0.010210551 -0.038525324 0.033518527 -0.015363229
-0.029101163 0.01038707 0.03008794 0.0063203196 0.06680081 0.00092096394 -0.14242895 0.16015153
-0.0039845076 -0.10381734 0.1161974 0.000876012 -0.002434927 -0.16487953 0.027471935 0.08918302
0.025976542 -0.03642725 -0.062139682 0.061461184 0.059738263 -0.10835809 -0.033594444 0.044953626
0.24295373 0.06479496 0.110361114 -0.038471233 0.063789316 0.031991478 0.15770726 -0.13224928
0.04833356 -0.04774931 -0.024415255 0.007920943 0.039902594 -0.11188611 -0.062507585 -0.11942533
0.04853843 -0.047000553 -0.072285615 -0.03907305 0.22625574 0.18770888 0.047419086 0.0075377394
0.15290534 0.048014432 0.022813719 0.031150416 -0.020733243 0.11153606 -0.06425775 0.0111641055
0.021392124 0.22921935 0.12918726 -0.044696607 0.02542003 -0.028304147 -0.016261961 -0.16346501
0.03805748 0.09279801 -0.0299514 -0.062014442 -0.080688804 0.06799082 -0.042876463 -0.049482796
0.04667411 0.16458537 0.1510742 -0.019604502 -0.013841298 0.08710166 0.020420741 -0.005025638
-0.024882734 0.067224145 0.054647796 -0.039874505 -0.00038467822 0.247606 0.06667191 -0.029257022
-0.14338106 -0.052734077 -0.041663956 -0.094701275 -0.06865073 -0.10296322 0.0029145926 0.10662886
-0.079390824 -0.0048941793 -0.0045207352 -0.0556599 -0.044487044 0.050017197 -0.060227472 0.13168508
-0.10789722 0.07238786 0.052906636 0.012724434 0.010281461 0.062183373 0.035010144 -0.06687624
