models/BEST/ConvNet_50.pth (torch, 127524 bytes, 7 tensors)

conv_1.weight f4 [8, 1, 3, 3]
0.46287382 0.52747995 0.2521099 0.74173534 0.6265533 0.50929475 0.18779989 0.3126526
0.64307785 -0.2893707 0.21727756 0.7076073 0.2782684 0.5466573 0.71561563 0.49107343
0.7030885 0.72471195 -0.1556133 0.08496609 -0.15357888 -0.03909096 -0.13538611 0.22112367
-0.2631234 -0.15367012 -0.09412491 -0.20353903 0.027069425 -0.33082494 0.2931513 -0.2721504
0.25437015 0.05657538 -0.09878002 0.20195581 0.032611854 0.15367337 0.39142588 0.13994578
0.7989343 0.72279054 0.44732448 0.54130816 1.0076108 -1.0157931 -0.47577038 -0.6840123
-0.49851596 -0.75940883 -0.99423516 -0.9197945 -0.9915002 -0.3808127 -0.66059476 -0.5298961
-0.69714975 -0.5266769 -0.23452783 -0.7977291 -0.735053 -0.77070045 -0.6809083 -1.0008479
-0.59344083 -0.84948605 -0.29958802 -0.61411417 -0.8727106 -1.0070965 -0.22768381 -0.49751922
00000000: ccfd ec3e ed08 073f 8c14 813e 5ee2 3d3f
00000010: cc65 203f 2461 023f 9d4e 403e 0014 a03e
00000020: c0a0 243f 6528 94be 027e 5e3e c125 353f
00000030: 3279 8e3e bcf1 0b3f 9632 373f fa6d fb3e
00000040: 9cfd 333f b986 393f 1859 1fbe b402 ae3d
00000050: c843 1dbe d81d 20bd a8a2 0abe 3e6e 623e
00000060: 1cb8 86be b35b 1dbe 90c4 c0bd 896c 50be
00000070: b3c0 dd3c e361 a9be ed17 963e 4c57 8bbe
00000080: ce3c 823e 96bb 673d 2e4d cabd 81cd 4e3e
00000090: 0294 053d 8d5c 1d3e f968 c83e f24d 0f3e
000000a0: f586 4c3f cd08 393f b707 e53e 2c93 0a3f
000000b0: 64f9 803f 8205 82bf 2d98 f3be 6e1b 2fbf
000000c0: 7c3d ffbe 9e68 42bf 3286 7ebf a777 6bbf
000000d0: f5d2 7dbf e2f9 c2be bd1c 29bf 45a7 07bf
000000e0: 6878 32bf 4cd4 06bf 1028 70be f937 4cbf
000000f0: 6f2c 3cbf a04c 45bf 0250 2ebf c91b 80bf
00000100: bdeb 17bf eb77 59bf 9a63 99be 9636 1dbf
00000110: f669 5fbf 8ae8 80bf f225 69be d7ba febe

conv_1.bias f4 [8]
-0.7921181 -0.76144123 -0.33062539 -0.2861753 -0.8906377 0.76326436 0.4922085 0.22631241
00000000: 40c8 4abf d0ed 42bf bb47 a9be 9285 92be
00000010: d500 64bf 4b65 433f c102 fc3e 71be 673e

conv_2.weight f4 [16, 8, 3, 3]
0.32038936 -0.07713801 0.16117385 -0.5755914 -0.33074957 -0.37428012 0.47260794 -0.4167042
-0.36860207 0.031254593 -0.14900899 -0.005639668 -0.5453551 -0.42725205 -0.5367669 0.24934451
0.09415365 -0.3659966 -0.04178016 -0.11403212 -0.06748983 0.02943965 -0.015555546 -0.085546486
0.0027643964 -0.08050193 -0.099984504 -0.060140803 -0.098656334 -0.07304789 0.116421096 0.016693842
0.034332827 -0.11562881 -0.08257488 -0.048120365 0.19984263 -0.17365594 0.12508737 -0.5497171
-0.35060415 -0.42653948 0.3031066 -0.15489131 -0.34935957 -0.15191963 0.079065725 -0.28423035
0.17859437 0.2778185 0.37188512 -0.12554938 -0.12984534 0.17621218 -0.14531267 0.16053575
-0.24759203 0.1066172 0.45359775 0.25248116 -0.052219175 -0.06894938 0.20607771 -0.30623424
0.2197558 -0.0903037 0.14372967 0.4963297 0.29267722 -0.290391 0.11067766 0.035484422
-0.072756544 -0.20622212 -0.051429447 -0.13714655 -0.005891759 -0.053877 0.024811426 -0.05444727
0.05950686 -0.05599033 -0.061931457 -0.16518687 -0.043171074 -0.08032422 -0.10237821 0.021944942
-0.0032675634 -0.10083793 -0.059649043 -0.0056280643 0.065803505 -0.030114949 -0.06724289 -0.040357277
-0.088043615 0.042029537 0.09122152 -0.110949226 0.02742928 0.060528677 0.020384178 -0.042826332
0.060622204 0.061370846 0.04328332 -0.022061039 -0.08447409 -0.050716896 -0.1225195 -0.09401333
0.0037452402 0.0011840725 -0.10109111 -0.10589961 -0.10868859 0.13008533 0.1579672 0.124030575
-0.07845143 -0.0067001246 0.120786436 0.06652816 0.0023925013 -0.053334102 -0.07517844 -0.1299599
-0.08852532 -0.0012869794 0.016641455 -0.0072547225 -0.16610114 -0.15291592 -0.07733702 0.22604945
0.09312203 -0.03690188 0.0705213 -0.09091741 -0.18001997 0.07089079 -0.13614051 -0.116826296
-0.22459339 -0.2466639 0.34210044 -0.12983106 -0.2054596 -0.34126258 -0.3779953 -0.16208199
-0.1732615 -0.16079205 -0.25281847 0.3444181 -0.14626662 -0.24108712 -0.2188696 -0.1297609
-0.03576954 -0.46567667 -0.023717843 -0.06782395 -0.021475255 -0.08294774 -0.077005774 0.03909249
-0.035024934 0.0727546 -0.037807673 -0.08600011 -0.018781077 -0.057067364 -0.032869563 -0.10812125
0.06739411 -0.08525665 0.05357885 0.049007706 -0.24415432 -0.47326344 0.4980151 -0.29029566
-0.15135926 0.1263734 -0.20626387 -0.14881542 -0.3204826 0.23540352 0.34634602 -0.3794641
0.10006024 0.0737719 0.003349801 -0.20801696 -0.23774855 0.0036100093 0.26655483 0.031216562
-0.18307005 -0.044886284 0.015287254 -0.0498618 -0.26544523 -0.13551363 -0.046997588 0.32484588
0.2842715 -0.41341 0.018986648 -0.019029798 -0.34050536 -0.37737092 -0.013842444 -0.100852475
-0.18575673 -0.21419601 0.014610258 -0.15727344 -0.11171367 -0.25243434 -0.099131115 -0.1844889
-0.11757198 -0.09218929 -0.29676062 0.237078 -0.1692242 -0.1912291 -0.071246855 0.21378443
-0.27523744 -0.18739775 0.11186934 0.031004675 0.079010315 0.11618795 -0.01805821 0.024460532
-0.08191067 -0.02428642 0.08727864 0.064000346 -0.07053984 -0.089747295 -0.07911511 -0.11539658
-0.091629535 -0.029707082 0.07831412 0.017050678 -0.14580654 -0.27387574 0.34870428 -0.24080779
00000000: 130a a43e 88fa 9dbd c20a 253e f559 13bf
00000010: 0258 a9be a5a1 bfbe abf9 f13e 415a d5be
00000020: 69b9 bcbe d104 003d d095 18be f7cc b8bb
00000030: 649c 0bbf c8c0 dabe 8e69 09bf 2b54 7f3e
00000040: a1d3 c03d e863 bbbe ac21 2bbd ac89 e9bd
00000050: 1c38 8abd 6c2b f13c b0dc 7ebc ff32 afbd
00000060: e02a 353b 32de a4bd adc4 ccbd 3456 76bd
00000070: 550c cabd 229a 95bd 2f6e ee3d 86c1 883c
00000080: 94a0 0c3d ccce ecbd 051d a9bd dc19 45bd
00000090: 8ca3 4c3e ddd2 31be e716 003e 43ba 0cbf
000000a0: 6382 b3be 6263 dabe ca30 9b3e d49b 1ebe
000000b0: 42df b2be d290 1bbe 36ed a13d a486 91be
000000c0: 71e1 363e 3a3e 8e3e ba67 be3e 0490 00be
000000d0: 2df6 04be f770 343e d8cc 14be 7c63 243e
000000e0: c488 7dbe 1e5a da3d f73d e83e 3645 813e
000000f0: c6e3 55bd 5535 8dbd 0906 533e bcca 9cbe
00000100: aa07 613e 25f1 b8bd df2d 133e ed1e fe3e
00000110: cad9 953e 21ae 94be f8aa e23d 1d58 113d
00000120: 6201 95bd e42b 53be afa7 52bd 2570 0cbe
00000130: a80f c1bb 21ae 5cbd 5541 cb3c 1a04 5fbd
00000140: 77bd 733d 1e56 65bd d7ab 7dbd bf26 29be
00000150: 27d4 30bd 0681 a4bd abab d1bd e1c5 b33c
00000160: 9e24 56bb 1e84 cebd 8e52 74bd a06b b8bb
00000170: fdc3 863d a0b3 f6bc a4b6 89bd ac4d 25bd
00000180: 3650 b4bd 2a27 2c3d 59d2 ba3d 5939 e3bd
00000190: 5fb3 e03c ebec 773d b8fc a63c aa6a 2fbd
000001a0: fd4e 783d ff5f 7b3d da49 313d 5ab9 b4bc
000001b0: c000 adbd 85bc 4fbd 81eb fabd 108a c0bd
000001c0: b472 753b e132 9b3a db08 cfbd e5e1 d8bd
000001d0: 2098 debd 1735 053e 27c2 213e be03 fe3d
000001e0: 25ab a0bd b88c dbbb e15e f73d ea3f 883d
000001f0: 83cb 1c3b dc74 5abd 27f7 99bd 3514 05be
00000200: c34c b5bd ddaf a8ba a953 883c 06b9 edbb
00000210: 6b16 2abe fe95 1cbe df62 9ebd 8279 673e
00000220: c3b6 be3d 6d26 17bd 796d 903d e832 babd
00000230: 2857 38be 312f 913d 6b68 0bbe a042 efbd
00000240: cffb 65be 7695 7cbe ca27 af3e 6ff2 04be
00000250: 0064 52be f8b9 aebe 9a88 c1be d2f8 25be
00000260: 766b 31be aca6 24be 6c71 81be 9257 b03e
00000270: ebc6 15be 8bdf 76be 5a1f 60be 0be0 04be
00000280: 1583 12bd 2c6d eebe ec4b c2bc 48e7 8abd
00000290: e0ec afbc 81e0 a9bd 34b5 9dbd 721f 203d
000002a0: 4e76 0fbd 5d00 953d 38dc 1abd d320 b0bd
000002b0: c6da 99bc 78bf 69bd 3ca2 06bd ad6e ddbd
000002c0: ec05 8a3d 0a9b aebd 7f75 5b3d 4ebc 483d
000002d0: 9703 7abe 964f f2be d6fb fe3e a2a1 94be
000002e0: ecfd 1abe 0768 013e d636 53be 1263 18be
000002f0: 4c16 a4be 9f0d 713e 4454 b13e 1e49 c2be
00000300: 62ec cc3d b915 973d 5688 5b3b 6602 55be
00000310: 5b74 73be e895 6c3b e079 883e e0b9 ff3c
00000320: b776 3bbe aeda 37bd 6477 7a3c e33b 4cbd
00000330: 70e8 87be 16c4 0abe 8b80 40bd 3352 a63e
00000340: 098c 913e 7aaa d3be e389 9b3c 61e4 9bbc
00000350: b856 aebe c336 c1be 6bcb 62bc be8b cebd
00000360: 0337 3ebe 3356 5bbe dd5f 6f3c 4a0c 21be
00000370: 23ca e4bd 133f 81be 4105 cbbd a8ea 3cbe
00000380: 94c9 f0bd bdcd bcbd 02f1 97be 93c4 723e
00000390: 1c49 2dbe 90d1 43be dfe9 91bd 4eea 5a3e
000003a0: eceb 8cbe 32e5 3fbe c11b e53d 84fd fd3c
000003b0: 29d0 a13d f3f3 ed3d d0ee 93bc 7461 c83c
000003c0: c8c0 a7bd 50f4 c6bc 25bf b23d 9d12 833d
000003d0: 3177 90bd 6ecd b7bd 1a07 a2bd 0b55 ecbd
000003e0: 44a8 bbbd 445c f3bc 2763 a03d ddad 8b3c
000003f0: 4f4e 15be 7139 8cbe 5e89 b23e 5196 76be

conv_2.bias f4 [16]
0.24308999 0.11409113 0.21550405 0.4629906 -0.1352795 0.30806586 -0.13385935 0.28070837
-0.46442243 0.030813167 0.32093364 -0.15989651 0.41931707 0.19536166 -0.32145935 0.16799687
00000000: 95ec 783e 9ca8 e93d 18ad 5c3e 1b0d ed3e
00000010: b686 0abe cfba 9d3e 6d12 09be 02b9 8f3e
00000020: c7c8 edbe e56b fc3c 6a51 a43e e9bb 23be
00000030: bab0 d63e e30c 483e 5296 a4be 5f07 2c3e

conv_3.weight f4 [32, 16, 3, 3]
0.14008985 0.15924355 -0.10338507 -0.15259385 0.0059750117 0.02859356 -0.046550702 -0.006799127
0.07797478 0.06224305 0.034423407 -0.063590415 0.029537825 0.07314165 -0.048371058 -0.041709073
0.096630484 0.07543965 -0.08287649 0.015264146 -0.030148879 -0.1294998 -0.024277218 -0.03740834
0.09116419 0.02244144 -0.109221265 0.046549715 0.062383417 -0.03442865 0.024096819 -0.018843468
-0.09373644 0.029271645 -0.055773173 -0.07085182 -0.1823358 0.40039793 0.19922078 -0.30191424
0.2068754 -0.1166784 -0.100599475 0.0061046677 0.05068097 -0.27071914 0.1450806 0.11602065
-0.25927317 0.007623034 -0.18081626 -0.043071974 -0.093613215 -0.11642717 0.13082355 0.03425462
-0.15966085 0.025841342 0.10603588 -0.08723385 -0.08169992 -0.088845186 0.19112611 0.009440385
0.08304409 -0.022898132 -0.024123227 -0.028313728 -0.054134708 -0.015611154 -0.08384916 -0.022572007
-0.05572927 -0.03333711 0.06743269 0.023827035 0.06983621 -0.13221368 0.06458534 0.2748311
-0.09609809 -0.049435608 -0.13124633 -0.045831412 -0.02284335 0.071904 -0.04645782 0.18935294
0.040013094 -0.0038341936 0.06499807 0.05308826 0.021368748 -0.04850423 -0.018366484 -0.11643854
0.02814701 -0.17602718 -0.09450346 0.025073335 -0.0756175 -0.015158899 -0.005061196 -0.03677507
0.0278897 0.0015754696 0.055066805 -0.010496193 -0.018625775 0.11390529 0.035542134 0.021413812
-0.08842121 0.015695738 -0.10961674 -0.03006672 0.12000297 -0.20789371 0.0307095 -0.08141223
-0.08288625 0.14895111 -0.051385593 0.02064157 -0.10335623 -0.13534628 -0.010690629 -0.009805191
0.04630415 -0.042564645 0.01933596 0.009953999 0.02278797 -0.120137796 0.031170875 -0.119910076
0.12822895 -0.039581373 -0.08035967 -0.012011991 -0.13541208 -0.08064257 -0.09312906 -0.09636644
-0.059033442 -0.10143193 0.0067202696 -0.0010845846 -0.025148695 -0.20402843 -0.15065707 0.011961267
-0.037882823 -0.07192642 -0.040358506 0.004523605 -0.05072897 -0.033902265 -0.020846082 -0.010159373
-0.037552375 -0.010594969 -0.08925527 -0.08955792 0.0345025 -0.05456678 -0.109649174 -0.0026652142
-0.15681602 -0.0892816 0.18551292 -0.1008519 -0.19367705 0.021198452 -0.10564572 -0.13503566
-0.04882406 -0.1662557 -0.052610338 0.06985726 -0.18630493 -0.08447358 0.14838162 -0.19469586
-0.07971343 0.10187961 -0.1835688 -0.05000721 -0.014168473 -0.047290243 -0.19778986 0.00795157
-0.17435154 -0.1503798 -0.045969702 -0.19165789 -0.14322188 -0.2521316 -0.1281741 -6.5121836e-05
-0.107325375 -0.38411188 0.3676848 -0.45876038 -0.17709929 0.42412773 -0.23882833 -0.07785972
-0.03347066 0.009925688 0.0056575774 -0.110784784 -0.14698872 -0.05131712 -0.036207527 -0.12192292
-0.16356999 -0.1251377 -0.023934107 -0.12218209 -0.012703255 0.07689104 -0.10088371 -0.074095614
-0.015835393 -0.003413522 -0.27922618 -0.022725172 -0.1510342 -0.07369019 0.029448016 -0.24332875
-0.2319443 0.52477956 -0.20379485 -0.27104488 0.07130615 -0.09101013 -0.041268405 -0.13110355
-0.13736154 0.25377598 -0.26251602 -0.048635025 -0.038646262 -0.058058765 -0.06026955 -0.07544188
-0.07401531 0.020430697 0.049171124 0.07683131 -0.0033974922 -0.050107684 0.019199401 -0.12499817
00000000: b773 0f3e be10 233e 8dbb d3bd 9041 1cbe
00000010: 08ca c33b 0b3d ea3c f3ab 3ebd 36cb debb
00000020: 3eb1 9f3d 92f2 7e3d 8fff 0c3d b13b 82bd
00000030: 4ff9 f13c 4acb 953d bb20 46bd 22d7 2abd
00000040: 34e6 c53d 1a80 9a3d 26bb a9bd 7816 7a3c
00000050: c8fa f6bc 989b 04be 04e1 c6bc 7d39 19bd
00000060: 4ab4 ba3d 1cd7 b73c 66af dfbd eaaa 3e3d
00000070: c185 7f3d 0e05 0dbd b166 c53c 9e5d 9abc
00000080: e4f8 bfbd 17cb ef3c 6972 64bd c21a 91bd
00000090: 3cb6 3abe f500 cd3e 8800 4c3e 8194 9abe
000000a0: 25d7 533e 16f5 eebd 1907 cebd aa09 c83b
000000b0: d996 4f3d b39b 8abe 0290 143e 3c9c ed3d
000000c0: 74bf 84be a5ca f93b e627 39be 3d6c 30bd
000000d0: 49b8 bfbd 5e71 eebd 9cf6 053e 934e 0c3d
000000e0: 227e 23be 39b1 d33c 5729 d93d a9a7 b2bd
000000f0: 4a52 a7bd 77f4 b5bd 90b6 433e d8ab 1a3c
00000100: 0513 aa3d dd94 bbbc 139e c5bc 31f2 e7bc
00000110: 5bbc 5dbd edc5 7fbc 1cb9 abbd eee8 b8bc
00000120: 6044 64bd 7e8c 08bd 261a 8a3d ea30 c33c
00000130: 4906 8f3d 0663 07be 5245 843d a9b6 8c3e
00000140: 13cf c4bd fe7c 4abd 7065 06be b8b9 3bbd
00000150: fa21 bbbc 6842 933d 8e4a 3ebd bde5 413e
00000160: c5e4 233d 1847 7bbb b51d 853d 1373 593d
00000170: 830d af3c 5fac 46bd 4f75 96bc 5477 eebd
00000180: 8f94 e63c 7840 34be 088b c1bd 9866 cd3c
00000190: 59dd 9abd 085d 78bc 64d8 a5bb 75a1 16bd
000001a0: f178 e43c fd7f ce3a bb8d 613d 39f8 2bbc
000001b0: 1595 98bc 2d47 e93d a194 113d 056c af3c
000001c0: 2e16 b5bd 5994 803c be7e e0bd 7b4e f6bc
000001d0: 1ec4 f53d 17e2 54be 7d92 fb3c 75bb a6bd
000001e0: 44c0 a9bd a486 183e b379 52bd 8318 a93c
000001f0: 6eac d3bd 3798 0abe bf27 2fbc f4a5 20bc
00000200: 6ca9 3d3d 4458 2ebd 7266 9e3c 1916 233c
00000210: d6ad ba3c ce0a f6bd 105a ff3c 6a93 f5bd
00000220: 734e 033e 1420 22bd 9c93 a4bd f1cd 44bc
00000230: 77a9 0abe ef27 a5bd 73ba bebd c55b c5bd
00000240: 0dcd 71bd 8bbb cfbd b535 dc3b 9f28 8eba
00000250: a304 cebc d4ec 50be d945 1abe 31f9 433c
00000260: 052b 1bbd 294e 93bd f64e 25bd c03a 943b
00000270: 2ec9 4fbd 1add 0abd 67c5 aabc 8073 26bc
00000280: 85d0 19bd 8596 2dbc 78cb b6bd 256a b7bd
00000290: 7e52 0d3d 6a81 5fbd bf8f e0bd e0aa 2ebb
000002a0: 6194 20be 46d9 b6bd 19f7 3d3e 718b cebd
000002b0: 4753 46be 60a8 ad3c c95c d8bd ca46 0abe
000002c0: bdfb 47bd ef3e 2abe f07d 57bd 5311 8f3d
000002d0: b8c6 3ebe 7c00 adbd 5af1 173e 5a5e 47be
000002e0: cb40 a3bd 42a6 d03d 76f9 3bbe 5cd4 4cbd
000002f0: e222 68bc 6ab3 41bd 6d89 4abe 4d47 023c
00000300: 3689 32be 2afd 19be ba4a 3cbd f741 44be
00000310: c2a8 12be 6517 81be 1240 03be 0592 88b8
00000320: 68cd dbbd 50aa c4be 2f41 bc3e a4e2 eabe
00000330: 8459 35be 4527 d93e 6a8f 74be eb74 9fbd
00000340: 8818 09bd 5a9f 223c 3363 b93b 22e3 e2bd
00000350: 3684 16be e731 52bd 584e 14bd b9b2 f9bd
00000360: e47e 27be 1924 00be 7611 c4bc 9b3a fabd
00000370: 5021 50bc 0d79 9d3d 1e9c cebd 71bf 97bd
00000380: 3ab9 81bc 65b5 5fbb bcf6 8ebe 242a babc
00000390: b6a8 1abe e2ea 96bd f73c f13c 2c2b 79be
000003a0: ce82 6dbe f457 063f 99af 50be 65c6 8abe
000003b0: f508 923d 8563 babd 0f09 29bd 0240 06be
000003c0: 81a8 0cbe edee 813e 8068 86be 8535 47bd
000003d0: 8b4b 1ebd 07cf 6dbd 34dd 76bd 4681 9abd
000003e0: 5795 97bd 475e a73c a967 493d bc59 9d3d
000003f0: 76a8 5ebb b73d 4dbd 1048 9d3c 0aff ffbd

conv_3.bias f4 [32]
-0.2869268 -0.05845203 -0.36012253 -1.2538515 -0.25198668 -0.15178236 -0.7594326 -0.11460626
-0.42581832 -0.17443797 -0.05260682 -0.1716169 -0.07548794 -0.7130888 0.25403714 0.13249432
0.26349083 -0.42796785 -0.07645965 0.23292333 -0.2912103 -0.0267252 -0.5874781 -0.24602388
-0.21267484 -0.5143059 -0.61021376 -0.63952893 0.08923711 -0.07567765 0.3596807 -1.0511891
00000000: 12e8 92be 656b 6fbd fb61 b8be 357e a0bf
00000010: 6604 81be d66c 1bbe 2d6a 42bf b0b6 eabd
00000020: dc04 dabe de9f 32be 407a 57bd 57bc 2fbe
00000030: 6c99 9abd fd8c 36bf 2811 823e 97ac 073e
00000040: 45e8 863e 9a1e dbbe e196 9cbd 7483 6e3e
00000050: 8419 95be ceee dabc f764 16bf afed 7bbe
00000060: 6fc7 59be 8da9 03bf f836 1cbf 2bb8 23bf
00000070: f2c1 b63d e2fc 9abd 1228 b83e 5d8d 86bf

linear_1.weight f4 [1, 25088]
0.031926166 -0.017792081 -0.015747558 -0.064795 0.035846516 0.057076655 0.030302769 -0.034007166
-0.048084155 -0.020771628 0.029684918 -0.020598728 -0.035282675 -0.027188068 -0.04529239 -0.032987874
-0.004462619 -0.01553026 -0.03463559 -0.022148144 -0.022749733 -0.010449314 0.007980311 -0.015220288
-0.011503856 -0.01013675 -0.01114759 -0.016162738 -0.0074857115 -0.011973208 -0.011222843 -0.017923042
-0.033652484 -0.023104286 0.009986144 0.0076267044 -0.011141105 -0.04026323 -0.021185149 -0.010341141
0.014388215 0.043392695 -0.022054525 0.011684738 -0.0144901825 -0.017924188 -0.011170962 0.0074409223
0.022222806 -0.000849734 -0.012597987 -0.012796461 -0.016949525 -0.016586296 -0.014122637 -0.011199758
-0.0076595596 -0.020777918 -0.017453615 -0.014229727 -0.010281726 -0.027571356 0.068011455 0.09853013
0.034494963 0.034117732 -0.00398803 0.00033749186 -0.007697701 -0.014047752 0.017925391 -0.0012295094
0.07689756 -0.0005809536 0.02142078 -0.031012693 -0.010353363 0.015835913 0.01231278 -0.0060744165
-0.0077573364 -0.012094987 -0.01333191 -0.013382054 -0.009030659 -0.011157696 -0.017702734 -0.00953515
0.02237391 -4.3808843e-05 0.051521316 0.021862926 0.09452446 0.064675465 0.09087433 0.065445594
0.04170681 -0.010621414 0.09601192 0.067504525 0.018292079 0.027289271 -0.008793592 -0.023669742
0.015226799 0.017448332 0.037311714 0.05306022 0.061206426 0.025800413 0.013904426 -0.010380296
0.016110238 -0.008660376 -0.007512947 0.0066257045 -0.007475255 0.01488956 0.0007217984 0.016011328
-0.05237668 0.009136601 -0.0069426303 0.029343642 0.07143326 0.062086847 -0.0079182 0.05026473
0.082599975 0.06502248 -0.017414331 -0.048462935 -0.01550137 -0.02734719 0.0024156463 0.010238691
0.018641833 0.0092102 0.014326162 -0.0098937005 0.011583913 -0.02604776 -0.00016906239 -0.035018034
-0.0285482 0.007592975 0.063205145 -0.01770541 0.0650023 0.0046667503 -0.0976513 0.13054632
-0.021272583 -0.15088475 0.04553654 0.023051728 0.027430821 -0.12388577 0.03274036 0.014069862
-0.040233977 -0.04541139 -0.024564574 0.0572742 0.040932205 -0.106599644 -0.023843 0.04572928
0.1828615 0.03985454 0.08494636 -0.026923763 0.07098294 0.041010287 0.08166461 -0.06913806
0.06408944 -0.067172274 -0.027839009 -0.043627154 0.07574989 -0.023447217 -0.019914893 -0.070131935
0.0971 -0.00808777 -0.05480027 0.009505742 0.14628503 0.1301868 0.015891992 0.018125298
0.13722092 0.067384586 0.040550236 0.026766745 -0.018106308 0.067415796 -0.043595355 0.027600804
0.06713438 0.08703991 0.031240359 0.0032506022 0.040227517 -0.06778186 -0.0057512014 -0.20227553
0.04235236 0.05699776 0.02429947 -0.040935893 -0.042032782 0.021087602 -0.086567454 -0.060401917
0.015047999 0.15135288 0.1320585 -0.050186608 0.011402025 0.07745039 0.028638382 -0.0028997415
-0.041509364 0.06163355 0.024671955 0.0036131416 -0.012424026 0.13878392 0.0029562004 -0.030502673
-0.07432068 -0.022788065 -0.011963868 -0.050094444 -0.047430884 -0.09736671 0.044069722 0.13100825
-0.0675262 0.019489832 -0.026642075 -0.11260211 -0.070879094 -0.0036177048 -0.041708216 0.11507111
-0.09545823 0.070273265 0.02792095 0.0062808376 -0.021766843 0.06153468 0.040153746 -0.024626391
00000000: 03c5 023d b3c0 91bc 0601 81bc 3eb3 84bd
00000010: ccd3 123d 36c9 693d 833d f83c 194b 0bbd
00000020: e4f3 44bd 4329 aabc c92d f33c aabe a8bc
00000030: 9184 10bd 83b9 debc 8384 39bd 4b1e 07bd
00000040: 293b 92bb a272 7ebc 0cde 0dbd 0670 b5bc
00000050: a65d babc 9933 2bbc dabf 023c 845e 79bc
00000060: ab7a 3cbc 9c14 26bc 62a4 36bc b867 84bc
00000070: b34a f5bb 462b 44bc 04e0 37bc 58d3 92bc
00000080: 30d7 09bd 3345 bdbc ec9c 233c 6fe9 f93b
00000090: 2e89 36bc 0feb 24bd 7a8c adbc e46d 29bc
000000a0: 8cbc 6b3c 8abc 313d b1ab b4bc 5871 3f3c
000000b0: 3b68 6dbc bfd5 92bc 6906 37bc fbd2 f33b
000000c0: 9a0c b63c afc0 5eba ca67 4ebc 3fa8 51bc
000000d0: bbd9 8abc fcdf 87bc a262 67bc 317f 37bc
000000e0: 0bfd fabb 7436 aabc e2fa 8ebc cd23 69bc
000000f0: af74 28bc 53dd e1bc 9749 8b3d 2aca c93d
00000100: 974a 0d3d 09bf 0b3d 05ae 82bb 64f1 b039
00000110: ff3c fcbb 8b28 66bc 45d8 923c 7d27 a1ba
00000120: 787c 9d3d 234b 18ba a27a af3c 550e febc
00000130: 27a1 29bc 51ba 813c 8bbb 493c e60b c7bb
00000140: 4131 febb 0d2a 46bc 156e 5abc 6740 5bbc
00000150: 54f5 13bc c5ce 36bc 5305 91bc 5139 1cbc
00000160: 7d49 b73c 63bf 37b8 0408 533d e119 b33c
00000170: 0a96 c13d 9274 843d 521c ba3d 5708 863d
00000180: c3d4 2a3d 7005 2ebc e6a1 c43d d03f 8a3d
00000190: 45d9 953c c08d df3c 0013 10bc 0ce7 c1bc
000001a0: d379 793c ceef 8e3c 2bd4 183d ac55 593d
000001b0: 97b3 7a3d 635b d33c 64cf 633c 1e12 2abc
000001c0: 9ef9 833c 40e4 0dbc 2b2f f6bb 701c d93b
000001d0: fcf2 f4bb 57f3 733c 1237 3d3a 302a 833c
000001e0: ee88 56bd afb1 153c 017f e3bb 1462 f03c
000001f0: 9a4b 923d c74e 7e3d 57bb 01bc 64e2 4d3d
00000200: 2d2a a93d 822a 853d 80a8 8ebc 1281 46bd
00000210: 75f9 7dbc 3707 e0bc d24f 1e3b 2fc0 273c
00000220: c2b6 983c 61e6 163c 47b8 6a3c 3019 22bc
00000230: 74ca 3d3c 1d62 d5bc 5746 31b9 126f 0fbd
00000240: eadd e9bc 7ece f83b b371 813d f00a 91bc
00000250: ed1f 853d 8aeb 983b 68fd c7bd efad 053e
00000260: d743 aebc 8881 1abe 8684 3a3d fad6 bc3c
00000270: 9ab6 e03c d3b7 fdbd c11a 063d 4785 663c
00000280: 62cc 24bd 4b01 3abd a53b c9bc 5a98 6a3d
00000290: 87a8 273d ea50 dabd 6552 c3bc a04e 3b3d
000002a0: 0c40 3b3e 843e 233d 5bf8 ad3d 398f dcbc
000002b0: 815f 913d 67fa 273d c63f a73d 4198 8dbd
000002c0: 5341 833d 9e91 89bd a20e e4bc 63b2 32bd
000002d0: c222 9b3d 6114 c0bc 8f24 a3bc 55a1 8fbd
000002e0: 5ddc c63d 9182 04bc 3f76 60bd f9bd 1b3c
000002f0: becb 153e b04f 053e ec2f 823c 817b 943c
00000300: a483 0c3e ee00 8a3d 0118 263d ef45 db3c
00000310: ae53 94bc 4b11 8a3d 0b91 32bd 151b e23c
00000320: c07d 893d fb41 b23d c8eb ff3c 0e08 553b
00000330: 9cc5 243d 37d1 8abd 9374 bcbb 5121 4fbe
00000340: ab79 2d3d 7c76 693d af0f c73c 65ac 27bd
00000350: 912a 2cbd e8bf ac3c 474a b1bd 0068 77bd
00000360: e28b 763c 40fc 1a3e 583a 073e 7990 4dbd
00000370: 8fcf 3a3c 4f9e 9e3d 0a9b ea3c 9709 3ebb
00000380: b905 2abd 7673 7c3d d71c ca3c 75ca 6c3b
00000390: 248e 4bbc 5f1d 0e3e d0bc 413b bee0 f9bc
000003a0: 7135 98bd 09ae babc 1904 44bc d52f 4dbd
000003b0: e346 42bd 3368 c7bd 7482 343d 0727 063e
000003c0: 2d4b 8abd 24a9 9f3c 7b40 dabc ef9b e6bd
000003d0: 0f29 91bd 0417 6dbb 3cd6 2abd 67aa eb3d
000003e0: 9b7f c3bd 6eeb 8f3d 7aba e43c 7ccf cd3b
000003f0: 6150 b2bc ca0b 7c3d 4178 243d 49bd c9bc
