models/BEST/ConvNet_45.pth (torch, 127524 bytes, 7 tensors)

conv_1.weight f4 [8, 1, 3, 3]
000000 c6 fa cb 3e 50 d1 fa 3e 6d 19 0e 3e 36 ba 33 3f
       0.39839762 0.48987818 0.13876887 0.7020601
000010 6e 56 42 3f 0c b5 08 3f 76 df 2f 3e 99 43 b7 3e
       0.7591313 0.53401256 0.17175087 0.3579376
000020 dd c8 14 3f 2f 32 65 be 43 e4 7f 3e e5 9e 17 3f
       0.58118993 -0.22382425 0.24989419 0.5922683
000030 8c 35 c5 3e 18 99 16 3f 66 7c 3a 3f 88 b3 15 3f
       0.38517416 0.5882735 0.72846067 0.5847707
000040 74 f8 26 3f e2 76 21 3f 18 59 1f be b4 02 ae 3d
       0.6522286 0.63072026 -0.1556133 0.08496609
000050 c8 43 1d be d8 1d 20 bd a8 a2 0a be 3e 6e 62 3e
       -0.15357888 -0.03909096 -0.13538611 0.22112367
000060 1c b8 86 be b3 5b 1d be 90 c4 c0 bd c7 40 4d be
       -0.2631234 -0.15367012 -0.09412491 -0.20044242
000070 17 62 f3 3c d2 4d a9 be af b2 99 3e 91 44 89 be
       0.029709859 -0.33067185 0.30019137 -0.26810125
000080 9e 9f 87 3e bf 46 84 3d 6a 8c c0 bd a3 09 59 3e
       0.26488966 0.06458806 -0.09401782 0.21195082
000090 06 e1 78 3d fa 0f 36 3e 9f 0e d1 3e 9d 5a 56 3e
       0.060761474 0.17779532 0.40831468 0.20933004
0000a0 94 51 3a 3f 19 ba 2c 3f 7c a1 0f 3f f2 16 e6 3e
       0.7278073 0.6747146 0.5610578 0.4493938
0000b0 e7 81 5a 3f f0 db 7c bf eb 99 00 bf 15 d6 30 bf
       0.85354465 -0.987731 -0.5023486 -0.69076663
0000c0 39 13 f6 be 2a a4 43 bf 21 7b 7c bf d0 97 6c bf
       -0.4806154 -0.7642237 -0.9862538 -0.9241915
0000d0 5e 0c 7f bf 85 30 b8 be 8c 58 25 bf 5c d3 f7 be
       -0.99628246 -0.35974517 -0.64588237 -0.48403442
0000e0 04 6e 1d bf 40 17 01 bf 39 27 43 be ef 65 43 bf
       -0.61495996 -0.504261 -0.19057931 -0.76327413
0000f0 89 30 33 bf 2c 04 3f bf 7e 71 14 bf cc 72 69 bf
       -0.69995934 -0.7461574 -0.57985675 -0.9119079
000100 b2 5e 13 bf af 87 42 bf 61 ae 7a be 32 74 13 bf
       -0.5756637 -0.75988287 -0.24480583 -0.57599175
000110 c6 58 44 bf 63 b2 73 bf 55 0c 5d be 54 fe d0 be
       -0.7669796 -0.9519407 -0.21586736 -0.40819037

conv_1.bias f4 [8]
000000 24 8e 4d bf 81 be 49 bf bb 47 a9 be e5 4f 8b be
       -0.80295014 -0.7880631 -0.33062539 -0.27209392
000010 42 0c 70 bf e1 7a 06 3f 99 13 fc 3e 12 46 ba 3e
       -0.93768704 0.5253125 0.49233702 0.36381584

conv_2.weight f4 [16, 8, 3, 3]
000000 c1 33 41 bc e2 84 59 be 63 a1 c9 3d c0 c7 1f bf
       -0.011792124 -0.21242097 0.09845235 -0.6241417
000010 68 4a b5 be c1 aa ae be 15 30 fd 3e 1b bf ba be
       -0.3540833 -0.3411465 0.49450746 -0.36473927
000020 51 52 b0 be 94 df ca bd 64 30 64 be 2f 6d 0c 3d
       -0.34437802 -0.099059254 -0.22284085 0.034283813
000030 09 ca 0d bf 05 1c e8 be 89 82 05 bf a3 fe 98 3e
       -0.55386406 -0.45333877 -0.52152306 0.29881772
000040 98 d3 df 3d cc fc 9c be ac 21 2b bd ac 89 e9 bd
       0.1092903 -0.3066162 -0.04178016 -0.11403212
000050 1c 38 8a bd 6c 2b f1 3c b0 dc 7e bc ff 32 af bd
       -0.06748983 0.02943965 -0.015555546 -0.085546486
000060 e0 2a 35 3b 32 de a4 bd ad c4 cc bd ad 59 76 bd
       0.0027643964 -0.08050193 -0.099984504 -0.060144115
000070 cc e5 c9 bd 2e c0 93 bd 1c 26 ee 3d 70 35 91 3c
       -0.098582834 -0.0721439 0.116283625 0.017725676
000080 70 de 0e 3d fd 3c f0 bd 64 cd ac bd c7 25 45 bd
       0.0348801 -0.117303826 -0.08437613 -0.04813173
000090 a7 65 a0 3d fa 0c aa be 70 3a 94 3d 00 2a 08 bf
       0.07831889 -0.33213025 0.072377086 -0.53189087
0000a0 f7 43 bc be 75 3b ce be 2e 83 7a 3e e2 7a 68 be
       -0.36770603 -0.40279737 0.24464104 -0.22703126
0000b0 bd f9 a5 be fc 60 85 bd 35 4d 2b 3e 85 5e 3f be
       -0.32417098 -0.06512639 0.16728671 -0.186884
0000c0 a8 cf 58 3e 89 f7 86 3e c9 bc a7 3e 70 1b a2 bd
       0.21172965 0.2636073 0.3276122 -0.079153895
0000d0 95 72 ea bd 1a 0e ee 3d 10 01 0c be c5 0f f4 3d
       -0.11447636 0.116237834 -0.1367228 0.1191707
0000e0 80 d2 7f be c6 12 fa 3c c2 fc 8a 3e 60 27 bd 3d
       -0.24982643 0.03052653 0.27145964 0.09236026
0000f0 c7 08 73 bd 74 7f 1c be 3a 93 74 3d bc c3 a4 be
       -0.059334543 -0.15282995 0.05971072 -0.32180583
000100 97 c2 69 3e 1d 40 d3 bd 8b ee b7 3d d2 1e c8 3e
       0.22828136 -0.10314963 0.08981045 0.39086014
000110 60 e2 2f 3e 1d 05 9e be d8 4b bb 3d b4 1b 29 bd
       0.17176199 -0.30863276 0.091453254 -0.041286185
000120 89 9f 6d bd 9e 01 33 be b6 b1 57 bc 46 11 ef bd
       -0.058013473 -0.17481086 -0.013164928 -0.116732165
000130 75 08 d2 3c 9c b4 b9 bc 6a 73 67 3d 31 cd 8a bc
       0.025638798 -0.02266913 0.05650655 -0.016943546
000140 4f cb bd 3d 7f bc 7a bd e7 9c 82 bd ae 13 27 be
       0.09267294 -0.06121492 -0.06377583 -0.16316101
000150 2d e9 60 bd 9b 67 af bd 8d 63 c0 bd 78 37 5e ba
       -0.054909874 -0.08564683 -0.09393988 -0.00084768934
000160 aa 55 92 bc 81 e4 da bd 8e 52 74 bd a0 6b b8 bb
       -0.017863113 -0.10688115 -0.059649043 -0.0056280643
000170 fd c3 86 3d a0 b3 f6 bc a4 b6 89 bd ac 4d 25 bd
       0.065803505 -0.030114949 -0.06724289 -0.040357277
000180 36 50 b4 bd 2a 27 2c 3d 59 d2 ba 3d 93 4d e3 bd
       -0.088043615 0.042029537 0.09122152 -0.110987805
000190 f7 5a e0 3c 77 67 77 3d 6d 73 a7 3c 41 42 30 bd
       0.027387125 0.060401406 0.020440781 -0.043031935
0001a0 2e 6c 78 3d 4b 85 7b 3d c3 c8 31 3d 1e 05 b3 bc
       0.060650043 0.061406415 0.043404352 -0.021853026
0001b0 35 de 98 bd 8e 56 16 bd 06 aa ea bd b7 ad aa bd
       -0.07464258 -0.03670364 -0.11458211 -0.08333915
0001c0 8c c7 95 3c de c9 98 3c 81 a2 cc bd 0f a5 b7 bd
       0.018283628 0.018650945 -0.09991933 -0.08967029
0001d0 5c 36 bb bd a1 2d fa 3c f9 45 6a 3d 5c dc 10 3d
       -0.091412276 0.030539336 0.057195637 0.0353664
0001e0 07 70 12 be 26 22 8d bd 2d b8 83 3d 2d 07 c9 3b
       -0.14300548 -0.06891279 0.06431613 0.0061348886
0001f0 81 91 3e bd fa a4 d0 bd 83 b9 ae bd a0 ce 05 be
       -0.046525482 -0.10187717 -0.08531477 -0.13067102
000200 01 94 a4 bd 8b fb 5a bb b2 66 bc 3c 33 48 56 bb
       -0.08036042 -0.0033414091 0.022998188 -0.0032696843
000210 57 ae 26 be 4b 24 12 be a6 65 9a bd 08 4b 2d 3e
       -0.16277443 -0.14271657 -0.07538919 0.16923153
000220 0e 09 3b 3d 2c aa 88 bd b4 f0 33 3d 76 0a ca bd
       0.045662932 -0.06673083 0.043930724 -0.098652765
000230 29 e7 3b be 08 28 4a 3d d5 b1 11 be 3a ad 07 be
       -0.183499 0.049354583 -0.14227994 -0.13249674
000240 32 b8 91 be 62 44 91 be c5 94 ab 3e 11 74 1f be
       -0.28460842 -0.28372484 0.3351194 -0.1557162
000250 aa 2d 4e be 4d d0 b0 be 0c 81 d0 be c3 8c 21 be
       -0.20134607 -0.3453392 -0.40723455 -0.15776353
000260 f4 1c 66 be b3 55 f6 bd db ee 4d be d9 62 d9 3e
       -0.22471982 -0.120280646 -0.20110647 0.42458227
000270 6b 81 06 be 64 31 3d be 04 79 1e be 84 e9 56 bd
       -0.13135307 -0.18475872 -0.15475851 -0.05246879
000280 b9 79 76 3d a4 01 d6 be ec 4b c2 bc 48 e7 8a bd
       0.060174678 -0.41798127 -0.023717843 -0.06782395
000290 e0 ec af bc 81 e0 a9 bd 34 b5 9d bd 72 1f 20 3d
       -0.021475255 -0.08294774 -0.077005774 0.03909249
0002a0 4e 76 0f bd 5d 00 95 3d 38 dc 1a bd 57 1a b0 bd
       -0.035024934 0.0727546 -0.037807673 -0.08598774
0002b0 3e 79 99 bc 06 d2 68 bd b5 0d 09 bd d6 d0 dd bd
       -0.01873457 -0.05684092 -0.033460338 -0.10830848
0002c0 12 a1 89 3d 11 5a af bd 7a 70 5e 3d 41 0b 4a 3d
       0.06720175 -0.08562101 0.054306485 0.04932714
0002d0 af e5 8b be e0 ce 00 bf d2 4f df 3e 52 89 90 be
       -0.27323672 -0.50315666 0.43615586 -0.28229767
0002e0 ed b5 ca bd 24 d8 d4 3d 7d d9 f7 bd aa 4b a1 bd
       -0.09897981 0.10392788 -0.121020295 -0.0787576
0002f0 2a 53 a5 be 3a 5e 77 3e 7b 9b b9 3e 49 a7 a9 be
       -0.32290012 0.24157038 0.36251435 -0.3313544
000300 a6 72 e6 3d 11 05 9f 3d 60 2c aa bc de cb 22 be
       0.11252336 0.07764638 -0.020773113 -0.15898082
000310 84 38 41 be f8 14 c6 3b 76 22 86 3e 69 12 5e 3d
       -0.18869215 0.00604498 0.26198167 0.054216776
000320 b9 1a 16 be 6a 99 3a bd af ec 84 3c 58 71 3b bd
       -0.14658631 -0.045556463 0.01622614 -0.04576239
000330 ce df 81 be 58 40 fa bd dd 71 0d bd ec 44 b0 3e
       -0.25366062 -0.12219304 -0.034532417 0.34427583
000340 b4 d2 a4 3e 5e 33 ac be d4 49 8d 3d 3c 46 67 3c
       0.32192004 -0.3363294 0.06898847 0.014115866
000350 f7 f7 b0 be f5 a4 9c be 95 a7 de 3c 3f 75 d9 bd
       -0.34564182 -0.30594602 0.027179519 -0.10618066
000360 6b db 02 bd 8e 29 eb bd 29 8d 9a 3d 1b 35 8c bd
       -0.031947535 -0.11482535 0.075464554 -0.068460666
000370 97 47 8b bd 7b ea 8a be 5b 2a c7 bd bf b9 ff bd
       -0.06800764 -0.2713202 -0.097248755 -0.124866
000380 c2 47 07 be 44 a7 04 be da 8d 9a be f5 b3 db 3d
       -0.13210967 -0.12954432 -0.3018635 0.107276835
000390 dd c0 6f be 4f 49 50 be ec 2a 07 be f4 61 24 3e
       -0.23413415 -0.20340465 -0.13199967 0.16052991
0003a0 6b a2 86 be 1e b3 55 be c1 1b e5 3d 84 fd fd 3c
       -0.2629579 -0.20869109 0.11186934 0.031004675
0003b0 29 d0 a1 3d f3 f3 ed 3d d0 ee 93 bc 74 61 c8 3c
       0.079010315 0.11618795 -0.01805821 0.024460532
0003c0 c8 c0 a7 bd 50 f4 c6 bc 25 bf b2 3d 49 b3 82 3d
       -0.08191067 -0.02428642 0.08727864 0.06381852
0003d0 6f 9c 90 bd 23 fe b7 bd a4 56 a2 bd 11 79 ec bd
       -0.07061087 -0.089840196 -0.07926682 -0.11546529
0003e0 6a a9 bb bd 76 b7 f7 bc 3f 14 a0 3d 49 23 8f 3c
       -0.091631725 -0.030238848 0.07816362 0.01747288
0003f0 56 a3 d4 bd 4a 6c 7d be aa 61 82 3e 48 e6 5e be
       -0.10382716 -0.2474834 0.25465137 -0.21767533

conv_2.bias f4 [16]
000000 93 17 69 3e 57 16 fe 3c d4 95 8b 3e f5 3e 9c 3e
       0.22762899 0.031016512 0.27262747 0.30516782
000010 14 36 b5 bd 19 ee b6 3d a1 3c 81 3d 05 ff 2e 3e
       -0.08848205 0.08932132 0.06310392 0.1708947
000020 05 35 0d bf 5d 07 9b bc 4d b7 aa 3d b7 8b 26 be
       -0.55159026 -0.01892441 0.08335743 -0.16264234
000030 1d cb ca 3e a9 44 44 3e fa 4c a4 be dc 5c a6 bd
       0.39608088 0.19166817 -0.32089978 -0.0812318

conv_3.weight f4 [32, 16, 3, 3]
000000 93 e5 ba 3d 77 61 e3 3d 0d 8f 8b bd 54 7c 15 be
       0.09125819 0.11102574 -0.06814394 -0.14598209
000010 1a 0d 2c 3c 7f 9e 8c 3b e9 40 6a bc 06 b2 00 bc
       0.0105011705 0.004291355 -0.014297702 -0.007854944
000020 13 99 e1 3b 4a c5 72 3d a1 b0 08 3d d4 14 8e bd
       0.006884703 0.05927018 0.03337157 -0.069375664
000030 ad ad d6 3c f5 be 8e 3d a1 6b 5f bd d1 c3 3f bd
       0.026205862 0.06970016 -0.054546002 -0.046817604
000040 0b 0d b6 3d f2 e4 8a 3d b8 97 a6 bd 95 ad bf 3b
       0.088892065 0.06781949 -0.08134407 0.00584955
000050 3f a5 ef bc d1 4c b0 bd 78 3d 60 bc 3a 82 f3 bc
       -0.0292536 -0.086084016 -0.01368653 -0.029725183
000060 c3 5b cd 3d 8f f6 01 3b 56 08 da bd 8f 75 2b 3d
       0.10027268 0.0019830798 -0.10646121 0.04186016
000070 60 e3 85 3d dd c9 54 bc 5b a4 32 3c 65 a2 e1 b9
       0.06537509 -0.012987581 0.010903443 -0.00043036338
000080 e8 a7 ca bd a7 f9 1d 3d 01 ff 43 bd 90 9b a7 bd
       -0.09895307 0.038568165 -0.047850613 -0.08183968
000090 23 9c 10 be 74 94 a1 3e 33 00 52 3e 96 5c 5d be
       -0.14122061 0.31558573 0.20507888 -0.2161735
0000a0 e9 72 23 3e 2c 64 9c bd 06 ae 81 bd 8a 21 90 3c
       0.15961803 -0.07636294 -0.063320205 0.017594118
0000b0 f0 31 17 3d 94 fa 5b be e4 dd 46 3e 1b 45 16 3e
       0.03691286 -0.21482307 0.19420582 0.14674799
0000c0 46 44 6f be f8 ad 8f bc 20 f6 f2 bd a0 b0 1a bd
       -0.23365888 -0.01753901 -0.11863351 -0.0377661
0000d0 94 66 9f bd 57 4b b3 bd b8 87 eb 3d 9e a2 50 bd
       -0.07783237 -0.08754604 0.11500496 -0.050936334
0000e0 d4 3c 0a be dc 74 14 3d 04 82 f9 3c e9 b9 fd bd
       -0.13499767 0.03624426 0.030457504 -0.12388975
0000f0 b0 3f 6d bd f4 82 13 be 94 2e ec 3d 8b 84 e5 3c
       -0.057922065 -0.14405423 0.115323216 0.028017303
000100 20 ea 5a 3d a9 00 06 bd 75 e7 26 3c 0e 7d bd bc
       0.053445935 -0.032715473 0.01018702 -0.02313092
000110 30 0e 99 bd e1 d3 9a bc 67 30 8d bd b1 d9 15 bd
       -0.07473409 -0.01889986 -0.06893998 -0.03658456
000120 06 eb 7e bd e1 af 28 bd 81 0b 9e 3d dc 42 fd 3b
       -0.062235855 -0.041183356 0.07717038 0.0077289175
000130 22 8e f2 3c a1 5d fe bd 98 45 a0 3d c9 fb 5e 3e
       0.02960879 -0.12420202 0.07825774 0.21775736
000140 2a a8 c0 bd 90 8f aa bc e0 06 ef bd 87 3d bd bc
       -0.09407075 -0.020820409 -0.11671233 -0.023100628
000150 c3 ba 26 3d 08 c5 99 3d 8b c0 3d bd 2b 82 81 3e
       0.040705454 0.07508284 -0.0463262 0.25294623
000160 9a f4 f9 3d c6 9b b7 bc 7c 49 da 3d 83 1a 88 3d
       0.12204857 -0.022413146 0.10658547 0.06645682
000170 00 09 d1 3c 2d a5 46 bd 29 24 66 bd 4c 50 00 be
       0.025516987 -0.048497368 -0.05618683 -0.12530631
000180 05 72 72 3b 64 a2 3c be 5e 6f 02 be 86 a3 cd 3c
       0.003699423 -0.18421322 -0.12737796 0.025102388
000190 45 ec 9a bd 74 77 78 bc b8 69 a7 bb 8e cf 16 bd
       -0.07564596 -0.015165199 -0.005109038 -0.036819033
0001a0 d8 f9 e3 3c 95 ec cf 3a 77 01 61 3d 3f b7 30 bc
       0.027829096 0.0015863354 0.054933038 -0.010785877
0001b0 f2 cf f6 bc 60 15 ec 3d 35 80 d4 3c d3 ce 17 bb
       -0.030128453 0.115275145 0.02594004 -0.0023164048
0001c0 30 16 a0 bd d8 0e 6f 3c 95 77 bc bd 1d 8f 99 bb
       -0.07816732 0.014590941 -0.09202496 -0.00468625
0001d0 d0 d8 7a 3d ee 76 28 be ea a1 ff bc d2 0f a0 bd
       0.061241925 -0.16451618 -0.031205136 -0.078155175
0001e0 04 a2 40 bd 38 e2 d9 3d ec c4 25 bd 15 e2 79 3d
       -0.04702951 0.10638851 -0.040471002 0.061006624
0001f0 43 3d 11 be e5 7d 0e be 8a 2d 2f bc 5b a6 20 bc
       -0.14183526 -0.13915212 -0.01069201 -0.009805287
000200 c7 a7 3d 3d 8b 59 2e bd 6c 66 9e 3c 01 19 23 3c
       0.046302583 -0.042565864 0.019335948 0.009954692
000210 29 ad ba 3c 27 1f f6 bd 9c 58 ff 3c 45 34 ce bd
       0.022787647 -0.120176606 0.031170182 -0.10068563
000220 49 73 c9 3d 0d 62 9d bc bd 8a 8a bd 42 16 56 bc
       0.09836442 -0.019211793 -0.067647435 -0.01306683
000230 03 a3 b2 bd 92 3b 80 bd 95 bc a3 bd 46 d6 97 bd
       -0.08722498 -0.06261362 -0.079949535 -0.07413916
000240 0b 57 39 bd 03 f0 67 bd 68 0a 8e 3c c4 f0 fe bc
       -0.045249026 -0.056625377 0.017338946 -0.031120665
000250 fe aa d4 3c 45 24 45 be e7 ca 02 be 06 3f 56 3d
       0.025960442 -0.19252117 -0.12772714 0.052306198
000260 93 26 20 bd c8 c2 9a bd 5e 33 22 bd fa 9b 09 3c
       -0.039099287 -0.07556683 -0.03959977 0.008399004
000270 c1 3b 5a bd ec cf 0d bd 9b 20 65 bc f9 ce 33 bc
       -0.053279642 -0.034622118 -0.0139848245 -0.010974639
000280 ff 37 1b bd 0a 58 6b bb a6 e6 8a bd 32 6c 58 bd
       -0.0378952 -0.003591063 -0.06782274 -0.052837558
000290 37 b1 fc 3c 79 d3 ef bc 5b 7f a0 bd ec 8e d7 3c
       0.030846221 -0.029275643 -0.07836791 0.026313268
0002a0 cc 23 f1 bd e1 74 09 bd 7c 40 49 3e c4 c4 9c bd
       -0.11774406 -0.03355873 0.19653505 -0.076547176
0002b0 56 1f 20 be 70 37 24 3d af 8f a2 bd 37 e1 02 be
       -0.15636954 0.04009193 -0.07937562 -0.12781225
0002c0 1b a4 b0 bc 1e 8d ca bd e2 3d 29 3b e0 e6 d2 3d
       -0.021562627 -0.09890197 0.0025824239 0.10297942
0002d0 2a 8a 21 be 1c 71 f2 bd e5 a1 21 3d de a1 1d be
       -0.15775362 -0.1183798 0.039461035 -0.15393779
0002e0 e5 5d 92 bd 42 b2 16 3e 0e 0b 23 be 06 32 2c bc
       -0.07146815 0.14716437 -0.15922186 -0.010509973
0002f0 d3 88 06 3c 9b f8 78 bd 68 24 34 be 54 77 67 3d
       0.008211332 -0.060783964 -0.17592013 0.056510285
000300 5a b2 2a be a7 93 21 be 68 19 c4 bc b8 31 42 be
       -0.16669598 -0.15778981 -0.023937896 -0.18964279
000310 78 7b 0b be 15 d2 62 be 35 63 b1 bd 8b c9 d4 bc
       -0.13621318 -0.22150452 -0.086615 -0.02597501
000320 04 09 c1 bd 0d 5b d1 be 95 8d 8f 3e e5 db e1 be
       -0.09425548 -0.4088978 0.28037706 -0.4411308
000330 d3 9b eb bd af 0f bf 3e af e0 74 be 03 11 88 bd
       -0.115043305 0.37316653 -0.23913835 -0.0664387
000340 ec f0 69 bc ce f0 4f 3d ee 36 a4 3c 3f e8 c1 bd
       -0.014278632 0.05076676 0.020045724 -0.094681256
000350 6d c1 f0 bd 93 42 30 bd 6e 48 4e bc 9b aa 9c bd
       -0.11755643 -0.04303224 -0.012590511 -0.07649728
000360 5b 0c 09 be e1 cc 12 be db 8c 5d bd b0 13 c3 bd
       -0.1338362 -0.14335968 -0.05408941 -0.095252395
000370 e5 59 a8 bc 9e 80 ab 3d 49 85 bf bd f0 0f 67 bd
       -0.020550678 0.08374141 -0.09351594 -0.056411684
000380 ba 0c 8a 3b 22 2e bf 3c 7b 94 8d be 38 5b 83 bb
       0.004212943 0.023337428 -0.27652344 -0.004008677
000390 ca d0 f5 bd 23 2b e6 bc 4d bf e4 3c e2 4f 5c be
       -0.12002714 -0.028096741 0.02792325 -0.21514848
0003a0 24 4e 21 be 42 5c 0c 3f 5c 27 55 be 9c 01 70 be
       -0.15752465 0.54828274 -0.20815796 -0.23438114
0003b0 26 53 04 3e 86 34 b6 bd 51 5a 90 bc fd c3 be bd
       0.12922344 -0.08896737 -0.017621191 -0.093147255
0003c0 3c 14 06 be 38 0c 84 3e 45 67 79 be fe 35 47 bd
       -0.13093656 0.25790572 -0.243558 -0.048635475
0003d0 1f b6 1e bd 2f 08 6e bd a3 3e 77 bd 44 c4 99 bd
       -0.038747903 -0.058113273 -0.06036247 -0.07508138
0003e0 66 a3 97 bd 57 1a a4 3c 94 f5 49 3d 39 1a 9d 3d
       -0.07404213 0.020032091 0.049306467 0.07671017
0003f0 b5 ad c5 3a 34 59 1d bd fa dc 92 3d af 3a f1 bd
       0.0015081676 -0.03841515 0.07171054 -0.11778771

conv_3.bias f4 [32]
000000 d2 3d 84 be c2 77 c5 bb 94 c3 a9 be 5c e5 8e bf
       -0.25828415 -0.006026239 -0.33157027 -1.1163745
000010 66 ac 7b be 7b 3b a1 bd bd bb 27 bf 4a 01 61 be
       -0.24577484 -0.07872673 -0.6552084 -0.21973148
000020 80 05 db be c8 81 0b be 57 41 1a bd 52 eb 67 bc
       -0.42777634 -0.13623726 -0.03765997 -0.014155226
000030 2c 6d 3a bd 03 3b 49 bf b0 c5 27 3e 25 9c 29 3e
       -0.04551427 -0.7860567 0.16384006 0.1656347
000040 49 0e 90 3e 1f b7 d5 be 86 7f 9a bd 90 19 84 3e
       0.281359 -0.41741273 -0.075438544 0.25800753
000050 99 a6 46 be 8f ce 17 bc 45 36 20 bf 9b 68 24 be
       -0.1939949 -0.009265556 -0.6258281 -0.16055529
000060 4d 17 2c be 03 f9 07 bf 20 73 26 bf d9 d5 30 bf
       -0.16805764 -0.53114337 -0.65019417 -0.69076306
000070 3b 1b 38 3e 8f ee ae bc 13 6e f8 3e e6 f1 79 bf
       0.17979138 -0.021353988 0.4852148 -0.9763473

linear_1.weight f4 [1, 25088]
000000 48 32 21 3c bc 66 57 bc 76 f1 5f bc 09 15 dd bc
       0.009838648 -0.013147052 -0.013668409 -0.02698757
000010 e5 a9 23 3d 8e 44 8a 3d b5 47 02 3d ab 26 c7 bc
       0.039956946 0.06751357 0.031806666 -0.02431043
000020 93 31 9f bc 9f 05 ec 3b b5 65 04 3d 16 d8 26 bb
       -0.019432819 0.0072028185 0.032323558 -0.0025458387
000030 68 98 55 bc 30 4e 33 bc 56 4a ef bc 88 f1 96 bc
       -0.013036825 -0.010943934 -0.02921025 -0.018425718
000040 dd 7c e7 39 56 6d 29 bc 42 f1 d0 bc c8 b4 d9 bb
       0.00044152784 -0.010341009 -0.025505666 -0.0066438653
000050 70 f3 62 bc cb 2a 84 bb 4b 37 de 3b 42 af 15 bc
       -0.013851985 -0.0040334216 0.006781494 -0.009136023
000060 cc d0 15 bc 9b 6f f9 bb fa 4d 16 bc 96 52 8c bc
       -0.009144019 -0.0076121814 -0.0091738645 -0.017129224
000070 29 db 56 bc 04 f7 37 bc 96 d9 4a bc 41 e7 8c bc
       -0.013113775 -0.011228327 -0.012380978 -0.017200114
000080 5a a4 57 bc f6 f6 6a ba 6a 52 48 3b c1 53 41 3c
       -0.013161743 -0.00089631916 0.00305667 0.011799754
000090 1f 7d 50 bc 6c 16 1d bd 7a 0d 48 bc d4 52 1c bc
       -0.012725144 -0.03835146 -0.012210244 -0.009541232
0000a0 45 2b 57 3c ec 27 27 3d 97 e1 87 bc cf be 30 3c
       0.013132875 0.040809557 -0.016587062 0.01078768
0000b0 28 b6 78 bc 7d fd 59 bc 97 3d f7 bb 9b 78 47 3c
       -0.015180148 -0.013305065 -0.007545184 0.012174751
0000c0 74 4a ca 3c da 5f 81 bb 46 97 44 bc f4 b7 3a bc
       0.024693705 -0.003948194 -0.011998957 -0.011396397
0000d0 67 b8 84 bc c0 c7 81 bc 0c 6f 5b bc 78 9a 10 bc
       -0.016201211 -0.015842319 -0.013393175 -0.008825891
0000e0 b1 f0 1f bc ea 19 a4 bc 96 a1 a3 bc e4 e3 5d bc
       -0.009761975 -0.020031888 -0.019974511 -0.013543103
0000f0 f7 f0 1c bc ea 49 90 bc f8 05 55 3d 29 ad 8c 3d
       -0.009578935 -0.01761337 0.052007645 0.06868965
000100 9d a2 b7 3c 35 26 1e 3d 0f c6 e2 3a 44 4a d8 bb
       0.022416407 0.038610656 0.0017301458 -0.00660065
000110 fd c3 33 bc b0 2e 81 bc f6 3d 7b 3c 4d c4 8c bb
       -0.01097202 -0.015769333 0.015334597 -0.004295862
000120 7b 17 a3 3d 30 44 4a 3c 7e ad ce 3c e8 da 6b bc
       0.07963463 0.012345359 0.025229212 -0.014395453
000130 e1 29 f8 bb c4 87 4e 3b 18 14 e7 3b ed c8 bd bb
       -0.0075733517 0.0031514028 0.007051956 -0.0057917745
000140 1e 8a e6 bb 48 0d 3a bc 81 e9 58 bc 08 90 3f bc
       -0.007035508 -0.011355706 -0.013239265 -0.011692055
000150 86 d2 9c bb 71 6f 2a bc d4 73 90 bc 4a bd 14 bc
       -0.0047858385 -0.010402546 -0.017633356 -0.009078333
000160 5f d6 c3 3c b7 bf 53 3a 33 bb 4f 3d c1 ae 85 3c
       0.023905931 0.0008077579 0.050715636 0.01631868
000170 c5 52 97 3d 17 dd 0e 3d 7b 74 90 3d 3d fb 26 3d
       0.07388834 0.034878816 0.07053467 0.040766943
000180 4f 62 b9 3c e5 45 88 bb a7 c4 83 3d 0e 01 70 3d
       0.022629885 -0.0041587227 0.06433993 0.058594756
000190 d5 8e 21 3c 52 85 52 3c c3 6f ea bc ac dc bd bc
       0.009860714 0.012849169 -0.028617745 -0.023176514
0001a0 46 19 7c 3c 24 1e b5 3c fd 35 96 3c 65 f1 f0 3c
       0.015386885 0.022109099 0.01833629 0.02941198
0001b0 7c 5e 0f 3d 29 48 ca 3c bc 06 42 3c d2 bb 16 bc
       0.035002217 0.024692612 0.011842426 -0.009200053
0001c0 17 a1 38 3c fc 93 36 bc 46 5e f3 bb cb 52 17 3c
       0.011268876 -0.011143681 -0.0074270098 0.009236048
0001d0 04 c9 94 bb 1b 17 47 3c d0 20 b1 3c 3a bc bd 3c
       -0.0045405645 0.012151505 0.021622092 0.023161042
0001e0 83 71 fc bc 4a b1 ae bb c5 6d 89 bc d1 1a 0b 3d
       -0.030815845 -0.005331193 -0.016775975 0.03396112
0001f0 f2 b9 90 3d 03 7d 7d 3d 0b 83 1e 3c 32 a0 3b 3d
       0.07066716 0.0618868 0.009674798 0.04580707
000200 d0 dd 82 3d 5c f0 66 3d 69 b2 b5 bc 70 3d 3d bd
       0.063899636 0.05638157 -0.0221798 -0.04620117
000210 af 17 e8 bb 20 d9 7e bc b7 0c 3f 3c a9 59 98 3b
       -0.0070829014 -0.015554696 0.011660746 0.00464936
000220 ed c9 3b 3c de db 62 bc 4a c4 04 bb f0 aa 05 bc
       0.011461717 -0.013846366 -0.00202586 -0.00815843
000230 15 c9 ac 3c dd b9 f0 bc b3 69 f4 3a 8c 1a 0a bd
       0.021091977 -0.029385502 0.0018647223 -0.033716723
000240 8e 65 f9 bc 8d d3 21 3c 0c 67 62 3d 84 72 01 bd
       -0.030443933 0.009877098 0.055274054 -0.03160335
000250 b6 4e 98 3c 12 6e ef bc 5e 76 94 bd 2b d1 fb 3d
       0.01859222 -0.02922729 -0.07249139 0.12295755
000260 5a fc e5 bc 28 bd ce bd 84 b4 bd 3c 99 6f 08 3d
       -0.028074432 -0.100946724 0.023157366 0.033309553
000270 54 2e a3 bc 06 ec c3 bd 25 2d e5 3b 04 c2 56 3c
       -0.019919552 -0.09566502 0.006993907 0.01310778
000280 c3 1e 21 bd f5 cc 11 bd fe 56 31 bc 74 d8 63 3d
       -0.039335977 -0.035595853 -0.010823963 0.055626348
000290 d3 93 14 3d 3a 5f 82 bd 06 f2 7f bc fd b2 be 3b
       0.03627379 -0.06365819 -0.015621668 0.005819677
0002a0 12 7a 31 3e d5 e6 38 3d 8a ca 9c 3d 26 9c 05 bd
       0.17331722 0.045142014 0.07655819 -0.032619618
0002b0 fc c1 8a 3d f4 26 4c 3d 9f 6a ab 3d ca 5a 90 bd
       0.06775281 0.049841836 0.08369946 -0.07048567
0002c0 c2 12 5e 3c eb f6 9e bd a6 dc 8b ba e5 57 32 bd
       0.013554277 -0.077619396 -0.0010670617 -0.043540854
0002d0 d8 44 82 3d d1 7a 14 bd db 51 80 bd 7f d7 be bc
       0.06360787 -0.03624994 -0.06265613 -0.023296116
0002e0 20 02 3f 3d 44 ee 06 3c ae 47 cf bc e5 7a 19 3b
       0.046632886 0.008235518 -0.025302734 0.0023419198
0002f0 72 19 d7 3d 16 8d da 3d 17 1d eb 3b 3c 9a d8 3c
       0.105029 0.10671441 0.0071750986 0.026440732
000300 8d 34 d4 3d 9f 8f e6 3d 49 08 91 3c 9f a0 52 3c
       0.10361586 0.11257862 0.017704146 0.012855678
000310 d0 50 4a bc b3 a5 89 3d 44 d0 81 bd 1b 2f c4 3c
       -0.012348369 0.06721058 -0.06338552 0.023948243
000320 55 90 55 3d 54 64 33 3d 53 eb cc 3d 1d a6 46 3c
       0.0521396 0.043796852 0.10005822 0.012124565
000330 74 f5 6d 3d 28 7d c6 bc 3e 90 0a bd fe 6c 29 be
       0.05809541 -0.024229601 -0.033828966 -0.16545483
000340 ce 0f 00 3d 3d 81 4a 3d 63 35 2d bc 56 59 08 bd
       0.031265073 0.049439657 -0.01057181 -0.033288322
000350 35 26 24 bd 2d 1b ea bc b7 70 ae bd 63 fb 91 bc
       -0.0400755 -0.028577412 -0.085175924 -0.017820066
000360 b7 18 79 3c 47 9f e4 3d 3d 47 1e 3e 89 a9 27 3d
       0.015203646 0.11163192 0.15456863 0.040933166
000370 64 8b 44 3c 2c 62 82 3d 63 14 b2 3c 17 3b dc bb
       0.011996124 0.06366381 0.021738237 -0.0067209112
000380 d3 09 25 bd 1b a9 06 3d bc 0a 86 3c 57 15 44 bc
       -0.040292572 0.032876115 0.01636254 -0.011967978
000390 cf 02 93 bb 81 94 ec 3d ef 9b 95 3d 20 18 9f 3c
       -0.004486419 0.11551762 0.073051326 0.019420683
0003a0 79 9b c1 bd ae 5f 5e bd 51 7c de bc a7 f9 98 bd
       -0.09453482 -0.054290466 -0.027158888 -0.074694924
0003b0 13 e6 ff bc 66 85 c6 bd f2 57 be bb b7 6d ec 3d
       -0.031237638 -0.096934125 -0.0058088237 0.11544364
0003c0 fa b9 6b bd 9b 8c bb 3c 44 cb 63 bd 3c ac c3 bd
       -0.057550408 0.022894194 -0.05561377 -0.095543355
0003d0 7d ec 8f bd 03 f7 23 3c 68 ee 6a bc 5f a4 14 3e
       -0.070275284 0.010007623 -0.014339067 0.14515828
0003e0 88 8c 64 bd 34 a9 5a 3d 39 98 a7 3c 50 43 1d 3c
       -0.055798084 0.05338402 0.020458328 0.009598568
0003f0 10 a8 e4 bc 5d ab a3 3c 5f 6e 2e 3c 92 23 c7 bc
       -0.02791217 0.019979173 0.010646432 -0.024308953
