models/BEST/ConvNet_40.pth (torch, 127524 bytes, 7 tensors)

conv_1.weight f4 [8, 1, 3, 3]
0.43461153 0.48579517 0.15966119 0.70872283 0.7494039 0.5016819 0.3020784 0.44153458
0.6346256 -0.4096676 0.26932463 0.6414385 0.22538517 0.5312352 0.7156067 0.56712085
0.6126269 0.55973005 -0.1556133 0.08496609 -0.15357888 -0.03909096 -0.13538611 0.22112367
-0.2631234 -0.15367012 -0.09412491 -0.2015016 0.029464358 -0.33091065 0.30004722 -0.26947704
0.2578828 0.058829073 -0.09908995 0.20286958 -0.07735281 0.11503785 0.47396815 0.0759331
0.6734029 0.7419057 0.48664212 0.46004307 0.91216063 -0.9245616 -0.48558426 -0.6354981
-0.45668235 -0.76366323 -0.93594444 -0.8819967 -0.95316863 -0.3035904 -0.6385972 -0.48587653
-0.6309897 -0.5149052 -0.18915945 -0.76117826 -0.6634161 -0.6975001 -0.5522087 -0.83095247
-0.5507264 -0.745983 -0.19204174 -0.55314213 -0.7364036 -0.91598094 -0.20859684 -0.37211564
00000000: 6785 de3e 25ba f83e 397e 233e dc6e 353f
00000010: efd8 3f3f 3a6e 003f 05aa 9a3e d210 e23e
00000020: d376 223f f4bf d1be ebe4 893e 5035 243f
00000030: 5fcb 663e 08ff 073f 0032 373f d52e 113f
00000040: 1ed5 1c3f 784a 0f3f 1859 1fbe b402 ae3d
00000050: c843 1dbe d81d 20bd a8a2 0abe 3e6e 623e
00000060: 1cb8 86be b35b 1dbe 90c4 c0bd 6f56 4ebe
00000070: 3d5f f13c 1f6d a9be ca9f 993e e5f8 89be
00000080: 3709 843e c1f6 703d acef cabd 0bbd 4f3e
00000090: 266b 9ebd f798 eb3d f4ab f23e d082 9b3d
000000a0: 2264 2c3f 88ed 3d3f 2829 f93e c48a eb3e
000000b0: 5c83 693f 12b0 6cbf 809e f8be 01b0 22bf
000000c0: 45d2 e9be 6f7f 43bf 0e9a 6fbf 89ca 61bf
000000d0: dc02 74bf 3370 9bbe 1b7b 23bf cfc4 f8be
000000e0: 8a88 21bf d4d0 03bf 04b3 41be 94dc 42bf
000000f0: a3d5 29bf 5e8f 32bf 8d5d 0dbf 4db9 54bf
00000100: 68fc 0cbf bef8 3ebf 97a6 44be b99a 0dbf
00000110: f284 3cbf ba7d 6abf 699a 55be f185 bebe

conv_1.bias f4 [8]
-0.46506688 -0.9012797 -0.33062539 -0.27895093 -0.9284042 0.67071897 0.370596 0.6794213
00000000: 3f1d eebe 44ba 66bf bb47 a9be a8d2 8ebe
00000010: e6ab 6dbf 3db4 2b3f c2be bd3e 8eee 2d3f

conv_2.weight f4 [16, 8, 3, 3]
-0.040782634 -0.18066816 0.06355965 -0.54425704 -0.36116186 -0.34717605 0.590283 -0.30962574
-0.24185236 -0.0077100536 -0.16684397 0.15927453 -0.5072386 -0.4126321 -0.44804427 0.26588723
0.0272955 -0.26231283 -0.04178016 -0.11403212 -0.06748983 0.02943965 -0.015555546 -0.085546486
0.0027643964 -0.08050193 -0.099984504 -0.062693335 -0.09952644 -0.07376571 0.11734615 0.018082194
0.035342686 -0.11590221 -0.083943136 -0.049477104 0.101446226 -0.33481434 0.0536126 -0.53895795
-0.3412643 -0.38612777 0.37693214 -0.12867217 -0.22193037 -0.03009483 0.087444656 -0.1949539
0.23607579 0.31382078 0.37580895 -0.16891019 -0.1349878 0.18512852 -0.16906726 0.052716587
-0.19243877 -0.020019075 0.2914707 0.11494786 -0.18072884 -0.15497777 0.09470723 -0.33292195
0.15732402 -0.10459098 0.062372513 0.47393948 0.3043893 -0.35138324 0.14273575 0.04298806
-0.04009056 -0.13427944 0.03753315 -0.12564692 0.027389508 -0.013979142 -0.01142079 -0.095754765
0.045425866 -0.022673877 -0.016405394 -0.12398456 -0.010252862 -0.04586184 -0.066754736 0.008480043
-0.0135185635 -0.091668084 -0.059649043 -0.0056280643 0.065803505 -0.030114949 -0.06724289 -0.040357277
-0.088043615 0.042029537 0.09122152 -0.11109545 0.026868818 0.060070585 0.021295808 -0.041981857
0.061392613 0.061510485 0.04396404 -0.020751875 -0.06391997 -0.033933103 -0.111955635 -0.07570213
0.022674771 0.015194886 -0.08209169 -0.091826014 -0.087350935 0.0080493195 0.048567794 0.020624362
-0.13358621 -0.058326595 0.06364595 0.012563132 -0.04570842 -0.115193695 -0.06817016 -0.10593415
-0.05808559 0.026275609 0.06432486 0.03189872 -0.12052845 -0.096034475 -0.04933656 0.17710452
0.053354707 -0.047679543 0.07438009 -0.05841126 -0.13566428 0.082475565 -0.10389538 -0.090915196
-0.28911415 -0.2651742 0.2332562 -0.13570815 -0.16779801 -0.34227353 -0.34056818 -0.10536146
-0.24624164 -0.13916142 -0.21132672 0.2457365 -0.15692993 -0.18526076 -0.1683306 -0.077035666
0.04877645 -0.35793784 -0.023717843 -0.06782395 -0.021475255 -0.08294774 -0.077005774 0.03909249
-0.035024934 0.0727546 -0.037807673 -0.08582982 -0.01907533 -0.057400573 -0.03422015 -0.10942158
0.06657577 -0.08386559 0.056241177 0.051359866 -0.21786563 -0.3919341 0.45849788 -0.24947709
0.003101159 0.16550952 -0.12757786 -0.07968824 -0.25852257 0.16937308 0.29422557 -0.31333888
0.08835505 0.07612731 -0.024637109 -0.19004647 -0.23739554 -0.03671219 0.27362907 0.060391534
-0.099425174 -0.033477277 0.0030679724 -0.06917572 -0.22564654 -0.13199861 -0.06130776 0.31320247
0.28465208 -0.27931932 0.01195155 -0.052739955 -0.34914473 -0.36069095 -0.04404441 -0.13658416
0.0637895 -0.0722997 0.03285889 -0.030850729 -0.08864216 -0.2592324 -0.026095036 -0.097981855
-0.10061302 -0.111457884 -0.26595172 0.047276996 -0.2000344 -0.1930771 -0.10011503 0.07051804
-0.28465214 -0.20546933 0.11186934 0.031004675 0.079010315 0.11618795 -0.01805821 0.024460532
-0.08191067 -0.02428642 0.08727864 0.06327223 -0.07109209 -0.09096831 -0.07937973 -0.11531675
-0.09155213 -0.030195542 0.07819799 0.017501334 -0.11380866 -0.21830988 0.2076734 -0.20107734
00000000: b10b 27bd 1301 39be 902b 823d 6e54 0bbf
00000010: 35ea b8be 0fc1 b1be c91c 173f 4487 9ebe
00000020: 25a8 77be 9ea4 fcbb 25d9 2abe dd18 233e
00000030: 64da 01bf 8444 d3be 0f66 e5be 5f22 883e
00000040: d09a df3c de4d 86be ac21 2bbd ac89 e9bd
00000050: 1c38 8abd 6c2b f13c b0dc 7ebc ff32 afbd
00000060: e02a 353b 32de a4bd adc4 ccbd 5d65 80bd
00000070: 85d4 cbbd 7a12 97bd 2e53 f03d 1c21 943c
00000080: 7ec3 103d 235e edbd 61ea abbd 81a8 4abd
00000090: 0ac3 cf3d c96c abbe e398 5b3d 26f9 09bf
000000a0: 32ba aebe 8ab2 c5be 40fd c03e a3c2 03be
000000b0: b741 63be 6f89 f6bc 2f16 b33d ffa1 47be
000000c0: dabd 713e 1ead a03e 086a c03e cbf6 2cbe
000000d0: 3e3a 0abe 5592 3d3e f81f 2dbe 59ed 573d
000000e0: ab0e 45be 0bff a3bc a63b 953e c969 eb3d
000000f0: fb10 39be 7eb2 1ebe ddf5 c13d bf74 aabe
00000100: 8c19 213e cc33 d6bd 527a 7f3d 32a8 f23e
00000110: ead8 9b3e 81e8 b3be 5229 123e 3f14 303d
00000120: 0036 24bd 8d80 09be 5cbc 193d 96a9 00be
00000130: f65f e03c c508 65bc 441e 3bbc 131b c4bd
00000140: 7910 3a3d 91be b9bc 9b64 86bc 9eeb fdbd
00000150: 9ffb 27bc a0d9 3bbd b5b6 88bd e1ef 0a3c
00000160: f77c 5dbc 7abc bbbd 8e52 74bd a06b b8bb
00000170: fdc3 863d a0b3 f6bc a4b6 89bd ac4d 25bd
00000180: 3650 b4bd 2a27 2c3d 59d2 ba3d 0386 e3bd
00000190: ff1b dc3c 930c 763d 8c74 ae3c 2bf5 2bbd
000001a0: d276 7b3d 6bf2 7b3d a313 343d d6ff a9bc
000001b0: 79e8 82bd 70fd 0abd ff48 e5bd b809 9bbd
000001c0: 71c0 b93c f9f3 783c b01f a8bd 470f bcbd
000001d0: 0ce5 b2bd 4be1 033c 06ef 463d 6cf4 a83c
000001e0: d3ca 08be dee7 6ebd cf58 823d 98d5 4d3c
000001f0: c138 3bbd acea ebbd cc9c 8bbd 01f4 d8bd
00000200: 28eb 6dbd f23f d73c c1bc 833d 3ba8 023d
00000210: 9fd7 f6bd b9ad c4bd 2215 4abd e35a 353e
00000220: 778a 5a3d a04b 43bd 9754 983d a540 6fbd
00000230: 94eb 0abe f3e8 a83d 1ac7 d4bd bf31 babd
00000240: c506 94be eac4 87be b7da 6e3e 14f7 0abe
00000250: 3ed3 2bbe 7a3e afbe f45e aebe c0c7 d7bd
00000260: c526 7cbe 5580 0ebe 0866 58be 59a2 7b3e
00000270: 3db2 20be ffb4 3dbe db5e 2cbe e0c4 9dbd
00000280: d1c9 473d a143 b7be ec4b c2bc 48e7 8abd
00000290: e0ec afbc 81e0 a9bd 34b5 9dbd 721f 203d
000002a0: 4e76 0fbd 5d00 953d 38dc 1abd 8bc7 afbd
000002b0: de43 9cbc dd1c 6bbd 6e2a 0cbd 6c18 e0bd
000002c0: e158 883d b9c1 abbd 265d 663d b95e 523d
000002d0: 2b18 5fbe 96ab c8be 3cc0 ea3e ec76 7fbe
000002e0: d03c 4b3b 547b 293e c5a3 02be 9733 a3bd
000002f0: 125d 84be 2370 2d3e bca4 963e f46d a0be
00000300: 7ef3 b43d a3e8 9b3d c3d3 c9bc 8b9b 42be
00000310: d117 73be 855f 16bd 1c19 8c3e 1d5d 773d
00000320: 6d9f cbbd 781f 09bd 0910 493b 00ac 8dbd
00000330: e30f 67be a52a 07be d91d 7bbd 135c a03e
00000340: ebbd 913e f102 8fbe 6fd0 433c da05 58bd
00000350: 19c3 b2be 7cac b8be e967 34bd b8dc 0bbe
00000360: 12a4 823d dd11 94bd 0b97 063d abba fcbc
00000370: 058a b5bd 1cba 84be 42c5 d5bc b6aa c8bd
00000380: 330e cebd 0844 e4bd d32a 88be 86a5 413d
00000390: d1d5 4cbe 01b6 45be 1c09 cdbd c36b 903d
000003a0: edbd 91be 8d66 52be c11b e53d 84fd fd3c
000003b0: 29d0 a13d f3f3 ed3d d0ee 93bc 7461 c83c
000003c0: c8c0 a7bd 50f4 c6bc 25bf b23d df94 813d
000003d0: bb98 91bd 984d babd d791 a2bd 302b ecbd
000003e0: af7f bbbd a45c f7bc 4526 a03d f55e 8f3c
000003f0: 8414 e9bd a08c 5fbe 56a8 543e 38e7 4dbe

conv_2.bias f4 [16]
0.23695679 0.0017486432 0.32961047 0.42886162 -0.21778663 0.0108266175 -0.10088511 0.08957891
-0.46835068 0.026051365 0.22294594 -0.15992972 0.39441794 -0.023009913 -0.3206129 0.14427325
00000000: cda4 723e bb32 e53a b4c2 a83e c093 db3e
00000010: 7503 5fbe 2062 313c da9c cebd 2675 b73d
00000020: a9cb efbe ac69 d53c f14b 643e 9ec4 23be
00000030: 26f1 c93e 497f bcbc 6027 a4be 5ebc 133e

conv_3.weight f4 [32, 16, 3, 3]
0.047700487 0.10581231 -0.042690624 -0.14974326 0.027097607 0.02617481 -0.01857042 0.01796505
0.022914052 0.054617688 0.023534643 -0.072037086 0.01937587 0.06835422 -0.055077855 -0.054055516
0.08202943 0.065975815 -0.07507245 0.013799171 -0.020040693 -0.09750949 -0.014348814 0.00392692
0.0710029 0.00045957643 -0.07958875 0.028874492 0.051938564 -0.006296591 0.009906189 0.0041768802
-0.07851133 0.032649025 -0.0379766 -0.07498994 -0.10544935 0.29809117 0.17193377 -0.18174207
0.053421225 -0.07562249 -0.028622566 -0.00066807837 0.009608306 -0.18334489 0.13770284 0.07593858
-0.22461879 -0.06854401 -0.059263162 -0.033564217 -0.07009452 -0.036573283 0.11259977 -0.047815807
-0.12925152 0.06999399 0.020022113 -0.13101454 -0.027668238 -0.117676385 0.12265803 0.047610287
0.05806981 -0.032457426 0.033690963 -0.034556072 -0.06962034 -0.018223343 -0.074549094 -0.03292386
-0.09611763 0.0042316145 0.07112641 0.007018573 0.03987556 -0.102284156 0.08796822 0.17851849
-0.07692323 -0.0147883585 -0.11380426 -0.07304067 0.05222739 0.040365305 -0.04882082 0.19018713
0.047110524 -0.030288579 0.10549334 0.06261822 -0.024928562 -0.052260622 -0.033240356 -0.08469291
0.014841068 -0.14135128 -0.1004061 0.025101393 -0.07565127 -0.015166626 -0.0051104943 -0.03679975
0.027838822 0.0015856151 0.05493326 -0.010786251 -0.051124204 0.098777674 0.01773496 -0.021828985
-0.07833711 0.027740998 -0.09483443 -0.0011668903 0.06033028 -0.16085008 -0.0147886155 -0.06667889
-0.050348558 0.109755404 -0.000843326 0.07395386 -0.07838323 -0.09921005 -0.010751488 -0.009804999
0.04630135 -0.042566318 0.019332698 0.0099585 0.022786994 -0.120177805 0.031206084 -0.10546379
0.097814396 -0.02660485 -0.06961773 0.008133962 -0.05022755 -0.073482536 -0.056210198 -0.046477247
-0.0583173 -0.100801855 -0.026096227 -0.027995516 0.022045119 -0.18640983 -0.13856158 0.028764583
-0.07558014 -0.07449503 -0.037928693 0.0034584873 -0.056015585 -0.032327693 -0.015641369 -0.01320203
-0.043940425 0.0012464903 -0.093960054 -0.05911846 0.014047782 -0.045265038 -0.08442381 0.007229856
-0.120846614 -0.031885546 0.14892393 -0.08688243 -0.14078519 0.019374715 -0.0939412 -0.15332472
0.009701595 -0.11797819 -0.027420191 0.07348597 -0.13799319 -0.09960785 -0.008668245 -0.13808128
-0.07251028 0.08446275 -0.15594839 -0.066179484 -0.0075732507 -0.08926556 -0.16410828 0.045942307
-0.15956946 -0.15027069 -0.055694144 -0.1759824 -0.13387495 -0.19216551 -0.09823003 -0.004544482
-0.1226241 -0.37500975 0.28830743 -0.38180947 -0.10262593 0.49482223 -0.19138181 -0.07123057
-0.0029481375 0.017022144 0.019372374 -0.08276039 -0.12966998 -0.04247337 -0.018043576 -0.060500175
-0.1678815 -0.15072355 -0.026601164 -0.124478035 -0.028927825 0.059225272 -0.12364354 -0.05251483
-0.0010562019 -0.0116485115 -0.29348856 -0.03939642 -0.13423029 -0.01072397 0.010868399 -0.19700527
-0.17031914 0.41661975 -0.20895559 -0.1831331 0.07098244 -0.096767806 -0.012041313 -0.04917503
-0.11413354 0.20469327 -0.18013085 -0.048636228 -0.03874586 -0.05811255 -0.060376383 -0.07507128
-0.07403206 0.020044023 0.049305994 0.076707326 -0.006436867 -0.052843284 0.053014163 -0.13171028
00000000: 9661 433d 20b4 d83d 5ddc 2ebd 4c56 19be
00000010: cdfb dd3c 8e6c d63c fe20 98bc 712b 933c
00000020: 40b6 bb3c ccb6 5f3d b9cb c03c 2e88 93bd
00000030: 25ba 9e3c 4cfd 8b3d 5199 61bd 5169 5dbd
00000040: 0cff a73d 541e 873d 96bf 99bd eb15 623c
00000050: 612c a4bc 0eb3 c7bd 4a17 6bbc 64ad 803b
00000060: f869 913d 4ef3 f039 6dff a2bd 338a ec3c
00000070: 88bd 543d a253 cebb 914d 223c 36de 883b
00000080: 8cca a0bd fcba 053d 5a8d 1bbd 5394 99bd
00000090: d4f5 d7bd 689f 983e 680f 303e 981a 3abe
000000a0: 37d0 5a3d f7df 9abd df79 eabc fb21 2fba
000000b0: 286c 1d3c c3be 3bbe f901 0d3e b085 9b3d
000000c0: 7802 66be cd60 8cbd eebd 72bd a27a 09bd
000000d0: b78d 8fbd decd 15bd b59a e63d 82da 43bd
000000e0: 835a 04be 0259 8f3d 6a05 a43c ad28 06be
000000f0: 80a8 e2bc 5100 f1bd 2234 fb3d 0103 433d
00000100: 9cda 6d3d 14f2 04bd 89ff 093d ab8a 0dbd
00000110: 1c95 8ebd 1f49 95bc 32ad 98bd 2bdb 06bd
00000120: 52d9 c4bd 5ba9 8a3b b9aa 913d 0ffc e53b
00000130: 8e54 233d 5b7a d1bd af28 b43d 8dcd 363e
00000140: ed89 9dbd df4a 72bc 3512 e9bd 5996 95bd
00000150: 63ec 553d 1756 253d 57f8 47bd 6ac0 423e
00000160: f7f6 403d c11f f8bc e40c d83d fb3d 803d
00000170: fc36 ccbc 3c0f 56bd 0a27 08bd 7a73 adbd
00000180: f327 733c 64be 10be b7a1 cdbd 70a1 cd3c
00000190: 0eef 9abd 717d 78bc ef75 a7bb 56bb 16bd
000001a0: 3e0e e43c 6ad4 cf3a b301 613d d1b8 30bc
000001b0: 9d67 51bd f34b ca3d e848 913c b3d2 b2bc
000001c0: 356f a0bd 1741 e33c 8e38 c2bd 57f2 98ba
000001d0: e21c 773d e2b5 24be f34b 72bc f18e 88bd
000001e0: 4a3a 4ebd 71c7 e03d a612 5dba 1f75 973d
000001f0: 6387 a0bd a42e cbbd 0227 30bc 26a5 20bc
00000200: 7ca6 3d3d 055a 2ebd 9b5f 9e3c fa28 233c
00000210: caab ba3c c81f f6bd e7a3 ff3c 66fd d7bd
00000220: ea52 c83d 6af2 d9bc be93 8ebd 4f44 053c
00000230: 67bb 4dbd 037e 96bd aa3c 66bd ed5e 3ebd
00000240: 1fde 6ebd 3471 cebd c1c7 d5bc da56 e5bc
00000250: f797 b43c 38e2 3ebe 16e3 0dbe b4a3 eb3c
00000260: c3c9 9abd da90 98bd 1e5b 1bbd caa7 623b
00000270: 9970 65bd 0b6a 04bd 5422 80bc 544d 58bc
00000280: e0fa 33bd 4661 a33a 216e c0bd 3326 72bd
00000290: ab28 663c d567 39bd 64e6 acbd 6ee8 ec3b
000002a0: 6e7e f7bd 6b9a 02bd 847f 183e 6aef b1bd
000002b0: fe29 10be b9b7 9e3c 3e64 c0bd 2801 1dbe
000002c0: 70f3 1e3c 8d9e f1bd 4fa0 e0bc d07f 963d
000002d0: 164e 0dbe 33ff cbbd 4105 0ebc 2e65 0dbe
000002e0: 4580 94bd cefa ac3d efb0 1fbe 1c89 87bd
000002f0: 0829 f8bb ddd0 b6bd 000c 28be 002e 3c3d
00000300: 2d66 23be 8fe0 19be 8b1f 64bd bb34 34be
00000310: 8416 09be 09c7 44be d32c c9bd e1e9 94bb
00000320: 5822 fbbd 4701 c0be 089d 933e 887c c3be
00000330: 8b2d d2bd 5759 fd3e 98f9 43be 55e1 91bd
00000340: 8a35 41bb 0672 8b3c d0b2 9e3c 487e a9bd
00000350: 35c8 04be 8ef8 2dbd 1fd0 93bc 08cf 77bd
00000360: 21e9 2bbe 4657 1abe afea d9bc 57ee febd
00000370: 0cfa ecbc 3396 723d d338 fdbd ca19 57bd
00000380: 4170 8aba 66d9 3ebc 2244 96be 245e 21bd
00000390: aa73 09be 97b3 2fbc 5f11 323c c0bb 49be
000003a0: 2468 2ebe 2f4f d53e 74f8 55be 3e87 3bbe
000003b0: 3e5f 913d 332e c6bd ed48 45bc c26b 49bd
000003c0: d8be e9bd 1d9b 513e 3974 38be c836 47bd
000003d0: fbb3 1ebd 6d07 6ebd 3a4d 77bd f9be 99bd
000003e0: 1f9e 97bd 5d33 a43c 15f5 493d bb18 9d3d
000003f0: 5bec d2bb 3372 58bd 6125 593d 0fdf 06be

conv_3.bias f4 [32]
-0.27199882 -0.04355144 -0.32210726 -1.0563179 -0.23722695 -0.27853766 -0.501714 -0.1484698
-0.38245317 -0.08393976 -0.019414142 -0.17186591 -0.014443594 -0.7135723 0.25713646 0.1101059
0.1259936 -0.33060664 -0.033113997 0.19988249 -0.06392967 -0.024517959 -0.6279451 -0.23578766
-0.12919252 -0.44233298 -0.58283794 -0.5648283 0.17839538 -0.02578769 0.365276 -0.8378776
00000000: 6e43 8bbe ff62 32bd 3eeb a4be 6d35 87bf
00000010: 9feb 72be 7d9c 8ebe 5470 00bf 7808 18be
00000020: e7d0 c3be 9ce8 abbd 680a 9fbc 9efd 2fbe
00000030: d3a4 6cbc adac 36bf 64a7 833e 347f e13d
00000040: 7704 013e 4645 a9be 8ba2 07bd ffad 4c3e
00000050: 8fed 82bd e3d9 c8bc 03c1 20bf 5272 71be
00000060: 0b4b 04be 7879 e2be de34 15bf 9698 10bf
00000070: 47ad 363e b540 d3bc 7505 bb3e 257f 56bf

linear_1.weight f4 [1, 25088]
-0.01120957 -0.018121859 -0.019531883 -0.02886064 0.014762842 0.04994818 0.0072485674 -0.025395425
-0.02450325 0.0005015895 0.016869528 -0.00023107052 -0.0063761147 -0.008305691 -0.020806933 -0.010803582
-0.0077499337 -0.012524686 -0.025300223 -0.011053359 -0.017823638 -0.0092992885 -0.004151562 -0.021551352
-0.015046371 -0.013635154 -0.015345067 -0.018531539 -0.020908708 -0.012239851 -0.013867759 -0.018155757
-0.021573015 -0.008140056 0.015080802 0.0034597465 -0.012533276 -0.037073936 -0.024333328 -0.009824949
0.00092034135 0.015122584 -0.018033046 -0.0025857864 -0.005418839 -1.4154985e-05 0.0029459593 0.017772505
0.021550894 -0.011685486 -0.012864791 -0.012329757 -0.017082214 -0.016948055 -0.014419729 -0.010088365
-0.01988145 -0.021075513 -0.021496892 -0.0147339 -0.010977715 0.00037434098 0.06389582 0.06524431
0.017409 0.047550965 0.0003110435 -0.009238638 0.0033203564 -0.0010861001 0.011515657 -0.034321763
0.05550686 -0.0069564427 0.014611749 -0.011620995 -0.0007290176 0.005881936 0.011782925 -0.007636147
-0.007968987 -0.01295739 -0.015103343 -0.012588028 -0.02309706 -0.011452606 -0.019074662 -0.010990281
0.009976208 -0.0052673332 0.05611285 0.031686828 0.07140326 0.05473619 0.043557372 0.013242212
-0.003031877 -0.012565461 0.039037727 0.033618435 -0.0009869745 0.0013034854 -0.047367256 -0.027426384
0.015404772 0.012374321 0.025772497 0.030514108 0.026576374 0.014036202 -0.00064426876 -0.0107955765
-0.0047549508 -0.01746166 -0.011662497 0.0013185056 -0.019139048 0.018095292 0.043628905 0.050663516
0.003921698 -0.0076518217 -0.021076163 0.016017422 0.033950757 0.05427541 0.008089536 0.008816972
0.02233539 0.029743759 -0.039039545 -0.06167706 -0.015513534 -0.016851394 0.00039473953 0.009004738
0.00920025 -0.012819124 -0.011933995 -0.008681092 -0.03868935 -0.04235511 -0.018230412 -0.022506872
-0.030451538 0.019226888 0.040050663 -0.026013067 -0.007551376 -0.033348687 -0.053363126 0.0732343
-0.06619789 -0.0845252 0.021064293 0.022049755 -0.0050277603 -0.06494208 -0.000460456 0.017677888
-0.04655033 -0.041189972 -0.012871586 0.037631612 0.0330564 -0.048663754 -0.013656869 -0.0012331752
0.14951846 0.03825646 0.06922444 -0.018571215 0.0224139 0.038637087 0.07999639 -0.09507815
0.037911624 -0.05135605 0.0023289437 -0.041367672 0.021486962 -0.048867982 -0.07813855 -0.027516399
0.027000079 0.037653472 -0.020168079 -0.012844734 0.10713529 0.09714517 0.018590959 0.021689687
0.056815278 0.06429788 0.03326238 0.008889848 -0.0042170514 0.055609584 -0.025535315 -0.0009708916
0.0148250945 0.048882477 0.039285973 0.053989105 0.0023901293 -0.018928312 -0.04844537 -0.10750905
0.072700456 0.09132264 0.007275471 -0.036410127 0.015502949 0.010740112 -0.04043038 -0.017211832
0.030855566 0.0972642 0.12460246 0.03798611 -0.015216451 0.07139307 0.04260107 0.00081603805
-0.02074323 0.026545292 -0.00025234712 -0.058121484 0.018770196 0.08482338 0.12691452 0.03608932
-0.092166014 -0.07212853 -0.007074796 -0.091923274 -0.04613098 -0.0018710506 0.025413845 0.033765737
-0.058882777 0.013088865 -0.020098623 -0.04740461 -0.04305746 0.0011820013 0.006615471 0.11459105
-0.04086551 0.051661387 0.018764736 0.0046813963 -0.013529365 0.019360293 -0.025227817 -0.035127893
00000000: 58a8 37bc 4b74 94bc 5401 a0bc 266d ecbc
00000010: d9df 713c 7696 4c3d 6485 ed3b 110a d0bc
00000020: 0abb c8bc 1a7d 033a f731 8a3c 854b 72b9
00000030: baee d0bb 9814 08bc 4d73 aabc 8201 31bc
00000040: 28f3 fdbb 5734 4dbc 6a42 cfbc 2619 35bc
00000050: e102 92bc 0b5c 18bc d409 88bb 768c b0bc
00000060: 0e85 76bc fb65 5fbc e069 7bbc 74cf 97bc
00000070: bd48 abbc a889 48bc 9935 63bc 62bb 94bc
00000080: e4b9 b0bc df5d 05bc 7815 773c eabc 623b
00000090: 5f58 4dbc d7da 17bd b056 c7bc d3f8 20bc
000000a0: 1043 713a b7c4 773c 0aba 93bc 4c76 29bb
000000b0: 8490 b1bb 337b 6db7 ff10 413b a597 913c
000000c0: 808b b03c 7b74 3fbc d8c6 52bc c002 4abc
000000d0: 00f0 8bbc a6d6 8abc ba40 6cbc ab49 25bc
000000e0: 6cde a2bc 8ea6 acbc 401a b0bc 7566 71bc
000000f0: e0db 33bc 3243 c439 d0db 823d cf9e 853d
00000100: 529d 8e3c cdc4 423d 8d13 a339 a85d 17bc
00000110: 569a 593b 795b 8eba 2bac 3c3c fa94 0cbd
00000120: 295b 633d dff2 e3bb 1e66 6f3c fc65 3ebc
00000130: 8b1b 3fba 41bd c03b 2b0d 413c a538 fabb
00000140: 5b90 02bc 3c4b 54bc 0374 77bc 043e 4ebc
00000150: 0c36 bdbc b6a3 3bbc 7742 9cbc 9410 34bc
00000160: 4073 233c 9899 acbb 96d6 653d 0cca 013d
00000170: df3b 923d 0e33 603d 3769 323d ddf5 583c
00000180: 75b2 46bb 5ddf 4dbc 06e6 1f3d 7cb3 093d
00000190: 5e5d 81ba b6d9 aa3a 2b04 42bd 4cad e0bc
000001a0: 4c64 7c3c aabd 4a3c d820 d33c b9f8 f93c
000001b0: b2b6 d93c 19f8 653c 25e4 28ba eedf 30bc
000001c0: 6bcf 9bbb c10b 8fbc 0f14 3fbc b5d1 ac3a
000001d0: 7ec9 9cbc 943c 943c 39b4 323d 8c84 4f3d
000001e0: 9681 803b 22bc fabb eba7 acbc f836 833c
000001f0: f30f 0b3d e44f 5e3d f989 043c 1075 103c
00000200: b5f8 b63c 2fa9 f33c eee7 1fbd 16a1 7cbd
00000210: 7a2c 7ebc ef0b 8abc 0bf5 ce39 9c88 133c
00000220: a5bc 163c 4e07 52bc ce86 43bc 243b 0ebc
00000230: b978 1ebd 8d7c 2dbd f257 95bc 5560 b8bc
00000240: 8175 f9bc b581 9d3c 2a0c 243d 5b19 d5bc
00000250: 8871 f7bb a298 08bd 4b93 5abd ddfb 953d
00000260: c292 87bd 8c1b adbd 068f ac3c b0a1 b43c
00000270: e9bf a4bb 5a00 85bd 5c69 f1b9 38d1 903c
00000280: 8fab 3ebd d1b6 28bd 58e3 52bc 9b23 1a3d
00000290: 2666 073d a553 47bd 0fc1 5fbc 7ea2 a1ba
000002a0: 5e1b 193e ceb2 1c3d 8bc5 8d3d a922 98bc
000002b0: 5b9d b73c ec41 1e3d 26d5 a33d 55b8 c2bd
000002c0: 3849 1b3d b95a 52bd 31a1 183b 2671 29bd
000002d0: 6d05 b03c cb29 48bd 1b07 a0bd 126a e1bc
000002e0: 452f dd3c 873a 1a3d 8737 a5bc b872 52bc
000002f0: bf69 db3d 0cf4 c63d 114c 983c 92ae b13c
00000300: 23b7 683d 9bae 833d 223e 083d baa6 113c
00000310: 312f 8abb e0c6 633d 702f d1bc 6f83 7eba
00000320: f4e4 723c fe38 483d 54ea 203d ae23 5d3d
00000330: b7a3 1c3b 8c0f 9bbc a76e 46bd b42d dcbd
00000340: fae3 943d 5d07 bb3d 1367 ee3b c922 15bd
00000350: 1500 7e3c 4bf7 2f3c 539a 25bd d4ff 8cbc
00000360: d0c4 fc3c 7432 c73d 932f ff3d 5397 1b3d
00000370: 6c4e 79bc 8836 923d 767e 2e3d 63eb 553a
00000380: b5ed a9bc 8375 d93c 754d 84b9 cb10 6ebd
00000390: f4c3 993c e1b7 ad3d e1f5 013e 65d2 133d
000003a0: 89c1 bcbd 1fb8 93bd b1d3 e7bb 4542 bcbd
000003b0: d7f3 3cbd 0a3e f5ba b230 d03c f14d 0a3d
000003c0: 112f 71bd ae72 563c dea5 a4bc 562b 42bd
000003d0: 055d 30bd 62ed 9a3a 98c6 d83b b6ae ea3d
000003e0: 9862 27bd e49a 533d 81b8 993c 6666 993b
000003f0: 45aa 5dbc 7a99 9e3c 91aa cebc 44e2 0fbd
