models/BEST/ConvNet_35.pth (torch, 127524 bytes, 7 tensors)

conv_1.weight f4 [8, 1, 3, 3]
000000 6f ae 00 3f 23 3a e6 3e b7 e8 87 3d b0 cd 4c 3f
       0.50266165 0.4496623 0.06636184 0.80001354
000010 2c 55 3e 3f 6f d7 c5 3e 1c c5 96 3e ab d2 12 3f
       0.7434871 0.38640925 0.29447258 0.57352704
000020 8f 07 25 3f f6 44 de be 82 e6 3c 3e b0 77 f9 3e
       0.6446466 -0.43411988 0.18447307 0.48724127
000030 a9 d8 a8 3e 54 c5 f3 3e 2d 68 1b 3f 8e 3a 1a 3f
       0.329778 0.47611487 0.60705835 0.602456
000040 84 93 30 3f 04 1c 21 3f 18 59 1f be b4 02 ae 3d
       0.6897509 0.62933373 -0.1556133 0.08496609
000050 c8 43 1d be d8 1d 20 bd a8 a2 0a be 3e 6e 62 3e
       -0.15357888 -0.03909096 -0.13538611 0.22112367
000060 1c b8 86 be b3 5b 1d be 90 c4 c0 bd 58 1f 4d be
       -0.2631234 -0.15367012 -0.09412491 -0.20031488
000070 98 a8 fd 3c 10 4f a9 be ae 8b 98 3e a2 09 8a be
       0.03096418 -0.33068132 0.29794067 -0.26960474
000080 00 66 88 3e ae 23 7a 3d 5f 14 c8 bd 72 8a 56 3e
       0.2664032 0.061069183 -0.097695105 0.2095125
000090 75 7c 02 3e 8f e4 a3 3e 05 a1 08 3f 16 a7 38 3e
       0.12742789 0.32010314 0.53370696 0.18032488
0000a0 a8 59 2b 3f 6b e6 2b 3f 8c 4c f9 3e 15 a9 fb 3e
       0.6693368 0.67148465 0.48691213 0.49152437
0000b0 9b d3 66 3f 63 e0 67 bf 2f 76 f2 be fa 77 22 bf
       0.90166634 -0.9057676 -0.47355792 -0.6346432
0000c0 35 7a 01 bf de c7 45 bf cb 23 73 bf 92 9c 51 bf
       -0.505771 -0.772581 -0.9497649 -0.8187953
0000d0 51 3d 6c bf 28 b9 90 be 7a a2 d2 be bd 5d 9e be
       -0.9228106 -0.28266263 -0.41139585 -0.30930892
0000e0 94 a0 07 bf 31 5d c1 be 2e 9b bf bd 50 36 38 bf
       -0.529794 -0.37766412 -0.0935577 -0.71957874
0000f0 44 50 11 bf 66 ec 27 bf c0 04 eb be e6 3c 46 bf
       -0.567631 -0.6559509 -0.4590206 -0.77436674
000100 31 e0 02 bf 06 9e 40 bf 42 c5 65 be 43 05 08 bf
       -0.5112334 -0.75241125 -0.22438529 -0.5313303
000110 ae a4 39 bf a8 ef 65 bf eb 16 1e be 89 5f 80 be
       -0.72516906 -0.8981881 -0.1543843 -0.25072888

conv_1.bias f4 [8]
000000 9b ef 27 bf 4e 01 81 bf bb 47 a9 be 8b 46 8b be
       -0.65599984 -1.0078523 -0.33062539 -0.27202258
000010 93 20 46 bf f0 32 0e 3f d7 69 53 3f 28 bd fd 3e
       -0.77393454 0.55546474 0.82583374 0.49558377

conv_2.weight f4 [16, 8, 3, 3]
000000 d4 d6 e9 3d ab 6b 8f bd 49 de 1f bd 03 e6 d5 be
       0.11417928 -0.07002958 -0.039030347 -0.41777048
000010 2e f3 a8 be 90 46 d6 be 86 cc 13 3f a7 e9 87 be
       -0.3299803 -0.4185071 0.57733953 -0.2654545
000020 f1 c1 1e be 78 d5 0c 3e 63 6f cd bd a1 62 06 3e
       -0.1550367 0.13753307 -0.10031011 0.13123561
000030 c9 12 fc be b1 47 ca be a0 f9 ed be 6b 10 30 3e
       -0.49233082 -0.3950782 -0.4647951 0.17193763
000040 97 16 77 3a 77 49 15 be ac 21 2b bd ac 89 e9 bd
       0.00094256684 -0.14578806 -0.04178016 -0.11403212
000050 1c 38 8a bd 6c 2b f1 3c b0 dc 7e bc ff 32 af bd
       -0.06748983 0.02943965 -0.015555546 -0.085546486
000060 e0 2a 35 3b 32 de a4 bd ad c4 cc bd e1 bc 7f bd
       0.0027643964 -0.08050193 -0.099984504 -0.06243599
000070 d8 d8 cb bd b8 53 92 bd bb a3 f2 3d c5 59 ae 3c
       -0.09953469 -0.07144874 0.11847635 0.02128304
000080 38 81 18 3d 80 ad e7 bd 28 5c a8 bd 3a f0 43 bd
       0.037232608 -0.113123894 -0.082207024 -0.04783652
000090 ed bc c1 3d 08 2f a3 be 5d 89 d2 3c d9 fe ff be
       0.09459863 -0.3187182 0.025700266 -0.4999912
0000a0 e7 c1 ae be de 99 ce be 63 a6 98 3e 5c 4f 25 be
       -0.3413231 -0.40351766 0.29814443 -0.16143554
0000b0 54 69 20 be df 07 bf bc 97 07 fb 3d b4 df 92 bd
       -0.1566518 -0.023319183 0.12257307 -0.07171574
0000c0 1f 76 39 3e d4 06 b2 3e 0e 29 e6 3e e9 cb 53 be
       0.18111466 0.34770834 0.44953197 -0.20683254
0000d0 ca 8e 2b be e1 50 30 3e 73 0d 2c be cf 47 83 bc
       -0.16753688 0.17218353 -0.16802005 -0.016025452
0000e0 d9 ea a5 bd d6 4e 4a bd a6 1e 93 3e e4 98 6f 3e
       -0.08101434 -0.04939159 0.2873432 0.23398167
0000f0 2d 00 1a be 32 55 d6 bd 6c 37 66 3e 84 1e 9a be
       -0.1503913 -0.104654685 0.2248208 -0.30101407
000100 2f 01 f8 3d a5 e1 32 bd 4f 92 9e 3c f3 a2 ca 3e
       0.12109601 -0.043672223 0.019356875 0.39577445
000110 e3 08 9d 3e 12 58 b2 be 5a 83 c9 3d 89 58 06 3a
       0.30670843 -0.34832817 0.098395064 0.0005124887
000120 8e 1a 24 bd 8b 22 05 be d1 46 56 3d 00 d2 fe bd
       -0.040064387 -0.13001458 0.05231363 -0.12442398
000130 df cf f1 3c 79 3e 06 bc 2e 76 48 bc a7 ce c4 bd
       0.029518066 -0.008193606 -0.0122352075 -0.09609728
000140 ee df 41 3d 3e 0c de bc fe 02 97 bc 68 f5 ff bd
       0.047332697 -0.027105447 -0.018434044 -0.124979794
000150 07 e0 0a bc 39 fa 42 bd 48 9f 8c bd e1 c0 90 3c
       -0.008476264 -0.047601912 -0.06866318 0.017670097
000160 74 75 5f bc f8 f5 bd bd 8e 52 74 bd a0 6b b8 bb
       -0.013638843 -0.092754304 -0.059649043 -0.0056280643
000170 fd c3 86 3d a0 b3 f6 bc a4 b6 89 bd ac 4d 25 bd
       0.065803505 -0.030114949 -0.06724289 -0.040357277
000180 36 50 b4 bd 2a 27 2c 3d 59 d2 ba 3d e5 ee e3 bd
       -0.088043615 0.042029537 0.09122152 -0.1112955
000190 39 0b de 3c df d1 75 3d 67 2c b0 3c 7d 0a 2c bd
       0.02710496 0.0600146 0.021505548 -0.04200219
0001a0 66 8e 7a 3d c3 62 7d 3d d3 3c 34 3d 45 ff a9 bc
       0.061170958 0.061861765 0.04400332 -0.020751605
0001b0 8d 9f 85 bd cd 5a 03 bd 8d dc dd bd e1 eb 99 bd
       -0.065245725 -0.032069016 -0.10833082 -0.075156935
0001c0 54 ab cf 3c 2b de 61 3c 35 9f 9a bd 64 da af bd
       0.02535025 0.013785879 -0.075498976 -0.085865766
0001d0 e4 0b aa bd 8c a3 86 3b 0d 47 42 3d fb 6e f9 3c
       -0.08303049 0.004108852 0.04743104 0.030448427
0001e0 75 bb f9 bd c5 5c 4c bd d1 f0 a9 3d 76 d8 e2 3c
       -0.12193958 -0.04989316 0.08297885 0.027691107
0001f0 d9 0f 0a bd d2 4a d2 bd d2 c7 b1 bd aa 58 ed bd
       -0.03370652 -0.10268177 -0.08680691 -0.11589177
000200 58 6d 81 bd 1a eb 6c 3c 45 14 6a 3d 5f 27 e2 3c
       -0.06319684 0.014460349 0.057148237 0.027606664
000210 5b de fc bd 93 58 c7 bd f6 5d 50 bd 84 a0 35 3e
       -0.123470984 -0.09733691 -0.050870858 0.17737013
000220 0b 35 6f 3d 9b 25 f1 bc 60 89 ab 3d 57 e0 35 bd
       0.058400195 -0.029436877 0.083758116 -0.0444034
000230 21 40 e3 bd cf 33 c4 3d 09 a1 ae bd af 2d 96 bd
       -0.11096216 0.09580194 -0.08526809 -0.07332932
000240 09 5d 8c be 92 50 87 be 39 d9 6c 3e 35 dd 06 be
       -0.2741473 -0.26428658 0.23129739 -0.13170321
000250 8c 3f 35 be a6 ed 8b be 6a e6 9f be 2e f9 8b bd
       -0.17700022 -0.2732975 -0.3123048 -0.06834637
000260 7a 89 4a be dd 51 16 be 3a 56 6a be 25 0c 19 3e
       -0.19779006 -0.14679666 -0.22884455 0.14946039
000270 bc a4 20 be c9 0f 46 be a0 28 0e be d8 d9 73 bd
       -0.15687841 -0.19341959 -0.13882685 -0.059533924
000280 31 3f d7 3d 69 3e 84 be ec 4b c2 bc 48 e7 8a bd
       0.105101 -0.25828865 -0.023717843 -0.06782395
000290 e0 ec af bc 81 e0 a9 bd 34 b5 9d bd 72 1f 20 3d
       -0.021475255 -0.08294774 -0.077005774 0.03909249
0002a0 4e 76 0f bd 5d 00 95 3d 38 dc 1a bd 3e b3 af bd
       -0.035024934 0.0727546 -0.037807673 -0.085791096
0002b0 5b 60 9e bc 73 0b 6a bd 5d 53 0c bd a1 ff df bd
       -0.019333055 -0.057139825 -0.03425919 -0.10937429
0002c0 87 d7 88 3d 12 00 ac bd 43 52 66 3d c3 fb 51 3d
       0.066817336 -0.08398451 0.056230795 0.05126549
0002d0 3b 9e 54 be 14 30 e1 be 16 3a ac 3e 2d 64 83 be
       -0.20763485 -0.43981993 0.33638066 -0.25662366
0002e0 58 89 5c bd 7e 02 a7 3d 90 10 23 be 56 05 57 bd
       -0.05384192 0.08154772 -0.15924287 -0.052495323
0002f0 4f 95 82 be ad 13 7e 3e 4f 6b ba 3e b0 4d 50 be
       -0.25504538 0.24812193 0.36409995 -0.20342135
000300 ff da 0a 3e 27 92 1d 3e 5d ac b5 3d 23 19 12 be
       0.13560103 0.15387784 0.08870766 -0.14267401
000310 92 a3 37 be bd 8f 96 3d 2d 29 9c 3e 3b 57 b9 3d
       -0.17933491 0.07351635 0.30500165 0.09049841
000320 5f db 5c bd 37 12 f3 3b 83 ed 58 3d 43 a2 af bc
       -0.053920146 0.007417943 0.052960884 -0.021439677
000330 a1 fe 4b be 28 38 dc bd 59 af 10 bd a1 49 b0 3e
       -0.19921352 -0.107528985 -0.035323475 0.34431174
000340 d5 88 ae 3e 03 99 42 be c3 bf 01 3d 8e 1b 01 bd
       0.3408877 -0.19003682 0.03167702 -0.03152042
000350 4f e9 89 be af 5e bc be 36 cd a3 bd e8 c4 01 be
       -0.26935813 -0.36790988 -0.07998125 -0.1267277
000360 ea 98 32 bd 3f e9 df bd d3 03 1b 3d 8b 33 be bd
       -0.04360286 -0.1093316 0.037845444 -0.09287175
000370 2d bb 0f be d5 a6 85 be ae a2 8f bc 86 ca 84 bd
       -0.14036246 -0.26103845 -0.017533626 -0.06483941
000380 13 4c e2 bd 68 e9 a4 bd 02 13 6b be cd 29 9b 3d
       -0.11049666 -0.08052331 -0.2295647 0.07576332
000390 7d fa 32 be 52 7d 2f be 4f 83 fa bd 3a 39 61 3d
       -0.17478366 -0.1713765 -0.122320764 0.054986216
0003a0 34 c2 87 be 41 a2 59 be c1 1b e5 3d 84 fd fd 3c
       -0.26515353 -0.21253301 0.11186934 0.031004675
0003b0 29 d0 a1 3d f3 f3 ed 3d d0 ee 93 bc 74 61 c8 3c
       0.079010315 0.11618795 -0.01805821 0.024460532
0003c0 c8 c0 a7 bd 50 f4 c6 bc 25 bf b2 3d 79 ce 7e 3d
       -0.08191067 -0.02428642 0.08727864 0.062208626
0003d0 4d fb 94 bd 46 e7 bb bd 9f ef a2 bd b5 20 ed bd
       -0.07274494 -0.09174971 -0.0795586 -0.11578504
0003e0 3f 44 bb bd 2f dc f2 bc ed 23 a2 3d 4c e1 a2 3c
       -0.09143876 -0.029646007 0.079170085 0.01988282
0003f0 f1 bf 6b be 0f 5b 69 be f5 4e 67 3e 43 b3 42 be
       -0.23022439 -0.22788642 0.22588713 -0.19013695

conv_2.bias f4 [16]
000000 07 ff 87 3c 71 85 57 3d e5 b3 3f 3e 92 84 8e 3e
       0.016601099 0.052617494 0.18720968 0.27835518
000010 b7 4c 0a bd a9 d5 7f 3e f5 ef d4 bb b0 1b 49 3e
       -0.033764567 0.24983849 -0.0064983317 0.19639468
000020 d1 66 ca be 9f 37 f7 3d e3 20 31 3c 96 d8 1f be
       -0.39531568 0.12071156 0.010811063 -0.15609965
000030 e9 a9 91 3e 77 d2 f9 3a a1 7a a3 be 12 e9 96 3d
       0.28449944 0.0019059916 -0.31929496 0.073686734

conv_3.weight f4 [32, 16, 3, 3]
000000 6d 03 51 3d 0b 1d d7 3d f3 01 51 bd 92 10 02 be
       0.051028658 0.105035864 -0.05102725 -0.12701634
000010 ce d0 b9 3c 52 02 b8 3c 11 52 59 bc 37 35 87 3c
       0.022682574 0.022462044 -0.013264195 0.016504867
000020 ac f3 38 bc f7 57 61 3d a3 db ca 3c fe cf 92 bd
       -0.011288565 0.05501553 0.024762934 -0.071685776
000030 d5 09 9f 3c 48 5d 8d 3d cf 9e 5f bd 7a 4a 5c bd
       0.019413868 0.069025576 -0.05459481 -0.053781964
000040 9e 40 a7 3d de 38 88 3d f0 ce 83 bd f5 b1 84 3c
       0.081666216 0.066514716 -0.064359546 0.016198138
000050 09 60 04 bd a8 53 d5 bd de 66 b8 bc 5f a4 59 bc
       -0.03231815 -0.10416347 -0.022509988 -0.013283818
000060 09 87 16 3d 68 bb 6f bb 42 9c c0 bd 10 31 16 3d
       0.036749873 -0.0036580209 -0.09404804 0.036667883
000070 00 74 15 3d d3 57 d5 bb 19 bc fd 3b 3e 86 55 3c
       0.03648758 -0.0065107136 0.0077433703 0.013032494
000080 c9 de a7 bd 9f 8f 54 3c 7f e0 bf bc cc 6b 95 bd
       -0.0819679 0.012973695 -0.023422478 -0.07295951
000090 a3 02 fa bd 03 11 6c 3e b3 20 52 3e 69 fc 21 be
       -0.12207534 0.23053364 0.20520286 -0.15818943
0000a0 73 81 c5 3d 2b dc 27 bd e8 ab 31 3d e4 0d 9e 3c
       0.09643831 -0.040981453 0.043376833 0.019293733
0000b0 36 6c 3d 3c 66 ef 14 be e6 fb 17 3e ea 97 c2 3d
       0.011561444 -0.14544448 0.14842185 0.095016316
0000c0 17 6c 2e be 79 cf 12 bd e6 22 92 bc cc 58 1f 3c
       -0.1703342 -0.035842393 -0.017838906 0.009725761
0000d0 c9 6e 96 bd 27 dd bc bc 2c 90 3d 3d 17 d8 37 bd
       -0.07345349 -0.023054672 0.04628007 -0.044883814
0000e0 92 a2 f5 bd 38 8f e1 3c 5d 73 86 3c 2d f3 c3 bd
       -0.119938985 0.027534112 0.016412431 -0.095678665
0000f0 25 8d 61 bd 6e bd fd bd 06 a3 1a 3e 9a 32 17 3d
       -0.055066247 -0.123896465 0.15101251 0.03691349
000100 a3 f2 74 3c 85 a9 78 bd 8a ce 1a 3d d1 61 0e bd
       0.014950427 -0.06070854 0.037794627 -0.034761254
000110 67 59 32 bd 35 64 05 bb f4 72 91 bd 8d 5b 99 bc
       -0.043542292 -0.0020353917 -0.07102004 -0.018720413
000120 30 ef bc bd 94 ee a7 3c 4e b4 71 3d 25 9e 42 3c
       -0.09225309 0.020499505 0.059009843 0.011878525
000130 2f 81 cf 3c fc 70 c1 bd d5 25 b7 3d 8c 26 14 3e
       0.025330154 -0.09445378 0.08942763 0.1446783
000140 93 41 a6 bd c8 e5 73 3c 4f f8 c3 bd 8a a1 37 bd
       -0.08117976 0.014886327 -0.095688455 -0.04483179
000150 0b f8 e4 3c 2a f1 d3 3c f7 82 13 bd c4 c1 21 3e
       0.027950307 0.025871832 -0.03601357 0.15796572
000160 1c 78 1f 3d 3a 99 e2 bc a0 00 8e 3d 61 42 0b 3d
       0.038932905 -0.027660955 0.06933713 0.03399885
000170 47 d6 26 bd e4 59 c7 bd 3a 55 bd bc a6 94 85 bd
       -0.040731695 -0.09733942 -0.023111928 -0.06522493
000180 5e 99 aa bb 97 8a f9 bd f1 a3 c0 bd 52 f4 cd 3c
       -0.005206271 -0.12184637 -0.09406269 0.025140915
000190 02 fa 9a bd 9d 96 78 bc 34 ee a9 bb f6 fe 16 bd
       -0.075672165 -0.015172628 -0.0051858667 -0.036864243
0001a0 d6 82 e4 3c 6c 10 cc 3a 2b e7 60 3d 7c d0 2f bc
       0.027894419 0.0015568859 0.05490796 -0.010730859
0001b0 fd c3 53 bd 70 99 c7 3d 9e 47 a9 3c a5 62 a2 bc
       -0.05170058 0.09746063 0.020664033 -0.019822428
0001c0 99 72 88 bd e9 5f c0 3c 7b 93 b6 bd 3f f3 ca 3b
       -0.06662483 0.023483234 -0.089148484 0.006193548
0001d0 5f b1 62 3d 57 46 0b be 1d e0 24 bc bc c5 8d bd
       0.055344936 -0.13601051 -0.010063198 -0.069224805
0001e0 d0 03 0f bc 91 b8 d1 3d 93 e0 8d 3c db da b9 3d
       -0.008728936 0.102402814 0.017319 0.090749465
0001f0 31 86 93 bd 50 3f ba bd 59 29 30 bc 5e 40 20 bc
       -0.07203329 -0.09094107 -0.010752046 -0.009780971
000200 9c 9a 3d 3d 8d 37 2e bd 9b 5f 9e 3c ca 59 23 3c
       0.046290025 -0.042533446 0.019332698 0.009970138
000210 e1 9d ba 3c 4c 19 f6 bd af 6d ff 3c bc 23 f1 bd
       0.02278036 -0.12016544 0.03118023 -0.11774394
000220 63 6b 93 3d fd 80 7b bd e0 ef b0 bd 13 e6 57 b7
       0.07198217 -0.06140231 -0.086395025 -1.2868567e-05
000230 6f 36 5d bd 4e 1d c2 bd 5a 5f 80 bd 26 eb 2d bd
       -0.05400699 -0.09478246 -0.06268187 -0.042460583
000240 cf 96 89 bd 37 5a d1 bd e5 3f 5d bd 17 b1 f0 bc
       -0.067182176 -0.10222285 -0.054016013 -0.029381318
000250 5b 7c fd 3b 73 e4 3d be 59 93 03 be e3 c5 0e 3c
       0.0077357716 -0.18544178 -0.12849177 0.008714172
000260 6d 0c 97 bd ba 2a 99 bd 8c 69 1d bd cc 85 3b 3b
       -0.07375417 -0.074788526 -0.038430735 0.0028613685
000270 83 78 66 bd ea 11 06 bd 4c 72 84 bc a6 a4 58 bc
       -0.056267273 -0.032731928 -0.016167782 -0.013222849
000280 c1 d3 36 bd ec 30 c7 3a 90 c2 b1 bd 7d 93 7a bd
       -0.044635538 0.0015197075 -0.08679688 -0.061175812
000290 c1 07 93 3c 19 44 2e bd 30 bb ba bd 09 b0 6e 3c
       0.017948033 -0.04254541 -0.091177344 0.014568337
0002a0 04 3f ef bd 04 cb 48 bd 43 2a f1 3d 43 c0 a2 bd
       -0.11681941 -0.049021736 0.11775639 -0.07946827
0002b0 d1 b8 04 be 6a da 08 3d 2f 86 ba bd 5a ed 18 be
       -0.12961127 0.03341142 -0.09107625 -0.14934292
0002c0 75 5b b0 3c 47 67 ea bd 2e 6b 61 bd 1b 26 2b 3d
       0.021527985 -0.1144548 -0.055033855 0.041784387
0002d0 0c 6b f1 bd 02 17 bf bd 30 1a 35 bd aa fa b9 bd
       -0.11787996 -0.0933056 -0.044214427 -0.090810135
0002e0 41 eb ac bd 0a 5c 11 3d 12 4e 18 be 4a 15 9c bd
       -0.084433086 0.035488166 -0.14873531 -0.07621248
0002f0 94 b7 88 bd b9 3c cb bd 5c 7a 1a be c2 be 6e 3d
       -0.0667564 -0.09923691 -0.15085739 0.05828739
000300 e5 e9 18 be 61 45 0a be 78 36 a6 bc 45 c2 2d be
       -0.14932974 -0.13503028 -0.020289645 -0.16968639
000310 84 30 0c be b9 71 2c be c0 81 04 bd c6 f8 3c 3d
       -0.13690382 -0.16840257 -0.0323503 0.046135686
000320 3b f5 08 be 45 07 af be b3 15 87 3e 3a 48 c4 be
       -0.13374798 -0.34185234 0.26383743 -0.38336354
000330 47 a1 a1 bd c5 3b ce 3e 89 2d 31 be f2 7b 8e bd
       -0.07892089 0.40279976 -0.17302527 -0.069572344
000340 98 ce a5 3a e6 18 56 3c 68 ca 02 3d f6 d5 9c bd
       0.0012650071 0.01306746 0.03193131 -0.07657997
000350 20 fa bf bd fc 44 aa bc 5b 43 fb bb 33 24 47 bd
       -0.093738794 -0.020784847 -0.0076679415 -0.048618507
000360 6d be 0d be a0 89 12 be 0b 34 e9 3c ab 73 b3 bd
       -0.13842173 -0.14310312 0.028467199 -0.08762296
000370 29 6a f7 bc 35 54 54 3d 7e b2 cb bd 71 b9 2c bd
       -0.030201988 0.05183812 -0.09946154 -0.04216904
000380 98 3f 34 bd d4 47 3b 3a c6 cd 8d be 1d 24 3c bd
       -0.04400596 0.0007144187 -0.27696055 -0.045932878
000390 c5 79 c9 bd 1a 7c a9 bc 11 ad 2a 3d cc 7d 2c be
       -0.09837679 -0.020689059 0.041668955 -0.16844863
0003a0 79 11 49 be c8 c9 a8 3e b7 23 5a be 5e 59 1b be
       -0.19635572 0.32966447 -0.21302687 -0.1517081
0003b0 c4 47 9d 3d 79 14 ea bd 30 f8 7d bc 03 9a 2a bc
       0.07679704 -0.11429686 -0.015501067 -0.010412696
0003c0 9c 90 da bd 6f 00 3a 3e 13 04 1e be 49 b5 47 bd
       -0.10672113 0.18164228 -0.15431242 -0.04875687
0003d0 f7 36 1f bd fb 06 6e bd 1c ac 77 bd ff cf 99 bd
       -0.038870778 -0.058112126 -0.06046687 -0.07510375
0003e0 18 76 97 bd 54 17 a2 3c 5b e0 49 3d 6f 2f 9d 3d
       -0.073955715 0.019786514 0.049286228 0.07675063
0003f0 92 17 72 3c 25 55 df bc 69 43 c8 3d e4 64 ef bd
       0.014776127 -0.02726228 0.097784825 -0.11689165

conv_3.bias f4 [32]
000000 f7 b7 80 be e0 0d 22 be 0f b2 9e be 8f c5 7f bf
       -0.25140354 -0.15825605 -0.30995223 -0.99910825
000010 5e ae 26 be dc ab 8c be 53 4f f3 be 78 95 42 be
       -0.16277453 -0.27474868 -0.47521457 -0.1900233
000020 60 41 b6 be df d9 5d be 03 4d 78 bd 5f 58 9a 3c
       -0.35596752 -0.21665142 -0.06062032 0.018840967
000030 cc be 29 bd b8 1e 17 bf e5 74 81 3e 33 9c f8 3d
       -0.041441724 -0.5903125 0.25284496 0.12139168
000040 d0 2c 3b 3e 3f 63 92 be 24 34 66 bd 68 f0 32 3e
       0.18278813 -0.28591344 -0.05620207 0.1747452
000050 2a fd bc bc b7 ba e3 bd 7f 67 12 bf 42 53 79 be
       -0.023069937 -0.111195974 -0.5718917 -0.24348167
000060 10 83 15 be 69 a9 e5 be b9 84 f2 be d3 90 26 bf
       -0.14600778 -0.44855812 -0.47366884 -0.65064734
000070 69 f9 49 3e 8c b7 3b 3d 84 80 8f 3e 0c 21 48 bf
       0.19724049 0.04582934 0.28027737 -0.78175426

linear_1.weight f4 [1, 25088]
000000 3f 41 f6 bb 20 62 e0 bb a2 92 0e bc b3 ae 3f bc
       -0.007515102 -0.006847635 -0.008701952 -0.011699366
000010 f6 0a 61 3c 45 31 59 3d 45 fd 4b 3c 09 be bc bc
       0.013735523 0.053025503 0.012450521 -0.023039835
000020 33 da db bc 13 57 64 bc ab 2f 57 3c 7c 1b 28 3b
       -0.026837444 -0.013936776 0.0131339235 0.0025651148
000030 c0 6f 9c bb cc 04 88 bc 8c 6b 86 bc d9 05 38 bc
       -0.004774064 -0.01660385 -0.016408704 -0.011231863
000040 56 08 b3 bb a0 10 a4 bb 39 41 af bc ac 1c 37 bc
       -0.00546364 -0.0050068647 -0.021393405 -0.0111762695
000050 1c bc 1e bc 98 f4 47 39 ac ba b6 3b 0a 5f 31 bc
       -0.009688403 0.00019069237 0.0055764522 -0.010825882
000060 6e 1f 80 bb a3 dc 1f bb 2d f1 87 bb f3 ab 61 bc
       -0.0039099967 -0.0024392984 -0.0041486234 -0.013773906
000070 92 57 75 bc b9 bc ef 39 3b 67 d6 ba fd b2 bc bb
       -0.014974492 0.00045726242 -0.0016357669 -0.0057586418
000080 fb 26 31 bc f0 a1 24 3c f1 8d 8b 3c c3 41 97 3c
       -0.010812516 0.0100483745 0.017035456 0.018463975
000090 46 eb f3 bb 10 48 b7 bc 6f 2b f1 bb f6 0b 9d 3a
       -0.0074438183 -0.02237323 -0.007359914 0.0011981714
0000a0 72 08 72 bc 7f 84 c1 3b 75 e9 13 bc 90 b9 a8 3b
       -0.014772521 0.0059056873 -0.009027828 0.005149074
0000b0 2a b0 26 bc 61 82 d4 3b 4c 11 8f 3a aa 4f c7 ba
       -0.010173837 0.006485269 0.0010915189 -0.0015206237
0000c0 ae 91 ad bb c9 7a 1c ba 47 cf fc ba bb c5 cd 39
       -0.0052969074 -0.0005969224 -0.0019287848 0.00039247968
0000d0 45 12 be bb 78 db 8a bb b3 90 e2 ba 22 33 4e ba
       -0.0058005177 -0.0042375885 -0.0017285555 -0.0007865896
0000e0 e3 2e 6d bc 3b 5f 0a bc a1 d4 16 bc 1b 85 0c bb
       -0.014476511 -0.008445556 -0.009205968 -0.0021441642
0000f0 1b e0 0d 3a 77 c3 21 3c ee 07 8b 3d de ec 35 3d
       0.00054121175 0.009873263 0.06788622 0.044415347
000100 b8 b6 c9 3c d5 92 08 3d 56 b1 4d 3c 64 5a 50 bb
       0.02462326 0.033343155 0.012554487 -0.0031792158
000110 8d b9 07 bc 9a b5 98 3b 33 2a 80 3c bb ce 00 bd
       -0.008283985 0.0046603205 0.015645122 -0.031447154
000120 f2 92 28 3d af d3 dc 3b ee ec d0 3c b6 de 3d 3c
       0.041155763 0.006739102 0.025503602 0.011588743
000130 d4 1e b0 39 69 d2 25 bc de e5 16 3c 08 45 a6 3b
       0.00033592305 -0.0101209665 0.009210078 0.005074147
000140 fc 8f 5d 3b 51 2c 9a b9 3f 4c 25 bb d5 df 45 bb
       0.0033807745 -0.00029406187 -0.0025222448 -0.0030193229
000150 8d 43 91 bc e9 f7 a4 3a 30 1f e3 bb 90 5d 64 3a
       -0.017732406 0.001258609 -0.006931208 0.00087114517
000160 36 2c 9f 3c 3e 51 f2 3b ad 37 c6 3b 3a ae b3 3c
       0.019430261 0.0073949387 0.0060491175 0.021933664
000170 00 96 50 3d ad 2a 17 3d f8 de 53 3d a3 45 5a 3c
       0.0509243 0.036905933 0.05172631 0.013322267
000180 29 09 c3 3b 84 0d 06 3b a2 a6 7a 3d ac a2 33 3d
       0.0059520197 0.0020454833 0.06119407 0.043856308
000190 dd 1f b0 bb be 9c f3 3b 43 97 06 bd 40 8e 73 bc
       -0.005374892 0.0074344566 -0.0328591 -0.014865458
0001a0 49 1f 1b 3d 67 32 f0 3c 14 65 81 3c a9 07 bc 3c
       0.037871633 0.029320909 0.015795268 0.022952871
0001b0 5d f6 0c 3d 39 51 d0 3c d1 ec 3a 3c 19 9a 9f 3b
       0.034414638 0.025429355 0.0114090005 0.004870665
0001c0 eb e2 1e ba 1d ff a0 bb cc 03 79 3a 66 11 60 3c
       -0.0006061035 -0.0049132244 0.0009499162 0.013676023
0001d0 51 5b c6 bb b9 eb 8c bc 60 7b 99 3b 99 6b 6b 3d
       -0.006053366 -0.017202245 0.004683897 0.05747566
0001e0 7e b8 32 3c ba ba ea bb f0 fc 15 bd aa 2b 15 3b
       0.010908244 -0.007163373 -0.036618173 0.0022761622
0001f0 ec 3d 0b 3c 6f fa 3d 3d a9 9c 9d 3c 3f c9 0f 3b
       0.00849865 0.04638141 0.01923974 0.002194002
000200 25 e8 b9 3c b5 31 9e 3c e8 b8 cb bc 43 8b 79 bd
       0.022693703 0.019310812 -0.024868444 -0.060923826
000210 a9 56 e2 bb 22 17 d1 3b 81 0e 59 3c 26 c0 01 bb
       -0.0069073034 0.0063809315 0.013248087 -0.0019798367
000220 e5 fd 25 3c e1 69 e6 3a 0d 4c 01 3b 8f bb 9a bb
       0.010131334 0.0017579162 0.0019729168 -0.0047220658
000230 1c 42 42 bd be c3 0b bd dc 20 03 bc 60 38 95 bc
       -0.047426328 -0.03412222 -0.00800344 -0.018215358
000240 fd 51 d2 bc 8e de 10 3c 11 9b 6a 3d 3f 8c d5 bb
       -0.02567386 0.008842124 0.05727679 -0.006516963
000250 33 3f fc bc 22 5e 76 bd fd 85 18 bd 98 69 46 3d
       -0.030791854 -0.060148366 -0.037237156 0.048440546
000260 df 48 0e bd 78 56 8b bd 43 ad 25 ba 61 e1 c7 3b
       -0.034737464 -0.06803602 -0.00063200685 0.0060998653
000270 e2 34 95 ba f8 b0 b9 bd 49 ce df 3b 27 31 6b 3b
       -0.0011383558 -0.09066957 0.006830011 0.0035887451
000280 2a d5 17 bd 23 eb 2c bd c2 b1 f1 bb 7b 4e 15 3d
       -0.037068523 -0.04221643 -0.0073759267 0.036451798
000290 c2 d7 c8 3c 45 54 80 bc 41 fc 15 bc c7 7a 09 3c
       0.024516944 -0.015665183 -0.00915438 0.008391089
0002a0 de e3 03 3e e6 b7 42 3d f2 87 55 3d 04 e7 15 bd
       0.12879893 0.04753866 0.0521316 -0.036597267
0002b0 e1 40 1a bc 53 dc 9f 3c 1f 75 d9 3d 7e a4 e1 bd
       -0.009414882 0.019514238 0.10618042 -0.110177025
0002c0 b6 29 8e bc 6a ba 5b bd 61 5c e9 3c 43 2a 20 bc
       -0.017353874 -0.053644575 0.028486433 -0.009775701
0002d0 f1 1f a8 3d d5 af fa bc d0 ce 9b bd b9 1e 72 bc
       0.08209217 -0.030601421 -0.07607806 -0.014777833
0002e0 3b ad 2d 3d e1 47 83 3c f6 76 c1 bc f7 91 0d bd
       0.042401534 0.016025485 -0.023616295 -0.03456303
0002f0 35 e5 bf 3d 82 ef b3 3d 68 70 92 3c 5f 87 7b 3c
       0.0936989 0.08785917 0.017875865 0.015352099
000300 31 ce 48 3d a9 09 a7 3d 82 93 f6 3c ca 24 82 3b
       0.049024764 0.081561394 0.030099634 0.0039716708
000310 61 9e 27 bb 2c 36 82 3d d2 09 00 bd 5a d6 04 bd
       -0.002557658 0.06357989 -0.031259365 -0.032430984
000320 60 03 5b bc 9a 10 a0 3d f6 4a 04 3d be 78 ec bc
       -0.013367504 0.078156665 0.03229805 -0.028866168
000330 78 42 84 bb 81 49 af 3c 3d 79 20 bd 40 83 b2 bd
       -0.004036244 0.021397354 -0.03917812 -0.0871644
000340 2b bb 03 3e d2 33 38 3d 72 32 c3 bb e8 a3 0b bd
       0.12864368 0.044971295 -0.0059569413 -0.03409186
000350 af 5e f7 bb b3 1c 7f 3c ab db 67 bd a3 61 29 bd
       -0.007549129 0.015570807 -0.056605976 -0.04135288
000360 30 ca a2 3c c9 6b 9a 3d f0 16 da 3d 82 19 f5 b8
       0.019871801 0.0754009 0.10648906 -0.000116872616
000370 67 aa 67 bc c5 0a 96 3d da 70 a1 3c 1a bc 19 bb
       -0.014139748 0.07326273 0.019707132 -0.0023458065
000380 ee af c7 bc e9 00 c3 3c 83 f9 5c 3c cb 56 37 bd
       -0.024375882 0.023804145 0.013487223 -0.044760507
000390 a7 8b ab bc 06 cf dd 3d 96 ea a0 3d 5c df 54 bd
       -0.020940615 0.10830502 0.07857244 -0.051970825
0003a0 f1 a5 d3 bc 43 0f f3 bc a9 ee 33 3c 25 71 bc bd
       -0.025835963 -0.029670363 0.010982194 -0.09201268
0003b0 36 4d 48 bd 1e bb 00 bd 3d d1 ca bb 39 74 ac 3c
       -0.04890176 -0.03142845 -0.006189494 0.021051513
0003c0 84 ae 6b bd 3a f5 96 ba de 50 a4 bc 1d 09 8a bd
       -0.057539478 -0.0011517175 -0.020058092 -0.067400195
0003d0 82 08 01 bd 90 ac df 39 91 72 2e 3c e3 e4 b0 3d
       -0.031502254 0.00042662444 0.010647432 0.08637407
0003e0 da 28 2f bd 96 7f 40 3d 65 55 13 3c ff 3b 80 3b
       -0.04276357 0.046996675 0.008992528 0.003913402
0003f0 ec 19 91 bc f8 91 a3 3c 95 5a fa 3a 4a b3 2c bd
       -0.017712556 0.019967064 0.0019100482 -0.04216317
