models/BEST/ConvNet_15.pth (torch, 127524 bytes, 7 tensors)

conv_1.weight f4 [8, 1, 3, 3]
00000000: 9fed b73e d2b8 093f e53a 423e ff1f 263f
00000010: dbf2 0e3f 9667 bd3e a08a 173e b4b7 003f
00000020: a613 143f 2662 97be 58ff a23e 173b b63e
00000030: 49aa f73e 127f fb3e e270 253f c1e4 e73e
00000040: c60d 2b3f de44 253f 1859 1fbe b402 ae3d
00000050: c843 1dbe d81d 20bd a8a2 0abe 3e6e 623e
00000060: 1cb8 86be b35b 1dbe 90c4 c0bd 6fcb 4fbe
00000070: 4522 e43c 547d a8be 5259 963e 72f7 8dbe
00000080: 238b 893e 6220 613d ac4b c9bd c4da 5a3e
00000090: d601 f53d 16c6 cb3e f587 e23e 0399 013e
000000a0: b891 0c3f 7ea4 1c3f b9bf 923e 79ce f83e
000000b0: c7ac 4f3f fbf2 5bbf 958c cebe dd28 0abf
000000c0: edb2 cfbe 9936 2bbf 1f62 4fbf 3389 32bf
000000d0: cd39 44bf 02e3 47be 7865 e6be 3517 b9be
000000e0: b7f8 f6be 9706 01bf 711b 5fbe e8b1 49bf
000000f0: 0c87 0cbf 96dd 38bf 1b0b fdbe dad1 22bf
00000100: e18e c5be 71d8 29bf 78fb 5dbe 0027 11bf
00000110: 3f26 28bf 2480 4abf 7263 18be c352 9abe
0.35923478 0.5379764 0.18967779 0.6489257 0.5583932 0.36993092 0.14798975 0.5028031
0.5784248 -0.2956707 0.31835437 0.35591957 0.48372105 0.49120384 0.6462537 0.45291713
0.6681789 0.6455821 -0.1556133 0.08496609 -0.15357888 -0.03909096 -0.13538611 0.22112367
-0.2631234 -0.15367012 -0.09412491 -0.20292448 0.027848372 -0.32908118 0.2936502 -0.27727848
0.26863965 0.054962523 -0.098288864 0.21372515 0.11963241 0.39799565 0.44244352 0.12656026
0.5490985 0.61188495 0.28661898 0.48595026 0.8112301 -0.85917634 -0.4034163 -0.539686
-0.40566197 -0.66880184 -0.81009096 -0.697406 -0.76650697 -0.1952019 -0.4499929 -0.36150518
-0.4823663 -0.5040068 -0.21787812 -0.7878709 -0.54893565 -0.72213113 -0.49422535 -0.6360146
-0.3858557 -0.6634589 -0.21677959 -0.56700134 -0.6568336 -0.7910178 -0.14881685 -0.30141267

conv_1.bias f4 [8]
00000000: 1da6 49bf 44d3 68bf bb47 a9be 1404 87be
00000010: 46c5 40bf 4f74 193f 4ec1 003f ac5e 243f
-0.78769094 -0.90947366 -0.33062539 -0.263703 -0.75301015 0.599431 0.5029496 0.6420696

conv_2.weight f4 [16, 8, 3, 3]
00000000: e603 363d 38bd 1abe 6da1 6b3d 0f00 b2be
00000010: e8f4 9dbe 4f67 d6be f359 bc3e 2131 5fbe
00000020: 77f8 42be 4ff0 d93c a21e 60bb bea2 7b3e
00000030: 1f3c babe e5e8 a3be fc33 b3be b34a b539
00000040: 7e3b afbd ae8a 63bc ac21 2bbd ac89 e9bd
00000050: 1c38 8abd 6c2b f13c b0dc 7ebc ff32 afbd
00000060: e02a 353b 32de a4bd adc4 ccbd 86fb 83bd
00000070: 0922 d2bd 25bf 97bd 36a3 f53d f7ba b13c
00000080: b939 143d f86e e9bd 7b8f a8bd f89a 38bd
00000090: a9f0 dc3c c9ec 6ebe e7b4 0f3d 19e8 8dbe
000000a0: 7267 6fbe bfd3 8cbe 460d 913e 7dfc a5bd
000000b0: d6ce 11be 087a 40be b123 a8bb f366 6cbd
000000c0: bab4 903d 764a 183e 258f b23e e229 2fbd
000000d0: 45ca 9cbc e4fe 653e 22c4 15be d408 26bd
000000e0: 9096 a9bd 0f01 12be 0dea 1a3e 77d5 113e
000000f0: c82f 8cbd dc3d c3bd 096a fe3d 7f57 aabe
00000100: 4761 2ebd 3c3a a6bc 11ed 633c 646f 843e
00000110: 4610 ad3e 7833 78be 5b9a c73d 51a4 c23c
00000120: 4ff6 29bd e59a f0bd 605f 583d a137 f8bd
00000130: e2bb fe3c c44f 3fbc da16 3cbc c388 e1bd
00000140: 38b7 0b3d ce49 abbc 5807 65bc f656 f9bd
00000150: e857 913b ceeb 3cbd cfc6 95bd 9b39 433d
00000160: 262e 8abb c62b b9bd 8e52 74bd a06b b8bb
00000170: fdc3 863d a0b3 f6bc a4b6 89bd ac4d 25bd
00000180: 3650 b4bd 2a27 2c3d 59d2 ba3d d843 e3bd
00000190: 64d5 e03c bcc9 783d b537 ad3c 9fae 2cbd
000001a0: d61b 7b3d 5a47 7d3d 8aee 333d c4ad a9bc
000001b0: 3b47 8bbd 503a a9bc 70de a4bd e7ef 9cbd
000001c0: 9cc6 233d 5cf1 1e3d 3199 90bd 1576 97bd
000001d0: 1b1d 7cbd 2606 0dbc 1eb8 be3c daf3 cc3c
000001e0: b63b dfbd faeb 46bd 2655 c33d 2828 2e3d
000001f0: 0bfb 2abc e2d6 94bd 74b7 96bd 8d31 ebbd
00000200: 079f 5abd 3a88 1e3d 62c7 7f3d e24a 203d
00000210: 6a97 dabd 6cb0 a3bd a721 00bd 193c e43d
00000220: 4c6f c73b 1f50 33bd 8bc8 2f3d 4228 6bbd
00000230: 99ad b0bd 9d78 a03d 42eb 80bd ed74 04bd
00000240: 7022 7fbe ad59 e5bd 68c7 333e 3164 acbd
00000250: 5bc4 4bbe 852a 7dbe 7b04 65be 7435 44bd
00000260: fb3c 06be 29f8 a1bb 52b7 30bd 146b 573e
00000270: d098 cebd f48e 32be b15c 0bbe e523 1fbe
00000280: 4973 20bc 7be2 58be ec4b c2bc 48e7 8abd
00000290: e0ec afbc 81e0 a9bd 34b5 9dbd 721f 203d
000002a0: 4e76 0fbd 5d00 953d 38dc 1abd 8a93 b1bd
000002b0: b85f abbc f8d5 6abd 7cbe 13bd 5c96 e5bd
000002c0: bc26 873d d421 a7bd a24e 743d df8a 5d3d
000002d0: 3d11 febc f538 7abe fdcb 2c3e 728e 2dbe
000002e0: 2d9e 9dbd 8be2 7b3d a8ae 05be ae6c f1bd
000002f0: 168d 36be 1776 c73b 84e7 0c3e 8639 05be
00000300: 1971 bf3d a685 d63d df80 ec3d 067d 8ebd
00000310: f710 f3bd abdf 243d 4874 5c3e 309e 99bc
00000320: 115d dbbb 883b 283c 1614 073d 41e8 d3bc
00000330: c511 ddbc 777b 22bb 4743 7dbd 9103 163e
00000340: 118e 1d3e aeb9 92bd be3f e4bc 17b1 81bd
00000350: 0c21 31be 859c 7bbe 18b5 1dbd 71bb 0fbe
00000360: b7d3 e7bd 22fc d5bd 57d4 8abc 85e0 e5bd
00000370: 6d76 eebc 0db1 f3bd 20bf 8abd 51ad 32bd
00000380: 4603 e6bd ec70 7fbc 957d 2fbe 1bf0 b03d
00000390: 295b 32be 32d2 f6bd b2d9 75bd beb6 4c3d
000003a0: 9f97 5bbe 1f4d 10be c11b e53d 84fd fd3c
000003b0: 29d0 a13d f3f3 ed3d d0ee 93bc 7461 c83c
000003c0: c8c0 a7bd 50f4 c6bc 25bf b23d c9cf 793d
000003d0: 70fe 97bd 2bd8 c1bd f67c a4bd 0573 edbd
000003e0: 8f8b babd 3137 eabc 66fc a33d 6742 a73c
000003f0: a6d6 17be 4497 56be 2b1c 0a3e 7024 0fbe
0.04443731 -0.15111244 0.057526994 -0.3476567 -0.3085091 -0.41875693 0.36787376 -0.21796085
-0.19040094 0.026603846 -0.0034197946 0.245738 -0.36373994 -0.32013622 -0.35000598 0.00034578666
-0.08556269 -0.013888044 -0.04178016 -0.11403212 -0.06748983 0.02943965 -0.015555546 -0.085546486
0.0027643964 -0.08050193 -0.099984504 -0.06444459 -0.10260398 -0.07409505 0.11994021 0.021695597
0.03618786 -0.11398119 -0.08230492 -0.045069665 0.026970224 -0.23332514 0.03508463 -0.2771614
-0.23379305 -0.275053 0.2833044 -0.08104799 -0.14239058 -0.18796551 -0.005131208 -0.057715368
0.07065721 0.14872155 0.34874836 -0.042764552 -0.019139418 0.22460514 -0.146256 -0.040535763
-0.08280671 -0.14258216 0.15128346 0.14241587 -0.06845051 -0.09533283 0.12422568 -0.3326988
-0.04257324 -0.02029144 0.0139115015 0.25866234 0.33801478 -0.24238384 0.09746238 0.023759993
-0.041494664 -0.11748294 0.05282533 -0.12119985 0.031095449 -0.011676732 -0.011480058 -0.11012413
0.034110278 -0.020909216 -0.013978802 -0.121747896 0.004435528 -0.04612332 -0.0731331 0.04766236
-0.004216927 -0.09041552 -0.059649043 -0.0056280643 0.065803505 -0.030114949 -0.06724289 -0.040357277
-0.088043615 0.042029537 0.09122152 -0.110969245 0.027445503 0.060739264 0.021144727 -0.04215872
0.061305843 0.061835624 0.04392866 -0.02071274 -0.068006955 -0.020657688 -0.08050239 -0.07662945
0.03998433 0.038804397 -0.07060469 -0.07395569 -0.061551195 -0.008607423 0.023281153 0.025018621
-0.10900061 -0.04856489 0.09537725 0.042518765 -0.01043583 -0.07267548 -0.0735921 -0.114840604
-0.053374317 0.038704135 0.062446006 0.039133914 -0.10673411 -0.07992634 -0.031282093 0.11144275
0.0060862657 -0.04377758 0.042915862 -0.05741144 -0.08626861 0.07835505 -0.06294872 -0.03233807
-0.2491548 -0.11198745 0.17556536 -0.084175475 -0.19899122 -0.24723251 -0.2236499 -0.04790254
-0.131092 -0.004942913 -0.043143578 0.21036941 -0.100877404 -0.17437345 -0.13609578 -0.15541036
-0.009793111 -0.21180145 -0.023717843 -0.06782395 -0.021475255 -0.08294774 -0.077005774 0.03909249
-0.035024934 0.0727546 -0.037807673 -0.08670719 -0.020919666 -0.057332963 -0.036070332 -0.112103194
0.06599185 -0.08160749 0.059645303 0.054087516 -0.03101408 -0.2443579 0.1687469 -0.1694887
-0.07696185 0.061495345 -0.13054907 -0.11788307 -0.17827258 0.0060870755 0.13760191 -0.13010225
0.093477435 0.1047471 0.11548018 -0.0695744 -0.1186847 0.04025237 0.21528733 -0.018752187
-0.006694444 0.0102681 0.03297814 -0.025867583 -0.026986012 -0.002479283 -0.06183174 0.14649798
0.15386225 -0.07164322 -0.027862426 -0.06332605 -0.17297763 -0.24571426 -0.038502783 -0.14036347
-0.11319678 -0.10448481 -0.016946955 -0.11224464 -0.029109204 -0.11899004 -0.067747355 -0.04362232
-0.11231093 -0.0155908875 -0.1713775 0.086395465 -0.17417587 -0.1205181 -0.060022064 0.049978964
-0.21444558 -0.1409192 0.11186934 0.031004675 0.079010315 0.11618795 -0.01805821 0.024460532
-0.08191067 -0.02428642 0.08727864 0.060989175 -0.07421577 -0.09465059 -0.08031647 -0.11594204
-0.0910865 -0.02859077 0.080071256 0.020417405 -0.14827976 -0.20956141 0.13487308 -0.13978744

conv_2.bias f4 [16]
00000000: 0c57 cb3d 7046 61bd 2c9e d23d 119d d23e
00000010: 1925 1ebc 7412 203e fbb6 b9bd 5fa1 673e
00000020: 30c0 f3be fd44 2e3e cf1f c23d c03c 20be
00000030: 2ac2 963e e410 783e c22b a5be 7d68 ab3e
0.09928712 -0.054998815 0.10284075 0.41135457 -0.009652399 0.1563204 -0.09068104 0.22620152
-0.47607565 0.17018504 0.09478723 -0.15648174 0.2944501 0.24225193 -0.32259947 0.33478156

conv_3.weight f4 [32, 16, 3, 3]
00000000: 9904 80bc 2cf7 d83c 24f4 56bc bf01 b0bd
00000010: 7d7c d0bc a1a6 37bc 38b3 61bc bc55 723d
00000020: 3817 dabc f304 593d 1139 a53c b1dd 90bd
00000030: 03c5 993c 6a46 8c3d 1402 61bd eb05 5fbd
00000040: 0ead a53d 1950 883d 9fe8 62bd f630 343d
00000050: b680 93bc 72a1 bbbd 126b a039 a393 b53c
00000060: bade 2dbc b726 b53c 8832 98bd 3016 683d
00000070: 6013 913d 1cfd 273d e545 513c 8848 063d
00000080: 0759 70bd 49b8 6abc e4ba e8bb 92f0 34bd
00000090: 2259 a6bd 289f db3d 87d4 c03d 1ee8 bdbd
000000a0: 1025 3c3d caac c73b ac32 953d a78f 453d
000000b0: 1ade 683d 0430 45bd 889f bf3d 392c be3d
000000c0: 6780 e8bd 9c0f 95bd 3472 a0bb b01f 9a3c
000000d0: 8087 74bd 283c 64bc 9638 053d cc0a c93b
000000e0: 230d a7bd 891f 2e3d fc9a 4e3d 9eba 89bd
000000f0: 673e 7abc fed0 37bd 4f5d 813d bf58 913d
00000100: 6805 bd3c ed36 e5bc f6a1 853d 9ed3 00bd
00000110: b81b edbc ca31 3bba 503f 82bd b6b6 5037
00000120: 26ec 79bd 9cc9 313c a3a8 4b3c d7f4 fd3b
00000130: e1e0 8dbd e292 9cbd ec71 0d3d 7e31 883d
00000140: 5ff0 97bd 4416 22bc 4ca1 a0bd f358 a0bc
00000150: d1d3 6e3d c195 2c3d 2696 8ebd d01e df3d
00000160: 1402 f23c 553e 6cbc e708 d43d 9852 b03c
00000170: 7211 b23c 5a2d 82bd eefb 133c b7cd a03c
00000180: bfa2 fbbb b01d 8cbd f446 2fbd fa82 ce3c
00000190: dd10 9bbd 32f9 78bc ef78 b3bb 897f 17bd
000001a0: 06b7 e23c c7b8 b43a 58c0 5f3d b062 33bc
000001b0: dc78 75bd c582 793d a6af 2b3c e0a5 f5bc
000001c0: 6d2a 6bbd bae1 913c a55b acbd c706 9a3c
000001d0: 08c8 303d 51cf debd dcc4 7dbd 5eba a7bd
000001e0: c0b3 4b3c 343b 803d e6b2 21bb 7668 2f3d
000001f0: 66cc 54bd 5604 c8bd a307 30bc a846 20bc
00000200: e57e 3d3d 9233 2ebd 864d 9e3c fcca 223c
00000210: 6d87 ba3c 1b35 f6bd 9dfb fe3c 2982 b6bd
00000220: a3d5 8e3d 9385 6ebc 7a9c a4bd fb65 7e3c
00000230: 3586 b6bc 6cb7 bcbd 8f81 06bd 5a86 d4bb
00000240: 3e93 ca3b 0f7f c1bd 2f97 acb9 37a7 5cbc
00000250: 9252 52bd 8323 91bd a36d b2bd 4a36 61bd
00000260: 280b 98bd 9dea 9dbd 05d3 18bd 156d 9b3b
00000270: 8861 5fbd a78a 05bd e996 61bc 9f88 15bc
00000280: 4567 34bd c30f a63b c7d8 2abd d4ae fa3b
00000290: ffdd 353c 5bc9 3abd 9af7 acbc bf21 bb3c
000002a0: d6d5 7cbd 9606 983c b752 303d bfef b0b9
000002b0: 4f17 88bb ebb2 723d b777 59bc 1436 acbd
000002c0: d9f1 113d e176 94bd 066c afbc 4988 a6ba
000002d0: 52e4 03be c000 75bd 4bd6 973d 6546 4cbd
000002e0: bb3e 28bd fa4c bf3d 5c0d 09be 4ea7 5dbd
000002f0: b2fc e63c e241 a3bc 3e4f edbd a98f 4c3d
00000300: f232 b4bd 198b 6dbd 0375 0ebc c326 e9bd
00000310: 9ab5 ebbd 2227 a2bd edcc 62bd e5b0 943c
00000320: 086e bebd b99d 1dbe 2021 613e 56a9 46be
00000330: d220 883d f47c d13e f625 97bd c10e d4bd
00000340: d900 713a fc3c a53c 4b04 f83c f375 7ebd
00000350: 5793 9dbd de02 a93b 315a 6a3b 6e3d 81bc
00000360: fe2a 79bd 490f 13bd 9b39 b63d 8933 0bbd
00000370: adfe 833d 0390 f93d 83ff a0bc 73a8 f93c
00000380: 09b3 0e3d 85e6 90bd 8354 35be 1904 4abc
00000390: 679e 8abd 8b40 5e3c 40e4 343d 3f4d 07be
000003a0: cb4b 60bd d78d 793e 7d8a 17be 9961 14be
000003b0: e66c 3abd e05b a6bd 9b39 6abd 1f29 b6bc
000003c0: f6f0 b7bd b98c 2f3d 98d5 3dbe 8dae 48bd
000003d0: 5d0b 21bd f3ec 6ebd ee45 79bd ba52 9bbd
000003e0: 1361 99bd ec38 a33c f388 483d d85c 9d3d
000003f0: 2a8a 0e3d a34f 02bd 7841 903d a8d4 96bd
-0.015627192 0.026485048 -0.013119731 -0.08594083 -0.025449986 -0.011209161 -0.013775639 0.059163794
-0.0266224 0.052983236 0.020168813 -0.07073534 0.0187707 0.06849368 -0.054933622 -0.054449003
0.08089648 0.066559024 -0.055397626 0.043992005 -0.01800571 -0.091616526 0.00030597352 0.022165125
-0.010612184 0.022113187 -0.07431513 0.056661785 0.070837736 0.04101287 0.012773012 0.032784015
-0.058678653 -0.014326164 -0.007102357 -0.04417474 -0.081224695 0.10723716 0.094155364 -0.092727885
0.045933783 0.006093596 0.072850555 0.0482327 0.056852438 -0.048141494 0.093566 0.092857786
-0.11352616 -0.07278368 -0.0048964266 0.018813938 -0.059699535 -0.013930358 0.032524668 0.0061353203
-0.081568025 0.042510543 0.050440773 -0.067250475 -0.015273667 -0.044877045 0.06316625 0.07097005
0.023073867 -0.027980292 0.06525032 -0.031451814 -0.028943881 -0.0007140903 -0.06359732 1.2440307e-05
-0.061016224 0.01085129 0.012430343 0.0077501344 -0.06927658 -0.07645203 0.034532472 0.06650065
-0.07418894 -0.009893004 -0.07843265 -0.019573664 0.058307473 0.042135004 -0.06962232 0.10894549
0.029542007 -0.014419158 0.103532605 0.021523759 0.021736834 -0.063563064 0.009032233 0.019629342
-0.007679313 -0.068416 -0.042792276 0.025208939 -0.07571576 -0.015196132 -0.005477063 -0.03698686
0.027675163 0.0013787978 0.054626793 -0.010948822 -0.059929714 0.060915727 0.01047889 -0.029986322
-0.057413507 0.01780783 -0.08415917 0.01880206 0.043159515 -0.10879386 -0.061955318 -0.081898436
0.012432992 0.06261292 -0.0024673282 0.04282423 -0.051952742 -0.09766452 -0.010744008 -0.009782471
0.046263594 -0.04252965 0.019324075 0.009936091 0.022769654 -0.12021848 0.031125838 -0.08911545
0.06974342 -0.014558214 -0.08037658 0.015527244 -0.022280792 -0.092146724 -0.0328384 -0.0064857425
0.0061821034 -0.09448063 -0.00032919037 -0.0134676015 -0.051348276 -0.070868514 -0.08712318 -0.054983415
-0.07424003 -0.077107646 -0.03731062 0.004743228 -0.054536372 -0.032602932 -0.01376889 -0.009126811
-0.044043798 0.005067797 -0.04171064 0.0076502357 0.011100291 -0.045602184 -0.02111416 0.02284324
-0.061727367 0.018557828 0.043047633 -0.0003374796 -0.004153169 0.05925266 -0.013273171 -0.08408752
0.035631035 -0.07249237 -0.021413814 -0.0012705411 -0.12880066 -0.05981517 0.0741392 -0.04987182
-0.04107545 0.09340854 -0.13384002 -0.054114632 0.028196666 -0.019928876 -0.1158738 0.049941693
-0.087987795 -0.057993982 -0.00869489 -0.11384346 -0.11509247 -0.0791762 -0.055371214 0.018150756
-0.092983305 -0.15392198 0.21985292 -0.19400534 0.06646885 0.40915644 -0.07380287 -0.103543766
0.0009193547 0.020170681 0.030275485 -0.062124204 -0.076941185 0.0051578125 0.0035759325 -0.015776362
-0.060832016 -0.03590325 0.08897706 -0.033984695 0.0644506 0.12185671 -0.019653087 0.03047583
0.03483871 -0.07075218 -0.1770802 -0.0123300785 -0.06768494 0.013565193 0.04416299 -0.13213061
-0.05475978 0.24370514 -0.14798923 -0.14490356 -0.04551401 -0.081229925 -0.057183843 -0.022236405
-0.089815065 0.042858813 -0.18538511 -0.04899459 -0.039317477 -0.05833144 -0.060857706 -0.07584138
-0.074892186 0.019924603 0.04895873 0.07683724 0.034799732 -0.03181423 0.07043737 -0.0736478

conv_3.bias f4 [32]
00000000: bb37 3dbe b475 76bd c56d 64be b9fd 15bf
00000010: 5ccc 05be c735 c5be 6714 e2be e43a ebbc
00000020: 16d3 a2be bf1e c8bd d4dc 25be 8921 0f3d
00000030: 4221 a6bd e48c adbe 420b 613e 627c e13d
00000040: 7781 483e 105c 83be 15d7 26bd 5deb 913e
00000050: 3a5c b7bd 09c4 19be d6fe c0be 5fd6 05be
00000060: 3961 3abe fff4 6dbe 36bf 0abf 0c88 9abe
00000070: bcd1 02bc d367 9f3d 1cbc ad3e 988d e2be
-0.1847829 -0.060170844 -0.22307499 -0.58590275 -0.13066238 -0.3851759 -0.4415619 -0.028714605
-0.3180167 -0.09771489 -0.1619752 0.03494409 -0.08111812 -0.33896554 0.21976951 0.11010052
0.19580637 -0.25656176 -0.040732462 0.2849988 -0.08953138 -0.15016188 -0.37694424 -0.13070057
-0.1820115 -0.2323799 -0.54198015 -0.3018192 -0.007984575 0.07783475 0.3393258 -0.44248652

linear_1.weight f4 [1, 25088]
00000000: 0722 f6bb 71c1 b9bb 96ea f2bb 6324 5cb9
00000010: 5e0a 973b 3661 d13b 3bfe a53a bda3 62bc
00000020: c6f7 06bc b26b e93b 5599 f93b 6b1c 333c
00000030: a92f 1d3c 3c69 ef3b 90c0 35bb 8c52 15bb
00000040: 69c0 2f3b 2788 00bc 46fa 88bc 5706 01bc
00000050: 9bfb dcbb c105 dfbb 8076 083b 90d8 22bc
00000060: 38bf 32bb 090a baba 6cf7 49bb ed90 59bc
00000070: 6a39 1bbc 340e ab3a 74c5 90ba c269 adbb
00000080: 07c5 4a3b dcb4 0a3c a15c f03a 0b61 203c
00000090: 0bc9 df3b 7448 a93a fdcc d03b e48a 3c3b
000000a0: c412 40bb b6c3 183b a6ce 9f3b 381f 883b
000000b0: b661 2cb9 9578 2f3c 3132 2d3c 927f 063c
000000c0: 7fcf 2a3a b3e4 db3a c2cb a4bb 62a5 883a
000000d0: d4d5 a2bb ea70 6cbb d1b9 68ba 41a8 e2ba
000000e0: 2ee5 0abc 5960 06bc 6558 13bc 9762 c4bb
000000f0: 9a2f 7438 03f8 8c3b 94d3 8a3c 7b63 6d3c
00000100: a6fe 243c c366 693c d325 cb3b 68fa 5fbc
00000110: 2477 53bc bc23 003b be2a 053b 268e 74bc
00000120: 160e 593b 11b4 513c 95f5 153c d4ce e13b
00000130: 340f 283c 8702 783a 18d4 33bc 3e25 a43a
00000140: b14f 083b fb74 9439 4bc5 04bb 6969 a9bb
00000150: 9b6c 2abc 33b4 103b 955a c9bb 32b5 8dbb
00000160: 8475 3c3c 6cdc f53b 68d0 bfbb 508c 21ba
00000170: 96e1 bf3c 7d78 803b 3758 ba3c 44be 9b3c
00000180: 7570 093c 1104 923c ee8d 253c 29b1 fb3b
00000190: 3140 fb3b ab26 2a3c 8535 c93b 83c7 ee3a
000001a0: 8419 3a3c baff a13c 2eae e83b cdc3 63bb
000001b0: cf07 c83b 7ecf 833a 0b99 d0bb 4db4 28bc
000001c0: c1fa e0bb e655 babb f261 e73a 85da 783b
000001d0: 2596 92ba 767c fcbb d53b d0bb 97af 943c
000001e0: 8c56 9a3c a3df 843b 5e80 91bb 0a78 f63b
000001f0: b0c6 403c f83f 813c b068 653b bce6 423c
00000200: 0e5c 2d3c 0ff8 7f3c e78b 213c da43 533c
00000210: affb bf3b 6dc1 af3a 2ec3 ac3c 09cf 85bb
00000220: 2226 5bbb e150 82bb 1d26 25bb b7c6 47bc
00000230: 2c47 63bd 11cf 8bbc ef8c e2bb f53c 09bc
00000240: 740d aabc 8e29 f43b 6dc8 873c 6374 813c
00000250: 0c31 e2b9 4a22 a2bc ceba a1bb 7b06 cb3c
00000260: 81a2 9e3a b253 b5bc 5937 56bb 52d4 f43b
00000270: ed45 273c 2a70 adbc 9085 99bb b952 ab3c
00000280: 7e66 163c a895 59bb 35a9 b33c 3dac c23c
00000290: 57cf c439 b26a 1bbc c804 4bbc 661a 77bb
000002a0: 3601 4b3d c4d2 313c 4072 7539 d910 eebc
000002b0: 0680 23bc 7765 5d3c 05d8 cc3c 3e45 35bc
000002c0: 8147 08bc 1b6c 0abd 6359 e1bb 6a04 13bc
000002d0: a98c 05bd 6b88 03bd 87e1 50bd 5858 a8bb
000002e0: 0080 263b f2a1 e13b cf71 843a 678f e0bb
000002f0: 060a 303d c8e0 243d 14c5 c73c f47b a73c
00000300: d4cd af3c 897b 0e3d d3ac 4f3c fd30 b4bb
00000310: f32c d5bb 6c90 2b3c 3ed4 59bc 9623 c7bc
00000320: 3a90 6fbb 17f1 bc3c 62ff a03c f491 96bb
00000330: a8ed e2bc 97e1 8fbc 31c3 8bbb d9b8 06bd
00000340: b55d 973b bb9b 393d ea5f 823c 480b 863c
00000350: a317 b43c 907b 38bc eb7e 63bc 8e00 12bc
00000360: 2a98 463c 477e f83c c191 1c3d 9858 0f3d
00000370: 14e4 7b3b 6e85 fd3c 48da 863c ad04 c8ba
00000380: 29a8 82bb e995 eabb 0209 0c3c 0bea cebc
00000390: 09fb 403b 7c20 ae3c 24b2 cf3b 536c e1bb
000003a0: 8f78 dfbc 1d71 3f3a bb6f b6bc bdd6 66bc
000003b0: 2b56 0ebd 7c76 213c a000 72bc fdf2 623c
000003c0: c5ef 9fbc 4326 b33b 6f53 06bc 0c82 acbc
000003d0: d156 84bb a945 b33c 31db 26bb 1100 413d
000003e0: 8551 6a3c aac6 c63c 7ad2 123b f7bd afba
000003f0: f8da b43b da9a 793b 180e 323b 3530 55bc
-0.0075113806 -0.005668812 -0.0074132187 -0.0002099439 0.00460939 0.0063897623 0.0012664268 -0.013832984
-0.008237785 0.007123434 0.0076171556 0.010932068 0.009593883 0.007306246 -0.0027733184 -0.0022784797
0.0026817566 -0.007844961 -0.016720902 -0.007875047 -0.006743861 -0.006806106 0.0020822585 -0.009939328
-0.002727462 -0.0014193665 -0.003081764 -0.013279182 -0.009474138 0.0013050498 -0.0011045174 -0.0052921483
0.0030940191 0.008465972 0.0018338152 0.009788762 0.006829386 0.001291527 0.0063720928 0.0028769309
-0.002930806 0.0023310012 0.0048769293 0.004154112 -0.00016439598 0.010709901 0.010571049 0.008209126
0.00065159047 0.0016776532 -0.0050291726 0.0010425264 -0.004969338 -0.0036078044 -0.00088777865 -0.0017292575
-0.008477492 -0.008201682 -0.008993243 -0.005993198 5.8218466e-05 0.0043020262 0.016946591 0.01448905
0.010070479 0.014245692 0.0061995774 -0.013670541 -0.012906823 0.001955255 0.0020319666 -0.014926469
0.0033119968 0.012799279 0.00915279 0.006891111 0.010257531 0.0009460826 -0.01097586 0.0012523306
0.0020799453 0.00028315917 -0.0020259197 -0.0051700366 -0.01040187 0.0022080063 -0.0061448314 -0.0043245787
0.011502627 0.007503083 -0.0058537014 -0.0006162571 0.023422997 0.0039206133 0.022747142 0.019011624
0.008388628 0.017824205 0.010104639 0.0076810312 0.0076675643 0.010385196 0.006140413 0.0018217418
0.011358622 0.01977526 0.007100842 -0.0034754158 0.0061044465 0.0010056344 -0.0063659004 -0.010296893
-0.0068658297 -0.0056865094 0.0017653091 0.0037972045 -0.0011183663 -0.0077052666 -0.006354789 0.018150134
0.018840097 0.00405498 -0.0044403514 0.007521634 0.011766121 0.015777573 0.0035005026 0.011895832
0.01058103 0.015623107 0.0098600155 0.012894595 0.0058588604 0.0013409086 0.021089163 -0.0040835184
-0.0033439477 -0.0039769267 -0.002519972 -0.012193373 -0.055487797 -0.01706651 -0.0069137732 -0.00837635
-0.020758368 0.007451243 0.016575063 0.015802568 -0.00043142622 -0.01979174 -0.004935599 0.024783364
0.0012102873 -0.022134636 -0.0032686798 0.0074715996 0.010209543 -0.021171648 -0.0046851113 0.020913469
0.0091797095 -0.0033200774 0.02193127 0.02376377 0.00037538513 -0.009485887 -0.012391277 -0.0037704944
0.0495617 0.010853473 0.00023407582 -0.029060768 -0.009979254 0.013512961 0.02500535 -0.011063872
-0.008317829 -0.033794504 -0.006877111 -0.00897322 -0.032604847 -0.03211252 -0.05099633 -0.0051374845
0.0025405884 0.0068857605 0.0010104718 -0.0068530324 0.04297831 0.04025343 0.024385966 0.020444848
0.021460451 0.03478578 0.012675482 -0.005499004 -0.0065056025 0.010471445 -0.013295231 -0.02430896
-0.0036554472 0.02306418 0.019653026 -0.0045950357 -0.027701214 -0.017563624 -0.004265212 -0.03289113
0.004619325 0.04531453 0.015914876 0.016362801 0.021983927 -0.011259928 -0.01388524 -0.008911265
0.01212124 0.030333651 0.03822494 0.0349966 0.0038435506 0.030947413 0.016461506 -0.0015260183
-0.0039873314 -0.007158984 0.0085470695 -0.025258085 0.0029446504 0.021255724 0.0063383747 -0.0068793683
-0.027279167 0.0007302927 -0.022270074 -0.0140892835 -0.034750145 0.009854909 -0.014770657 0.013851878
-0.01952351 0.0054672076 -0.008198603 -0.021058105 -0.0040386696 0.021883802 -0.0025460238 0.047119204
0.014301662 0.024264652 0.0022403286 -0.0013408054 0.005519267 0.0038086683 0.0027169045 -0.013011982
