models/BEST/ConvNet_25.pth (torch, 127524 bytes, 7 tensors)

conv_1.weight f4 [8, 1, 3, 3]
0	0x3f06db7e	0.5267867
1	0x3f0cb672	0.5496589
2	0x3dadd3b9	0.084876485
3	0x3f3ffe8a	0.7499777
4	0x3f2d18a2	0.6761571
5	0x3e94ae02	0.29039007
6	0x3e33d1e1	0.17560531
7	0x3ed9f23f	0.42567632
8	0x3ef49cdb	0.4777592
9	0xbed95eb5	-0.42455068
10	0x3e930c5c	0.28720367
11	0x3ecb0b87	0.39657232
12	0x3ea8a6f1	0.32939866
13	0x3ed9f5ca	0.42570335
14	0x3f123083	0.57105273
15	0x3eda8b7a	0.42684537
16	0x3f114bc7	0.5675625
17	0x3ef55172	0.479137
18	0xbe1f5918	-0.1556133
19	0x3dae02b4	0.08496609
20	0xbe1d43c8	-0.15357888
21	0xbd201dd8	-0.03909096
22	0xbe0aa2a8	-0.13538611
23	0x3e626e3e	0.22112367
24	0xbe86b81c	-0.2631234
25	0xbe1d5bb3	-0.15367012
26	0xbdc0c490	-0.09412491
27	0xbe4f0679	-0.20217313
28	0x3cf11cbb	0.029432645
29	0xbea8f651	-0.33000425
30	0x3e98381f	0.29730317
31	0xbe8ae6e7	-0.2712929
32	0x3e8974c9	0.26846913
33	0x3d713d6d	0.05889647
34	0xbdc6b197	-0.09701841
35	0x3e57103b	0.21002285
36	0x3dcd0f1a	0.10012646
37	0x3ed5af61	0.41735366
38	0x3f0b75d7	0.54476684
39	0x3e28116d	0.16412897
40	0x3f14a3e0	0.58062553
41	0x3f1b674a	0.6070448
42	0x3ec97ce3	0.39353094
43	0x3ec6f85f	0.38861367
44	0x3f456f1a	0.7712265
45	0xbf604e05	-0.8761905
46	0xbed956e3	-0.42449102
47	0xbf19dcba	-0.60102427
48	0xbeebd68e	-0.4606213
49	0xbf31f7d9	-0.6951881
50	0xbf5ab522	-0.85432637
51	0xbf4a851c	-0.7910936
52	0xbf50e4a2	-0.81598866
53	0xbe538969	-0.20657887
54	0xbeca4808	-0.3950808
55	0xbea8b634	-0.3295151
56	0xbf0ea421	-0.5571919
57	0xbee59fbb	-0.44848427
58	0xbe459f05	-0.19298942
59	0xbf54e5a1	-0.83162886
60	0xbf078287	-0.52933544
61	0xbf2924a0	-0.6607151
62	0xbf0308e2	-0.5118543
63	0xbf3e4838	-0.7432895
64	0xbef08f6d	-0.46984425
65	0xbf41a599	-0.75643307
66	0xbe82d6e0	-0.25554562
67	0xbf11e8c5	-0.56995803
68	0xbf3a9c06	-0.7289432
69	0xbf5df494	-0.8670132
70	0xbdea34cb	-0.11435851
71	0xbe8d99ae	-0.2765631

conv_1.bias f4 [8]
0	0xbf531fa6	-0.82470167
1	0xbf8fb205	-1.1226202
2	0xbea947bb	-0.33062539
3	0xbe8a1483	-0.26968774
4	0xbf465bf2	-0.7748405
5	0x3f0b03bc	0.54302573
6	0x3f245a28	0.6420007
7	0x3ec84bc0	0.39120293

conv_2.weight f4 [16, 8, 3, 3]
0	0xbd99261b	-0.07477971
1	0xbe0ba1c4	-0.13635927
2	0xbdbf202c	-0.09332308
3	0xbf0032cc	-0.5007751
4	0xbeb933cb	-0.36172327
5	0xbee6612b	-0.44996008
6	0x3ef9eeb8	0.4881494
7	0xbe66ec90	-0.22551179
8	0xbdddcf9a	-0.108306125
9	0x3d830cae	0.06398903
10	0xbd8f3d1f	-0.0699408
11	0x3d19d680	0.03755808
12	0xbef950ae	-0.48694366
13	0xbeb91cec	-0.36154878
14	0xbee37c16	-0.44430608
15	0x3e72189f	0.23642205
16	0x3d6f7691	0.058462683
17	0xbda18462	-0.07886578
18	0xbd2b21ac	-0.04178016
19	0xbde989ac	-0.11403212
20	0xbd8a381c	-0.06748983
21	0x3cf12b6c	0.02943965
22	0xbc7edcb0	-0.015555546
23	0xbdaf32ff	-0.085546486
24	0x3b352ae0	0.0027643964
25	0xbda4de32	-0.08050193
26	0xbdccc4ad	-0.099984504
27	0xbd84c1cf	-0.064822786
28	0xbdd15b2b	-0.10222467
29	0xbd980104	-0.07422069
30	0x3df1c08e	0.11804305
31	0x3ca8e905	0.020618925
32	0x3d15c3ee	0.036563806
33	0xbdea1f70	-0.114317775
34	0xbdad0546	-0.084482715
35	0xbd4b5c6c	-0.049648687
36	0x3def912d	0.11697612
37	0xbe5a7040	-0.21331882
38	0xbdac936d	-0.08426557
39	0xbeb4dca6	-0.3532459
40	0xbe7ca67d	-0.24672885
41	0xbe86e11c	-0.2634362
42	0x3ec04abf	0.37557027
43	0xbe05890f	-0.13040565
44	0xbce1f1e5	-0.027581165
45	0xbe085db0	-0.13316989
46	0xbb10e6ac	-0.0022110147
47	0xbe14ba0b	-0.14524095
48	0x3dba1376	0.09085743
49	0x3e565dd0	0.20934224
50	0x3eae8563	0.3408614
51	0xbd98d127	-0.07461768
52	0xbd9197c2	-0.07109024
53	0x3e5dd62d	0.21663733
54	0xbe220b83	-0.15824704
55	0xbd22c1fc	-0.03973578
56	0xbd4d3cd4	-0.05010684
57	0xbd04c47b	-0.03241394
58	0x3e67ee50	0.22649503
59	0x3e64dd42	0.22350028
60	0xbd48eef5	-0.049056012
61	0xbdb19d53	-0.08672585
62	0x3e4b765e	0.19869372
63	0xbe98fb7c	-0.29879367
64	0x3cf50c6a	0.029913146
65	0xbd1a147f	-0.037617203
66	0x3dd6eb40	0.10494089
67	0x3ea734e0	0.32657528
68	0x3e991ccf	0.29904792
69	0xbe4f5624	-0.20247704
70	0x3dd9c0ac	0.10632452
71	0xbc384023	-0.01124576
72	0xbd2f37d6	-0.04277786
73	0xbdf45fa0	-0.119323015
74	0x3d5921c0	0.053010702
75	0xbdfa596e	-0.122240886
76	0x3d066e36	0.03281995
77	0xbbd4df41	-0.0064963405
78	0xbc2081ac	-0.009796541
79	0xbdd6497d	-0.104632355
80	0x3d3edb8b	0.04659609
81	0xbca3426e	-0.019929137
82	0xbc76f2f0	-0.015072569
83	0xbdfb59b7	-0.12272971
84	0x3b420a8d	0.002960834
85	0xbd3c7c1b	-0.046016794
86	0xbd933a0f	-0.07188808
87	0x3d383ff9	0.044982884
88	0xbb879774	-0.0041379277
89	0xbdb026c0	-0.08601141
90	0xbd74528e	-0.059649043
91	0xbbb86ba0	-0.0056280643
92	0x3d86c3fd	0.065803505
93	0xbcf6b3a0	-0.030114949
94	0xbd89b6a4	-0.06724289
95	0xbd254dac	-0.040357277
96	0xbdb45036	-0.088043615
97	0x3d2c272a	0.042029537
98	0x3dbad259	0.09122152
99	0xbde337ff	-0.11094665
100	0x3ce0db61	0.027448358
101	0x3d78b256	0.06071695
102	0x3cad2fe4	0.021141
103	0xbd2cbabe	-0.04217028
104	0x3d7b2705	0.06131651
105	0x3d7d45f3	0.061834287
106	0x3d342389	0.0439792
107	0xbca9a435	-0.020708183
108	0xbd8af5f5	-0.06785194
109	0xbcb84f19	-0.022498654
110	0xbdae7b4d	-0.085196115
111	0xbd9c59c0	-0.07634306
112	0x3d15cbb4	0.03657122
113	0x3d183ca8	0.03716722
114	0xbd8fb46e	-0.07016836
115	0xbd966be2	-0.07344796
116	0xbd78b3b2	-0.060718246
117	0xbad58b88	-0.0016292194
118	0x3cefdb53	0.029279387
119	0x3cdb293b	0.026753059
120	0xbdcf97ef	-0.10136401
121	0xbd45c3dc	-0.04828249
122	0x3dc0d60c	0.09415826
123	0x3d4154b1	0.04719991
124	0xbc5423be	-0.012947975
125	0xbd9950a3	-0.07486083
126	0xbda168c4	-0.078813106
127	0xbdedb7d4	-0.11607328
128	0xbd5d4998	-0.054025263
129	0x3d175474	0.036945775
130	0x3d837614	0.06419006
131	0x3d25f268	0.04051438
132	0xbde1fda5	-0.11034707
133	0xbda32730	-0.07966459
134	0xbd005e1e	-0.031339757
135	0x3e078fde	0.13238475
136	0x3c9627cf	0.01832953
137	0xbd22be63	-0.03973235
138	0x3d82158c	0.06351766
139	0xbd38cbf5	-0.045116384
140	0xbdada9a3	-0.08479621
141	0x3db6eb15	0.08931557
142	0xbd76d4de	-0.0602616
143	0xbd0d172e	-0.034445934
144	0xbe66ae78	-0.22527492
145	0xbe178a89	-0.1479894
146	0x3e6e2cbd	0.23259254
147	0xbdf11918	-0.117723644
148	0xbe4b2dfd	-0.19841762
149	0xbe8a5a69	-0.27022102
150	0xbe7067a2	-0.23477033
151	0xbd9387ef	-0.07203662
152	0xbe3a26e1	-0.18178894
153	0xbd8e42c9	-0.06946332
154	0xbdec305e	-0.11532663
155	0x3e1ad330	0.15119624
156	0xbe064c42	-0.13115028
157	0xbe39d6c2	-0.1814833
158	0xbdfff45b	-0.12497779
159	0xbca2a1c2	-0.019852523
160	0x3d4589fd	0.0482273
161	0xbe85eb0c	-0.2615589
162	0xbcc24bec	-0.023717843
163	0xbd8ae748	-0.06782395
164	0xbcafece0	-0.021475255
165	0xbda9e081	-0.08294774
166	0xbd9db534	-0.077005774
167	0x3d201f72	0.03909249
168	0xbd0f764e	-0.035024934
169	0x3d95005d	0.0727546
170	0xbd1adc38	-0.037807673
171	0xbdb1a153	-0.08673348
172	0xbca928cf	-0.020649342
173	0xbd6de286	-0.058077358
174	0xbd142023	-0.03616346
175	0xbde550f6	-0.11197083
176	0x3d85ea89	0.06538875
177	0xbda7063d	-0.08155487
178	0x3d73dc9b	0.059536558
179	0x3d5cdcf7	0.053921666
180	0xbe09c40b	-0.1345369
181	0xbe994751	-0.29937223
182	0x3ea55efa	0.32299024
183	0xbe6ed8bc	-0.23324865
184	0xbd8e8e00	-0.06960678
185	0x3e1e688f	0.15469573
186	0xbdbbc930	-0.09169233
187	0xbdf9f59c	-0.122050494
188	0xbe86a24b	-0.26295695
189	0x3dc80d57	0.097681694
190	0x3e5faa6e	0.21842358
191	0xbe4cbeb6	-0.19994625
192	0x3da5764d	0.08079205
193	0x3ded7088	0.11593729
194	0x3da2836e	0.079352245
195	0xbe1ab582	-0.15108302
196	0xbe269ca1	-0.16270687
197	0x3d2b35d6	0.04179939
198	0x3e8893a8	0.26675153
199	0x3ccba949	0.024860995
200	0xbd0cc143	-0.034363996
201	0x3b62c5f3	0.003460285
202	0x3d433577	0.04765841
203	0xbcb9266f	-0.022601334
204	0xbe146412	-0.14491299
205	0xbd5403b5	-0.051761348
206	0xbd364287	-0.04449704
207	0x3e9540c5	0.29150978
208	0x3e96a9f2	0.29426533
209	0xbe084e5e	-0.13311145
210	0x3bde0a7e	0.006776153
211	0xbc25c7b9	-0.010118418
212	0xbe6b1c8a	-0.22960106
213	0xbeb99672	-0.36247593
214	0xbd98f0fe	-0.074678406
215	0xbe181d17	-0.14854847
216	0x3d926011	0.071472295
217	0xbcd11150	-0.02552095
218	0x3dc7ceb8	0.09756225
219	0xbda91503	-0.08255961
220	0xbd6ac369	-0.057315264
221	0xbe23d3ff	-0.15998839
222	0xbda17cf4	-0.07885161
223	0xbd9341e4	-0.07190302
224	0xbdfbd2db	-0.12296077
225	0x3d6f6994	0.058450297
226	0xbe4e688d	-0.2015707
227	0x3d5b8d60	0.053601623
228	0xbe29d934	-0.16586763
229	0xbe123935	-0.14279635
230	0xbdd783e1	-0.10523201
231	0x3e185fc8	0.14880288
232	0xbe6af563	-0.2294517
233	0xbe641396	-0.22273096
234	0x3de51bc1	0.11186934
235	0x3cfdfd84	0.031004675
236	0x3da1d029	0.079010315
237	0x3dedf3f3	0.11618795
238	0xbc93eed0	-0.01805821
239	0x3cc86174	0.024460532
240	0xbda7c0c8	-0.08191067
241	0xbcc6f450	-0.02428642
242	0x3db2bf25	0.08727864
243	0x3d78b032	0.060714908
244	0xbd97efbe	-0.07418774
245	0xbdc1c2be	-0.09460972
246	0xbda40efa	-0.08010669
247	0xbded9e2b	-0.11602434
248	0xbdbb496d	-0.09144864
249	0xbcef040b	-0.029176733
250	0x3da37f5e	0.07983278
251	0x3ca60eca	0.020270724
252	0xbdc2cf18	-0.09512156
253	0xbe4ecdfa	-0.20195761
254	0x3e7d40a0	0.24731684
255	0xbe188f2f	-0.1489837

conv_2.bias f4 [16]
0	0x3cf86b06	0.03032447
1	0xbcb9f013	-0.022697484
2	0x3e38f4e1	0.18062164
3	0x3e90ee3e	0.28306764
4	0xbb1e9ded	-0.0024203018
5	0x3e4949c3	0.19657044
6	0xbdd79ebe	-0.105283245
7	0x3dae2078	0.08502287
8	0xbed21f3f	-0.41039464
9	0x3e441a0e	0.19150564
10	0x3e10ea63	0.14151911
11	0xbe190fb8	-0.14947402
12	0x3ec96446	0.39334315
13	0x3d4902a9	0.049074803
14	0xbea429aa	-0.32063037
15	0x3e931e9a	0.28734285

conv_3.weight f4 [32, 16, 3, 3]
0	0x3d255205	0.040361423
1	0x3dbd13f3	0.09232321
2	0x3bbc00e2	0.00573741
3	0xbda405c3	-0.080089115
4	0x3cc8522a	0.024453241
5	0x3d1c33af	0.038135227
6	0x3b7e0035	0.0038757448
7	0x3d171739	0.03688738
8	0x3c838f49	0.016059535
9	0x3d597d81	0.053098205
10	0x3ca70161	0.0203864
11	0xbd90aae0	-0.07063842
12	0x3c9a1631	0.01880941
13	0x3d8c2992	0.068438664
14	0xbd60841d	-0.054813493
15	0xbd5f2582	-0.05447913
16	0x3da5b678	0.08091444
17	0x3d884c82	0.06655218
18	0xbd940f45	-0.07229475
19	0x3cb3732a	0.0219055
20	0xbd04a5a3	-0.032384526
21	0xbdbf32d8	-0.093358696
22	0xbbb7e3aa	-0.0056118565
23	0x3c12fce4	0.008971427
24	0x3cc0f21a	0.023552943
25	0x3ca7f94b	0.020504614
26	0xbdab3540	-0.08359766
27	0x3d3ee576	0.04660555
28	0x3d478803	0.048713695
29	0x3c8a385e	0.016872581
30	0x3c211b1e	0.009833125
31	0x3ccce680	0.025012255
32	0xbd8e634b	-0.069525324
33	0xbc3add03	-0.011405232
34	0xbcdbf68c	-0.026850961
35	0xbd621da8	-0.055204064
36	0xbdcd4739	-0.1002335
37	0x3e0665a7	0.13124715
38	0x3deb0a3e	0.11476563
39	0xbdfdf888	-0.12400919
40	0x3c2af6e3	0.010434839
41	0xbbf8d31e	-0.0075935265
42	0x3d92ac8f	0.07161819
43	0x3d137b68	0.03600636
44	0x3d044d81	0.032300476
45	0xbd9cafe5	-0.07650737
46	0x3de0e87b	0.10981842
47	0x3dca035e	0.098639235
48	0xbe0a6bd6	-0.13517699
49	0xbd6e860f	-0.058233317
50	0x3b602f3f	0.0034207848
51	0x3cfe3506	0.031031143
52	0xbd9f3bbb	-0.077750646
53	0xbceaf3ca	-0.0286807
54	0x3da99831	0.08280981
55	0xbbcb6918	-0.0062075965
56	0xbd9e5af8	-0.07732195
57	0x3d373cb3	0.04473562
58	0x3d48f229	0.049059067
59	0xbd3c93de	-0.046039455
60	0xbd0d7976	-0.034539662
61	0xbd27b410	-0.040943205
62	0x3e2e0e65	0.16997679
63	0x3d82e70e	0.063917264
64	0x3cb4e366	0.022081088
65	0xbd33b5d0	-0.04387456
66	0x3d5ce35e	0.05392777
67	0xbcfe1c00	-0.03101921
68	0xbd0aaa02	-0.03385354
69	0xbba4cc17	-0.005029212
70	0xbda082b8	-0.078374326
71	0xbc5faf54	-0.013652641
72	0xbdaf0746	-0.08546309
73	0x3c80df96	0.015731614
74	0x3d38531a	0.045001127
75	0xbbe115f8	-0.006869074
76	0xbd3e1751	-0.046408955
77	0xbd82a872	-0.06379785
78	0x3d1004c0	0.03516078
79	0x3d9f9266	0.07791595
80	0xbda0e8be	-0.07856892
81	0xbca2f19b	-0.019890597
82	0xbda56809	-0.08076484
83	0xbce5b6a9	-0.0280412
84	0x3d8c1e11	0.06841672
85	0x3d126de4	0.03574933
86	0xbd4266f9	-0.047461484
87	0x3e102c6a	0.14079443
88	0x3d729b9b	0.05923043
89	0xbb055b60	-0.0020348653
90	0x3dda2803	0.10652163
91	0x3d1c15a4	0.038106576
92	0x3ca94566	0.020662975
93	0xbd845cda	-0.064630225
94	0x3ca80d4b	0.020514151
95	0xbbaa5c68	-0.005199004
96	0x3c6d85b4	0.014497209
97	0xbdc06c5a	-0.093956664
98	0xbd7766e3	-0.060400855
99	0x3cce64dc	0.025194578
100	0xbd9b0b4a	-0.075705126
101	0xbc79112a	-0.015201846
102	0xbbae2c1f	-0.0053153182
103	0xbd1762e7	-0.036959555
104	0x3ce264cb	0.027635952
105	0x3ad04341	0.0015889184
106	0x3d609337	0.054827895
107	0xbc31163c	-0.010808524
108	0xbd5d9dc7	-0.054105546
109	0x3d863e4e	0.065548524
110	0x3c0e9061	0.008701415
111	0xbd0d3b18	-0.034480184
112	0xbd88aed6	-0.06673972
113	0x3caedf03	0.021346575
114	0xbdc50f1c	-0.096220225
115	0x3a8deae8	0.0010827454
116	0x3d119bcd	0.035548974
117	0xbdfe8ec8	-0.12429577
118	0xbcecd187	-0.028908504
119	0xbd915abe	-0.07097386
120	0xbc4dda92	-0.012564318
121	0x3db83f8d	0.08996496
122	0x3c9198b8	0.017773017
123	0x3d54201b	0.05178843
124	0xbd5a3104	-0.0532694
125	0xbdbce38c	-0.092230886
126	0xbc303fce	-0.0107574
127	0xbc208bd4	-0.009798963
128	0x3d3d7edd	0.046263564
129	0xbd2e3379	-0.042529557
130	0x3c9e4ba2	0.019323174
131	0x3c237c38	0.0099783465
132	0x3cba8cbd	0.022772187
133	0xbdf6195e	-0.12016557
134	0x3cff5857	0.031170053
135	0xbded3d5c	-0.11583969
136	0x3d5c93e4	0.053851977
137	0xbd332b9d	-0.043742765
138	0xbdbeed83	-0.093226455
139	0x3bbb0788	0.005707685
140	0xbd1196d2	-0.035544224
141	0xbdc44013	-0.09582534
142	0xbd8a8d61	-0.06765247
143	0xbd1d720f	-0.038438853
144	0x3bc327ba	0.0059556635
145	0xbdbe5950	-0.09294379
146	0xbcf88666	-0.030337524
147	0x3c99ae1f	0.018759785
148	0xbcb757f0	-0.022380799
149	0xbdf59415	-0.11991135
150	0xbd6d2571	-0.057897035
151	0x3d0f11f6	0.03492924
152	0xbd784587	-0.06061318
153	0xbd9d8e9c	-0.07693216
154	0xbd1718e4	-0.036888972
155	0x3bc07ec3	0.005874486
156	0xbd5fc247	-0.054628637
157	0xbd02c6db	-0.031927925
158	0xbc4d13e8	-0.012516953
159	0xbc1ba4dc	-0.009499755
160	0xbd312eed	-0.043257643
161	0x3bc086df	0.005875453
162	0xbd449e67	-0.048002627
163	0xbbe8d2af	-0.0071051936
164	0x3cd38aed	0.02582308
165	0xbc8034a5	-0.015650103
166	0xbb6ac1ab	-0.0035821002
167	0x3cf1eb4f	0.02953115
168	0xbd832848	-0.064041674
169	0x3d137da6	0.0360085
170	0x3e0dae53	0.1383603
171	0xbca20047	-0.019775523
172	0xbda0865c	-0.07838127
173	0x3d465acd	0.048426438
174	0xbcc8a25e	-0.024491485
175	0xbdd60ab1	-0.10451258
176	0x3cd0beb4	0.02548156
177	0xbd9fee04	-0.0780907
178	0xbc3f44b1	-0.011674092
179	0x3d18b0a5	0.037277836
180	0xbe0e1690	-0.13875794
181	0xbd8e8fbd	-0.0696101
182	0x3d3f3f31	0.046691123
183	0xbd9fbce4	-0.077997
184	0xbd8760f6	-0.06610291
185	0x3d1dfc13	0.038570475
186	0xbe15669f	-0.14589928
187	0xbc856192	-0.016281877
188	0xbc8bf7c9	-0.017085927
189	0xbd183265	-0.037157435
190	0xbdd28818	-0.10279864
191	0x3da702bc	0.081548184
192	0xbdae62ee	-0.08514963
193	0xbd6e8537	-0.058232512
194	0x3c2ed9c2	0.010672035
195	0xbdea9945	-0.11455015
196	0xbd32f8de	-0.04369437
197	0xbdb0a975	-0.08626071
198	0xbd3127a5	-0.0432507
199	0x3cb12446	0.021623742
200	0xbe406343	-0.18787865
201	0xbe50cb9a	-0.20390168
202	0x3e58a7ff	0.21157835
203	0xbea0d1b5	-0.31409994
204	0x3de2f29d	0.11081431
205	0x3ec38a13	0.3819128
206	0xbe10c5ad	-0.14137907
207	0xbdb1dba0	-0.08684468
208	0xbb351eb4	-0.0027636709
209	0x3d0a9ba4	0.033839837
210	0x3d01f35f	0.031726237
211	0xbd7106b0	-0.05884427
212	0xbd8446a9	-0.0645879
213	0x3c0e8f64	0.008701179
214	0x3d39314e	0.045213036
215	0xb8bccc59	-9.002601e-05
216	0xbdea9ea3	-0.11456039
217	0xbd8ae88a	-0.067826346
218	0x3ceed7b0	0.029155582
219	0xbd873ce4	-0.06603411
220	0x3d579eeb	0.05264179
221	0x3d71a377	0.058993783
222	0xbda61b7a	-0.081107095
223	0x3ca02c10	0.01955226
224	0xbcf52dbc	-0.029929034
225	0x3d75d446	0.060016893
226	0xbe5492dd	-0.20759149
227	0xbcbb5014	-0.022865333
228	0xbd70c2a3	-0.05877937
229	0x3e14d63b	0.14534847
230	0x3dc283c8	0.094977915
231	0xbdc97e4a	-0.09838541
232	0xbd423d06	-0.047421478
233	0x3ed37911	0.41303304
234	0xbe30e868	-0.17276156
235	0xbe0df722	-0.13863805
236	0xbc746dc2	-0.014918746
237	0xbd949da3	-0.07256629
238	0xbd94f50f	-0.07273304
239	0xbd2fb1cb	-0.042894166
240	0xbd6e9f66	-0.058257483
241	0x3e00fc26	0.12596187
242	0xbe0e0251	-0.13868071
243	0xbd481d10	-0.04885584
244	0xbd1f9171	-0.038957063
245	0xbd6eafcc	-0.05827312
246	0xbd7955cc	-0.060872838
247	0xbd9a6309	-0.07538421
248	0xbd98bad1	-0.074575074
249	0x3ca4abdc	0.02010148
250	0x3d4af5c8	0.0495508
251	0x3d9e234b	0.07721575
252	0x3d089b10	0.033351004
253	0xbc7efbdf	-0.01556298
254	0x3da30966	0.07960777
255	0xbd999471	-0.07499016

conv_3.bias f4 [32]
0	0xbe65301a	-0.2238163
1	0xbe04a000	-0.1295166
2	0xbe6c004b	-0.23046987
3	0xbf1b4005	-0.6064456
4	0xbe2dfbf2	-0.16990641
5	0xbe3c127d	-0.18366428
6	0xbf079067	-0.52954715
7	0xbdbcb3f3	-0.0921401
8	0xbebb464c	-0.3657707
9	0xbe789937	-0.24277197
10	0xbd0632fa	-0.03276346
11	0xbe02b09f	-0.12762688
12	0xbdc87f46	-0.097899005
13	0xbf0cc15f	-0.5498256
14	0x3e790edf	0.24322079
15	0x3e52a882	0.20572093
16	0x3e8e7879	0.27826288
17	0xbe927a60	-0.2860899
18	0xbd9b5e24	-0.07586315
19	0x3e92264f	0.28544852
20	0xbdb66f64	-0.08907965
21	0xbd717237	-0.058946814
22	0xbef7f826	-0.4843151
23	0xbe4bb499	-0.19893111
24	0xbd98b1d2	-0.074557915
25	0xbeda519a	-0.42640382
26	0xbf129bd7	-0.5726904
27	0xbee27b52	-0.4423471
28	0x3daea83a	0.085281804
29	0xbd94b506	-0.0726109
30	0x3e68303b	0.22674648
31	0xbf2912be	-0.66044223

linear_1.weight f4 [1, 25088]
0	0xbc3163d5	-0.0108270245
1	0xbbdd2f7b	-0.006750045
2	0xbc0d2d40	-0.0086167455
3	0xbbb7a31c	-0.005604161
4	0x3b719380	0.0036861598
5	0x3c89fadc	0.016843252
6	0xbb1f6f9a	-0.0024327994
7	0xbc82c253	-0.015961802
8	0xbcad681c	-0.021167807
9	0xbbc64e42	-0.0060518095
10	0x3b1beb96	0.0023791543
11	0xbadb1936	-0.0016715887
12	0x3a896349	0.001048186
13	0xbb9fda2f	-0.0048783044
14	0xbc0b2002	-0.008491518
15	0x39c44187	0.00037432855
16	0xb9efdd11	-0.0004575034
17	0x3af5b5fe	0.0018746255
18	0xbc8d4217	-0.017243428
19	0xbbf4ff68	-0.007476736
20	0xbb8e4656	-0.004341881
21	0x3a798170	0.0009517884
22	0x3ba25aa7	0.0049546543
23	0xbc336c96	-0.010951182
24	0xbb732c07	-0.00371051
25	0xbb1c15c0	-0.0023816675
26	0xbb84b6f0	-0.004050128
27	0xbc6ef8d1	-0.01458569
28	0xbc305cef	-0.010764345
29	0x3aab102e	0.0013051087
30	0xba904df8	-0.0011009565
31	0xbbacdf5e	-0.005275651
32	0x3a201701	0.00061069435
33	0x3b081964	0.0020767087
34	0xbb6b1951	-0.0035873244
35	0x3c2a02f1	0.010376678
36	0xbaf7eda2	-0.0018915425
37	0xbbd3206c	-0.006443074
38	0xbb450186	-0.0030060722
39	0x3a6b484e	0.0008975313
40	0xbbf49fc0	-0.0074653327
41	0x3bc7b567	0.006094623
42	0x3a769a73	0.000940717
43	0x3be8f8f6	0.0071097566
44	0xbba6f11a	-0.0050946595
45	0x3bb539c2	0.005530567
46	0x3b9583dd	0.0045628385
47	0xbb3b129c	-0.0028545028
48	0xbbad6388	-0.005291406
49	0x3b0d137d	0.0021526508
50	0xbb34e37b	-0.002760141
51	0x3a8c13fa	0.0010687106
52	0xbba2c95f	-0.004967853
53	0xbb6c7035	-0.0036077623
54	0xba68b5f7	-0.00088772125
55	0xbae79fb4	-0.0017671497
56	0xbc11f1ac	-0.008907717
57	0xbbfe936c	-0.007769039
58	0xbc12d7c9	-0.00896258
59	0xbbc421eb	-0.0059854886
60	0x39e5d845	0.00043839417
61	0x3c17a28b	0.009255062
62	0x3cf64462	0.030061904
63	0x3ceaff60	0.028686225
64	0x3cd00325	0.025392124
65	0x3ceb59d1	0.028729351
66	0x3c2143a9	0.009842792
67	0xbb7437c7	-0.0037264691
68	0xbc416735	-0.011804392
69	0xbb7c44a1	-0.0038493054
70	0x3c0fb4a8	0.008771099
71	0xbcfff2e5	-0.03124375
72	0x3c0c5545	0.008565252
73	0x3bd0723c	0.006361274
74	0x3ca07fd0	0.019592196
75	0x3aa51973	0.0012596085
76	0x3c51ecbf	0.012812792
77	0x3ae1c94f	0.0017226132
78	0x37c91622	2.3971374e-05
79	0x3baf4d4a	0.0053497897
80	0x3b89afa6	0.004201847
81	0x39947967	0.00028319212
82	0xbae2c137	-0.0017300014
83	0xbb82e072	-0.003994041
84	0xbc41e4d5	-0.011834343
85	0x3b17ec31	0.0023181553
86	0xbbc95941	-0.006144673
87	0xbb8bac60	-0.004262492
88	0x3c47f5ed	0.012204629
89	0x3c1fb310	0.009747282
90	0xbc5a5a01	-0.013327123
91	0x3c9439e9	0.01809402
92	0x3d3d717e	0.046250813
93	0x3c99b872	0.018764708
94	0x3d06dc15	0.03292473
95	0x3cdcdd5b	0.02696102
96	0x3c97b01d	0.018516595
97	0x3ce5fab8	0.028073654
98	0x3d1cc8ef	0.038277563
99	0x3cfd9b81	0.03095794
100	0x3c940356	0.018067997
101	0x3ce39605	0.027781496
102	0xbaf4e66d	-0.0018684395
103	0x3bc3145f	0.005953356
104	0x3d1697de	0.036765926
105	0x3d236d63	0.03989924
106	0x3cc38f37	0.023872001
107	0x3c5d38ae	0.013502283
108	0x3cfe25f9	0.031023966
109	0x3ca6d8e9	0.020367103
110	0x3b913d5d	0.004432364
111	0xba913dd1	-0.0011081045
112	0xbba56fea	-0.0050487416
113	0xbb9fb027	-0.004873294
114	0x3b18d927	0.0023322792
115	0xbb871484	-0.0041223187
116	0xbcb0d0db	-0.021583965
117	0xbc98051c	-0.018557124
118	0x3bb237e0	0.0054387897
119	0x3d401051	0.04689056
120	0x3c1ad675	0.009450545
121	0xbc383756	-0.011243662
122	0x3c2000b9	0.009765797
123	0x3cb53e3a	0.022124398
124	0x3ca978ed	0.020687545
125	0x3c462468	0.012093641
126	0x3c9d8880	0.019230127
127	0x3d179590	0.03700787
128	0x3d0cbfa4	0.03436245
129	0x3ca2cd6d	0.019873345
130	0x3c298aa9	0.010348001
131	0xbc5f55d1	-0.0136313
132	0x3c2d20e9	0.010566928
133	0x3c46902e	0.012119336
134	0x3cd19f48	0.025588647
135	0x3baf2ea6	0.005346137
136	0xb980c872	-0.00024563406
137	0x3b0c166f	0.0021375676
138	0xbaa397ee	-0.0012481192
139	0xbc1ee075	-0.009697069
140	0xbd8ed1ee	-0.06973635
141	0xbd1d15e7	-0.038350966
142	0xbd1a2950	-0.037637055
143	0xbd1d4047	-0.038391378
144	0xbd17ab67	-0.037028696
145	0x3bd59704	0.0065182466
146	0x3d184296	0.037172876
147	0x3b9271c4	0.0044691283
148	0x3c104c1a	0.0088072065
149	0xbc8dc4b9	-0.017305719
150	0xbc0f50fc	-0.0087473355
151	0x3d1bf42d	0.03807466
152	0xbcb2a3e2	-0.021806661
153	0xbd7fbdd2	-0.062436886
154	0xbcb86f35	-0.022513965
155	0xb849fcc7	-4.815755e-05
156	0xbc5f2885	-0.0136205
157	0xbd8a1619	-0.06742496
158	0x3cf3ef2a	0.029777128
159	0x3ce6b833	0.028164005
160	0xbc6047b3	-0.013688969
161	0xbd02008b	-0.0317388
162	0x3c5f62eb	0.013634424
163	0x3c52401c	0.012832668
164	0x3c90114e	0.017586377
165	0xbc61b28b	-0.013775478
166	0xbc9db92b	-0.019253334
167	0x3bb7bf9e	0.0056075593
168	0x3d8c54e1	0.06852127
169	0x3c1861cd	0.009300661
170	0xbbc7d561	-0.006098435
171	0xbd1be59a	-0.038060762
172	0xbb026077	-0.0019893923
173	0x3c8c3648	0.017115727
174	0x3d81c83d	0.063370205
175	0xbceba700	-0.028766155
176	0x3750acfc	1.2438042e-05
177	0xbcd5f09a	-0.026115704
178	0x3cf5b7da	0.029994894
179	0xbbf56eeb	-0.007490029
180	0x3ce798a2	0.028271023
181	0xbc166e3c	-0.009181555
182	0xbd6a412d	-0.057191063
183	0x3bd566f7	0.0065125185
184	0x3d236333	0.039889526
185	0x3cc5613c	0.024094217
186	0xbc95af38	-0.018272027
187	0x3bcd8b78	0.0062727295
188	0x3db0c2db	0.08630916
189	0x3d2b3a63	0.04180373
190	0x3c018d94	0.00790729
191	0x3c8f2e0f	0.017478017
192	0x3d21a170	0.0394606
193	0x3d382a5d	0.044962276
194	0x3c56eed7	0.013118467
195	0xba587960	-0.00082578324
196	0xbb8fb87f	-0.0043860073
197	0x3c38859c	0.011262324
198	0xbd1ad1b9	-0.037797663
199	0xbcb77b89	-0.022397773
200	0xbc6b49ce	-0.014360858
201	0x3ce1bd22	0.027556006
202	0x3b81b7fe	0.003958701
203	0xbc8366aa	-0.016040165
204	0xbd3756ad	-0.044760395
205	0xbc7ef21f	-0.015560656
206	0xbb8ea813	-0.004353532
207	0xbd40c818	-0.047065824
208	0x3d1505a3	0.03638233
209	0x3cbd9d77	0.023146374
210	0xbbed9cd8	-0.0072513632
211	0x3c544bb1	0.012957499
212	0x3d0a2139	0.03372309
213	0x3c058e63	0.008151623
214	0xba8bddda	-0.0010670975
215	0xbc92636f	-0.01786968
216	0x3d2e96a5	0.042624135
217	0x3d969940	0.07353449
218	0x3d720ded	0.059095312
219	0x3c17aa3e	0.0092568975
220	0xbcbb0b10	-0.022832423
221	0x3d3c18c2	0.04592205
222	0x3caa7a83	0.020810371
223	0xbaa4e96e	-0.0012581774
224	0xbae3e219	-0.0017386108
225	0x3af0b131	0.0018363354
226	0x3bc7f2fd	0.0061019645
227	0xbd18f51c	-0.03734313
228	0xbb2c095f	-0.0026250703
229	0x3cd2f621	0.025752129
230	0x3d01ff39	0.03173754
231	0xbd10c034	-0.03533955
232	0xbd0370a2	-0.032089837
233	0x3b0815f9	0.002076505
234	0x3c4ef3d3	0.012631374
235	0xbd1bf16e	-0.038072042
236	0xbd524592	-0.05133588
237	0x3ba49ee2	0.005023823
238	0xbc93dc31	-0.018049331
239	0x3cd39287	0.025826706
240	0xbcff33a7	-0.03115256
241	0x3b4f5d99	0.0031641482
242	0xbca89a66	-0.020581435
243	0xbd51a0f7	-0.0511789
244	0xbc9a7a19	-0.018857049
245	0x3ce6b678	0.02816318
246	0x3b670b18	0.0035254415
247	0x3d819892	0.063279286
248	0xbcf9ceb8	-0.030494079
249	0x3d1fd6ec	0.039023325
250	0xbab845f6	-0.0014058936
251	0x3bc4dee0	0.006008014
252	0x3af34f46	0.0018563054
253	0x3c18cdbf	0.009326397
254	0x3c578338	0.013153844
255	0xbd020d4b	-0.03175096
