models/BEST/ConvNet_30.pth (torch, 127524 bytes, 7 tensors)

conv_1.weight f4 [8, 1, 3, 3]
000000 19 4e d7 3e 18 ca fa 3e 24 0b f6 3d 64 35 46 3f
       0.4205177 0.4898231 0.12013844 0.7742522
000010 3f 3f 48 3f 0f 9b cf 3e 65 0c 80 3e 53 0b 10 3f
       0.78221506 0.40547988 0.25009456 0.5626728
000020 d5 60 15 3f 05 7a ec be 43 45 1c 3e 7e 0c ad 3e
       0.5835088 -0.46186844 0.15260796 0.33798593
000030 dc 9e 6e 3e a4 3f c8 3e 21 06 0a 3f ff 84 dd 3e
       0.23302788 0.39111054 0.539156 0.4326553
000040 20 f0 18 3f 50 ad 0f 3f 18 59 1f be b4 02 ae 3d
       0.597414 0.5612383 -0.1556133 0.08496609
000050 c8 43 1d be d8 1d 20 bd a8 a2 0a be 3e 6e 62 3e
       -0.15357888 -0.03909096 -0.13538611 0.22112367
000060 1c b8 86 be b3 5b 1d be 90 c4 c0 bd e0 c0 4c be
       -0.2631234 -0.15367012 -0.09412491 -0.19995451
000070 85 17 03 3d 1a 30 a9 be cf 23 9b 3e 29 3a 88 be
       0.03200485 -0.3304451 0.30300757 -0.26606873
000080 37 23 8b 3e b9 d0 87 3d 6e ec bc bd 4b f3 5b 3e
       0.27175304 0.066316076 -0.09224783 0.21479528
000090 97 c1 e4 3d 98 7d 90 3e f5 77 d7 3e c1 33 4a 3e
       0.11169737 0.2822082 0.42083707 0.19746305
0000a0 a3 8b 2a 3f e9 8f 1a 3f d7 56 f2 3e c8 0d 09 3f
       0.6661932 0.6037584 0.4733188 0.53536654
0000b0 7f ca 69 3f b3 0e 60 bf 73 37 d9 be fa ed 19 bf
       0.9132461 -0.8752243 -0.42425117 -0.6012875
0000c0 ac 30 f0 be 10 51 3f bf ff 9a 6c bf ef 6c 52 bf
       -0.46912134 -0.74733067 -0.92424005 -0.8219747
0000d0 b3 f1 64 bf 49 7d 8e be 32 18 cf be 6b 63 b5 be
       -0.89431304 -0.2782996 -0.40448147 -0.35427412
0000e0 9c 53 1a bf 69 ce de be 6a c0 6a be 95 f3 5f bf
       -0.6028383 -0.43516853 -0.22924963 -0.8748105
0000f0 51 e3 15 bf f3 cb 3f bf 54 bf 18 bf 37 65 31 bf
       -0.5854998 -0.74920577 -0.59666944 -0.69295067
000100 60 e9 e3 be e2 9b 37 bf 7d 27 4a be 6c 92 fe be
       -0.44513988 -0.71722233 -0.19741626 -0.49721086
000110 a3 85 2c bf 5b c7 60 bf e9 d3 e5 bd 23 e7 76 be
       -0.67391413 -0.8780419 -0.11222059 -0.24111609

conv_1.bias f4 [8]
000000 00 79 eb be 52 15 b8 bf bb 47 a9 be 34 ab 87 be
       -0.45990753 -1.4381506 -0.33062539 -0.26497805
000010 f3 ab 40 bf 73 b4 18 3f 97 4f d7 3e 95 83 13 3f
       -0.75262374 0.59650344 0.4205291 0.57622653

conv_2.weight f4 [16, 8, 3, 3]
000000 ef 2c 65 3d 59 ff 82 ba 78 60 94 3d 04 06 f8 be
       0.055951055 -0.0009994312 0.072449625 -0.4844209
000010 03 92 a4 be fb 48 c7 be 8f 66 0e 3f a0 1e 70 be
       -0.32142648 -0.38922867 0.5562524 -0.23449183
000020 eb 67 14 be 7a e6 ea 3d 9b 2b e3 bd 05 5d d2 3d
       -0.14492767 0.11469741 -0.110923015 0.10271648
000030 15 2e f6 be 6d cc c7 be b9 8a ea be ca b7 8f 3e
       -0.48082033 -0.39023152 -0.45808962 0.28069907
000040 b7 05 39 3d 4c a1 03 be ac 21 2b bd ac 89 e9 bd
       0.045171466 -0.12854499 -0.04178016 -0.11403212
000050 1c 38 8a bd 6c 2b f1 3c b0 dc 7e bc ff 32 af bd
       -0.06748983 0.02943965 -0.015555546 -0.085546486
000060 e0 2a 35 3b 32 de a4 bd ad c4 cc bd 3f d8 85 bd
       0.0027643964 -0.08050193 -0.099984504 -0.06535386
000070 fe 61 d1 bd 69 f4 97 bd 91 3d f1 3d cd f8 a9 3c
       -0.10223769 -0.074196644 0.11779321 0.02074852
000080 10 43 15 3d f5 47 ea bd 0e b1 ad bd db c9 4e bd
       0.03644091 -0.11439506 -0.08481036 -0.050485473
000090 88 a5 0d 3e 7c 01 3d be 32 76 34 3d 2a 1b cb be
       0.13832676 -0.18457597 0.044058032 -0.39669162
0000a0 f0 cb 86 be 59 b4 8e be 27 53 d7 3e f9 14 01 be
       -0.26327467 -0.2787197 0.42055628 -0.12605657
0000b0 47 7b b7 bd 24 b9 f2 bd bd 32 00 3d cf 00 1d be
       -0.0895906 -0.11851719 0.031298388 -0.1533234
0000c0 73 0c 29 3e 76 31 95 3e 65 cb c1 3e 60 6b 02 be
       0.16508655 0.29139298 0.3785049 -0.12736273
0000d0 4b cc 94 bd f4 55 38 3e c3 b6 30 be ff 25 93 bd
       -0.07265528 0.18001539 -0.17257218 -0.071849816
0000e0 f3 c7 0b be b1 4b 1e 3c 02 12 81 3e 3c c0 40 3e
       -0.13650493 0.009661601 0.2520905 0.18823332
0000f0 be 56 49 bd bd b7 82 bd f6 a9 4c 3e 6a e2 9c be
       -0.04915499 -0.063827015 0.1998671 -0.3064149
000100 e0 3e 4d 3d 73 5c de bd c9 47 d3 3d f5 4c ae 3e
       0.05010879 -0.10857477 0.10316426 0.3404309
000110 8e 9d 52 3e 9b ef 71 be ba ae fe 3d af 1b 1e bd
       0.20567915 -0.23626558 0.1243567 -0.03860062
000120 f1 88 25 bd 08 1a f5 bd bc a1 74 3d 44 a1 f7 bd
       -0.0404138 -0.11967856 0.059724554 -0.12091306
000130 15 b3 14 3d e6 e8 96 ba 7d d6 ca bb fc 29 ce bd
       0.0363036 -0.0011513501 -0.00619012 -0.10066602
000140 3b c4 5f 3d 8a 7a ce bc 44 a7 69 bc b1 a6 f4 bd
       0.0546305 -0.025204916 -0.014261071 -0.11945856
000150 43 c2 8d bb 79 da 2e bd 65 a1 88 bd 37 6d 11 3d
       -0.0043261363 -0.04268882 -0.066714086 0.035504546
000160 93 66 a1 ba 8e 60 9f bd 8e 52 74 bd a0 6b b8 bb
       -0.0012313895 -0.07782088 -0.059649043 -0.0056280643
000170 fd c3 86 3d a0 b3 f6 bc a4 b6 89 bd ac 4d 25 bd
       0.065803505 -0.030114949 -0.06724289 -0.040357277
000180 36 50 b4 bd 2a 27 2c 3d 59 d2 ba 3d 2d 2b e3 bd
       -0.088043615 0.042029537 0.09122152 -0.110922195
000190 84 50 df 3c e4 86 78 3d d2 92 ad 3c 0b 47 2c bd
       0.027260073 0.060675517 0.021188173 -0.04205994
0001a0 65 29 7b 3d f2 6b 7d 3d 37 22 34 3d 5c 28 a9 bc
       0.061318774 0.061870523 0.043977942 -0.020649128
0001b0 56 b3 89 bd 76 90 bd bc 63 e7 a4 bd 21 7d 9e bd
       -0.06723659 -0.023140173 -0.08051946 -0.0773871
0001c0 97 bc 05 3d 7b b6 23 3d c4 66 91 bd aa fd 95 bd
       0.032650556 0.03996895 -0.07099679 -0.07323773
0001d0 b1 9c 55 bd fa 73 9b 3c 1e ae 24 3d 0f 7e 21 3d
       -0.052151386 0.0189762 0.040205114 0.03942686
0001e0 98 ab b9 bd e6 2a 1f bd 19 26 d4 3d 67 3c 5f 3d
       -0.09065932 -0.03885927 0.10358829 0.054500964
0001f0 5a df 12 bc 1d 04 85 bd 7a 23 9d bd 47 db f3 bd
       -0.008964384 -0.06494925 -0.07672782 -0.11907058
000200 b9 27 65 bd 09 ff 15 3d ec 9d 80 3d 46 07 26 3d
       -0.055946086 0.036620174 0.06280121 0.04053428
000210 32 c7 eb bd 30 84 a7 bd 1d ff fd bc 38 4c 1e 3e
       -0.11512603 -0.0817951 -0.031005437 0.15458763
000220 56 51 e0 3c a3 cb 13 bd c2 f8 a7 3d 76 99 43 bd
       0.027382534 -0.036082875 0.08201744 -0.047753774
000230 6c 1b be bd ff df d4 3d 83 3d 7c bd 16 21 17 bd
       -0.09282574 0.10394286 -0.0615821 -0.036896788
000240 0e 33 75 be 24 a9 3a be 74 07 8f 3e 14 c4 03 be
       -0.23945257 -0.18228585 0.27935374 -0.12867767
000250 9c c9 64 be 17 82 a1 be c5 f0 83 be b0 46 d1 bd
       -0.22342533 -0.31544563 -0.2576963 -0.10218561
000260 f5 c6 65 be 56 0b b6 bd 7b 73 0c be ec 9a 3a 3e
       -0.22439177 -0.08888881 -0.13715927 0.1822316
000270 86 4a 17 be b1 d8 59 be fd 70 5b be eb af 05 bd
       -0.14774522 -0.21274067 -0.2142982 -0.03263847
000280 48 87 6b 3d 2a 56 96 be ec 4b c2 bc 48 e7 8a bd
       0.05750206 -0.29362613 -0.023717843 -0.06782395
000290 e0 ec af bc 81 e0 a9 bd 34 b5 9d bd 72 1f 20 3d
       -0.021475255 -0.08294774 -0.077005774 0.03909249
0002a0 4e 76 0f bd 5d 00 95 3d 38 dc 1a bd 3e a8 b1 bd
       -0.035024934 0.0727546 -0.037807673 -0.08674668
0002b0 48 54 a9 bc 5e a9 6c bd 5a 8c 12 bd eb c8 e4 bd
       -0.020670071 -0.05777871 -0.03577838 -0.111711346
0002c0 e6 de 85 3d 64 cb a6 bd 8f 2f 72 3d 2c 1f 5d 3d
       0.06536655 -0.081442624 0.059127387 0.053984806
0002d0 e6 ef 11 be 29 a5 af be b5 91 9b 3e 3a 0e 6c be
       -0.1425167 -0.34305695 0.30384603 -0.23052302
0002e0 95 42 f4 bd 06 d3 21 3d 68 ae 04 be 08 3e 13 be
       -0.11926762 0.03950789 -0.12957156 -0.14379132
0002f0 f5 20 99 be 1f ae d1 3d 44 66 66 3e 11 59 7d be
       -0.29907957 0.10238289 0.22499949 -0.24741007
000300 41 f5 5a 3d 11 f0 64 3d 6a a7 ce 3c cd e1 3c be
       0.05345655 0.055893008 0.025226314 -0.18445511
000310 8c 74 59 be 44 e7 ee 3c 22 66 c0 3e c7 09 07 3e
       -0.21235865 0.02916301 0.3757792 0.13187324
000320 c2 6d a8 bc 28 11 9f 3d ef a3 0b 3e 62 83 c7 3c
       -0.02056015 0.07766944 0.13636754 0.02435464
000330 04 49 bd bd 4e a8 ca 3c bb c9 f0 3c a1 23 8f 3e
       -0.09242442 0.024738457 0.029393068 0.2795687
000340 af e9 90 3e 2d c2 3a be e3 ec 95 bc 91 e3 85 bd
       0.28303286 -0.18238135 -0.018301433 -0.065375455
000350 55 d5 8c be 01 d4 cb be f0 30 df bd 5a df 25 be
       -0.2750651 -0.39810184 -0.10898006 -0.16198483
000360 3d 02 2d 3d 8e d5 0c bd b5 0c 42 3e 32 20 fe bd
       0.042238463 -0.03438335 0.1895016 -0.124084845
000370 69 5a ca bd 4b 95 41 be 46 f7 43 be 10 ab c2 bd
       -0.098805256 -0.18904607 -0.19137296 -0.09505284
000380 6d e1 bd bd 9f 41 82 3d 51 6f 57 be 29 1b fa 3c
       -0.09271512 0.063601725 -0.21038558 0.03053053
000390 51 0f f1 bd b1 c9 1f be 96 89 1d be d1 7f 91 3d
       -0.117704995 -0.15604283 -0.15384516 0.07104457
0003a0 df 01 73 be db c4 80 be c1 1b e5 3d 84 fd fd 3c
       -0.23731183 -0.2515019 0.11186934 0.031004675
0003b0 29 d0 a1 3d f3 f3 ed 3d d0 ee 93 bc 74 61 c8 3c
       0.079010315 0.11618795 -0.01805821 0.024460532
0003c0 c8 c0 a7 bd 50 f4 c6 bc 25 bf b2 3d 8d 73 79 3d
       -0.08191067 -0.02428642 0.08727864 0.060901213
0003d0 62 f4 97 bd 3b 88 c1 bd 0f 4f a3 bd 15 8e ed bd
       -0.07419659 -0.09449812 -0.079740636 -0.115993656
0003e0 2d 5b bb bd e9 4b ef bc 24 15 a3 3d eb 83 a4 3c
       -0.0914825 -0.029211001 0.07963017 0.020082435
0003f0 b1 a1 eb bd d5 58 6f be 3f a4 8b 3e 1d d8 06 be
       -0.115054496 -0.2337373 0.27273747 -0.13168378

conv_2.bias f4 [16]
000000 1e cf 0b 3e 7c 80 d8 bb 75 f8 96 3e 8d 84 00 3f
       0.13653228 -0.0066071134 0.29486433 0.50202256
000010 c2 b2 21 be 48 4f 71 3e bd 5a aa bd 77 08 35 3e
       -0.15790847 0.235654 -0.08318088 0.1767901
000020 20 ff cb be 8b b9 65 3e 74 f8 7a 3e 73 ec 1f be
       -0.39843082 0.2243406 0.2450884 -0.15617542
000030 10 39 bf 3e 99 71 51 3d a0 f7 a3 be 70 9c 2d 3e
       0.37348223 0.051133726 -0.3202486 0.16954207

conv_3.weight f4 [32, 16, 3, 3]
000000 0f ec 33 3d 21 34 d6 3d 8f 20 88 bc 65 1b d2 bd
       0.043926295 0.104591615 -0.016617088 -0.10259131
000010 46 48 c5 3c 62 f6 a3 3c 85 3e fb 3b 18 cc 07 3d
       0.024082314 0.020014945 0.007667365 0.033153623
000020 2d a7 79 bb 32 31 59 3d 35 3e aa 3c ed ce 90 bd
       -0.003809403 0.053025432 0.020781616 -0.07070718
000030 63 b3 98 3c 3d 3b 8d 3d 06 59 60 bd 11 d7 5a bd
       0.018640226 0.068960644 -0.0547724 -0.05342776
000040 a6 46 a6 3d be 9a 88 3d b6 99 96 bd ed 54 58 3c
       0.08118944 0.0667014 -0.07353537 0.013203842
000050 a7 25 07 bd f2 ff ba bd 6a 8a 52 bc 78 8d 8c 39
       -0.032994892 -0.09130849 -0.012850383 0.00026808283
000060 29 79 38 3d 0d dc 85 3c f5 fb ad bd 2e cf 22 3d
       0.045037422 0.01634028 -0.084953226 0.039748363
000070 09 b6 4f 3d b4 2f 43 3c fb 8e ce 3c 5b 39 e1 3c
       0.05071071 0.011913229 0.025214663 0.02749317
000080 be f2 95 bd 0f 21 e0 3c ee b1 51 bc d2 3b 76 bd
       -0.0732169 0.027359514 -0.012798769 -0.060115643
000090 8c 03 f2 bd a5 e4 2f 3e 79 03 43 3e 86 69 10 be
       -0.11817083 0.17177065 0.19044293 -0.14102754
0000a0 c0 86 a1 3d c2 e0 83 3b 31 1e 39 3d d2 9a 08 3d
       0.0788703 0.004024596 0.04519481 0.033350773
0000b0 80 da c5 3c 22 ea d8 bd 18 40 f0 3d 2d 63 fc 3d
       0.02415204 -0.10591532 0.11730975 0.12323604
0000c0 ca 7f 19 be 34 f6 44 bd 93 d4 58 bb 13 3e a9 3c
       -0.14990154 -0.04808636 -0.0033085688 0.020659482
0000d0 07 43 85 bd 11 fa a9 bc fc 87 90 3d e8 e4 18 bc
       -0.06506925 -0.020749124 0.07057187 -0.009331919
0000e0 0c 90 d4 bd 4a 88 64 3d 8a 5a 4e 3d 02 6f 82 bd
       -0.10379037 0.055794038 0.050379314 -0.06368829
0000f0 fb 1e b2 bb da 92 ac bd f7 d1 4f 3e 53 15 1a 3d
       -0.005435822 -0.08426447 0.20294939 0.037617993
000100 e7 c7 0e 3a 9a 2a 63 bd ea 02 23 3d 9b 99 0b bd
       0.0005446658 -0.05546055 0.0397977 -0.034082036
000110 57 ea 40 bd 8a 60 e8 ba fd 09 8f bd 3b 5c 7b bc
       -0.047098484 -0.0017728966 -0.06984327 -0.015341814
000120 fa 45 af bd ce aa bc 3c c2 bb af 3d 75 f1 b7 3c
       -0.08558269 0.023030665 0.08580734 0.022454003
000130 b0 c8 a1 3b 62 2d 45 bd bd 31 a7 3d f1 e2 0c 3e
       0.004937254 -0.048138984 0.08163784 0.13758446
000140 7b c0 9d bd d8 f8 56 bb 56 e0 ab bd e8 87 1d bd
       -0.07702728 -0.003280213 -0.08392398 -0.03845969
000150 b8 29 b7 3d 7a 25 d9 3c c6 1d 40 bd 01 36 36 3e
       0.08943504 0.026507128 -0.046903394 0.17794038
000160 4b 29 bc 3d d0 1a f3 3a 4a 9f 8a 3d 49 10 f2 3c
       0.091875635 0.001854742 0.06768663 0.029548781
000170 c3 69 06 bc 5f ba b6 bd 0e 16 5d bc 08 05 5e bd
       -0.0082039265 -0.08922266 -0.013494028 -0.054204017
000180 56 34 8d 3b de b4 ed bd b6 ea a8 bd e6 12 ce 3c
       0.0043092174 -0.11606763 -0.082478926 0.025155496
000190 73 01 9b bd c5 66 78 bc 39 d0 aa bb 8f 50 17 bd
       -0.07568636 -0.015161221 -0.0052128104 -0.03694206
0001a0 7d e9 e2 3c a2 96 c3 3a b4 e8 60 3d 71 6b 30 bc
       0.027699227 0.0014922211 0.054909423 -0.0107678035
0001b0 da db 4e bd 70 3c a5 3d f9 b1 65 3c 9e c6 d0 bc
       -0.050502636 0.08068168 0.014019483 -0.025485333
0001c0 37 a6 7f bd 3d 53 b1 3c bf f6 b1 bd 0b a2 45 3b
       -0.062414374 0.021646136 -0.08689641 0.00301564
0001d0 c2 2f 11 3d 2a ea 15 be 7d cc 38 bd 9c cd 9e bd
       0.035445936 -0.14640108 -0.04511689 -0.077540606
0001e0 cf ba 0d bc c2 7c a4 3d 49 35 24 3c 68 fd 9c 3d
       -0.008650496 0.08031608 0.01002247 0.07665521
0001f0 ae 4d 8b bd 09 75 cd bd f6 2f 30 bc 5b 8c 20 bc
       -0.068019256 -0.10032088 -0.010753622 -0.009799088
000200 dd 7e 3d 3d c9 37 2e bd 1c 5a 9e 3c 35 1d 23 3c
       0.046263564 -0.04253367 0.019330077 0.009955694
000210 26 9c ba 3c 95 19 f6 bd f1 6f ff 3c e4 5d 08 be
       0.022779536 -0.12016598 0.031181308 -0.13317066
000220 81 2f 5d 3d e9 0a 5e bd d3 46 aa bd 18 09 eb 3b
       0.05400038 -0.054209623 -0.0831429 0.007172715
000230 86 d6 49 bd e2 e9 b5 bd 99 8f 76 bd d2 23 3c bd
       -0.04927685 -0.088825 -0.06019554 -0.0459326
000240 21 e7 44 bd bd 6e c6 bd 10 01 66 bd 35 db b6 bc
       -0.048071984 -0.096890904 -0.056153357 -0.022321323
000250 37 07 c3 bc ae 62 2b be d9 38 ae bd 05 33 f1 3b
       -0.023807151 -0.16736862 -0.085069366 0.0073608183
000260 b9 49 bf bd 42 99 9c bd 20 d1 17 bd 34 4e 8e 3b
       -0.09340233 -0.07646419 -0.03706467 0.0043428186
000270 2a 0d 5f bd 71 40 01 bd 5c e8 5a bc 7b 5b 15 bc
       -0.054455914 -0.031555597 -0.013361063 -0.009116049
000280 0a a5 2d bd 9f 34 9e 3b b5 d3 92 bd 56 36 4a bd
       -0.04239372 0.0048280503 -0.07169286 -0.049368225
000290 a8 81 3e 3c 3c 3c b0 bc 85 63 6e bd ae b3 3e 3c
       0.011627592 -0.021513097 -0.058200378 0.011639519
0002a0 9e 96 b7 bd d0 e3 12 bc 79 5f 0c 3e a3 8d 89 bd
       -0.08964275 -0.008965448 0.13708295 -0.06716468
0002b0 9b ad c8 bd ed 08 36 3d 9e 5a 89 bd d9 e0 ef bd
       -0.097987376 0.044442106 -0.06706737 -0.11712808
0002c0 a8 6b 92 3c 0a 9b cb bd 26 ff 19 bd 31 5b 08 3d
       0.0178736 -0.09941681 -0.037596844 0.033290092
0002d0 9c 44 eb bd 9c 61 bc bd 7f c2 6c 3b 01 9a b0 bd
       -0.114876956 -0.09198305 0.003612667 -0.08623124
0002e0 b9 02 a3 bd 2f 54 b5 3d 0f bf 11 be 46 12 61 bd
       -0.07959504 0.08853947 -0.1423304 -0.054949068
0002f0 75 64 4c bd 40 74 b7 bd 5e 56 0b be 44 9d 7e 3d
       -0.04990049 -0.0895772 -0.13607165 0.0621617
000300 76 39 04 be 7d 4d f4 bd fd a0 7a bc 6e ff 17 be
       -0.12912545 -0.11928842 -0.015297172 -0.14843532
000310 3b 96 04 be b2 f2 06 be e3 da ef bd ea e3 7f bd
       -0.12947933 -0.13178518 -0.11711671 -0.062473215
000320 87 79 28 be 1a d7 8f be af fa 27 3e 2a 48 b5 be
       -0.16452609 -0.28093797 0.16404222 -0.3540662
000330 e4 09 90 3c 4f 80 a4 3e 3c a4 3a be 2c 31 ac bd
       0.017582841 0.32129142 -0.18226713 -0.08407816
000340 88 6f f8 bb 81 fb 8b 3c 48 f3 00 3d 34 7a 97 bd
       -0.007581655 0.0170877 0.03148201 -0.07396355
000350 da 11 a2 bd f5 99 6d bc 48 66 05 3c bf aa ef bc
       -0.07913561 -0.014502038 0.0081420615 -0.029256223
000360 d8 cb d2 bd c2 67 a1 bd a7 97 ea 3d 59 80 81 bd
       -0.10292786 -0.07881118 0.11454707 -0.063233085
000370 63 cc 0b 3d 0a f2 0c 3e 9c e1 c0 bd b0 c1 20 bc
       0.034130465 0.13764206 -0.094180316 -0.009811804
000380 0d e3 2b 3d 46 a4 53 3c 8f 0e 92 be ee 3f 51 bd
       0.04196458 0.012917584 -0.28526732 -0.05108636
000390 e7 de d3 bd 1c 61 91 3c 0c d6 9b 3d 6a 3b 0d be
       -0.103452496 0.0177465 0.076091856 -0.13792196
0003a0 e5 c3 3d be 84 8c c3 3e 85 ac 3d be cb ef 29 be
       -0.18531759 0.38193142 -0.18522842 -0.1659538
0003b0 56 81 ca bb 4b fd ba bd f7 a8 a3 bd b8 11 46 bd
       -0.006179969 -0.09130343 -0.07991212 -0.04835674
0003c0 96 79 6b bd 2c fe f8 3d 4a 74 28 be 7b 9b 47 bd
       -0.057489 0.121578544 -0.16450611 -0.048732262
0003d0 33 be 1f bd ca 65 6e bd 0f a6 77 bd 18 b3 99 bd
       -0.038999747 -0.058202542 -0.0604611 -0.075048625
0003e0 9d 6a 97 bd 18 f0 a1 3c b5 e0 49 3d 2f 0b 9d 3d
       -0.07393382 0.019767806 0.049286563 0.07668149
0003f0 9e e9 b3 ba 17 02 fe bc 48 d6 6e 3d 9f a9 e6 bd
       -0.001372624 -0.031006856 0.058309823 -0.112628214

conv_3.bias f4 [32]
000000 be a5 66 be 6e 59 4b be 6a ab 9b be 72 e3 45 bf
       -0.22524163 -0.19858333 -0.30404216 -0.7730018
000010 a4 dd 07 be 09 94 10 be b5 ff d9 be e4 e7 d2 bd
       -0.13268143 -0.14118971 -0.425779 -0.10298136
000020 31 95 da be 56 c1 16 be 9b 87 d8 bd 13 76 d7 bc
       -0.4269195 -0.1472219 -0.1057274 -0.02630142
000030 a4 64 e3 bc 4c de 05 bf 7a 43 3c 3e cf 84 65 3e
       -0.02775795 -0.52292323 0.18385115 0.22413944
000040 9a 3f 29 3e 7e 52 aa be d7 c6 9c bd a5 7f 88 3e
       0.16528168 -0.33266062 -0.07655113 0.26659885
000050 ee 31 c9 bd 9f 47 b8 bd 98 47 09 bf 1b 03 44 be
       -0.098239765 -0.08998036 -0.5362487 -0.1914181
000060 45 c5 a8 bc 79 a0 ec be 58 15 f9 be 72 3c 1a bf
       -0.020601878 -0.4621618 -0.48649096 -0.6024848
000070 ed a5 ad 3d 37 f2 61 bc a1 93 ad 3e 14 a6 30 bf
       0.084789135 -0.013790659 0.33901694 -0.69003415

linear_1.weight f4 [1, 25088]
000000 41 1b 88 bc 20 68 e0 bb 81 c0 0e bc ff a3 15 bc
       -0.016614558 -0.00684835 -0.008712889 -0.009133338
000010 ad 86 f1 3b 81 12 08 3d 69 4d 4e 3c 6a 7b 5b bc
       0.007370791 0.03322077 0.012591698 -0.013396123
000020 a4 40 cd bc b6 bd 13 bc e7 8e 62 3c dc f6 f0 3a
       -0.025055237 -0.009017399 0.013828016 0.0018384117
000030 ab df a3 b9 f1 0e 90 bc 90 7c 45 bc 3e c1 da bb
       -0.00031256428 -0.01758525 -0.012053624 -0.0066758683
000040 89 8b 64 3b ec ee 8d 3b 10 f4 84 bc 97 a3 df bb
       0.0034873208 0.00433146 -0.01622966 -0.0068249214
000050 bc 07 93 ba ea 8f 7d b8 59 aa a6 3b 03 20 30 bc
       -0.0011217515 -6.045393e-05 0.005086225 -0.01074982
000060 6e 25 80 bb a2 e8 1f bb 2d f7 87 bb 60 ec 61 bc
       -0.003910712 -0.0024400135 -0.0041493387 -0.013789266
000070 59 18 89 bc b9 bc ef 39 be ab d6 ba 26 48 bd bb
       -0.016735243 0.00045726242 -0.0016378087 -0.005776423
000080 d4 be 38 bc d2 99 0d 3b 7d a9 35 3a 8e 01 a5 3c
       -0.011275966 0.0021606577 0.0006929858 0.020142343
000090 86 66 28 bb 84 0f b5 bc b3 f5 c1 bb c3 b2 13 3a
       -0.0025695874 -0.022102125 -0.005919182 0.00056342426
0000a0 8f 3c 55 bc 61 14 fe 3b 89 2a 08 bc ea c1 8a 3b
       -0.013014927 0.007753894 -0.008310922 0.004234542
0000b0 d7 14 0c bc 61 17 d8 3b be 55 80 3b e5 16 af ba
       -0.0085498905 0.006594584 0.0039164713 -0.0013358264
0000c0 12 9b a6 bb 58 7d e7 ba 7e d3 fd ba bf 95 d0 39
       -0.005084404 -0.0017661257 -0.0019365398 0.0003978442
0000d0 45 12 be bb 78 db 8a bb b3 90 e2 ba 01 71 42 ba
       -0.0058005177 -0.0042375885 -0.0017285555 -0.00074173516
0000e0 ad 54 86 bc 7c 5b 0d bc 4c e8 18 bc 44 92 d9 bb
       -0.016397798 -0.008627769 -0.009332728 -0.0066397507
0000f0 82 7c bd b9 90 1a ef 3b e3 59 67 3d e6 35 20 3d
       -0.00036141655 0.0072968677 0.056482207 0.0391139
000100 f7 b4 8f 3c 21 7c 08 3d 62 92 7b 3c 72 f1 30 3b
       0.017542345 0.033321504 0.015354725 0.0026999381
000110 08 a1 f0 bb 51 bb 6c 3b bb 66 07 3c c6 12 e9 bc
       -0.007343415 0.0036122391 0.008264239 -0.028451335
000120 3b a9 17 3d a9 5f 39 3b 20 44 dc 3c c4 58 3c 3c
       0.037026625 0.0028285778 0.026887953 0.011495773
000130 12 7e 95 3b c5 1d 06 bc 66 58 31 3c 82 0f b2 3b
       0.004562148 -0.008185809 0.0108242985 0.0054339776
000140 a5 6e 5d 3b 51 2c 9a b9 7f 4c 25 bb 67 ee 42 bb
       0.0033787873 -0.00029406187 -0.0025222597 -0.002974415
000150 90 7e a0 bc 4d f7 a4 3a 8f 6f e3 bb ef c4 9f bb
       -0.0195916 0.0012585908 -0.006940789 -0.0048757712
000160 3d 4d 4d 3c 6e 96 cf 3b c8 f7 66 3b 1e 9c 8f 3c
       0.012530622 0.0063350713 0.0035242904 0.017530497
000170 79 df 20 3d 15 1f d4 3c 12 70 2f 3d 1e 5f e3 3c
       0.03927562 0.025893727 0.042831488 0.027755316
000180 06 f7 45 3b 54 34 48 3c c8 7e b5 3c 61 3c ea 3c
       0.0030207052 0.012219507 0.02215518 0.028593244
000190 b0 29 10 ba 59 c9 49 3c 82 cf f7 bc 5e 12 6c bc
       -0.0005499376 0.012316071 -0.030250315 -0.014408676
0001a0 34 1b 04 3d 35 8b f2 3c 9f 14 8e 3c 07 1e c0 3c
       0.032252505 0.029607395 0.017343817 0.023451818
0001b0 ee dd 05 3d ca 8c b9 3c c2 73 e9 3b c6 60 92 ba
       0.03268235 0.022650141 0.007124395 -0.0011167757
0001c0 8f cd 27 bc 6b ff a0 bb d1 b0 d9 3a 2c 31 83 ba
       -0.01024188 -0.0049132607 0.0016608482 -0.0010009161
0001d0 d1 9d a9 bc e7 ea 53 bc 9f 2f b0 3b e2 66 2a 3d
       -0.020705136 -0.012934423 0.0053767706 0.041602023
0001e0 1a dc 76 3c 89 77 98 bc 14 c1 b9 bb b7 0b 73 3c
       0.015067125 -0.018611686 -0.0056687687 0.014834336
0001f0 f7 14 ac 3c 29 27 16 3d 1c d2 f6 3c f5 87 48 3c
       0.02100609 0.03665844 0.030129485 0.012239446
000200 9a b9 98 3c 60 8f b5 3c 4a b2 a7 ba 82 50 48 bd
       0.01864319 0.022163093 -0.0012794223 -0.048904903
000210 a2 60 85 3a 43 f5 db 3b d7 b3 89 3c 36 69 25 b9
       0.0010175894 0.006712587 0.016809387 -0.0001577482
000220 4d b0 1f 3c 9b 24 06 3b 5b 56 84 bb 45 ae 22 bc
       0.009746623 0.0020468596 -0.0040386147 -0.009929244
000230 fb c4 90 bd fb 0a 08 bd c9 64 06 bd 22 75 0e bd
       -0.07068821 -0.033213597 -0.03281096 -0.034779675
000240 aa ac f7 bc e3 b4 5a 3c f8 40 26 3d ef b4 3a bc
       -0.0302337 0.013348791 0.040589303 -0.011395677
000250 ef 05 d3 3c 2b 43 10 bc f5 f7 69 bc 2b b5 2b 3d
       0.025759665 -0.008805077 -0.014280309 0.041920822
000260 7b 71 02 bd 7f 62 6d bd 11 8e 99 bc a2 d3 6b bb
       -0.031846505 -0.05795526 -0.0187445 -0.0035984297
000270 24 8b 85 bc 28 80 b9 bd 46 42 a1 3c 30 69 d7 3c
       -0.016301699 -0.09057647 0.019684922 0.026295274
000280 62 90 0b bd 00 6f 09 bd 7e 75 40 bc cd ef 88 3c
       -0.03407324 -0.033553123 -0.011746762 0.016715908
000290 7d 10 86 3c e1 96 5d bc 6d 98 b7 bc ee 81 e4 3b
       0.016365284 -0.013524742 -0.02241155 0.0069734966
0002a0 1a aa e6 3d 1d 3d 85 3c 21 53 01 3c 6d 57 12 bd
       0.11262913 0.016264493 0.007893355 -0.035727907
0002b0 ff 59 20 3c be de d8 3c d2 30 bb 3d 8c a6 0d bd
       0.009787082 0.0264734 0.09140171 -0.03458266
0002c0 87 2a 1a 3d e8 36 10 bd 5e 9f 0b 3d f2 08 4a bc
       0.037638213 -0.035208613 0.03408753 -0.012331234
0002d0 48 ef 34 3d ee 6c b0 bc b5 d6 74 bd 5c 2d 23 3c
       0.04417351 -0.021536317 -0.059775073 0.009959545
0002e0 30 fb 16 3d e3 5a 83 b9 13 b3 cb bc c5 57 bb 3b
       0.036860645 -0.00025053983 -0.024865663 0.00571725
0002f0 8d 8b c3 3d f0 88 bb 3d b9 0a 6e 3c c0 5c 79 3c
       0.095481016 0.09156978 0.014528924 0.015219867
000300 9d 66 45 3d 53 d8 9d 3d 60 bd dd 3c ec 7e 7a 3b
       0.048193563 0.07707276 0.02706784 0.0038222624
000310 30 8d 80 3b da df a2 3c f7 1c fa bc 3c 27 81 bc
       0.003923081 0.019882131 -0.03053139 -0.015765779
000320 4b 3d 72 bc 02 18 33 3d 43 c0 0f 3d dc ea 08 3c
       -0.014785121 0.043724068 0.035095464 0.008356776
000330 89 fb 1c bd 26 76 de bb 12 bf ee bc 30 87 99 bd
       -0.03832582 -0.0067889867 -0.029143844 -0.07496488
000340 5a 7f 95 3d 88 72 00 3c 4f 1e 69 bb e0 3c 5f bc
       0.07299681 0.007839806 -0.0035571044 -0.013625354
000350 6f e5 9d 3c 8f ec 24 3b 10 e6 25 bd d5 07 13 bd
       0.019274442 0.0025165414 -0.040502608 -0.03589614
000360 d5 e6 4e 3d 8e 30 99 3d 91 ed b9 3d 84 d3 5b bc
       0.050513107 0.07479964 0.09078515 -0.0134171285
000370 ae d0 ab bc da 25 8e 3d b1 38 9f 3c c3 f3 3f ba
       -0.02097353 0.06940813 0.019436212 -0.0007322395
000380 b1 ad 8a bc e2 03 e2 bb 40 2a 84 3c 2d b4 cc bc
       -0.016928526 -0.0068974355 0.016133428 -0.024988258
000390 bd 74 17 bd 5d eb 30 3d b2 13 75 3d 0c ec 56 bc
       -0.036976565 0.04319321 0.059833236 -0.013117801
0003a0 c9 53 42 bd fd 4c 7e bc 58 0f 0a 3b 2b f5 7f bd
       -0.047443185 -0.015521285 0.0021066274 -0.06248967
0003b0 ea f3 91 bd 88 6a 6d bc 97 fd 74 bb f4 3c 97 3c
       -0.07126601 -0.014490731 -0.0037382597 0.018461682
0003c0 05 77 7a bd 03 a4 c5 bb fc 62 12 bd cc 6f c1 bd
       -0.061148662 -0.0060315146 -0.03573893 -0.09445152
0003d0 30 9c fc bc 31 76 d0 bb 25 22 05 3c a4 38 a3 3d
       -0.030836195 -0.0063617458 0.0081258165 0.07969788
0003e0 d9 86 55 bd 0d 27 23 3d 34 90 29 3c 27 df 89 3b
       -0.052130554 0.039832164 0.010349322 0.00420751
0003f0 64 7d 80 bc 6f b4 ac 3b 2d 30 4c 3c 18 b1 ad bc
       -0.01568479 0.005270533 0.012462658 -0.021202609
