models/BEST/ConvNet_20.pth (torch, 127524 bytes, 7 tensors)

conv_1.weight f4 [8, 1, 3, 3]
00000000: 7506 e53e 54ac 0e3f 8608 593e bcde 283f
00000010: 679d 173f c026 f13e 6cbb 4d3e 1788 ea3e
00000020: ef79 233f 10e1 c6be ea32 853e 4704 cf3e
00000030: f5ad c13e af17 da3e 943b 273f c2e9 cb3e
00000040: be29 103f d4b9 163f 1859 1fbe b402 ae3d
00000050: c843 1dbe d81d 20bd a8a2 0abe 3e6e 623e
00000060: 1cb8 86be b35b 1dbe 90c4 c0bd fb5a 4fbe
00000070: b1bf ec3c 26aa a8be 2dd5 963e c1fc 8cbe
00000080: b2a7 883e 0c4c 683d 387b cabd 5ef0 563e
00000090: 3aab af3d 5342 d23e 9f59 fc3e 8591 e93d
000000a0: 6bc2 0e3f f4d9 203f 5e0f c03e cb9e f03e
000000b0: c87d 5b3f 27d4 59bf 7867 c7be 09d6 0dbf
000000c0: c910 dabe 8f4d 2abf 233c 52bf 3c5a 3abf
000000d0: b053 46bf 3fdd 52be 926a eabe 5973 c0be
000000e0: 56c0 0dbf b207 fcbe 3f37 6abe 4997 55bf
000000f0: db47 0cbf 7016 31bf f43d 04bf 9739 2bbf
00000100: aab1 c1be 9a3e 27bf d2d5 81be 5e04 12bf
00000110: f672 27bf 025b 4fbf 9135 cebd fcae 6bbe
0.4473149 0.557317 0.21194658 0.65964866 0.5922455 0.47099876 0.20091027 0.45806953
0.6385793 -0.38843584 0.26015407 0.4043295 0.3782803 0.42596194 0.65325284 0.3982678
0.56313694 0.588773 -0.1556133 0.08496609 -0.15357888 -0.03909096 -0.13538611 0.22112367
-0.2631234 -0.15367012 -0.09412491 -0.2024955 0.0289 -0.32942313 0.29459515 -0.27536586
0.2669044 0.05671315 -0.09886783 0.2099013 0.08577581 0.41066226 0.49287125 0.11404709
0.5576541 0.6283257 0.37511724 0.4699615 0.857388 -0.85089344 -0.38946128 -0.55404717
-0.4259093 -0.66524595 -0.8212301 -0.72793937 -0.77471447 -0.20592211 -0.45784432 -0.37588003
-0.55371606 -0.4922462 -0.22872637 -0.8343397 -0.5479714 -0.6917486 -0.5165703 -0.6688475
-0.3783086 -0.653299 -0.25358444 -0.57037914 -0.6540979 -0.8099824 -0.10068811 -0.2301597

conv_1.bias f4 [8]
00000000: 1e9b 26bf 46e3 6cbf bb47 a9be 3372 89be
00000010: c1cb 55bf d91a 0c3f af42 ce3e cd59 3e3f
-0.6508044 -0.9253429 -0.33062539 -0.2684494 -0.8351403 0.54728466 0.4028525 0.74355775

conv_2.weight f4 [16, 8, 3, 3]
00000000: ab14 6abc a593 52be cded 83bc 3d56 dabe
00000010: 4ac2 aebe db46 e0be 7080 eb3e e1f1 53be
00000020: c71c 28be d313 9c3d efe2 5fbd 82a8 1f3e
00000030: eefc c8be 25b2 99be 986a bebe 6d0d 193e
00000040: 7a93 053d 6b11 3f3b ac21 2bbd ac89 e9bd
00000050: 1c38 8abd 6c2b f13c b0dc 7ebc ff32 afbd
00000060: e02a 353b 32de a4bd adc4 ccbd 1c11 85bd
00000070: c544 d1bd bd70 97bd 0cc5 f23d 87d2 aa3c
00000080: 0da5 143d cafa e8bd c8ce a9bd f2ef 44bd
00000090: 8eda 023e 4667 70be 9d2e adbd 3a04 a0be
000000a0: 3f6e 4dbe f908 b2be 837f 9e3e f889 2fbd
000000b0: 6338 e1bd e24f 42be 7c6a 46bb 2de0 e7bd
000000c0: 7b64 473d fbd2 193e 01f2 a73e ceca a7bd
000000d0: 954b d2ba e242 673e cb61 10be 8ba2 19bc
000000e0: 25c5 84bd b184 a7bd e615 4f3e ce1b 453e
000000f0: 2d66 01bd 322b 67bc 2a13 513e 3679 97be
00000100: 2ec1 4e3d bc1b 3bbc fd9b 053d 4744 9e3e
00000110: 014d a53e 0ea6 5dbe b92d 133e b8d7 ed3c
00000120: 5fb4 29bd 4ff4 e6bd 4c36 8c3d e3aa f8bd
00000130: a3cf 133d a310 223b 3e5f 3cbc d12e d8bd
00000140: 0864 4c3d 6831 bcbc b18b 66bc 12e9 f9bd
00000150: 08c4 b23a bf69 3dbd 0f04 96bd 499a 2b3d
00000160: 5f12 c2bb e195 b9bd 8e52 74bd a06b b8bb
00000170: fdc3 863d a0b3 f6bc a4b6 89bd ac4d 25bd
00000180: 3650 b4bd 2a27 2c3d 59d2 ba3d d843 e3bd
00000190: 9ed5 e03c 2bb1 783d 102f ad3c 51ba 2cbd
000001a0: 0916 7b3d c540 7d3d 08ee 333d 0aae a9bc
000001b0: 7829 8bbd fa82 a5bc 9bdb a5bd 48c2 9cbd
000001c0: 7415 253d a7e4 1d3d 6918 90bd e664 97bd
000001d0: 816c 7abd 10ef 17bc 0a2b af3c 66f9 bf3c
000001e0: 0b2b dfbd a985 4abd 44f0 c03d 3422 2e3d
000001f0: b5ce 33bc a308 96bd 174d 9abd fe84 ecbd
00000200: 3b9b 5dbd df2d 1c3d 79ab 803d b182 203d
00000210: 64d7 dbbd dd9b a2bd 0b20 02bd 8f88 f13d
00000220: 3ac9 0d3c a8af 35bd 6fa6 523d f00e 5bbd
00000230: 1149 b0bd 82ff ae3d aa7b 74bd ee55 02bd
00000240: 7714 80be 2a0a 10be 37a0 743e e5f0 a8bd
00000250: 443f 4abe 6c62 5ebe 67f6 5cbe 6259 5dbd
00000260: b8b7 0fbe 6f32 73bc 5a9d 9fbd 86c5 603e
00000270: 6fc7 e8bd 49ce 30be f684 01be f258 05be
00000280: 6016 3c3c 22f9 5bbe ec4b c2bc 48e7 8abd
00000290: e0ec afbc 81e0 a9bd 34b5 9dbd 721f 203d
000002a0: 4e76 0fbd 5d00 953d 38dc 1abd 8096 b1bd
000002b0: 547a aabc c062 6fbd 4bb2 13bd 4731 e5bd
000002c0: d431 863d ce04 a7bd 6de1 723d 8799 5c3d
000002d0: b00f 8bbd 67a5 92be e780 a93e b51f 48be
000002e0: bac3 a1bd d881 0e3e d825 15be 824f fcbd
000002f0: fc24 5fbe d98b c83c 335f 2f3e ae10 32be
00000300: ff6e 933d 4165 dc3d fee3 953d 0e8e babd
00000310: 64b2 f8bd ec97 4a3c e8d0 513e 4214 23bc
00000320: ed20 93bc 049f 85bc 2539 1e3d e70b f1bc
00000330: 3a02 96bd f36c 18bb 1b1b 2ebd c8a0 753e
00000340: 541a 873e 687e 74bd 64da 063d c25e d63c
00000350: 7570 12be 9822 62be 94d9 e03c a4ea c0bd
00000360: dd6a afbd c4b9 cebd 652f a83d 8c53 03be
00000370: 736b 05bd 6ed6 99bd ca6e b0bd b0ea 33bd
00000380: 218b 83bd 63f4 043a 4738 2ebe 4381 4b3e
00000390: f354 0dbe e2da b6bd 6e73 4d3b 7733 113e
000003a0: 39fc 37be 1bb5 ecbd c11b e53d 84fd fd3c
000003b0: 29d0 a13d f3f3 ed3d d0ee 93bc 7461 c83c
000003c0: c8c0 a7bd 50f4 c6bc 25bf b23d 67c7 783d
000003d0: 4b0b 98bd acf3 c1bd f064 a4bd 39b9 edbd
000003e0: 9318 bbbd 983f efbc 7ad8 a23d c65d a43c
000003f0: d429 e3bd f9b1 58be 187d 923e 6aac febd
-0.014287154 -0.20564134 -0.016104603 -0.4264392 -0.34132606 -0.43804058 0.45996428 -0.20697738
-0.16417228 0.07620969 -0.05465978 0.15591624 -0.3925547 -0.30018726 -0.371907 0.14946528
0.032611348 0.002915467 -0.04178016 -0.11403212 -0.06748983 0.02943965 -0.015555546 -0.085546486
0.0027643964 -0.08050193 -0.099984504 -0.06497404 -0.10218195 -0.0739455 0.1185399 0.02085234
0.036290217 -0.11375959 -0.082913935 -0.048080392 0.12778684 -0.23476896 -0.084561564 -0.31253225
-0.20061587 -0.3477247 0.3095666 -0.042856187 -0.10997083 -0.18975785 -0.0030275872 -0.11322055
0.04867981 0.15021889 0.32801822 -0.08192979 -0.0016044254 0.22584108 -0.14099805 -0.009377132
-0.06482915 -0.08179606 0.20223197 0.19248888 -0.031591583 -0.01410942 0.20417467 -0.29584664
0.0504772 -0.011420187 0.032619465 0.30911466 0.32285312 -0.21645376 0.1437291 0.029033527
-0.04143178 -0.11277067 0.06846294 -0.12141969 0.03608669 0.0024729155 -0.011497317 -0.105558045
0.049900085 -0.022972777 -0.014071391 -0.12202658 0.0013638744 -0.046243425 -0.07324993 0.041895185
-0.0059226 -0.0906179 -0.059649043 -0.0056280643 0.065803505 -0.030114949 -0.06724289 -0.040357277
-0.088043615 0.042029537 0.09122152 -0.110969245 0.02744561 0.060715836 0.021140605 -0.042169873
0.06130031 0.061829347 0.043928176 -0.020712871 -0.06795019 -0.020204056 -0.08098527 -0.07654244
0.040303662 0.038548138 -0.07035906 -0.07392292 -0.061138634 -0.009273306 0.021382827 0.023434352
-0.10896882 -0.049443875 0.09420827 0.042513087 -0.010974576 -0.07325866 -0.07534235 -0.11548804
-0.054103117 0.038129684 0.06282706 0.039187137 -0.10734442 -0.07939885 -0.03176884 0.117936246
0.008653933 -0.044356972 0.051428255 -0.053481042 -0.08607686 0.08544828 -0.059688248 -0.03182023
-0.25015613 -0.14066377 0.23889242 -0.08249072 -0.19750696 -0.21717232 -0.2157837 -0.05404032
-0.14034927 -0.014843567 -0.07793684 0.21950349 -0.11366164 -0.17266192 -0.12648377 -0.13022211
0.011479944 -0.21481755 -0.023717843 -0.06782395 -0.021475255 -0.08294774 -0.077005774 0.03909249
-0.035024934 0.0727546 -0.037807673 -0.08671284 -0.020810284 -0.058443785 -0.036058705 -0.111910395
0.06552473 -0.08155213 0.059297014 0.053857353 -0.067901015 -0.28641817 0.33106157 -0.19543345
-0.0789866 0.13916719 -0.14565217 -0.123198524 -0.21791452 0.024480747 0.1712616 -0.17389175
0.07198905 0.107615 0.07318877 -0.09109126 -0.121434 0.012365323 0.20489848 -0.00995356
-0.017960036 -0.016311176 0.038628716 -0.02942462 -0.073246434 -0.0023258298 -0.04250632 0.23987114
0.26387274 -0.059690863 0.032923117 0.02616823 -0.14300711 -0.22083509 0.0274475 -0.09419754
-0.085653044 -0.10094026 0.08212165 -0.1282484 -0.032573175 -0.07511602 -0.08614881 -0.043924987
-0.06423021 0.0005071817 -0.17013656 0.19873528 -0.13801937 -0.08928467 0.003134932 0.14179789
-0.17967309 -0.115579806 0.11186934 0.031004675 0.079010315 0.11618795 -0.01805821 0.024460532
-0.08191067 -0.02428642 0.08727864 0.06073704 -0.07424029 -0.09470305 -0.08027065 -0.11607594
-0.091355465 -0.029205129 0.07951446 0.020064246 -0.110919625 -0.21161641 0.28611064 -0.12435229

conv_2.bias f4 [16]
00000000: 9bb5 9cbc 97a6 0fbd 42e3 033d d46d e83e
00000010: 76d0 903d 1365 b33e 12f5 9dbd 2524 68bb
00000020: 26c8 ebbe c8c7 c43d 98f4 83bb b3c5 22be
00000030: 92ca e23e f42c 273e 65d7 a2be 0350 9c3e
-0.019129565 -0.03507098 0.03219915 0.45396292 0.07071011 0.3503805 -0.07712759 -0.0035421934
-0.4605114 0.09608418 -0.0040269606 -0.15895729 0.44295174 0.16325742 -0.31804958 0.30529794

conv_3.weight f4 [32, 16, 3, 3]
00000000: a533 7fbb 7e80 423d ac38 7fba 1cf2 b6bd
00000010: 1cec 32bc b05f 51bb d09b 023a bbb4 763d
00000020: d49f 8fbc 24fe 583d ffad a53c 82d5 90bd
00000030: 16fd 993c a552 8c3d a8de 60bd b9b6 5ebd
00000040: 2dc1 a53d 7350 883d d38b 71bd c678 123d
00000050: 88c0 bebc f051 bdbd 055d 4bba 8799 a03c
00000060: 22f8 873a 2292 b83c 973a 97bd 8c4e 553d
00000070: f113 803d 1470 0f3d 8f4a 5b3c 65c7 fc3c
00000080: 4cef 6fbd 9610 43bc bf06 3dbc 9179 2cbd
00000090: 39ca a9bd f3b8 fb3d 1f90 cb3d 9c10 b8bd
000000a0: 233b e83c 1a2a fa3b b2fa 8e3d 4808 263d
000000b0: 1d31 2d3d 6137 4abd eb2a b83d 8223 a93d
000000c0: 716a e7bd 696e 9ebd 9228 993a 8391 8d3c
000000d0: d570 8abd d460 4dbc 3df9 d83c 0c2a 2fbb
000000e0: 518c bbbd d36c 7f3c 9cf1 6e3d 12ee 83bd
000000f0: 3f60 61bd 32b0 16bd 615c ce3d d699 863d
00000100: bf8c b43c 24cd f2bc 30f4 723d 550d 0abd
00000110: 5adf cebc aa76 09bc a104 88bd 4291 f5b8
00000120: efbf 84bd c2e2 723c e094 f53c 0794 1b3c
00000130: dba3 7bbd 114b 87bd 0161 253d 7518 953d
00000140: e628 92bd 428f 9bbc 087b a4bd c767 b5bc
00000150: a27b 303d fc41 243d 896f 8cbd 7c57 ef3d
00000160: e151 df3c 86e5 14bc ef3d d43d 7647 b33c
00000170: da9f b93c ded8 72bd a52f d5bb bc1e 9e3b
00000180: 0aca adbb eca3 a2bd 4083 6ebd a57e ce3c
00000190: e71a 9bbd 0eff 78bc 9286 b3bb ff95 17bd
000001a0: 2eae e23c 0062 b53a 9bae 5f3d 764a 33bc
000001b0: b664 6cbd 8a55 6a3d 913e a53b d846 04bd
000001c0: 8db6 81bd e44e 953c b7de b4bd 28ad 7a3c
000001d0: bbc8 333d 597b f6bd 13a4 88bd ca43 b5bd
000001e0: c8d8 c73b 00a9 683d 687c 9539 39b7 173d
000001f0: f6d5 57bd 6c5d c4bd e707 30bc 8c46 20bc
00000200: e57e 3d3d 7235 2ebd f952 9e3c f2e0 223c
00000210: c385 ba3c de35 f6bd 15f8 fe3c 3a96 cabd
00000220: bb88 803d ef29 bcbc 6a25 b9bd a414 f2b9
00000230: e028 d3bc e0cf d4bd 26af 35bd 64a6 36bc
00000240: 7e35 a13c 0fc0 afbd 6bbd 13bd ad1a dfbc
00000250: 2910 f1bc 152b f8bd 79ca a4bd ee71 93bb
00000260: 5c0f d0bd 687e 9dbd 8add 17bd 558c 953b
00000270: b02a 5fbd 461f 05bd bc32 60bc c9fd 15bc
00000280: 323a 34bd 839f a13b 069d 65bd 470b 0039
00000290: d3cc 523c f2de 67bd 6de8 4fbc 664a 143d
000002a0: 16a1 a1bd 04ad 543c 8aa9 4e3d 4700 59bc
000002b0: 5dd3 47bd 2bff 1f3d 1053 bcbc d3ed c0bd
000002c0: d159 dd3c 158c 9bbd e0ee cbbc e996 613a
000002d0: d45c f2bd 9f65 73bd 156a 903d f0cb 18bd
000002e0: 7323 26bd 6a15 363d 68f6 fabd 060d dcbc
000002f0: d139 3bbb fb7e d1bc 2b53 e0bd 3a30 173d
00000300: e65b b9bd c563 8dbd dfc0 20bd e4ab e8bd
00000310: 0050 c2bd cd23 cdbd 7452 e43c 9123 a53d
00000320: 47c5 58be d6a8 b5bd 9178 663e c97c 9abe
00000330: a88b cf3d 0847 c63e 9145 f0bd ffdc d4bd
00000340: 710c 78bc e073 ea3b b9df d23c 6e3d 8fbd
00000350: 53b2 b2bd 2043 583a a701 453c d145 bcbc
00000360: 59bd b0bd e7c9 56bd db2c 373d 7238 0cbd
00000370: 96fb 183d 3a21 4d3d b6c1 02bd 8c22 5c3c
00000380: 16d6 66bc a581 61bd caba 29be fbaa 983c
00000390: 713c a4bd cf33 b43d 57b3 083e f38a 04be
000003a0: 099a 4cbd 20e9 bd3e 3e4a 30be 0ddc 06be
000003b0: 156d 72bd 9b52 bebd f35e 6fbd 27fe b7bd
000003c0: 5326 afbd 3271 523d 4e8a 56be bcb7 48bd
000003d0: 6f3d 20bd f3ec 6ebd 2644 79bd a0d4 9abd
000003e0: c861 99bd ee35 a33c 727e 493d de5f 9d3d
000003f0: b059 043d 61eb dcbc 6bc9 7e3d 511b 99bd
-0.0038940695 0.04748582 -0.0009735923 -0.089328974 -0.010920551 -0.0031947903 0.00049823243 0.06023095
-0.017532267 0.052976742 0.02022457 -0.070719734 0.018797439 0.06851701 -0.05489984 -0.054373477
0.08093486 0.066559695 -0.058971237 0.03575971 -0.023285165 -0.09244144 -0.00077576964 0.019604458
0.0010373632 0.022530619 -0.07384222 0.05207686 0.062538035 0.035018995 0.013384475 0.030856797
-0.05857782 -0.01190581 -0.011537253 -0.042108122 -0.08290524 0.12291136 0.09939598 -0.08987543
0.028348511 0.0076344134 0.0698141 0.04053524 0.042283166 -0.04936922 0.08992561 0.08258726
-0.11299599 -0.07735903 0.0011685065 0.0172813 -0.06759802 -0.012535293 0.026486034 -0.0026727943
-0.091576226 0.015589911 0.058335885 -0.06441893 -0.055023428 -0.036789127 0.10076214 0.065723106
0.02203977 -0.029638834 0.059314907 -0.03370412 -0.025252987 -0.008390108 -0.06641508 -0.00011709567
-0.06481921 0.014824571 0.029978216 0.009495742 -0.06143556 -0.06606115 0.040375713 0.072800554
-0.07136707 -0.01898921 -0.08031279 -0.022144211 0.043086655 0.04010199 -0.06857211 0.11686608
0.027260723 -0.009087926 0.103633754 0.021884661 0.022659231 -0.059288852 -0.006505924 0.004825441
-0.005303626 -0.07941422 -0.05823064 0.025206873 -0.075734906 -0.0151975285 -0.0054786885 -0.03700828
0.027670946 0.001383841 0.054609876 -0.010943046 -0.057713233 0.057210483 0.005042859 -0.032294124
-0.06333647 0.018226095 -0.08831542 0.015300073 0.043892603 -0.120352454 -0.0667192 -0.0885082
0.0060988404 0.056801796 0.00028512185 0.03703997 -0.052694283 -0.09588131 -0.010744072 -0.009782445
0.046263594 -0.04253144 0.019326674 0.009941326 0.02276886 -0.12021993 0.031124154 -0.09891935
0.06276079 -0.022969214 -0.09040339 -0.00046173215 -0.025776327 -0.103912115 -0.044356488 -0.011148069
0.019678827 -0.08581554 -0.036069315 -0.0272344 -0.029426651 -0.12117592 -0.08046431 -0.0044996655
-0.101591796 -0.07690126 -0.03707651 0.004563848 -0.05448407 -0.032500528 -0.013683971 -0.009154745
-0.044000812 0.0049323454 -0.056057952 0.00012211232 0.012866217 -0.0566091 -0.012689692 0.036203764
-0.07892053 0.012980703 0.050454654 -0.013244695 -0.048785556 0.039061707 -0.022988826 -0.09420361
0.027020367 -0.07595078 -0.024894178 0.0008605556 -0.11834112 -0.059423085 0.070514835 -0.037303865
-0.04056115 0.044454016 -0.122540295 -0.026861679 -0.0028568397 -0.025573244 -0.10953363 0.036911227
-0.09050731 -0.06903795 -0.039246436 -0.113609105 -0.09487915 -0.10016594 0.027871348 0.080634244
-0.21169005 -0.088700935 0.2250693 -0.3017333 0.10134059 0.38726068 -0.11732019 -0.10393714
-0.015139685 0.0071549267 0.025741445 -0.06994139 -0.08725419 0.00082497485 0.01202432 -0.02298251
-0.08629865 -0.052438643 0.044720512 -0.034233518 0.037349306 0.050080515 -0.03192302 0.013435971
-0.014089128 -0.05505528 -0.1657516 0.018636217 -0.08019341 0.08798944 0.13349663 -0.1294363
-0.049951587 0.37091923 -0.17215821 -0.1316988 -0.05918606 -0.092930995 -0.05844016 -0.089840226
-0.08552232 0.051377483 -0.20951197 -0.049003348 -0.039121088 -0.05833144 -0.060856007 -0.07560086
-0.074893534 0.019923177 0.049192853 0.07684301 0.032312095 -0.026967706 0.062203806 -0.07475913

conv_3.bias f4 [32]
00000000: 1a5e 3fbe 6eea a3bd 1070 90be ec0e 0bbf
00000010: c774 c1bd ce45 5cbe 8021 bebe 99cd bcbd
00000020: cc44 98be 2453 46be caaf 7abd c08b 45bc
00000030: 986c 7cbd 36d4 ddbe dc23 863e 8c5c ec3d
00000040: 6aa0 8e3e c5e7 88be c7f5 40bd 9c4c 2b3e
00000050: 94ba 813d fb9b a2bd 38dc bcbe b260 52be
00000060: 69bc 2fbe f61b babe bc49 2bbf 684c b7be
00000070: 9532 3e3e d42a a3bd d5d3 7a3e 80e9 0bbf
-0.1868824 -0.08003698 -0.28210497 -0.54319644 -0.09446102 -0.21511003 -0.37134933 -0.09218902
-0.29739988 -0.19367653 -0.0612028 -0.012057245 -0.061627 -0.43325967 0.26199234 0.115410894
0.2785676 -0.26739326 -0.04710939 0.16728443 0.06334415 -0.07939907 -0.36886764 -0.20544699
-0.17161717 -0.36349458 -0.66909385 -0.3580048 0.18573983 -0.07967153 0.2449487 -0.5465317

linear_1.weight f4 [1, 25088]
00000000: 7995 26bc 71c1 b9bb 84ea f2bb 4ce4 9eb9
00000010: 8c6b 403c 84d5 803c f931 d63b 67f5 32bc
00000020: a3cd dfbb f52e 5e3c a6c6 013c 5a8b 2f3c
00000030: 4941 1d3c a09f d23b daa9 58bb e503 eb39
00000040: 95f1 3c3b 8ae8 eeba 635b 2bbc 6b00 59bb
00000050: d3d5 c7ba aae9 74bb a134 b23b 9ba7 22bc
00000060: 38bf 32bb 090a baba 6cf7 49bb 5dc6 59bc
00000070: b535 4cbc 340e ab3a 74c5 90ba bc38 adbb
00000080: ae38 fa3a 5445 3c3c e2a8 873b 417a 863c
00000090: 35fc 753b d5dc 83b9 1155 9a3b 46bf 48ba
000000a0: 18a0 bcbb 1ee0 3139 2eca 253b d913 8c3b
000000b0: f82e 043b 01e1 5d3c 586f 1a3c f191 1c3c
000000c0: 0294 9f3a f1ed 923a b049 a7bb edb3 893a
000000d0: d4d5 a2bb ea70 6cbb d1b9 68ba b1b2 e2ba
000000e0: 55b9 33bc c25d 06bc be3e 13bc 8362 c4bb
000000f0: 4b30 8339 cd97 ef3b 0d61 bd3c b54e af3c
00000100: 4c4e a63c d947 b13c 17e2 a13b b30c 21bc
00000110: 6629 52bc 3ce5 fbba cad7 d23b 2a07 94bc
00000120: 607b a53b e171 793c 05fd 533c e2f4 4e3b
00000130: a368 613c d9c0 803b 6cc8 54bb 383f 1b3b
00000140: 7b4d 323b fb74 9439 493f e6ba 6ece 81bb
00000150: 7c90 52bc 33a0 0d3b cb59 c9bb 165e 8cbb
00000160: 080c 433c 7e12 0a3c 0fc2 a9ba dc9b f23b
00000170: 4656 f63c 391a 183b 5e23 a93c d040 bb3c
00000180: 9247 cc3b 3a19 e33b 563a 933c f134 803c
00000190: b886 5a3c 6c25 373c 395d f13b 5b6e e739
000001a0: 46d2 823c b4b0 cb3c 10f9 8b3c 842e 2a3b
000001b0: 8478 3a3c fcd4 c23b c5de 9fbb 3164 10bc
000001c0: 3305 bebb 768e 9fbb 41a1 1a3b 0c98 883b
000001d0: c870 b4bb c836 00bc df9f 863b 76c6 893c
000001e0: 18ba 833b 51e2 7fb9 9ce0 99ba 5e9e 033c
000001f0: 6a9c b63b a71a 0a3c e5e4 ac3b e899 c33c
00000200: 3d5c 823c 5ff9 893c 932f 623c 668f 503c
00000210: d18b 573c c9c0 833b 0b25 c83c a834 c13a
00000220: 1778 abba ea3e adbb 9633 1fbc 3933 56bc
00000230: 9abd 4dbd 9691 cabc 7d5e 38bc 5fc3 a6bc
00000240: 543b dabc b0d8 d53b f502 5a3c c0e8 623c
00000250: f801 8d3c b814 a4bc 6c15 c0bb fc44 a03c
00000260: 182f 6bbc 58a8 1bbd a847 c6bc 8452 9f3c
00000270: 191f f93b 83a0 cdbc 5895 303c 2cc8 a03c
00000280: eb86 c23a 6d1c 7cbc 3728 2f3c 2d8b 863c
00000290: dac9 d7ba 495a afbc 6fc7 c8bc 936a a2b9
000002a0: d53d 643d a0de 613c fa94 24bc 0cdf 08bd
000002b0: 3a83 19bc db4a 6c3c 14af d03c 083c 56bc
000002c0: 1da5 38bc 5131 2fbd 048e 07bc 9e59 c2bc
000002d0: a807 7abc 2416 cfbc 3072 81bd d2c5 39bc
000002e0: d1c9 673a 56af 4e3c 1275 893b 26cd 343c
000002f0: 6158 383d 89d8 3b3d 2045 9a3c 4466 283c
00000300: 188f e23c aa87 283d dab8 e83b 2ba7 57ba
00000310: dc81 e1bb 5632 463c 3c05 debc d7ca efbc
00000320: 4a3b 30bc 80e9 743c 07be f73c a0c7 7dbc
00000330: accb fcbc 1e6a efbc 49dc 7abc 7c66 54bd
00000340: d14b b53c 6b74 163d b41a 603c 3e68 2f3b
00000350: feff 6a3c 1dc2 e5bb ad6c c8bc f4f0 cabc
00000360: 8cf7 813c 6b66 353d 0752 403d 419c c93c
00000370: 4e12 12bc 9951 0b3d 7e0e 4d3c 7872 b43b
00000380: 507a d7bb d7dc f3bb 757e c73b 6b31 0ebd
00000390: 2651 14bc 5500 c83c 1171 e23b 93d7 a3bc
000003a0: ef2d b1bc 84f1 2b3c e834 cc3b df90 02bd
000003b0: 9adc e3bc fb5b 403c 49fb f33a e1fd 013c
000003c0: 2a56 b7bc 1df1 9eba 3455 90bc b096 12bd
000003d0: 3028 8dba 3254 d53c 83d3 90bb 5aec 5c3d
000003e0: 29fe f6ba c004 f33c ad8d 853a b507 c33b
000003f0: 22a9 103a c5df b03b 8101 d63b ba6e fabc
-0.010167473 -0.005668812 -0.0074132103 -0.00030306203 0.011744391 0.015726812 0.006536719 -0.010922766
-0.0068299337 0.013561 0.007920897 0.010714376 0.009598085 0.00642772 -0.0033060224 0.00044825595
0.0028830518 -0.0018227261 -0.0104588 -0.0033111821 -0.001524622 -0.003737072 0.0054384028 -0.009927656
-0.002727462 -0.0014193665 -0.003081764 -0.013291922 -0.012463977 0.0013050498 -0.0011045174 -0.0052863043
0.0019090378 0.0114911385 0.0041400054 0.016415717 0.003753436 -0.000251508 0.0047098477 -0.00076578965
-0.0057563893 0.00016963526 0.002529751 0.004274827 0.0020169597 0.013542415 0.0094259605 0.0095562795
0.0012174847 0.0011209828 -0.00510522 0.0010505893 -0.004969338 -0.0036078044 -0.00088777865 -0.0017295686
-0.01096948 -0.008201065 -0.008987127 -0.005993189 0.00025022248 0.0073117972 0.023117566 0.021399835
0.020301007 0.021640705 0.004940282 -0.009829688 -0.012827253 -0.0019218097 0.0064344155 -0.018069822
0.005050108 0.015224905 0.0129387425 0.0031579067 0.0137578575 0.003929239 -0.0032468094 0.0023688804
0.0027206826 0.00028315917 -0.0017566468 -0.003961376 -0.012851831 0.0021610379 -0.0061447374 -0.004283677
0.011904724 0.00842726 -0.0012951511 0.007403834 0.030070435 0.002320899 0.020646747 0.022858053
0.006234118 0.0069304975 0.017972153 0.015650244 0.0133377835 0.011178356 0.0073658493 0.00044141975
0.015969407 0.024864532 0.017086536 0.0025967667 0.011381272 0.0059458 -0.004878851 -0.00881295
-0.0057989596 -0.0048692776 0.002359465 0.004168516 -0.0055066086 -0.007825561 0.0041084136 0.016818266
0.004019987 -0.00024403004 -0.0011739912 0.008033363 0.005572845 0.008429206 0.00527631 0.0238771
0.015913123 0.016842542 0.013805288 0.012729501 0.013155893 0.0040207845 0.024431726 0.0014740424
-0.0013082054 -0.005287041 -0.009716889 -0.013073736 -0.050229646 -0.024727624 -0.0112529965 -0.020356832
-0.026639618 0.0065260753 0.013306369 0.013849437 0.017212853 -0.02002941 -0.0058619287 0.019564144
-0.01435449 -0.038002342 -0.02420409 0.019448526 0.007602584 -0.025100952 0.010777794 0.0196267
0.0014841234 -0.015387637 0.01069074 0.016423786 -0.0016463355 -0.021405356 -0.02450916 -0.00030978452
0.05572303 0.013785988 -0.010045284 -0.03341584 -0.009369666 0.014422144 0.025474109 -0.013075836
-0.011269835 -0.04277164 -0.008273605 -0.023724373 -0.015260614 -0.025279112 -0.06320608 -0.011338668
0.00088420237 0.0126150455 0.004194864 0.011035239 0.04500616 0.0458608 0.01883179 0.010278288
0.027656123 0.041145004 0.007102114 -0.0008226509 -0.0068819355 0.012096962 -0.027102105 -0.029271526
-0.010756323 0.014948249 0.03024198 -0.015489489 -0.030858837 -0.029225405 -0.015311309 -0.05185555
0.022130879 0.03673212 0.0136782415 0.0026765014 0.01434326 -0.0070116655 -0.024465883 -0.024773099
0.01586511 0.044287127 0.046953227 0.02461064 -0.008915497 0.034013364 0.012515662 0.00550681
-0.00657586 -0.0074420976 0.006088073 -0.034715097 -0.00905255 0.02441422 0.006910451 -0.020000255
-0.021628348 0.0104945935 0.006231893 -0.03187644 -0.027815152 0.01174068 0.0018614318 0.007934065
-0.022379953 -0.0012126301 -0.017618753 -0.035788238 -0.0010769423 0.026041124 -0.0044197454 0.05393634
-0.0018844056 0.02966535 0.0010189317 0.0059518465 0.0005518367 0.005397769 0.006530941 -0.030570377
