models/new/ConvNet_11.pth (torch, 127524 bytes, 7 tensors)

conv_1.weight f4 [8, 1, 3, 3]
000000 da 54 91 3e 09 6c 9c 3e 77 ab 46 bd 37 bf ab 3e
       0.2838505 0.30551174 -0.048503365 0.33544323
000010 79 4e 2f bd 37 80 c6 3d 80 d8 07 be 48 49 66 3e
       -0.042799447 0.09692424 -0.13266182 0.22488892
000020 52 d7 a4 3e be 68 30 be 47 9e b8 3e 63 38 09 3e
       0.32195526 -0.17227456 0.36058256 0.13400416
000030 5c 13 a2 3e 51 d0 eb 3d 6b 52 6d 3e 52 21 c2 3c
       0.31655395 0.115143426 0.23175971 0.023697529
000040 ed ab a7 3e 62 08 f9 3d 18 59 1f be b4 02 ae 3d
       0.32748356 0.12159802 -0.1556133 0.08496609
000050 c8 43 1d be d8 1d 20 bd a8 a2 0a be 3e 6e 62 3e
       -0.15357888 -0.03909096 -0.13538611 0.22112367
000060 1c b8 86 be b3 5b 1d be 90 c4 c0 bd 1b 3c 4d be
       -0.2631234 -0.15367012 -0.09412491 -0.2004246
000070 a5 dc 00 3d 45 90 a8 be df 23 9a 3e f3 f9 90 be
       0.031460423 -0.3292257 0.30105492 -0.28315696
000080 f0 c1 83 3e 48 4a 63 3d b4 a4 dd bd 75 ef 52 3e
       0.257339 0.055490762 -0.1082243 0.20599158
000090 28 65 ef 3d 96 60 aa 3e c6 b7 d0 3d bf 25 27 bd
       0.11689216 0.33276814 0.10191302 -0.04080748
0000a0 4a a0 1b 3e d6 d4 d2 bc 4f c1 4f 3e e1 8b b7 3e
       0.15197864 -0.025736254 0.20288585 0.35848907
0000b0 97 e5 82 3e 51 d0 20 be d9 df 3a 3e 19 c8 48 3d
       0.25565788 -0.15704466 0.18249454 0.049018953
0000c0 ab 64 20 3e d7 dc 5e be 61 3c b0 be 87 46 13 be
       0.15663402 -0.21763931 -0.34421065 -0.14382373
0000d0 e7 bb 8a be 50 a3 85 3e 17 af c3 3d f5 d0 0c 3e
       -0.27096483 0.2610116 0.0955488 0.13751586
0000e0 6c 17 d5 3d 79 87 cf bb 4e 0b 85 3e 79 be 74 be
       0.10404858 -0.0063332883 0.25985187 -0.23900785
0000f0 26 bc a2 3c 29 e8 6a be a1 db cc 3d 19 b5 01 be
       0.019865107 -0.22940125 0.100028284 -0.1266674
000100 0a 32 ba 3d 8d fd a2 bd aa 00 88 3e 34 f6 54 be
       0.090915754 -0.07958517 0.26563007 -0.20797044
000110 4f 52 55 be e4 bc 55 be f0 36 95 3e 62 71 d3 3d
       -0.2083218 -0.20872837 0.29143476 0.103243604

conv_1.bias f4 [8]
000000 17 3d 8a 3e 98 95 26 be bb 47 a9 be 99 82 85 be
       0.26999733 -0.16268003 -0.33062539 -0.260762
000010 9c 2c 20 be 29 64 4e 3e 1c b7 cd 3d d1 23 91 3e
       -0.15642017 0.20155396 0.10044691 0.28347638

conv_2.weight f4 [16, 8, 3, 3]
000000 fe 34 7a bd 25 05 a5 bd 65 81 7f 3d 18 20 43 bd
       -0.061085694 -0.08057622 0.06237926 -0.04763803
000010 87 7b 92 3d 19 c7 e4 bc e5 82 8a 3d d8 2b bb bd
       0.07152467 -0.027926968 0.067632474 -0.09139222
000020 34 da 72 bd 5a db 0d 3d 0f 44 c2 3c 68 e4 fe bc
       -0.059290126 0.034633018 0.023714093 -0.031114772
000030 ca 72 8d 3d 65 f5 a1 3d 4c da b0 bd d2 f5 82 bd
       0.0690666 0.079081334 -0.08635387 -0.06394543
000040 bc 1d db 3d 89 43 26 bd ac 21 2b bd ac 89 e9 bd
       0.10699031 -0.04059175 -0.04178016 -0.11403212
000050 1c 38 8a bd 6c 2b f1 3c b0 dc 7e bc ff 32 af bd
       -0.06748983 0.02943965 -0.015555546 -0.085546486
000060 e0 2a 35 3b 32 de a4 bd ad c4 cc bd 51 e8 84 bd
       0.0027643964 -0.08050193 -0.099984504 -0.06489623
000070 82 3d d3 bd b2 ae 99 bd 07 45 f1 3d 5b 5c b6 3c
       -0.10314466 -0.075040236 0.11780744 0.022260835
000080 68 c3 14 3d 71 1c e1 bd a3 84 9e bd 26 ac 20 bd
       0.036319166 -0.10991753 -0.07740142 -0.039226674
000090 80 eb 96 3c 91 60 d4 bd d6 f8 4f bd cb 83 90 bd
       0.018422842 -0.10369981 -0.050774418 -0.070563875
0000a0 9d 2f b7 39 62 83 33 bd f5 9f 04 bc ba 69 a3 bd
       0.00034939955 -0.04382647 -0.008094777 -0.0797915
0000b0 6a 90 a5 bd e8 74 8d bd 28 2a 27 bd 1a 90 bf bd
       -0.080841854 -0.06907064 -0.040811688 -0.09353657
0000c0 02 d0 c9 3d 57 9d c3 bc d8 9a ce 3d aa 06 15 3d
       0.098541275 -0.023878736 0.10088128 0.03638331
0000d0 d1 59 cd bd 5b 12 a6 3d 90 aa 07 bd 91 f8 3b bd
       -0.10026897 0.0810897 -0.033121645 -0.04589135
0000e0 9b c2 c9 bd e8 40 f1 bd 2c 7e 07 3d 06 db d7 bc
       -0.09851571 -0.11779958 0.03307931 -0.026349556
0000f0 70 e0 39 3d 8f 14 c7 bd 1f 36 b2 3d e9 8a b3 bd
       0.045380056 -0.09720718 0.08701729 -0.087667294
000100 b6 c6 b1 bc b6 a3 be 3c b9 c9 74 3d dd 45 c0 3d
       -0.021701198 0.023271423 0.05976269 0.09388325
000110 b4 3a d9 3d b5 5c c1 bd 1b 57 e9 3c a2 7c 54 bd
       0.106069 -0.094415106 0.028483918 -0.05187667
000120 b9 b1 aa 3a 50 e9 90 bd 96 06 01 3e 45 18 8e bd
       0.0013022936 -0.07075751 0.12600169 -0.06938223
000130 2d bc a9 3d c6 a9 80 3d d2 ed 61 3d 66 37 2f bd
       0.08287845 0.06282382 0.055158444 -0.04277744
000140 ae cc 03 3e c3 41 30 3d 81 44 09 3d 73 38 af bd
       0.12871048 0.043031465 0.033512596 -0.08555689
000150 1c 5d 8c 3d 8a 07 38 3b a0 ce 0b bd 88 98 f5 3d
       0.06853697 0.0028080666 -0.0341326 0.11991984
000160 55 f7 3e 3d 37 cd 3a bd 8e 52 74 bd a0 6b b8 bb
       0.046622593 -0.045605864 -0.059649043 -0.0056280643
000170 fd c3 86 3d a0 b3 f6 bc a4 b6 89 bd ac 4d 25 bd
       0.065803505 -0.030114949 -0.06724289 -0.040357277
000180 36 50 b4 bd 2a 27 2c 3d 59 d2 ba 3d 14 35 e3 bd
       -0.088043615 0.042029537 0.09122152 -0.11094108
000190 45 4a e0 3c b2 67 79 3d 37 22 af 3c 46 e0 2b bd
       0.027379164 0.060889907 0.02137862 -0.04196193
0001a0 5f fb 7b 3d 34 af 7d 3d e8 7f 34 3d 26 a7 a9 bc
       0.061519023 0.061934665 0.044067293 -0.020709585
0001b0 41 ff 58 bc 13 6c 05 3d 8b 9f 9a b9 6a c2 7c bc
       -0.013244451 0.03257377 -0.00029492038 -0.015427211
0001c0 a1 8b c7 3d be f6 fc 3d 74 37 f7 3b f0 9e 93 bb
       0.09743429 0.1235175 0.0075444523 -0.004505031
0001d0 fe ba bf 3c 1f 57 80 bc 0a 58 9e 3c 6d 1a c2 3c
       0.023404595 -0.015666543 0.01932909 0.023694241
0001e0 78 3a ee bd 2d c1 5a bd ec 99 b6 3d cd 13 16 3d
       -0.11632246 -0.053406883 0.08916077 0.036639977
0001f0 04 c6 81 bc 72 27 a6 bd 89 af 8b bd 61 db ce bd
       -0.015841492 -0.08112992 -0.0682059 -0.10100437
000200 0b 65 09 bd 4b 8e 36 3d 45 12 a5 3d ac ad 76 3d
       -0.033543628 0.044569295 0.08060125 0.06022422
000210 31 88 ca bd 49 78 84 bd 5e 22 48 bc b8 df e2 3d
       -0.09889258 -0.06468255 -0.012215225 0.11077827
000220 a9 06 65 3c fa 8b 09 bd 96 a1 38 3d 1f af 46 bd
       0.013978639 -0.033580758 0.045075975 -0.048506852
000230 c6 76 a3 bd 7b ad a7 3d 34 95 6b bd 3f 1b e1 bc
       -0.079816386 0.08187386 -0.057515338 -0.027478812
000240 83 4f f1 bd 4f 81 a4 3d e7 a5 ba 3d 35 01 2d 3d
       -0.11782744 0.08032476 0.091136746 0.04223748
000250 95 5b a6 bd 07 db eb bd 54 19 c5 bd ba 58 b6 3d
       -0.08122937 -0.115163855 -0.096239716 0.08903642
000260 d3 c4 6c 3d 7d 4c cc 3d 8f 95 80 3d cb f9 ff 3c
       0.057804894 0.099755265 0.06278526 0.03124704
000270 a5 d0 80 ba 57 15 b6 bd ce e9 cc bd ae 62 e1 bd
       -0.0009827806 -0.08890789 -0.10005532 -0.1100515
000280 e2 ee 48 3d 54 20 69 bd ec 4b c2 bc 48 e7 8a bd
       0.04905594 -0.056915596 -0.023717843 -0.06782395
000290 e0 ec af bc 81 e0 a9 bd 34 b5 9d bd 72 1f 20 3d
       -0.021475255 -0.08294774 -0.077005774 0.03909249
0002a0 4e 76 0f bd 5d 00 95 3d 38 dc 1a bd b9 0d b1 bd
       -0.035024934 0.0727546 -0.037807673 -0.086451955
0002b0 24 57 aa bc 99 fe 69 bd 90 ae 13 bd ad c5 e5 bd
       -0.020793505 -0.05712757 -0.036055148 -0.11219344
0002c0 4c 09 87 3d cd 08 a8 bd 5c 9d 72 3d 9e 0c 5b 3d
       0.0659357 -0.082048036 0.0592321 0.05347883
0002d0 af 7f ae 3d 67 6c b5 bd 42 a3 b2 3d 13 77 61 bd
       0.085204475 -0.08858567 0.08722545 -0.0550452
0002e0 ca 6a 39 3d 5a c3 e6 3d 4e 8a 82 bc 7b ca 35 3a
       0.045267858 0.11267729 -0.01593509 0.0006934774
0002f0 40 6b ce bc 77 c7 ca bd a3 16 65 3d 75 67 f1 bd
       -0.025197625 -0.09901326 0.05592979 -0.11787311
000300 f6 ca 94 3d 65 4e b3 3d 33 e5 e2 3d a7 1b e9 bc
       0.07265274 0.08755187 0.110788725 -0.028455568
000310 04 be c7 bd db 73 d2 3c 61 b8 85 3d c4 15 ef bd
       -0.097530395 0.02569001 0.06529308 -0.11674073
000320 e2 83 d5 bc b9 90 90 bd bb f2 22 bc bc 73 6b bd
       -0.026063863 -0.07058854 -0.009945567 -0.05748342
000330 7b 95 45 bd 7e 18 18 bd 9d b7 e4 bd 34 ad c5 3d
       -0.04823826 -0.037132733 -0.11167834 0.096521765
000340 91 a8 ca 3d 4a 45 96 bc fc f3 5e bc 66 91 44 bd
       0.09895433 -0.018343586 -0.013607975 -0.047990225
000350 64 c1 d9 bd a5 12 eb bd c9 6d 34 3d 4a 16 84 bd
       -0.106325895 -0.114781655 0.04405001 -0.06449564
000360 c5 29 9b bd 41 a6 16 bc 45 bf 20 bd d5 2a 1c bd
       -0.07576326 -0.009194911 -0.03924491 -0.038126785
000370 06 2f 78 3b 3c c8 cc bc a2 34 26 bd 18 21 67 bd
       0.0037869825 -0.024997823 -0.04057754 -0.056428045
000380 2b 6d c4 bd ec 0e c3 3d 0b 50 4f bd 57 28 e3 3c
       -0.09591135 0.095243305 -0.050613444 0.027729196
000390 12 a3 35 bd a1 73 cb 3b 89 ee d9 3d 67 09 51 3d
       -0.04434497 0.0062088524 0.106412 0.051034357
0003a0 e6 9a d7 bd 32 33 32 3d c1 1b e5 3d 84 fd fd 3c
       -0.105275914 0.043505855 0.11186934 0.031004675
0003b0 29 d0 a1 3d f3 f3 ed 3d d0 ee 93 bc 74 61 c8 3c
       0.079010315 0.11618795 -0.01805821 0.024460532
0003c0 c8 c0 a7 bd 50 f4 c6 bc 25 bf b2 3d 2e 76 77 3d
       -0.08191067 -0.02428642 0.08727864 0.06041544
0003d0 08 bb 98 bd 85 8a c1 bd 92 ef a4 bd 21 31 ee bd
       -0.074575484 -0.09450249 -0.08053507 -0.11630464
0003e0 0d 3e ba bd 2f c0 ee bc da e2 a2 3d 94 98 a1 3c
       -0.090938665 -0.029144375 0.07953425 0.019726075
0003f0 e2 a7 b7 bd 41 a3 c1 bd 2d 20 70 3d 8e 9f b3 bd
       -0.08967568 -0.09454966 0.058624435 -0.08770667

conv_2.bias f4 [16]
000000 e2 97 e1 3c 46 79 d8 3c 8f 69 b5 3d c8 48 67 bd
       0.027538244 0.026425015 0.08858024 -0.056465894
000010 a0 f3 b7 bc 99 3d 53 3d a4 bb 42 3c 0d 64 2d 3e
       -0.022455037 0.051572416 0.011885557 0.16932698
000020 6a 3d 68 bd 56 94 fa bb e7 e0 ac 3c ed 24 3a bd
       -0.056699194 -0.0076470776 0.021103336 -0.04544537
000030 6f 1b a4 3d 09 94 c5 3d 36 0e b2 bd c6 f4 d5 bc
       0.08013045 0.09647376 -0.08694117 -0.026117694

conv_3.weight f4 [32, 16, 3, 3]
000000 2e ae 1a bd fb 2d 05 3c 8a 46 1e bc 54 3a a9 bd
       -0.037763767 0.008128638 -0.0096603725 -0.08263078
000010 06 4c 78 bc 66 59 02 bc 40 14 c9 bc ec dd 9c 3d
       -0.015154844 -0.007955885 -0.024545789 0.07659516
000020 93 bf 94 bc 7c c1 5e 3d 71 3f b0 3c 31 6a 8e bd
       -0.018157756 0.05438374 0.021514626 -0.06953848
000030 e9 b6 a7 3c f1 1d 8f 3d 56 27 5c bd 7a 64 59 bd
       0.02047296 0.06988133 -0.05374845 -0.053074338
000040 4a 8d a8 3d 08 93 8a 3d f0 4b 3e bd 01 7d 4d 3d
       0.08230074 0.06766325 -0.04645914 0.05016804
000050 9f 5a 2e bc eb 33 a8 bd 03 34 ce 3b 2d c5 dc 3c
       -0.010641723 -0.082130276 0.0062928214 0.02694949
000060 2b 66 cc bc c9 c4 ed 3c b2 e0 91 bd 94 94 6c 3d
       -0.024951061 0.029024499 -0.07122935 0.057758883
000070 d1 84 91 3d e8 43 3c 3d ad 8b 67 3c 71 eb e0 3c
       0.07105411 0.045963198 0.014132422 0.027456017
000080 54 f0 76 bd fc 83 aa bc 5e 37 02 bc 77 ea 3d bd
       -0.06028779 -0.020814888 -0.007947771 -0.04636618
000090 17 ce 7b bd 30 df 65 3d 60 f0 67 3d db d7 9a bd
       -0.06147584 0.05612105 0.056625724 -0.075607024
0000a0 d7 c0 d9 3c 56 24 0b 3d 4d 3e a2 3d b0 c0 45 3d
       0.026581211 0.0339702 0.07922039 0.048279464
0000b0 0a 07 9d 3d e2 8c df bc dd ef 6e 3d 58 be 8a 3d
       0.07667358 -0.027288858 0.05833422 0.067745864
0000c0 36 42 a1 bd b3 2a 89 bd 15 82 89 3c 79 24 3a 3d
       -0.07873957 -0.06697597 0.01678566 0.04544494
0000d0 d1 d4 29 bd a0 4e 15 3c e2 27 54 b7 91 b7 ad 3c
       -0.041462723 0.009112984 -1.2645471e-05 0.021205695
0000e0 46 f2 36 bd f1 f6 40 3d e7 6b 63 3d f9 62 6c bd
       -0.044664644 0.0471105 0.055522826 -0.057711575
0000f0 82 57 70 3a 32 f3 b0 39 a9 fd db 3c d1 c8 9e 3d
       0.0009168313 0.0003375053 0.026854353 0.077531464
000100 fe 21 c7 3c 40 3a 9c bc 49 00 99 3d 2c 88 02 bd
       0.0243082 -0.019070745 0.074707575 -0.031868145
000110 fa b3 c7 bc 97 be b6 3b 5d 23 82 bd fe 59 12 3c
       -0.024377812 0.0055769193 -0.06354401 0.008932589
000120 f7 1f 66 bd e2 14 13 3c 82 5c 07 3c c0 54 45 3c
       -0.056182828 0.008977147 0.008261802 0.012044132
000130 b8 db 8e bd 11 32 a1 bd 12 e2 1e 3d 47 30 93 3d
       -0.06975502 -0.078708775 0.038789816 0.071869425
000140 bf c9 96 bd 31 00 fd 3c 15 2b 7b bd bf 14 ac 3b
       -0.07362699 0.03088388 -0.061320383 0.0052514966
000150 c1 d8 9e 3d b8 85 81 3d 63 7b 79 bd 34 3d 53 3d
       0.07756186 0.06324333 -0.060908686 0.05157204
000160 ac 4e 32 3d 5a 37 de b8 25 62 a5 3d f3 80 07 bd
       0.04353206 -0.00010596095 0.0807536 -0.03308196
000170 b2 cc 9e bc ef 72 2c bd af 41 44 3c 22 8d b4 3c
       -0.019384716 -0.042101797 0.011978551 0.022039954
000180 1e 3d d9 3b 27 0c 40 bd 6a b0 19 bd 59 d8 ef 3c
       0.0066296 -0.04688659 -0.037521757 0.029277967
000190 f5 c5 93 bd 63 da 47 bc c7 93 3d ba 14 79 06 bd
       -0.07215492 -0.012198064 -0.00072317984 -0.032830313
0001a0 eb d5 fe 3c 6c fe cf 3b 55 9d 72 3d 08 4d dd bb
       0.031107863 0.006347468 0.059232075 -0.0067535676
0001b0 48 6d 57 bd 1c 26 71 3d 92 af 3e 3c 2d 89 c3 bc
       -0.052594453 0.058874235 0.011638539 -0.023869121
0001c0 34 fd 60 bd fd 04 a0 3c 71 c5 a2 bd 1a cf b3 3c
       -0.054928973 0.019533629 -0.07947815 0.02194934
0001d0 15 c7 28 3d d7 e0 95 bd 70 ec 5f bd f4 f7 75 bd
       0.041205484 -0.073182754 -0.054668844 -0.06005092
0001e0 da 40 8f 3d 32 e3 90 3d 35 2a a7 3b 0d 26 a0 3d
       0.06994791 0.07074584 0.005101467 0.078197576
0001f0 8d 8a e4 bc 00 ca a5 bd 83 3d f9 3c 81 af fc 3c
       -0.027898097 -0.08095169 0.030424839 0.030845406
000200 49 f1 a9 3d f9 a4 b7 3a a4 87 85 3d 30 69 56 3d
       0.082979746 0.0014010958 0.06520012 0.05234641
000210 b3 75 7c 3d a2 e2 a6 bd c0 eb 8e 3d 0b 38 90 bd
       0.061635684 -0.081486955 0.069785595 -0.07041939
000220 b0 3f 9a 3d a6 64 3d bb 91 e1 95 bd b7 c8 c2 3c
       0.07531679 -0.0028899102 -0.07318414 0.023777349
000230 ed 43 86 bc ca 02 98 bd f6 c9 f2 bc f9 3e 16 3c
       -0.016389811 -0.07422407 -0.029637318 0.009170287
000240 c8 fb 84 3d 5d 9f d1 bc c5 d7 4a 3d 25 8d 2b 3c
       0.06493336 -0.025588686 0.04952218 0.010470663
000250 ba 0a 3a 3b 2d e0 82 3c c0 da 5f bd c0 cc 8d bd
       0.0028387741 0.015976036 -0.054651976 -0.069238186
000260 47 32 d6 bc 92 ae 9d bd 2d 4d 1b bd d2 84 a4 3b
       -0.026147021 -0.07699312 -0.037915397 0.005020716
000270 b4 4a 5e bd fc fd 09 bd e8 6c 62 bc e9 d2 13 bc
       -0.05427046 -0.033689484 -0.013819911 -0.009022453
000280 75 f1 38 bd 6a de a7 3b 67 2e 3e bc 9f 45 c4 3c
       -0.045152146 0.0051229494 -0.011607743 0.02395898
000290 bf 6a 7c 3b 7a fb 29 bd 8b b0 e9 bc af 5d 5a ba
       0.0038515774 -0.041499592 -0.028526565 -0.000833
0002a0 66 8c 54 bd 4b 1b db 3b e4 56 bc bb bd 84 04 3d
       -0.051891707 0.006686603 -0.005747663 0.03235315
0002b0 a3 c8 a1 3c 7c 95 7f 3d 42 b5 32 bb 08 12 7c bd
       0.019748991 0.06239842 -0.0027268683 -0.061540633
0002c0 9b bf 18 3d 6e 9d 66 bd 4f 1a 3b bc bc b1 dc bc
       0.037292104 -0.05630248 -0.011419847 -0.02694022
0002d0 31 2b 01 bd d8 63 fb bc a0 34 9d 3d 4b c1 43 3d
       -0.03153533 -0.030687258 0.07676053 0.04779176
0002e0 fc 8c be 3c 4c a6 a0 3d ae 72 9a bd 9d c2 5e 3c
       0.023260586 0.078442186 -0.07541405 0.013596204
0002f0 16 35 5b 3d 8f f6 63 3d bb 3a 87 bd e2 03 f5 3c
       0.053517424 0.05565506 -0.06602999 0.029909078
000300 d4 1f 41 bd 4d 2e 41 bb 80 e0 8c bc 11 d5 8d bd
       -0.047149494 -0.002947706 -0.017196894 -0.06925405
000310 0f 2c a2 bd e9 fc 5f bd 40 48 1b 3d 7e af 1c 3d
       -0.0791856 -0.054684553 0.0379107 0.0382533
000320 d9 26 94 bd 32 9d ff bc 37 43 c3 3a 2a 42 93 bd
       -0.07233972 -0.031202886 0.0014897351 -0.07190354
000330 b6 ce 40 3d 22 dc 9a 3d 5b 0f 74 3c ef 56 7c bd
       0.047072135 0.07561518 0.014896239 -0.061606344
000340 c3 d7 a0 3c 42 05 f8 3c 16 c9 87 3d 04 c0 34 bd
       0.019634133 0.030275945 0.06630151 -0.044128433
000350 72 df 98 bd 50 68 17 3d fd f9 b1 3b b6 34 de bc
       -0.07464494 0.036964715 0.0054314123 -0.027124744
000360 b5 20 08 bd b3 01 24 bd 8d 5f 92 3d 78 f8 4f bc
       -0.033234317 -0.040040683 0.07147131 -0.012693517
000370 bd ff 80 3d 9e ab a0 3d c4 b1 47 3c a4 12 a9 3c
       0.06298778 0.078452334 0.012188379 0.020638771
000380 c0 75 d6 ba 4a b6 6a 3d 10 a0 99 bd 61 29 08 3d
       -0.0016361997 0.05730275 -0.075012326 0.033242587
000390 9c 70 5d bc 02 5b 1c 3d 99 00 69 b9 92 85 fc bc
       -0.013515618 0.03817273 -0.00022220834 -0.03082541
0003a0 ef 19 11 bc da 0f 39 3d ae 4a 6c bd 43 ef 56 bd
       -0.008856281 0.045181133 -0.057688408 -0.05247427
0003b0 b5 92 97 bc 5b f4 f5 bc 3c 24 07 3d 67 53 66 3d
       -0.018502573 -0.030023744 0.03299354 0.056231882
0003c0 10 bf 0e bc 18 e4 a1 3d c6 01 0e bd 53 4f 3e bd
       -0.008712545 0.079048336 -0.03466966 -0.04646237
0003d0 33 7c 15 bd 81 17 65 bd 44 88 6d bd e0 82 96 bd
       -0.0364954 -0.05593062 -0.05799128 -0.07349181
0003e0 08 2c 94 bd 1e 0c b7 3c 51 61 54 3d 28 cf a3 3d
       -0.07234961 0.022344645 0.05185062 0.07998496
0003f0 a3 5f 91 3d af d6 9c bb 52 7f 84 3c 26 33 4c bd
       0.070983194 -0.0047863345 0.016173992 -0.049853466

conv_3.bias f4 [32]
000000 54 8f 88 bd 81 f8 44 bd 46 e8 57 3d 28 21 83 3d
       -0.06667963 -0.048088554 0.052711748 0.064028084
000010 c7 c3 30 bd 9a f4 c4 bc d0 8e 40 bd 4e 57 02 bc
       -0.043155458 -0.024042416 -0.047011197 -0.007955385
000020 8c 41 77 bd 80 0a 85 bd 89 15 e5 3c 3b 65 e3 3d
       -0.060365245 -0.06496143 0.02796437 0.111032926
000030 03 bc e3 3b 74 24 95 bc d6 6a 8e 3d 73 0a 9a 3d
       0.006949903 -0.018205859 0.06953971 0.07521524
000040 96 78 6c 3d 7c bc 81 3c 5e f9 46 bc 13 eb 67 3d
       0.057732187 0.015836947 -0.012144415 0.05662067
000050 86 28 a5 3d 8d e0 c1 3d ac b8 ba 3d c6 12 15 bc
       0.0806437 0.09466658 0.091172546 -0.009098714
000060 f6 c0 86 3d c9 a0 ae 3c 8e ce b0 3d 7a 1a 9e 3d
       0.06579773 0.021316903 0.08633147 0.07719894
000070 36 b7 a8 3d 13 a8 96 3d e0 92 c0 3d 7a a6 11 bd
       0.0823807 0.07356276 0.09403014 -0.035559155

linear_1.weight f4 [1, 25088]
000000 a5 aa 2e bb bd e8 d8 ba 6b 4c 5d bb cb 15 92 3b
       -0.0026652005 -0.0016548854 -0.0033767472 0.0044581643
000010 dd ae 12 3a 12 52 7d ba 63 df 1c bb 8b da b2 bb
       0.00055955147 -0.00096634135 -0.002393686 -0.0054581813
000020 90 49 2b 3a 5e 48 c5 3b b1 03 9e 3b ee 09 c0 3b
       0.0006534094 0.0060205897 0.0048222174 0.0058605587
000030 9c 60 a5 3b bc 1d 5b 3b 04 a1 11 3a 21 c8 7f bb
       0.005046917 0.003343447 0.0005555304 -0.0039029198
000040 94 5e b6 3b e4 6e 6b bb 52 57 5d bb 16 dd 24 3b
       0.005565474 -0.003592425 -0.003377397 0.0025156192
000050 16 92 4c 3b db 06 67 bb f3 7e 82 3b 7f 6a c6 bb
       0.0031215004 -0.003525189 0.0039824187 -0.006055176
000060 7e 98 a5 3a da 20 29 3b 9e c9 81 3a ea f0 7c bb
       0.0012633947 0.0025806935 0.0009902006 -0.0038595744
000070 19 f2 90 bb 4a c1 a0 3b 0f 39 ad 3a fe 30 35 bb
       -0.0044233915 0.0049058544 0.0013215857 -0.002764761
000080 fd ad c6 3b e2 e1 75 ba d2 cc c4 b9 13 b5 28 3b
       0.0060632215 -0.00093796675 -0.00037536636 0.0025742694
000090 91 2c c6 3b f3 7a 0c bb d6 56 30 3a d3 9d 15 bb
       0.006047793 -0.0021435588 0.0006726807 -0.0022829666
0000a0 5e a5 1d bb 44 6f 80 b9 9b 4a e9 39 d1 74 72 3b
       -0.0024054865 -0.00024496962 0.0004449681 0.0036995898
0000b0 c2 07 8a bb 00 7a 8a 3b 81 f0 b4 3b 2f db 85 b9
       -0.0042123506 0.0042259693 0.0055218344 -0.0002553104
0000c0 7a 19 c8 b9 ba b8 b4 3a bb fb c6 bb 42 e2 94 3b
       -0.00038165954 0.0013787963 -0.006072489 0.0045435736
0000d0 ca cf a1 ba d7 f2 f3 38 e8 64 3b 3b 3c 6b 1f 3b
       -0.0012345251 0.000116323754 0.002859408 0.0024325391
0000e0 57 76 49 bb a3 60 9c bb f6 12 c9 bb 38 78 ac bb
       -0.0030740702 -0.004772262 -0.0061362935 -0.0052633546
0000f0 ee 46 97 ba 38 98 8a bb ca 48 13 3a 00 bb 01 bb
       -0.0011541524 -0.0042295717 0.00056184514 -0.0019795299
000100 40 89 95 3b a1 75 a7 3b 12 a9 c9 3b a2 26 5e bb
       0.0045634806 0.005110458 0.006154188 -0.0033897539
000110 2b 30 75 bb e5 7d 34 3b a7 fd 09 ba 4b 79 b5 3b
       -0.0037412744 0.002754086 -0.00052639324 0.005538141
000120 30 25 af bb c9 9a d3 3b 1c c3 71 bb c1 5e 94 bb
       -0.0053450093 0.006457661 -0.0036889976 -0.004527897
000130 20 ed ba b8 31 c0 11 bb 7c 1c 6e bb e6 22 6e 3b
       -8.913339e-05 -0.00222398 -0.0036332896 0.003633672
000140 db f2 a2 3b 22 a5 69 3b e3 e6 62 3a a8 a1 78 ba
       0.0049727983 0.0035651405 0.00086556206 -0.0009484538
000150 59 9b 6b bb 61 dc c1 3b 29 af 61 bb 42 a1 b1 bb
       -0.0035950749 0.005916164 -0.003443668 -0.0054208348
000160 0d 19 c3 3b 61 2c b4 39 79 98 a8 3b a8 1d 94 ba
       0.005953914 0.0003436534 0.0051451293 -0.0011300342
000170 23 c8 c1 3b b4 76 58 bb 26 e9 a6 3b 61 81 c4 3b
       0.0059137507 -0.0033029737 0.0050937114 0.0059968685
000180 a8 59 48 3a aa 43 b0 3b a9 89 b1 3a bf 0f 91 bb
       0.00076427544 0.00537916 0.0013545054 -0.004426926
000190 1f be 89 3b 81 9d 89 bb 3e 59 4b 3a 67 3c a4 bb
       0.0042035724 -0.004199684 0.00077571336 -0.0050120833
0001a0 a5 ad 21 bb 9e 10 a1 ba 54 57 e8 ba 90 dc b7 bb
       -0.002467015 -0.0012288278 -0.0017726221 -0.00561101
0001b0 46 cb 3d bb 88 af bb bb d8 05 b0 bb 6e 0b e9 bb
       -0.0028960272 -0.005727712 -0.0053717904 -0.007111958
0001c0 65 7e 75 bb 1d de d5 ba f3 d4 b7 3b ab e1 81 bb
       -0.003745937 -0.0016316805 0.0056101023 -0.0039636693
0001d0 a0 06 88 bb 65 61 8f bb 7a 28 db 3b 40 c1 04 39
       -0.0041511804 -0.004375624 0.006688175 0.00012660492
0001e0 af 6a 14 ba 11 d5 8c 3b cd 9b 56 bb e8 25 bc ba
       -0.0005661649 0.0042978604 -0.0032746673 -0.0014354559
0001f0 28 d1 c9 3b 75 ec 77 3b a7 ab 93 bb 90 13 d6 ba
       0.0061589666 0.0037830148 -0.0045065465 -0.0016332734
000200 34 62 14 3a 8e 83 2f 3b 9c 32 14 bb 52 95 9c 3b
       0.00056603854 0.0026781294 -0.0022613173 0.0047785426
000210 3f 83 1a 3a f8 b7 9b bb 6b 0f 26 3b 0d c7 ad bb
       0.0005894191 -0.0047521554 0.002533878 -0.0053032697
000220 3f ca 9f 3a 1d 6f cc bb 1f f1 f3 ba 99 b6 b4 ba
       0.0012191011 -0.0062388317 -0.0018611288 -0.0013787328
000230 74 a8 ae bb 39 46 c7 ba 2a d9 3b 3a 6c 15 46 bb
       -0.00533014 -0.0015203423 0.0007165844 -0.003022517
000240 ce a2 de 3a 8c 0e 8b 3b 4a b9 cf 3a ec 6d a4 bb
       0.0016985775 0.0042436775 0.0015848067 -0.0050179865
000250 57 ff 83 3a ed 5b 17 bb e8 ea 20 3b 18 61 8b bb
       0.0010070604 -0.0023095564 0.0024554078 -0.004253518
000260 7d 71 6c bb f1 50 1e 3a c4 b7 8a 3b 50 54 80 ba
       -0.0036078386 0.0006039283 0.0042333324 -0.0009790752
000270 d4 1b 8c 39 c2 24 95 ba e4 61 a2 bb 5f b8 06 3a
       0.00026723614 -0.0011378753 -0.004955517 0.0005139168
000280 3b 5c 4e 3a 9f 83 dd 3a f3 d7 67 3b 15 bd 31 3b
       0.000787202 0.0016900188 0.0035376518 0.0027120758
000290 df 5c 91 3b 26 2d 2a ba 50 63 17 bb 6f b8 bd 3b
       0.00443612 -0.0006491713 -0.0023099966 0.0057898085
0002a0 49 d1 ad 3b e8 b8 81 3b b4 78 ad 3b 8a 7d 74 3b
       0.0053044898 0.00395881 0.00529393 0.0037306272
0002b0 f1 90 cb 3b a3 fa c7 3b 26 36 85 bb 86 15 93 bb
       0.0062123467 0.0061028763 -0.004065293 -0.00448865
0002c0 bd 4c fd ba 8f 05 bc 3b 5a f5 c6 3b aa 71 77 3a
       -0.0019325238 0.0057379673 0.0060717287 0.00094392395
0002d0 1b 8f 81 bb 4d c2 22 bb 25 f6 69 3b 18 92 e6 3b
       -0.003953827 -0.002483505 0.0035699692 0.0070364587
0002e0 a0 74 04 3b 53 75 8c bb 16 e1 94 3b 46 1e a5 3b
       0.0020211115 -0.004286447 0.004543434 0.0050390093
0002f0 21 1c 8f ba 27 23 01 bb 71 01 91 3b 64 33 81 bb
       -0.0010918417 -0.001970479 0.0044252207 -0.003942894
000300 d9 7c ce 3b ec 82 3f b9 c3 4e a7 39 58 80 55 bb
       0.006301504 -0.00018263952 0.00031911404 -0.003257772
000310 a5 94 c6 bb 5f bf 08 3b 71 b4 d6 ba 7c 6b 4e bb
       -0.0060602003 0.002086602 -0.001638068 -0.003149717
000320 ca 71 b5 3b 7c f2 e9 3a a0 ba 34 ba ae 27 ad bb
       0.0055372464 0.0017848755 -0.00068942644 -0.005284271
000330 b4 53 50 bb e7 11 e5 ba 3a 88 20 3b 23 04 b6 bb
       -0.0031788172 -0.0017476649 0.002449526 -0.0055546924
000340 0f f9 96 3b 35 7c e2 3b de df 44 3b 6a 62 ac bb
       0.004607327 0.0069117793 0.0030040662 -0.0052607553
000350 ce 27 df 3a b5 99 ff ba c7 5c fb 3a 89 f9 86 ba
       0.0017025413 -0.0019500764 0.001917743 -0.0010297756
000360 e0 67 42 3b c3 3f 81 3a 95 e1 26 3b 12 8e 63 3b
       0.0029663965 0.0009860921 0.0025464047 0.0034722132
000370 7d ba 6c bb 20 7c 01 3b 3b 97 cb 3b ce d9 92 3b
       -0.0036121898 0.0019757822 0.0062130964 0.0044815307
000380 db c4 4c 3a f9 64 de b9 01 b5 4f 3b 42 79 9f bb
       0.0007811316 -0.0004241837 0.003169358 -0.00486675
000390 61 6a a9 ba 03 a3 c8 3b e2 e7 66 3a 9c 14 bb b9
       -0.001292538 0.006122948 0.0008808357 -0.00035682775
0003a0 22 90 a1 bb a0 a8 82 bb 12 9f 86 3a 1e f9 8f bb
       -0.004930512 -0.003987387 0.0010270795 -0.0043937108
0003b0 26 7a 65 b9 e5 f5 dd ba 6b 73 5d 3b 48 95 24 3b
       -0.00021884646 -0.0016934244 0.0033790718 0.0025113393
0003c0 4e 5f a2 bb f6 a4 44 3b 91 f6 55 39 b3 68 32 bb
       -0.004955209 0.003000555 0.00020405116 -0.002722305
0003d0 d7 5e 9a 3b d4 b4 83 bb 19 79 ad bb 0c 8f 05 3b
       0.004711013 -0.004019359 -0.005293977 0.0020379452
0003e0 46 78 16 bb 86 78 02 bb 3e e1 a1 bb 97 1f bd ba
       -0.0022959872 -0.0019908263 -0.004940181 -0.001442897
0003f0 e8 6a bd 3b 8b 03 a3 bb 9f 95 6c bb de cc 45 ba
       0.0057805665 -0.0049747876 -0.0036099923 -0.0007545481
