models/new/ConvNet_1.pth (torch, 127512 bytes, 7 tensors)

conv_1.weight f4 [8, 1, 3, 3]
00000000: 920d 843e 6a25 8f3e f38a 9abd 3749 9e3e
00000010: b57b 8fbd f96b 8f3d d28b 23be 6955 4b3e
00000020: 1fd7 973e 4e6f 70be 9472 993e 743b 943d
00000030: 052c 833e 2afa 613d 87df 2e3e b992 18bd
00000040: 22b1 883e e4ea 723d 1859 1fbe b402 ae3d
00000050: c843 1dbe d81d 20bd a8a2 0abe 3e6e 623e
00000060: 1cb8 86be b35b 1dbe 90c4 c0bd 043c 4dbe
00000070: 43dd 003d 5c90 a8be bb20 9a3e 1afb 90be
00000080: 26c1 833e c830 633d fcae ddbd 72eb 523e
00000090: b70d 843d a65b 903e b1f3 483d 1ec4 bdbd
000000a0: 1a2a d13d 355b 9fbd 3f74 1c3e ced7 9e3e
000000b0: 8a3f 523e 30a0 14be 86d2 453e 2748 773d
000000c0: 27ba 2d3e 6dc5 4fbe 83bf a8be 52b0 03be
000000d0: 7dd2 82be 1b39 8c3e f9a9 c53d 32e5 0d3e
000000e0: 0d7d d83d addc afbb 9fc0 853e fc6c 72be
000000f0: 5b17 ae3c 89e2 68be 0377 d23d 1969 f2bd
00000100: 99c5 c93d ee80 95bd 33cd 8b3e 50e2 4dbe
00000110: af22 4fbe ccf3 4ebe c1db 973e cdce dc3d
0.25791603 0.27958232 -0.07546034 0.30915233 -0.07006017 0.07003016 -0.15971306 0.198568
0.29656312 -0.2347996 0.2997023 0.07237902 0.25619522 0.055170216 0.17077456 -0.0372493
0.26697642 0.05930604 -0.1556133 0.08496609 -0.15357888 -0.03909096 -0.13538611 0.22112367
-0.2631234 -0.15367012 -0.09412491 -0.20042425 0.03146101 -0.32922637 0.30103096 -0.28316575
0.25733298 0.055466443 -0.10824391 0.20597628 0.064479284 0.28194922 0.049060527 -0.09265922
0.10213108 -0.07781068 0.1527872 0.3102402 0.2053205 -0.14514232 0.1931859 0.060371544
0.16965543 -0.20290156 -0.32958612 -0.1286023 -0.25551215 0.27387318 0.0965156 0.13856962
0.105707265 -0.005366883 0.2612352 -0.23674387 0.021251371 -0.22742666 0.10276606 -0.11836452
0.09852142 -0.07299982 0.27304992 -0.20105863 -0.20228074 -0.20210189 0.29659846 0.107816316

conv_1.bias f4 [8]
00000000: 7a4a a33e da00 83be bb47 a9be e586 85be
00000010: 8155 4dbe efad 0a3e 05c4 ed3d 72b3 8d3e
0.3189276 -0.25586587 -0.33062539 -0.2607948 -0.20052148 0.13542913 0.116096534 0.27675968

conv_2.weight f4 [16, 8, 3, 3]
00000000: 2669 79bd 6b8e a4bd 4717 803d 2132 43bd
00000010: be7c 923d 2707 e5bc 5a37 8a3d 2868 bbbd
00000020: c269 73bd 1df2 123d 42b9 cb3c 1777 f6bc
00000030: b1c5 8f3d 2003 a43d 8315 afbd 96e8 80bd
00000040: 92f7 dc3d f7fb 22bd ac21 2bbd ac89 e9bd
00000050: 1c38 8abd 6c2b f13c b0dc 7ebc ff32 afbd
00000060: e02a 353b 32de a4bd adc4 ccbd 4ce8 84bd
00000070: 903d d3bd bdae 99bd f443 f13d fe58 b63c
00000080: 4dc1 143d 851c e1bd ae84 9ebd 90ac 20bd
00000090: eff5 963c c65f d4bd c0f5 4fbd 2c7e 90bd
000000a0: 38b2 ae39 288f 33bd 664c 05bc 4b83 a3bd
000000b0: 23a3 a5bd 19f6 8cbd 287c 25bd 19a4 bebd
000000c0: b63a ca3d 0b44 c0bc e980 cf3d 2706 163d
000000d0: 778a ccbd b8e3 a63d 9f38 05bd a96a 39bd
000000e0: 8283 c8bd 062b f0bd 9cbe 093d ac93 d3bc
000000f0: 89b9 3b3d 1825 c6bd 3221 b33d ab9b b1bd
00000100: 0a5e a8bc fc03 c83c e567 783d a579 c23d
00000110: 7b78 db3d 96ad bfbd 31bc f13c 964b 50bd
00000120: 3515 43bc 5998 b1bd 1c1e e03d dd4f aebd
00000130: fb48 853d 9ec1 343d b043 233d 00c2 7bbd
00000140: b051 e13d 2df4 d93c 9300 833c 5ee5 d2bd
00000150: 6945 4e3d e361 88bc 05f7 58bd d234 d13d
00000160: d47f df3c 4d59 83bd 8e52 74bd a06b b8bb
00000170: fdc3 863d a0b3 f6bc a4b6 89bd ac4d 25bd
00000180: 3650 b4bd 2a27 2c3d 59d2 ba3d b838 e3bd
00000190: 483c e03c 835f 793d 7e13 af3c 04e8 2bbd
000001a0: 25f4 7b3d 1cad 7d3d b380 343d 7aa4 a9bc
000001b0: 17da f7bc 5bd6 613c f9c8 9fbc 501e 0bbd
000001c0: 6c2f 9d3d 1899 d23d a972 2bbc 46ca ccbc
000001d0: 773c 563b e6cd 03bc 30f6 de3c eb42 023d
000001e0: 27a8 ddbd 0c40 37bd 3e7f c83d fc1f 373d
000001f0: 1aaa e9bb 7370 94bd 3da3 93bd 361f d8bd
00000200: 277c 1cbd b17b 233d 7877 9a3d ea74 603d
00000210: 9cf3 d4bd 4e72 90bd 3170 94bc f3ea e73d
00000220: c080 853c 9df4 ffbc f706 443d 733c 3bbd
00000230: 0dcc 9dbd a747 ae3d 641b 5fbd 5980 c8bc
00000240: 4d52 f0bd 2009 a23d f72d b73d 0aa0 2f3d
00000250: 8a0a a8bd 7843 eebd e40c c4bd 425b b43d
00000260: 1cd4 673d 4162 cb3d 027f 7d3d 6e97 f53c
00000270: 2893 89ba 8c4a b7bd a989 cebd ef8e e1bd
00000280: ad0a 463d de90 6cbd ec4b c2bc 48e7 8abd
00000290: e0ec afbc 81e0 a9bd 34b5 9dbd 721f 203d
000002a0: 4e76 0fbd 5d00 953d 38dc 1abd 990d b1bd
000002b0: 8c58 aabc 0fff 69bd c1ae 13bd 09c6 e5bd
000002c0: b009 873d 2109 a8bd a19e 723d fd0c 5b3d
000002d0: 2ddc ac3d 9d9c b8bd 262a ae3d f374 63bd
000002e0: 9f04 343d 7025 e33d 3f9d 86bc 25bc 37ba
000002f0: 0d92 dcbc 04b9 c9bd 0269 673d 4ee3 efbd
00000300: 109e 953d 5261 b43d 5907 e43d ca9e e4bc
00000310: 8b71 c6bd 6737 d83c 1f5d 853d ef07 f0bd
00000320: 268e dabc b0b5 90bd 7d58 28bc 708c 6dbd
00000330: 7752 45bd 8309 19bd cb58 e5bd 2815 c63d
00000340: 4f98 ca3d 2613 97bc d96c 5bbc 4889 44bd
00000350: 3fe2 d9bd 08c8 eabd 5008 343d 1465 84bd
00000360: 0a2a 9bbd 20a7 16bc 24c0 20bd 5c2b 1cbd
00000370: 402a 783b f4c7 ccbc b634 26bd db20 67bd
00000380: b66c c4bd f1bf c93d ea6e 42bd 632e fd3c
00000390: f7b5 28bd 8f10 183c ad5e e03d 4939 5d3d
000003a0: 03bc d1bd 6e5d 3e3d c11b e53d 84fd fd3c
000003b0: 29d0 a13d f3f3 ed3d d0ee 93bc 7461 c83c
000003c0: c8c0 a7bd 50f4 c6bc 25bf b23d 8576 773d
000003d0: c6ba 98bd d88a c1bd 9fef a4bd 2a31 eebd
000003e0: f83d babd 1ac0 eebc 47e3 a23d c898 a13c
000003f0: ea96 b7bd c5a2 c1bd ad10 703d 788a b3bd
-0.060891293 -0.080349766 0.0625444 -0.04765523 0.07152699 -0.027957512 0.06748839 -0.091507256
-0.05942703 0.03587543 0.024868611 -0.030086083 0.070201285 0.080084085 -0.08549025 -0.06294362
0.10789408 -0.039791074 -0.04178016 -0.11403212 -0.06748983 0.02943965 -0.015555546 -0.085546486
0.0027643964 -0.08050193 -0.099984504 -0.064896196 -0.103144765 -0.07504032 0.11780539 0.022259232
0.03631716 -0.10991768 -0.077401504 -0.03922707 0.018427817 -0.1036983 -0.050771475 -0.070553154
0.0003332065 -0.043837696 -0.008135891 -0.079840265 -0.080877565 -0.06882877 -0.040401608 -0.09308643
0.098744795 -0.023469945 0.101320095 0.03662696 -0.099873476 0.08148903 -0.0325247 -0.045267735
-0.09790708 -0.11726956 0.033629045 -0.025827251 0.045831237 -0.09675044 0.08746566 -0.086722694
-0.020552654 0.024415962 0.060645957 0.09495858 0.10716339 -0.09359281 0.029508682 -0.050853334
-0.011906912 -0.08671636 0.10943243 -0.085113265 0.065080605 0.04412996 0.039859474 -0.06146431
0.11001909 0.02660569 0.015991485 -0.102976546 0.050359163 -0.016648239 -0.05296995 0.10215153
0.027282633 -0.06413517 -0.059649043 -0.0056280643 0.065803505 -0.030114949 -0.06724289 -0.040357277
-0.088043615 0.042029537 0.09122152 -0.110948026 0.027372494 0.060882103 0.0213716 -0.041969314
0.06151213 0.061932668 0.04406805 -0.020708311 -0.03025536 0.0137840165 -0.01950501 -0.033964455
0.07675061 0.102831066 -0.010464349 -0.024998795 0.0032689848 -0.0080446955 0.027217 0.0318021
-0.10823088 -0.044738814 0.097898945 0.044708237 -0.0071308734 -0.072480105 -0.072088696 -0.10552828
-0.03820434 0.039912883 0.07542318 0.054798998 -0.10398027 -0.07053052 -0.018119903 0.1132411
0.016296744 -0.03124457 0.047858205 -0.045711946 -0.07704935 0.0850976 -0.05446948 -0.024475263
-0.11734448 0.07911897 0.08944314 0.042877235 -0.08205135 -0.116339624 -0.09572771 0.088064685
0.056598768 0.0993085 0.061888702 0.029979434 -0.0010496126 -0.089497656 -0.1008485 -0.110135905
0.048350025 -0.057755344 -0.023717843 -0.06782395 -0.021475255 -0.08294774 -0.077005774 0.03909249
-0.035024934 0.0727546 -0.037807673 -0.08645172 -0.020794176 -0.05712801 -0.03605533 -0.11219413
0.065936446 -0.08204866 0.05923331 0.053479183 0.08440433 -0.090142466 0.08504133 -0.055531453
0.04394972 0.11091125 -0.016432403 -0.0007008932 -0.026925111 -0.09849742 0.056496628 -0.11713277
0.07305539 0.08807625 0.11134214 -0.027907748 -0.09689625 0.026393605 0.06511902 -0.11720263
-0.02667911 -0.07065904 -0.0102750035 -0.05799526 -0.048174348 -0.037362587 -0.111985765 0.09672004
0.09892332 -0.018441748 -0.0133926505 -0.047982484 -0.10638856 -0.11463934 0.04395324 -0.064645916
-0.07576378 -0.009195119 -0.03924574 -0.03812729 0.003786698 -0.024997689 -0.040577613 -0.056427818
-0.095910475 0.09851063 -0.047469057 0.030905908 -0.04118916 0.009281292 0.10955558 0.05400971
-0.102409385 0.04647582 0.11186934 0.031004675 0.079010315 0.11618795 -0.01805821 0.024460532
-0.08191067 -0.02428642 0.08727864 0.060415763 -0.07457499 -0.094503105 -0.080535166 -0.11630471
-0.09093851 -0.029144336 0.07953506 0.019726172 -0.089643314 -0.09454874 0.058609653 -0.08766645

conv_2.bias f4 [16]
00000000: 87a5 003d 09fc 103d 415c b73d dae9 52bd
00000010: c528 d5bc 23fc 043d c8b6 4f3c d5a4 ec3d
00000020: e959 38bd 99bb cabb 8608 a53c 78fc acbc
00000030: 6c3b a43d bc2e 003d 1044 d7bd 6774 95bc
0.03140786 0.03539661 0.08953143 -0.05149255 -0.026020417 0.03246702 0.012677856 0.11554877
-0.04500762 -0.006186914 0.020145666 -0.02111648 0.08019146 0.03129457 -0.10511029 -0.018243982

conv_3.weight f4 [32, 16, 3, 3]
00000000: a2d0 1abd a4a9 043c 43af 1ebc 764a a9bd
00000010: a1ce 78bc 45c7 02bc 7f4e c9bc facd 9c3d
00000020: 29f5 94bc d647 5b3d 6815 a93c 6811 90bd
00000030: 8b69 a03c d16d 8d3d 8d46 5fbd 78a2 5cbd
00000040: 880b a73d fe1f 893d 516d 3ebd 1961 4d3d
00000050: d9ae 2ebc d743 a8bd 2c0b cd3b a48e dc3c
00000060: a6c5 ccbc e374 ed3c 47f0 91bd 908c 6c3d
00000070: bb7f 913d c33b 3c3d 1d69 673c 69d5 e03c
00000080: b2f8 76bd 9694 aabc 1b59 02bc a3f2 3dbd
00000090: 921d 7cbd c093 653d a5a4 673d 6fff 9abd
000000a0: 2c37 d93c 54da 0a3d 9b20 a23d a979 453d
000000b0: 24e6 9c3d 5185 dfbc b407 6f3d adce 8a3d
000000c0: e82b a1bd 8603 89bd cf1e 8a3c af5c 3a3d
000000d0: fd9d 29bd 1f40 163c 010e ffb8 a4c9 ac3c
000000e0: 1b6a 37bd 2285 403d b2fc 623d b0d5 6cbd
000000f0: ac8e 533a 4636 7139 cb34 db3c f0fa 9e3d
00000100: 9a2a c83c 8926 9bbc d745 993d 20ea 01bd
00000110: 1547 c6bc 8760 ba3b 49f9 81bd 9079 143c
00000120: cd97 67bd 395e 0c3c d5ca 023c 59dd 3c3c
00000130: 41ed 8fbd 6419 a2bd c100 1d3d cb56 923d
00000140: 1576 97bd 1ad8 fc3c cb44 7bbd 912c ab3b
00000150: b4c7 9e3d 9a77 813d 0790 79bd be22 533d
00000160: 7d46 323d 41c2 06b9 d252 a53d 1c95 07bd
00000170: b4e1 9ebc cb85 2cbd 6167 443c febb b43c
00000180: fb88 d93b 9b0f 40bd 6fab 19bd 982f e83c
00000190: a6a6 95bd 2eb4 54bc 52e5 f2ba e250 0abd
000001a0: f764 f83c 0da1 af3b 0d96 6f3d c2cc f2bb
000001b0: 9e6d 57bd d929 713d 91aa 3e3c ce83 c3bc
000001c0: eef9 60bd 8b02 a03c 18c6 a2bd a8cc b33c
000001d0: 44c5 283d 8db5 95bd 0978 5fbd 5465 75bd
000001e0: 4a72 8f3d 9f15 913d 62ec aa3b 0139 a03d
000001f0: 5c39 e4bc b5af a5bd 166f ee3c d8d9 f13c
00000200: d951 a73d 838d e9b7 b0cb 823d a838 513d
00000210: a407 773d 0b5e a9bd dd86 8c3d 9b7d 91bd
00000220: ddfd 983d 0596 62bb a540 97bd 1fc9 bd3c
00000230: 94fd 8abc 5a4c 99bd df8b f7bc 4ab5 0c3c
00000240: 28ed 843d 14dd d1bc dfbc 4a3d 7109 2b3c
00000250: 9342 383b 82a1 823c 69fd 5fbd 9fda 8dbd
00000260: 987d d6bc 7509 9fbd ab2c 1fbd de40 7b3b
00000270: 41cf 60bd f994 0dbd f95d 75bc 4f49 1dbc
00000280: c569 3cbd ad3b 833b bba6 3fbc 943e c33c
00000290: 12be 763b 5d71 2abd 5503 ebbc 8dd7 7bba
000002a0: eff7 54bd 72fa d53b fea0 c0bb 276e 043d
000002b0: a98f a13c d872 7f3d 6501 34bb 9c36 7cbd
000002c0: 5894 183d a7af 66bd d7ab 3bbc 8c0b ddbc
000002d0: 1483 01bd f38b fcbc b4d5 9c3d 5e65 433d
000002e0: 1b3a bd3c d640 a03d 2ba9 9abd d358 5c3c
000002f0: b684 5a3d 48c7 623d 92cf 87bd c501 f33c
00000300: d467 42bd fdd0 54bb 0266 8ebc ce78 8ebd
00000310: 74c7 a2bd 5089 60bd dee3 1a3d ff25 1c3d
00000320: 1071 94bd 1e30 00bd 2cd3 b23a 228e 93bd
00000330: de54 403d 5895 9a3d b87b 713c 4090 7dbd
00000340: 4845 9f3c 34df f73c 0b2d 873d 7491 35bd
00000350: e3e3 98bd 450f 163d f498 aa3b 975d debc
00000360: 2c2a 0fbd 6111 30bd c228 8a3d 445d 6cbc
00000370: 6115 763d 6958 983d 8401 2c3c da2a 913c
00000380: 3718 babb fd71 6a3d e8c9 99bd 4ac3 073d
00000390: cf68 5ebc 8ada 1b3d 7cda bfb9 ddc2 fcbc
000003a0: 1f52 13bc 6954 383d 7702 6dbd 75b4 57bd
000003b0: 1ace 98bc 7b7e f7bc 2f29 063d dbbe 653d
000003c0: 2ff6 11bc 026b a13d 0092 0ebd 428f 3fbd
000003d0: 4ed4 18bd 682d 6bbd 3e48 6fbd 0c14 98bd
000003e0: a543 97bd cb21 b23c 1226 503d a239 a03d
000003f0: 435f 913d 0041 9dbb 8f76 843c c739 4cbd
-0.037796624 0.008097086 -0.00968534 -0.082661554 -0.015185983 -0.00798208 -0.024573563 0.076564744
-0.018183308 0.053535305 0.02064009 -0.0703457 0.019581577 0.069057114 -0.05451064 -0.05386588
0.08156496 0.06695555 -0.04649097 0.050141428 -0.010661804 -0.082160644 0.0062574353 0.026923485
-0.02499659 0.0289864 -0.071259074 0.05775124 0.07104441 0.04595543 0.014124182 0.027445512
-0.060295768 -0.020822804 -0.007955815 -0.046373975 -0.061551638 0.05604911 0.0565535 -0.07568251
0.026515566 0.03389962 0.07916375 0.048211727 0.07661083 -0.02728525 0.058356956 0.067777015
-0.078697026 -0.06690125 0.016860394 0.045498546 -0.041410435 0.009170561 -0.00012161956 0.021092243
-0.044778924 0.047001965 0.05541677 -0.057820976 0.0008070271 0.0002300377 0.026758572 0.07762706
0.024434377 -0.018939273 0.07484024 -0.03171742 -0.024203816 0.0056877765 -0.063463755 0.009062186
-0.056541253 0.008567386 0.007982929 0.011527383 -0.070276745 -0.07914999 0.038330797 0.07145461
-0.07395569 0.030864764 -0.061344903 0.0052238186 0.07752934 0.0632164 -0.06092837 0.051546805
0.043524254 -0.00012851601 0.08072437 -0.033101186 -0.019394733 -0.042119782 0.011987538 0.022062298
0.006638644 -0.046889883 -0.037517007 0.028343007 -0.07307176 -0.012982411 -0.0018531478 -0.033768542
0.030321581 0.005359775 0.05849271 -0.007409663 -0.052594773 0.0588778 0.011637346 -0.02386656
-0.05492585 0.019532463 -0.0794794 0.021948174 0.041203752 -0.07310019 -0.054557834 -0.059911087
0.07004221 0.07084202 0.0052161673 0.07823373 -0.027859382 -0.08090154 0.029105704 0.029522821
0.08169908 -2.7841661e-05 0.063865066 0.051079422 0.06031002 -0.082698904 0.06861661 -0.071040355
0.074702956 -0.0034574282 -0.07385377 0.023167191 -0.016966619 -0.07485266 -0.030218063 0.008588145
0.064905465 -0.025618114 0.049496528 0.010439263 0.0028115853 0.015946154 -0.05468503 -0.06926464
-0.026182935 -0.07765476 -0.038860958 0.0038338224 -0.054885153 -0.0345659 -0.014976018 -0.009599998
-0.045999307 0.0040049166 -0.0116974665 0.02383355 0.0037649912 -0.041612018 -0.028688112 -0.00096070097
-0.05199426 0.0065300995 -0.0058785668 0.032331612 0.019721823 0.062365383 -0.0027466652 -0.061575517
0.037250847 -0.05631986 -0.011454544 -0.026983045 -0.031619146 -0.030828452 0.07657948 0.047704093
0.023098996 0.078248665 -0.075517975 0.013448912 0.05334922 0.05536583 -0.06631388 0.02966393
-0.0474623 -0.00324732 -0.017382625 -0.069566354 -0.07948199 -0.05481845 0.037814967 0.038122173
-0.072481275 -0.031295888 0.0013643256 -0.07204844 0.046955936 0.07548016 0.0147389695 -0.061905146
0.019442216 0.030257799 0.06600388 -0.044328168 -0.07465341 0.036635656 0.0052062217 -0.027144236
-0.034952328 -0.042985324 0.06746055 -0.014426533 0.060078982 0.07438738 0.010498408 0.017720629
-0.005679156 0.057237614 -0.07509214 0.033145227 -0.013574793 0.038050212 -0.00036593142 -0.030854637
-0.008991747 0.045002375 -0.05786368 -0.05266233 -0.018652964 -0.030211678 0.03275412 0.056090217
-0.008908792 0.07881738 -0.034807205 -0.04676748 -0.037311845 -0.05741635 -0.058418505 -0.07425699
-0.07385949 0.02174463 0.050817557 0.078234926 0.07098248 -0.0047990084 0.016169814 -0.04985979

conv_3.bias f4 [32]
00000000: 08d9 8cbd baa3 4fbd 1084 093d 3af7 8a3d
00000010: 12e4 46bd 75ad 07bd ff30 40bd 3ffd eebb
00000020: 1e7a 88bd 9751 85bd 96c6 03bc 8da5 b93d
00000030: c969 773c 0506 fabc a761 6c3d f642 833d
00000040: 734f 783d c629 983b 794e 0ebc 3d61 593d
00000050: 356b 5c3d 3564 903d c499 8a3d 31ae a9bc
00000060: 558d 7c3d 4cd7 533c e02f b03d 9d46 a93d
00000070: 1aeb 9c3d 328a 7c3d 23f3 9c3d bf78 21bd
-0.06877333 -0.05069325 0.03357321 0.06785436 -0.04855735 -0.033124406 -0.046921726 -0.007293373
-0.06663917 -0.06509703 -0.008042952 0.090647794 0.015100905 -0.030520448 0.057710316 0.06409256
0.060622644 0.0046436517 -0.0086857015 0.05307125 0.053813178 0.07050363 0.0676761 -0.020712944
0.061658222 0.012929749 0.086028814 0.082654215 0.076620296 0.06165523 0.07663562 -0.039421793

linear_1.weight f4 [1, 25088]
00000000: c114 21bb 80da c0ba 04c6 53bb fafe 973b
00000010: 8dbd 1a3a 667d d1ba 1278 39bb 1822 b8bb
00000020: 4b83 ee39 8bf4 b53b 320f 883b c519 a43b
00000030: 3f6d 8d3b e119 2e3b eca8 3db9 0701 99bb
00000040: 424d 983b 2654 91bb 3a5b 78bb 2663 263b
00000050: bf50 633b 4e52 57bb 59f0 823b 989c c1bb
00000060: b832 c53a 20a9 363b 00b5 993a 24d3 68bb
00000070: fab6 8bbb d658 a53b 844e b63a d9c0 31bb
00000080: ac43 c73b 70c0 acba 341c 99ba 7008 d63a
00000090: 5b80 ac3b 3a0c 38bb 0593 0e38 49c1 39bb
000000a0: a554 3bbb 9503 61ba b222 99b6 d103 5e3b
000000b0: d870 9abb 3f29 703b fca3 a13b cf8a 3aba
000000c0: ddd0 10ba 5f27 cd3a e652 bdbb c439 983b
000000d0: d0c2 90ba 701f 8539 e028 443b 5049 2c3b
000000e0: 9872 3fbb c8f4 97bb e893 c7bb 0ec0 acbb
000000f0: 90f5 adba ed9a a0bb 3665 26ba ed7d 5abb
00000100: 7175 6a3b 5c8e 8d3b 412c af3b 7286 87bb
00000110: d3d6 91bb 77c1 0f3b 25bf bcba a303 9d3b
00000120: 28c1 bdbb 89d8 bf3b 3985 8fbb f0ea a5bb
00000130: b574 2fba e485 36bb aec5 81bb 368b 6c3b
00000140: 3ac7 9f3b cc79 663b c803 4a3a 3829 6eba
00000150: 12cd 61bb 762e c53b 065b 61bb 1263 b5bb
00000160: 74aa af3b e27e 04ba 9e12 8b3b 832c 09bb
00000170: 0643 a13b 2ac6 91bb fa45 793b 4b26 a13b
00000180: 11a2 b4b8 1252 893b 523c 7039 9841 bdbb
00000190: 906a 353b d7da a0bb 28bc 5139 f019 babb
000001a0: 8612 45bb 289c f6ba 8b8d 20bb ba0c cbbb
000001b0: 7e75 4dbb 66b0 bfbb 41f4 acbb 1e59 cebb
000001c0: 526d 6ebb 3384 b9ba 1f5e ba3b 9869 91bb
000001d0: 0100 9dbb 204e a8bb f7ab c13b 1487 52ba
000001e0: 8d98 dbba 1555 633b b453 74bb 4aed daba
000001f0: ae63 bd3b bf31 5c3b 6c7e a0bb fbaf e3ba
00000200: ac7d 213a d9b0 153b 8243 3ebb 890d 913b
00000210: efb7 d438 5fd6 b2bb 7bfc dd3a b8b2 c8bb
00000220: a863 ec39 e79f ccbb 754f ecba 4363 c0ba
00000230: 4aa4 b9bb d7bb e9ba 9548 6539 1d8b 68bb
00000240: eb62 6c3a 1fd8 5a3b 22cf 443a 7ce0 cabb
00000250: fd2d 8db7 2a94 41bb 5e60 ec3a 93bf a5bb
00000260: 290c 8fbb 673f 5ab9 f86c 6e3b a809 ddba
00000270: f355 b1b9 db2b 29ba bd19 a2bb 9aa1 01ba
00000280: 46f5 34b9 1990 893a 356e 393b 7071 f63a
00000290: 34fb 663b 73dd 9cba 6abc 32bb 08d3 af3b
000002a0: 7d40 a53b c505 623b 320e 973b e606 4b3b
000002b0: 97f9 b63b 7f25 b43b 3815 a8bb 7be7 c2bb
000002c0: 0ba5 56bb b344 9e3b a6f4 ba3b 1131 dc39
000002d0: 8612 99bb aa1d 43bb d234 443b cb72 c03b
000002e0: ec03 a03a ae78 88bb 66d4 c23b 13cd b43b
000002f0: f17a 35bb 8bc5 5ebb e14e 6e3b 1b6f 95bb
00000300: a8bb ac3b db20 a5ba d6a4 a1b8 9aab 5cbb
00000310: 193c ccbb ea75 bc3a 9417 13bb 564f 72bb
00000320: 3212 a53b 6969 9a3a 8685 ddba f1d1 bebb
00000330: 0534 69bb f768 07bb e99b 2d3b 04a6 bcbb
00000340: 871a 6f3b df38 bc3b 00e0 ff3a be8f cdbb
00000350: 2a29 573a be19 27bb f642 023b a68f 89b9
00000360: 749d 483b 58c4 05ba eae7 963a 5d30 253b
00000370: f919 99bb 7956 8a3a 4d86 b83b a977 903b
00000380: 59f2 d139 6f96 90ba 915e 2b3b 73b0 b5bb
00000390: e588 f8ba 7293 b33b f5df 553a 3f6b bdb8
000003a0: f9fe a2bb 8b59 86bb 465a 643a 4378 9bbb
000003b0: 4b3e eeba 79a4 4bbb e64b ff3a 3ee4 7c3a
000003c0: 9e8f c7bb a6c4 083b b67d 15ba d617 49bb
000003d0: 94e3 973b 76b4 88bb 189e bcbb 1f56 363a
000003e0: 5321 60bb 26ff 27bb 11e5 b4bb aa60 cdba
000003f0: 58e0 a43b 7373 bbbb b7a3 8bbb 39e1 b3ba
-0.002457902 -0.0014713556 -0.0032314071 0.00463855 0.0005902879 -0.0015982806 -0.0028300327 -0.0056192987
0.00045492718 0.0055528334 0.004152202 0.005007955 0.0043160017 0.0026565718 -0.00018087373 -0.004669312
0.0046478817 -0.00443508 -0.0037896172 0.0025388687 0.003468558 -0.0032855454 0.003995937 -0.00590856
0.0015045023 0.0027871802 0.0011726916 -0.003552624 -0.004263756 0.0050459905 0.0013908898 -0.0027123003
0.006081065 -0.001317991 -0.0011681379 0.0016329419 0.0052643246 -0.002808346 3.399236e-05 -0.0028343967
-0.0028584388 -0.00085836026 -4.5637944e-06 0.0033876786 -0.004713159 0.0036645678 0.0049328785 -0.0007116021
-0.0005524287 0.0015651992 -0.0057777045 0.004645558 -0.0011044387 0.0002539116 0.002993159 0.0026288815
-0.002921259 -0.0046373345 -0.00609063 -0.005271918 -0.0013272036 -0.004901281 -0.0006347479 -0.0033339218
0.0035775567 0.004319949 0.0053458516 -0.0041359 -0.004450658 0.0021935382 -0.0014400227 0.0047916933
-0.0057908483 0.0058546704 -0.004379895 -0.005063407 -0.0006693111 -0.00278508 -0.003960333 0.0036093718
0.0048760446 0.0035167811 0.0007706252 -0.00090851216 -0.0034454507 0.0060175015 -0.003438653 -0.0055354917
0.005360896 -0.00050543074 0.0042441627 -0.0020931072 0.00492132 -0.004448672 0.0038036094 0.004917895
-8.613256e-05 0.0041906917 0.00022910655 -0.0057756416 0.0027681924 -0.0049089002 0.00020001887 -0.0056793615
-0.0030070855 -0.0018814849 -0.0024498429 -0.0061965855 -0.0031350548 -0.0058498858 -0.005278141 -0.0062972447
-0.0036381078 -0.0014153778 0.0056874896 -0.0044376366 -0.00479126 -0.0051362664 0.0059103924 -0.00080309925
-0.0016753838 0.0034688164 -0.0037281336 -0.0016702798 0.005779705 0.0033598987 -0.004897883 -0.0017371172
0.0006160389 0.0022841005 -0.0029031937 0.0044266623 0.00010143208 -0.005457684 0.0016936207 -0.0061248206
0.00045087677 -0.006244648 -0.0018029051 -0.001467802 -0.0056653367 -0.001783247 0.00021866181 -0.0035483309
0.00090174255 0.0033392978 0.0007507672 -0.0061913114 -1.6829925e-05 -0.0029537776 0.0018034091 -0.005058238
-0.0043654633 -0.0002081372 0.0036380868 -0.001686384 -0.00033824108 -0.00064533734 -0.004946916 -0.000494504
-0.00017257509 0.0010495215 0.0028294448 0.0018802118 0.0035244944 -0.0011967852 -0.0027272948 0.005365733
0.005043088 0.0034488302 0.0046098465 0.0030979454 0.0055839526 0.005497634 -0.0051294826 -0.005948005
-0.0032752182 0.004829967 0.005705434 0.00041998227 -0.0046713976 -0.002977232 0.002993871 0.0058730594
0.00122082 -0.0041647768 0.00594573 0.005517611 -0.0027691687 -0.0033992257 0.0036362933 -0.004560364
0.005271394 -0.0012598293 -7.707781e-05 -0.0033671618 -0.00623275 0.0014378403 -0.0022444474 -0.0036973557
0.0050375694 0.0011780682 -0.0016900755 -0.005823367 -0.0035583985 -0.002066193 0.0026490635 -0.0057570953
0.0036484317 0.0057440843 0.0019521713 -0.006273239 0.0008207733 -0.0025497521 0.0019876338 -0.00026237703
0.0030611428 -0.0005102805 0.0011513208 0.0025205829 -0.0046722856 0.0010554335 0.0056312443 0.004408796
0.0004004415 -0.0011031161 0.0026148895 -0.005544716 -0.0018961696 0.0054802233 0.00081586774 -9.0321984e-05
-0.0049742428 -0.00410003 0.00087109616 -0.004744561 -0.0018176524 -0.0031073375 0.0019477576 0.0009647048
-0.0060901185 0.0020869165 -0.00057026313 -0.0030684373 0.0046352837 -0.0041719032 -0.005756151 0.0006955582
-0.003419955 -0.0025634258 -0.005520471 -0.0015669067 0.0050316267 -0.0057205497 -0.0042614597 -0.0013723738
