models/new/ConvNet_2.pth (torch, 127512 bytes, 7 tensors)

conv_1.weight f4 [8, 1, 3, 3]
0	0x3e85ba80	0.2611885
1	0x3e90cd52	0.28281647
2	0xbd94013f	-0.072268
3	0x3e9ff359	0.31240347
4	0xbd88b9d4	-0.06676069
5	0x3d960258	0.07324666
6	0xbe20525a	-0.15656415
7	0x3e4e9b3b	0.20176403
8	0x3e997105	0.2996904
9	0xbe66d487	-0.2254201
10	0x3e9e50c0	0.30920982
11	0x3da7c281	0.081913956
12	0x3e880917	0.26569435
13	0x3d84987e	0.06474398
14	0x3e38b03e	0.18035981
15	0xbce41b03	-0.027844911
16	0x3e8d95ef	0.27653453
17	0x3d8d2726	0.068922326
18	0xbe1f5918	-0.1556133
19	0x3dae02b4	0.08496609
20	0xbe1d43c8	-0.15357888
21	0xbd201dd8	-0.03909096
22	0xbe0aa2a8	-0.13538611
23	0x3e626e3e	0.22112367
24	0xbe86b81c	-0.2631234
25	0xbe1d5bb3	-0.15367012
26	0xbdc0c490	-0.09412491
27	0xbe4d3bef	-0.20042394
28	0x3d00dd88	0.03146127
29	0xbea89050	-0.32922602
30	0x3e9a21cc	0.3010391
31	0xbe90fa6b	-0.28316054
32	0x3e83c1e1	0.25733855
33	0x3d63393a	0.055474497
34	0xbdddabb0	-0.108237624
35	0x3e52ed3c	0.2059831
36	0x3d995724	0.07487324
37	0x3e95b550	0.29239893
38	0x3d7420a9	0.05960146
39	0xbda8a66f	-0.0823487
40	0x3de64044	0.112427264
41	0xbd8a0311	-0.06738866
42	0x3e271220	0.16315508
43	0x3ea42719	0.3206108
44	0x3e5cef5d	0.21575685
45	0xbe150b0d	-0.14554997
46	0x3e457a4f	0.19284938
47	0x3d75c2a9	0.060000096
48	0x3e2d2d94	0.16911918
49	0xbe506825	-0.20352228
50	0xbea90d55	-0.33017984
51	0xbe0466f9	-0.12929906
52	0xbe832ee6	-0.25621718
53	0x3e8bec8f	0.27328917
54	0x3dc5c95d	0.096575476
55	0x3e0de410	0.1385653
56	0x3dd84280	0.10559559
57	0xbbae2c8c	-0.005315369
58	0x3e85bb7f	0.2611961
59	0xbe72a105	-0.23694237
60	0x3cadc88b	0.02121379
61	0xbe690b29	-0.22758164
62	0x3dd1fe05	0.102535285
63	0xbdf60d66	-0.12014274
64	0x3dc62b2b	0.096762024
65	0xbd98f7d1	-0.07469142
66	0x3e8af068	0.2713654
67	0xbe4f98db	-0.20273153
68	0xbe50d18d	-0.20392437
69	0xbe509f63	-0.20373301
70	0x3e97142f	0.29507586
71	0x3dd9b327	0.10629874

conv_1.bias f4 [8]
0	0x3e9ebf66	0.310054
1	0xbe71ad63	-0.23601298
2	0xbea947bb	-0.33062539
3	0xbe85856f	-0.26078364
4	0xbe3790de	-0.17926356
5	0x3e13a92f	0.14420007
6	0x3dee59e6	0.116382405
7	0x3e8dc035	0.27685705

conv_2.weight f4 [16, 8, 3, 3]
0	0xbd798391	-0.060916487
1	0xbda49e1b	-0.08037969
2	0x3d8009b3	0.0625185
3	0xbd436749	-0.047705922
4	0x3d925fff	0.07147216
5	0xbce57be4	-0.028013177
6	0x3d8a30f3	0.067476176
7	0xbdbb7354	-0.091528565
8	0xbd738514	-0.059453085
9	0x3d12a839	0.03580496
10	0x3ccb2d37	0.024801834
11	0xbcf6f5ca	-0.030146498
12	0x3d8fa4ec	0.07013878
13	0x3da3e418	0.0800249
14	0xbdaf2f01	-0.08553887
15	0xbd8101f8	-0.06299204
16	0x3ddcdd88	0.10784441
17	0xbd2327ce	-0.039832883
18	0xbd2b21ac	-0.04178016
19	0xbde989ac	-0.11403212
20	0xbd8a381c	-0.06748983
21	0x3cf12b6c	0.02943965
22	0xbc7edcb0	-0.015555546
23	0xbdaf32ff	-0.085546486
24	0x3b352ae0	0.0027643964
25	0xbda4de32	-0.08050193
26	0xbdccc4ad	-0.099984504
27	0xbd84e847	-0.06489616
28	0xbdd33d8a	-0.10314472
29	0xbd99aeb9	-0.07504029
30	0x3df14414	0.11780563
31	0x3cb65976	0.022259455
32	0x3d14c19b	0.03631745
33	0xbde11c81	-0.10991765
34	0xbd9e84ab	-0.07740148
35	0xbd20aca4	-0.039227143
36	0x3c96ec3a	0.018423188
37	0xbdd4606c	-0.103699535
38	0xbd4ff78f	-0.0507732
39	0xbd907ff8	-0.07055658
40	0x39aff7d8	0.0003356326
41	0xbd3389e7	-0.043832686
42	0xbc0523fc	-0.008126255
43	0xbda37e10	-0.07983029
44	0xbda59ec5	-0.080869235
45	0xbd8d0e2e	-0.0688747
46	0xbd25b2ba	-0.04045365
47	0xbdbec212	-0.0931436
48	0x3dca1ae5	0.09868411
49	0xbcc0dc21	-0.023542466
50	0x3dcf57fa	0.10124202
51	0x3d15c905	0.03656866
52	0xbdccaa0f	-0.099933736
53	0x3da6c3e4	0.08142832
54	0xbd05a091	-0.03262383
55	0xbd39d30f	-0.045367297
56	0xbdc8b59e	-0.09800266
57	0xbdf062f9	-0.117376275
58	0x3d094d58	0.033521026
59	0xbcd46ec5	-0.025931725
60	0x3d3b60f2	0.04574675
61	0xbdc651cc	-0.0968357
62	0x3db2f6dc	0.08738491
63	0xbdb21068	-0.086945355
64	0xbcaa4d1b	-0.02078872
65	0x3cc61993	0.024182117
66	0x3d776754	0.060401276
67	0x3dc1f260	0.094700575
68	0x3ddaf02f	0.10690343
69	0xbdc01aea	-0.093801335
70	0x3cefe984	0.029286154
71	0xbd513905	-0.05107977
72	0xbc39cea6	-0.011340773
73	0xbdafe998	-0.08589476
74	0x3de24de3	0.11050012
75	0xbdac929d	-0.08426402
76	0x3d878a9d	0.06618235
77	0x3d3a34e8	0.04546061
78	0x3d272562	0.040807135
79	0xbd769d82	-0.060208805
80	0x3de43e52	0.11144699
81	0x3ce47a79	0.02789043
82	0x3c8e8bd1	0.017400654
83	0xbdcfe28a	-0.10150631
84	0x3d54384f	0.051811513
85	0xbc77494b	-0.015093158
86	0xbd528d24	-0.051404133
87	0x3dd43e57	0.10363453
88	0x3cec5dfe	0.028853413
89	0xbd801c27	-0.0625537
90	0xbd74528e	-0.059649043
91	0xbbb86ba0	-0.0056280643
92	0x3d86c3fd	0.065803505
93	0xbcf6b3a0	-0.030114949
94	0xbd89b6a4	-0.06724289
95	0xbd254dac	-0.040357277
96	0xbdb45036	-0.088043615
97	0x3d2c272a	0.042029537
98	0x3dbad259	0.09122152
99	0xbde3382d	-0.11094699
100	0x3ce03d93	0.02737311
101	0x3d7960b8	0.060883254
102	0x3caf14e1	0.02137226
103	0xbd2be7c5	-0.04196908
104	0x3d7bf496	0.061512552
105	0x3d7dad62	0.06193293
106	0x3d3480c6	0.04406812
107	0xbca9a41d	-0.020708138
108	0xbcea3db5	-0.028593877
109	0x3c7fb5a2	0.0156072695
110	0xbc8fd788	-0.017558828
111	0xbd0390de	-0.032120578
112	0x3da150b9	0.07876725
113	0x3dd6eb5a	0.104941085
114	0xbc0c6261	-0.008568377
115	0xbcbbfd9d	-0.02294808
116	0x3bb092c2	0.0053885886
117	0xbc1dccbd	-0.009631333
118	0x3cd1b7fa	0.025600422
119	0x3cf6ede2	0.030142728
120	0xbde11509	-0.1099034
121	0xbd3e3cfc	-0.046444878
122	0x3dc4f1f6	0.09616463
123	0x3d30331f	0.043017503
124	0xbc115d4f	-0.008872344
125	0xbd980d56	-0.07424419
126	0xbd9388dc	-0.07203838
127	0xbdd7eb32	-0.10542907
128	0xbd1bc911	-0.03803355
129	0x3d24034d	0.04004221
130	0x3d9ae953	0.07564034
131	0x3d6195cf	0.05507451
132	0xbdd47d77	-0.10375493
133	0xbd8fd30f	-0.07022678
134	0xbc919075	-0.017769078
135	0x3de4ef83	0.11178496
136	0x3c732b63	0.014841887
137	0xbd05f052	-0.03269989
138	0x3d3de903	0.046364795
139	0xbd4159e8	-0.047204882
140	0xbda0da63	-0.07854154
141	0x3dab2a63	0.08357694
142	0xbd65493f	-0.055978056
143	0xbcd4d977	-0.025982602
144	0xbdf1aa03	-0.11800005
145	0x3da124c4	0.078683406
146	0x3db6532d	0.08902583
147	0x3d2ceeab	0.0422198
148	0xbda908cf	-0.08253633
149	0xbdef48ab	-0.11683782
150	0xbdc553fc	-0.096351594
151	0x3db36736	0.0875992
152	0x3d65c5f5	0.05609699
153	0x3dcb9603	0.09940722
154	0x3d7e1957	0.062035885
155	0x3cf6ff4e	0.030151036
156	0xba81ec8b	-0.0009912414
157	0xbdb71142	-0.089388385
158	0xbdce4c2f	-0.100731246
159	0xbde169ea	-0.1100653
160	0x3d4674cb	0.048451226
161	0xbd6c2236	-0.057649814
162	0xbcc24bec	-0.023717843
163	0xbd8ae748	-0.06782395
164	0xbcafece0	-0.021475255
165	0xbda9e081	-0.08294774
166	0xbd9db534	-0.077005774
167	0x3d201f72	0.03909249
168	0xbd0f764e	-0.035024934
169	0x3d95005d	0.0727546
170	0xbd1adc38	-0.037807673
171	0xbdb10d7b	-0.08645149
172	0xbcaa5816	-0.020793956
173	0xbd69fed8	-0.057127804
174	0xbd13aebc	-0.03605531
175	0xbde5c5fd	-0.11219404
176	0x3d8709b3	0.06593647
177	0xbda8090c	-0.082048506
178	0x3d729ea2	0.059233315
179	0x3d5b0d12	0.05347926
180	0x3dad5097	0.08462637
181	0xbdb804b0	-0.08985269
182	0x3daeda76	0.08537762
183	0xbd62af3b	-0.055342894
184	0x3d350cce	0.044201665
185	0x3de3b7dd	0.111190535
186	0xbc84e5dc	-0.016222887
187	0xb9e9e4a5	-0.00044611577
188	0xbcda5a3e	-0.026654359
189	0xbdca2a42	-0.09871341
190	0x3d668e47	0.05628803
191	0xbdf060bf	-0.11737203
192	0x3d95324a	0.072849825
193	0x3db3f715	0.087873615
194	0x3de39bf8	0.11113733
195	0xbce66fee	-0.028129544
196	0xbdc6dbf8	-0.097099245
197	0x3cd672e9	0.02617784
198	0x3d855d88	0.0651198
199	0xbdefee40	-0.117153645
200	0xbcda0c6d	-0.026617253
201	0xbd90bca6	-0.07067232
202	0xbc27ed97	-0.010249517
203	0xbd6d64fb	-0.05795763
204	0xbd457734	-0.048209384
205	0xbd190265	-0.0373558
206	0xbde55454	-0.11197725
207	0x3dc5e57b	0.096629106
208	0x3dca8260	0.09888148
209	0xbc977482	-0.018488172
210	0xbc5cf58d	-0.013486278
211	0xbd44bfbe	-0.048034422
212	0xbdd9fd46	-0.10644011
213	0xbdeaf186	-0.11471848
214	0x3d33e3d1	0.043918435
215	0xbd847943	-0.06468441
216	0xbd9b2a0a	-0.07576378
217	0xbc16a720	-0.009195119
218	0xbd20c024	-0.03924574
219	0xbd1c2b5c	-0.03812729
220	0x3b782a40	0.003786698
221	0xbcccc7f4	-0.024997689
222	0xbd2634b6	-0.040577613
223	0xbd6720db	-0.056427818
224	0xbdc46cb6	-0.095910475
225	0x3dc8f7b2	0.09812869
226	0xbd43fb05	-0.047846813
227	0x3cf9eae1	0.030507507
228	0xbd2a37fd	-0.0415573
229	0x3c1211fa	0.008915419
230	0x3ddf8f4f	0.10916006
231	0x3d5bc59b	0.053655248
232	0xbdd27249	-0.102757044
233	0x3d3cd5b5	0.046102244
234	0x3de51bc1	0.11186934
235	0x3cfdfd84	0.031004675
236	0x3da1d029	0.079010315
237	0x3dedf3f3	0.11618795
238	0xbc93eed0	-0.01805821
239	0x3cc86174	0.024460532
240	0xbda7c0c8	-0.08191067
241	0xbcc6f450	-0.02428642
242	0x3db2bf25	0.08727864
243	0x3d77766f	0.06041568
244	0xbd98bac6	-0.07457499
245	0xbdc18adf	-0.09450316
246	0xbda4ef9e	-0.08053516
247	0xbdee312b	-0.11630472
248	0xbdba3dfc	-0.09093854
249	0xbceec022	-0.02914435
250	0x3da2e348	0.07953507
251	0x3ca198c3	0.019726163
252	0xbdb79b5b	-0.089651786
253	0xbdc1a9f4	-0.09456244
254	0x3d6feb40	0.05857396
255	0xbdb38e43	-0.08767369

conv_2.bias f4 [16]
0	0x3cfa109d	0.0305255
1	0x3cec6d16	0.02886061
2	0x3db53a83	0.08849051
3	0xbd565896	-0.052330576
4	0xbcd3e0d8	-0.02586405
5	0x3d04f769	0.03246251
6	0x3c4d0a9d	0.012514737
7	0x3df963f5	0.121772684
8	0xbd35aaea	-0.04435245
9	0xbbfb84a3	-0.0076757236
10	0x3cacbe12	0.021086726
11	0xbcec9ecf	-0.02888432
12	0x3da3edd1	0.08004344
13	0x3d3a5464	0.045490637
14	0xbdce75e4	-0.100810796
15	0xbcaa92c8	-0.020821944

conv_3.weight f4 [32, 16, 3, 3]
0	0xbd1ad0f1	-0.03779692
1	0x3c04a6ce	0.00809641
2	0xbc1eb393	-0.0096863685
3	0xbda94aad	-0.082661964
4	0xbc78d188	-0.015186675
5	0xbc02cac0	-0.00798291
6	0xbcc94fa6	-0.024574112
7	0x3d9ccd99	0.07656402
8	0xbc94f695	-0.018183986
9	0x3d5b42b4	0.05353041
10	0x3ca908f7	0.020634158
11	0xbd90146d	-0.07035146
12	0x3ca059ce	0.019574072
13	0x3d8d6952	0.06904854
14	0xbd5f4dc0	-0.054517508
15	0xbd5caa67	-0.053873446
16	0x3da706d3	0.081555985
17	0x3d891c20	0.066948175
18	0xbd3e6d37	-0.046490874
19	0x3d4d60b3	0.050141048
20	0xbc2eae6b	-0.010661702
21	0xbda843cf	-0.082160585
22	0x3bcd04e5	0.006256687
23	0x3cdc8ecc	0.02692356
24	0xbcccc5ab	-0.0249966
25	0x3ced7298	0.028985307
26	0xbd91f065	-0.0712593
27	0x3d6c8c4e	0.057750992
28	0x3d917f95	0.071044125
29	0x3d3c3b71	0.045955125
30	0x3c6768a0	0.014124066
31	0x3ce0d48c	0.0274451
32	0xbd76f90d	-0.060296107
33	0xbcaa9500	-0.020823002
34	0xbc025b62	-0.007956358
35	0xbd3df2ea	-0.04637424
36	0xbd7c1e02	-0.061552055
37	0x3d6590fa	0.056046464
38	0x3d67a311	0.056551997
39	0xbd9affeb	-0.07568344
40	0x3cd9322f	0.026513187
41	0x3d0ad908	0.033898383
42	0x3da21fcb	0.0791622
43	0x3d45774b	0.04820947
44	0x3d9ce571	0.0766095
45	0xbcdf8df8	-0.027289376
46	0x3d6f0161	0.058350924
47	0x3d8acbe9	0.06777174
48	0xbda12e89	-0.07870204
49	0xbd8906c2	-0.06690742
50	0x3c8a1372	0.016854975
51	0x3d3a5999	0.045495603
52	0xbd29a247	-0.041414525
53	0x3c163110	0.009166971
54	0xb8fea3c9	-0.00012142171
55	0x3cacc903	0.021091944
56	0xbd376a0c	-0.04477887
57	0x3d408507	0.047001865
58	0x3d62fc56	0.055416428
59	0xbd6cd5e8	-0.057821184
60	0x3a535e7c	0.00080630905
61	0x39715d8d	0.00023018401
62	0x3cdb34ce	0.026758578
63	0x3d9ef7ee	0.077621326
64	0x3cc81dc8	0.024428263
65	0xbc9b2fe1	-0.018943729
66	0x3d994432	0.0748371
67	0xbd01ee36	-0.031721316
68	0xbcc64fc0	-0.02420795
69	0x3bba55ab	0.005686482
70	0xbd81f9ea	-0.063464954
71	0x3c146950	0.009058312
72	0xbd67a32a	-0.05655209
73	0x3c0c45a9	0.00856153
74	0x3c02b752	0.007978277
75	0x3c3c8d1e	0.011508254
76	0xbd8ff385	-0.070288695
77	0xbda21c6c	-0.07915577
78	0x3d1cea50	0.038309395
79	0x3d924e2a	0.07143815
80	0xbd977b95	-0.07396618
81	0x3cfcd860	0.030864894
82	0xbd7b452a	-0.061345257
83	0x3bab1707	0.005221251
84	0x3d9ec734	0.07752839
85	0x3d8176bd	0.06321476
86	0xbd799274	-0.060930684
87	0x3d5321aa	0.051545776
88	0x3d324455	0.043522198
89	0xb9078e91	-0.00012927713
90	0x3da54fb4	0.08071843
91	0xbd079b37	-0.03310701
92	0xbc9eebba	-0.019399513
93	0xbd2c8a69	-0.042124186
94	0x3c44516f	0.011982306
95	0x3cb4afe3	0.022056526
96	0x3bd9700e	0.0066356724
97	0xbd40139d	-0.046893705
98	0xbd19af9a	-0.037520982
99	0x3ce824d6	0.028337877
100	0xbd95a9e3	-0.07307794
101	0xbc54d8eb	-0.01299117
102	0xbaf4997c	-0.0018661465
103	0xbd0a5d12	-0.033780165
104	0x3cf84c4e	0.030309822
105	0x3baf20a5	0.0053444677
106	0x3d6f838e	0.05847507
107	0xbbf33bee	-0.0074229157
108	0xbd576d73	-0.052594613
109	0x3d71296e	0.0588774
110	0x3c3eab0b	0.0116374595
111	0xbcc383c3	-0.02386654
112	0xbd60fa2b	-0.05492608
113	0x3ca0029c	0.019532494
114	0xbda2c611	-0.079479344
115	0x3cb3cce1	0.02194828
116	0x3d28c518	0.04120359
117	0xbd95b659	-0.07310171
118	0xbd5f78f5	-0.054558713
119	0xbd756550	-0.059911072
120	0x3d8f71c2	0.070041195
121	0x3d911501	0.07084084
122	0x3baae6cd	0.005215502
123	0x3da0383e	0.07823227
124	0xbce43b3d	-0.027860278
125	0xbda5afbd	-0.0809016
126	0x3cee5da0	0.029097378
127	0x3cf1c970	0.029514998
128	0x3da74cd7	0.08168953
129	0xb8240072	-3.910106e-05
130	0x3d82c5fa	0.06385417
131	0x3d512ccb	0.05106811
132	0x3d76f94b	0.060296338
133	0xbda964af	-0.08271157
134	0x3d8c803c	0.06860396
135	0xbd917fd1	-0.07104457
136	0x3d98f9cf	0.07469522
137	0xbb63114b	-0.0034647759
138	0xbd9742ef	-0.073858134
139	0x3cbdb7cf	0.023158936
140	0xbc8b0ab0	-0.01697287
141	0xbd994fa0	-0.074858904
142	0xbcf79d5f	-0.030226408
143	0x3c0c99ae	0.008581562
144	0x3d84ee64	0.06490782
145	0xbcd1d82e	-0.025615778
146	0x3d4abe74	0.049498037
147	0x3c2b1ab1	0.010443375
148	0x3b387153	0.0028143718
149	0x3c82a7cb	0.01594915
150	0xbd5ff8fa	-0.054680802
151	0xbd8dd91b	-0.06926175
152	0xbcd675dc	-0.026179247
153	0xbd9f03be	-0.07764386
154	0xbd1f1d88	-0.038846523
155	0x3b7c563a	0.0038503543
156	0xbd60c6ef	-0.054877218
157	0xbd0d87e1	-0.034553412
158	0xbc7523b9	-0.01496213
159	0xbc1d349e	-0.009595064
160	0xbd3c5f9c	-0.045989618
161	0x3b83a9ea	0.004018058
162	0xbc3f9419	-0.011693024
163	0x3cc34828	0.023838118
164	0x3b76f837	0.0037684569
165	0xbd2a6a5a	-0.04160533
166	0xbceaf310	-0.028680354
167	0xba7a7844	-0.0009554664
168	0xbd54f06e	-0.051987104
169	0x3bd65ba2	0.006541685
170	0xbbc0507d	-0.00586897
171	0x3d0471e3	0.032335173
172	0x3ca1965d	0.01972502
173	0x3d7f7676	0.062368833
174	0xbb33c9f5	-0.0027433608
175	0xbd7c328f	-0.061571654
176	0x3d1898c0	0.03725505
177	0xbd66ad14	-0.056317404
178	0xbc3b9d9b	-0.01145115
179	0xbcdd01d4	-0.02697841
180	0xbd017bdc	-0.031612262
181	0xbcfc79e1	-0.030819835
182	0x3d9cda3e	0.07658814
183	0x3d436a32	0.047708698
184	0x3cbd4e1c	0.023108535
185	0x3da04530	0.078256965
186	0xbd9aa6f1	-0.07551373
187	0x3c5c75fe	0.013455866
188	0x3d5a8d06	0.053357147
189	0x3d62dc97	0.055386152
190	0xbd87c487	-0.066292815
191	0x3cf32802	0.029682163
192	0xbd425564	-0.047444716
193	0xbb538ff5	-0.003228185
194	0xbc8e4801	-0.017368319
195	0xbd8e6ec8	-0.069547236
196	0xbda2bde9	-0.07946379
197	0xbd607c48	-0.054806024
198	0x3d1ae65d	0.037817348
199	0x3d1c2ba7	0.038127568
200	0xbd946f27	-0.07247763
201	0xbd002e68	-0.031294256
202	0x3ab37af3	0.0013693258
203	0xbd938cad	-0.07204566
204	0x3d4056c1	0.046957735
205	0x3d9a973d	0.07548378
206	0x3c718ab4	0.014742542
207	0xbd7d78ff	-0.06188297
208	0x3c9f6bff	0.019460676
209	0x3cf7fa2a	0.030270655
210	0x3d873ae3	0.066030286
211	0xbd35806a	-0.04431192
212	0xbd98dfef	-0.07464587
213	0x3d163230	0.036668956
214	0x3bab84c1	0.0052343314
215	0xbcde4579	-0.027132737
216	0xbd0eb7dc	-0.03484331
217	0xbd2f7305	-0.0428343
218	0x3d8a8742	0.0676408
219	0xbc6abf78	-0.014327876
220	0x3d76bc07	0.06023791
221	0x3d98bb10	0.07457554
222	0x3c2d178d	0.010564697
223	0x3c922fb3	0.01784501
224	0xbbb49866	-0.0055113314
225	0x3d6a7ce3	0.057248008
226	0xbd99c54e	-0.07508336
227	0x3d07d089	0.03315786
228	0xbc5e4154	-0.01356538
229	0x3d1be5c1	0.038060907
230	0xb9b9ef2e	-0.00035464152
231	0xbcfcb4da	-0.030847955
232	0xbc1322b7	-0.008980445
233	0x3d386150	0.04501468
234	0xbd6cd9c0	-0.05782485
235	0xbd578d81	-0.052625183
236	0xbc988a38	-0.018620595
237	0xbcf72b98	-0.030172154
238	0x3d065658	0.032797188
239	0x3d65e18c	0.0561233
240	0xbc114756	-0.0088671055
241	0x3da182e4	0.078862935
242	0xbd0e6a55	-0.034769375
243	0xbd3f874e	-0.046759896
244	0xbd18bf19	-0.03729162
245	0xbd6b0dff	-0.057386395
246	0xbd6f3cc0	-0.058407545
247	0xbd980885	-0.074235
248	0xbd973231	-0.0738262
249	0x3cb23707	0.021754755
250	0x3d503cf7	0.05083939
251	0x3da04acf	0.078267686
252	0x3d915fdd	0.070983626
253	0xbb9d33c1	-0.0047974293
254	0x3c8475c1	0.01616943
255	0xbd4c3847	-0.049858358

conv_3.bias f4 [32]
0	0xbd8cf564	-0.06882742
1	0xbd4e488d	-0.05036216
2	0x3d1955bc	0.03743528
3	0x3d8bd62d	0.0682796
4	0xbd42fc2c	-0.04760377
5	0xbd03f50b	-0.032216113
6	0xbd405a7a	-0.046961285
7	0xbbf130f4	-0.007360572
8	0xbd86f286	-0.065892264
9	0xbd8537c6	-0.065047786
10	0xbb2fa562	-0.0026801457
11	0x3dc18694	0.09449497
12	0x3c88e54d	0.016710902
13	0xbcefcd3d	-0.02927267
14	0x3d6e6269	0.05819932
15	0x3d7644b3	0.06012411
16	0x3d75eed4	0.060042217
17	0x3bff1f99	0.007785749
18	0xbc36d7df	-0.011159866
19	0x3d4e763e	0.050405733
20	0x3d799bbf	0.060939547
21	0x3d96b027	0.07357817
22	0x3d919870	0.07109153
23	0xbc90c049	-0.017669814
24	0x3d551c91	0.052029196
25	0x3c45d84f	0.012075498
26	0x3daf407e	0.08557223
27	0x3da77506	0.08176617
28	0x3d9bb45f	0.076027624
29	0x3d81526b	0.06314548
30	0x3da35883	0.07975867
31	0xbd1fc3b0	-0.03900498

linear_1.weight f4 [1, 25088]
0	0xbb2114c1	-0.002457902
1	0xbac0da80	-0.0014713556
2	0xbb53c604	-0.0032314071
3	0x3b97f56f	0.0046374123
4	0x3a174f29	0.00057719887
5	0xbad28d1c	-0.0016063782
6	0xbb38fb46	-0.0028225943
7	0xbbb83dfb	-0.005622623
8	0x39eeb390	0.00045528682
9	0x3bb5eb8d	0.0055517615
10	0x3b880726	0.004151243
11	0x3ba42c2b	0.005010148
12	0x3b8d8b99	0.00431962
13	0x3b2e3efc	0.0026587835
14	0xb93b00a2	-0.00017833945
15	0xbb98cec8	-0.004663322
16	0x3b987b19	0.0046533463
17	0xbb90feb5	-0.0044248947
18	0xbb77bd0e	-0.0037801894
19	0x3b26e407	0.0025465505
20	0x3b63782b	0.0034709077
21	0xbb57524e	-0.0032855454
22	0x3b834ba3	0.0040068193
23	0xbbc19789	-0.005907957
24	0x3ac532b8	0.0015045023
25	0x3b36a920	0.0027871802
26	0x3a99b500	0.0011726916
27	0xbb68e706	-0.0035538091
28	0xbb8bb6fa	-0.004263756
29	0x3ba558d6	0.0050459905
30	0x3ab64e84	0.0013908898
31	0xbb31c0d9	-0.0027123003
32	0x3bc734ca	0.006079291
33	0xbaadddfe	-0.0013265011
34	0xba98f462	-0.0011669511
35	0x3ad7ac20	0.0016454495
36	0x3bac8411	0.005264767
37	0xbb37f3b7	-0.002806885
38	0x3812c1a7	3.4989465e-05
39	0xbb39a071	-0.002832439
40	0xbb3b3579	-0.0028565808
41	0xba605aed	-0.0008558471
42	0xb6d52e60	-6.3532934e-06
43	0x3b5dc4da	0.0033839257
44	0xbb9a5ddf	-0.0047108973
45	0x3b7047ee	0.0036663967
46	0x3ba1d6dd	0.004938944
47	0xba3840a2	-0.0007028674
48	0xba0cdcab	-0.0005373458
49	0x3ace2819	0.0015728503
50	0xbbbd413c	-0.005775599
51	0x3b984978	0.00464743
52	0xba90c2d0	-0.0011044387
53	0x39851f70	0.0002539116
54	0x3b4428e0	0.002993159
55	0x3b2c43e7	0.002628559
56	0xbb3f7298	-0.002921259
57	0xbb97f4c8	-0.0046373345
58	0xbbc793e8	-0.00609063
59	0xbbacc00e	-0.005271918
60	0xbaad91cb	-0.0013242302
61	0xbba09e72	-0.0049017007
62	0xba268b11	-0.000635312
63	0xbb5a2d22	-0.0033291061
64	0x3b6ad6b3	0.0035833537
65	0x3b8dafce	0.004323936
66	0x3baf4d83	0.0053498163
67	0xbb8746a6	-0.004128295
68	0xbb91982f	-0.0044431905
69	0x3b104838	0.0022015702
70	0xbabb8c5c	-0.0014308798
71	0x3b9d514d	0.0048009516
72	0xbbbd977c	-0.0057858806
73	0x3bbffc0e	0.0058589047
74	0xbb8f6736	-0.0043763174
75	0xbba5fb61	-0.005065367
76	0xba302102	-0.0006718786
77	0xbb35f693	-0.0027765378
78	0xbb814e78	-0.003946122
79	0x3b6d1c71	0.0036180282
80	0x3b9fd0da	0.004877192
81	0x3b6679cc	0.0035167811
82	0x3a4a7655	0.00077233213
83	0xba6d863b	-0.00090608344
84	0xbb61cd12	-0.0034454507
85	0x3bc52e76	0.0060175015
86	0xbb6149ae	-0.0034376192
87	0xbbb54f65	-0.005533146
88	0x3baffcb3	0.0053707003
89	0xba032002	-0.0005002023
90	0x3b8b3e16	0.0042493446
91	0xbb08d49b	-0.0020878676
92	0x3ba18d2d	0.0049301595
93	0xbb915ffd	-0.0044364915
94	0x3b7a14d4	0.0038159387
95	0x3ba16b34	0.0049261097
96	0xb8ba7550	-8.891022e-05
97	0x3b89b681	0.0042026644
98	0x3976e21f	0.00023544625
99	0xbbbced24	-0.005765574
100	0x3b3656ad	0.002782266
101	0xbba09614	-0.004900703
102	0x39543671	0.00020238177
103	0xbbba09ea	-0.0056774514
104	0xbb4502ec	-0.0030061556
105	0xbaf737e7	-0.0018861265
106	0xbb206528	-0.0024474356
107	0xbbcaba6f	-0.0061867754
108	0xbb4d0f64	-0.003128969
109	0xbbbf9459	-0.005846542
110	0xbbacfa02	-0.0052788267
111	0xbbcebad7	-0.006308894
112	0xbb6e6d52	-0.0036381078
113	0xbab98cac	-0.0014156303
114	0x3bba5e1f	0.0056874896
115	0xbb910049	-0.004425083
116	0xbb9cc1c2	-0.00478384
117	0xbba8333a	-0.00513306
118	0x3bc1d6c9	0.005915497
119	0xba5148b2	-0.000798355
120	0xbada86ed	-0.0016672291
121	0x3b63da15	0.0034767438
122	0xbb747db9	-0.0037306382
123	0xbadec4d2	-0.0016995913
124	0x3bbc32a5	0.005743342
125	0x3b5b094d	0.0033422292
126	0xbba0c04e	-0.004905737
127	0xbae6f3a4	-0.0017620218
128	0x3a176a19	0.00057760027
129	0x3b14e14c	0.0022717295
130	0xbb3e5333	-0.002904129
131	0x3b913389	0.0044311923
132	0x38debe64	0.00010621248
133	0xbbb2c533	-0.005455637
134	0x3adddb34	0.001692629
135	0xbbc8a608	-0.006123308
136	0x39f07841	0.00045865963
137	0xbbcc7f61	-0.0062407707
138	0xbaec1bb5	-0.0018013628
139	0xbac0c11f	-0.0014705992
140	0xbbb9a71e	-0.005665674
141	0xbae8195b	-0.0017707752
142	0x3971229a	0.00022996441
143	0xbb67f071	-0.0035391117
144	0x3a6d343f	0.0009048618
145	0x3b5b0d0a	0.003342452
146	0x3a45f484	0.0007551389
147	0xbbca9554	-0.006182352
148	0xb71bb383	-9.280516e-06
149	0xbb41edbc	-0.0029591164
150	0x3aeafd8a	0.0017928344
151	0xbba5d3fb	-0.0050606704
152	0xbb8f3bd0	-0.004371144
153	0xb95e1301	-0.0002117865
154	0x3b6e51f9	0.0036364777
155	0xbaddf7c4	-0.0016934802
156	0xb9bc8deb	-0.0003596389
157	0xba3db0f9	-0.0007236149
158	0xbba3a6b7	-0.004994239
159	0xba01dc33	-0.0004953772
160	0xb92cf241	-0.00016493445
161	0x3a8aea3c	0.0010598372
162	0x3b39bbf1	0.0028340782
163	0x3af6ed39	0.0018839008
164	0x3b676510	0.003530804
165	0xba9c068f	-0.001190381
166	0xbb32a23c	-0.0027257344
167	0x3bafc7bf	0.0053643878
168	0x3ba53edb	0.0050428933
169	0x3b621ba7	0.0034501345
170	0x3b97a859	0.004628223
171	0x3b4b80bf	0.003105208
172	0x3bb70821	0.005585686
173	0x3bb43e01	0.0055005555
174	0xbba7c31f	-0.005119696
175	0xbbc2acdc	-0.0059410166
176	0xbb5670a6	-0.0032720952
177	0x3b9e1e5e	0.0048253974
178	0x3bbaa43a	0.005695847
179	0x39dc5d8d	0.0004203137
180	0xbb98cf39	-0.0046633747
181	0xbb433686	-0.0029787137
182	0x3b44311d	0.00299365
183	0x3bc0484c	0.0058679935
184	0x3a9ea9f2	0.0012105091
185	0xbb89dc31	-0.004207157
186	0x3bbf30a2	0.005834655
187	0x3bb2aa42	0.005452425
188	0xbb36697b	-0.0027833867
189	0xbb5e3539	-0.0033906235
190	0x3b6ec8c2	0.003643558
191	0xbb9553d5	-0.0045571127
192	0x3bace2ed	0.005276075
193	0xbaa440bb	-0.0012531498
194	0xb894f130	-7.1021146e-05
195	0xbb5c77d1	-0.0033640752
196	0xbbcc42fb	-0.0062335706
197	0x3abce7e3	0.0014412369
198	0xbb1302f4	-0.002243218
199	0xbb720567	-0.003692949
200	0x3ba522a8	0.0050395317
201	0x3a9a1d36	0.0011757973
202	0xbadcf444	-0.0016857465
203	0xbbbf0132	-0.005829
204	0xbb69f2fb	-0.0035697806
205	0xbb07fce4	-0.00207501
206	0x3b2d28e5	0.002642208
207	0xbbbcb689	-0.0057590646
208	0x3b6f1f6e	0.003648724
209	0x3bbc4fd9	0.0057468233
210	0x3b0014b1	0.0019543583
211	0xbbcd7373	-0.006269866
212	0x3a58a498	0.00082642725
213	0xbb275821	-0.0025534707
214	0x3b011ac8	0.00196998
215	0xb9aa8dcc	-0.00032530574
216	0x3b454e9a	0.0030106665
217	0xba07f210	-0.00051859114
218	0x3a98e102	0.0011663737
219	0x3b259e94	0.0025271522
220	0xbb98ca04	-0.004662754
221	0x3a8af7c9	0.001060241
222	0x3bb8d736	0.0056408895
223	0x3b90878e	0.0044106906
224	0x39d1d154	0.00040019548
225	0xba900f52	-0.0010990894
226	0x3b2b75eb	0.0026162814
227	0xbbb597a9	-0.005541761
228	0xbaf87c08	-0.0018957863
229	0x3bb34776	0.0054711653
230	0x3a5413dd	0.0008090118
231	0xb8e42c55	-0.00010880145
232	0xbba38e24	-0.0049913097
233	0xbb868dfb	-0.004106281
234	0x3a640f9e	0.0008699837
235	0xbb9b763c	-0.0047443192
236	0xbaed0f94	-0.0018086308
237	0xbb4bc1ab	-0.0031090777
238	0x3b0023a1	0.0019552486
239	0x3a7e803f	0.0009708441
240	0xbbc73066	-0.0060787676
241	0x3b0a15a6	0.0021070032
242	0xba14e705	-0.00056801765
243	0xbb4af8d4	-0.0030971067
244	0x3b96b716	0.0045994623
245	0xbb892e34	-0.004186416
246	0xbbbcb40e	-0.005758769
247	0x3a39ea41	0.00070920965
248	0xbb5f7073	-0.0034094125
249	0xbb27e8ed	-0.0025621012
250	0xbbb47c25	-0.0055079632
251	0xbacb9c39	-0.0015534229
252	0x3ba511ff	0.0050375457
253	0xbbbb65da	-0.0057189288
254	0xbb8b9473	-0.00425964
255	0xbab3ef03	-0.0013727847
