models/batch_16/ConvNet_5.pth (torch, 127512 bytes, 7 tensors)

conv_1.weight f4 [8, 1, 3, 3]
0	0x3e8360a0	0.25659657
1	0x3e8e7fba	0.27831823
2	0xbd9cf731	-0.076643355
3	0x3e9da1de	0.30787557
4	0xbd921a97	-0.07133978
5	0x3d8cee90	0.0688144
6	0xbe24b0d6	-0.16083083
7	0x3e4a1a6a	0.19736639
8	0x3e973b4c	0.29537427
9	0xbe7531e1	-0.23944809
10	0x3e9702f2	0.29494435
11	0x3d8a7806	0.06761174
12	0x3e80bdd9	0.25144842
13	0x3d4e5058	0.05036959
14	0x3e29f4fa	0.16597357
15	0xbd2bcc2f	-0.04194277
16	0x3e863cc0	0.26218224
17	0x3d5f447f	0.054508682
18	0xbe1f5918	-0.1556133
19	0x3dae02b4	0.08496609
20	0xbe1d43c8	-0.15357888
21	0xbd201dd8	-0.03909096
22	0xbe0aa2a8	-0.13538611
23	0x3e626e3e	0.22112367
24	0xbe86b81c	-0.2631234
25	0xbe1d5bb3	-0.15367012
26	0xbdc0c490	-0.09412491
27	0xbe4d3bf9	-0.20042409
28	0x3d00dd46	0.031461023
29	0xbea8905b	-0.32922634
30	0x3e9a20dc	0.30103195
31	0xbe90faa4	-0.28316224
32	0x3e83c1b9	0.25733736
33	0x3d63328c	0.055468127
34	0xbdddad38	-0.108240545
35	0x3e52ec4e	0.20597956
36	0x3d765df9	0.060148213
37	0x3e8e1f28	0.27758145
38	0x3d37216f	0.04470962
39	0xbdc69849	-0.09697015
40	0x3dc84bea	0.097801045
41	0xbda838e1	-0.08213974
42	0x3e180c76	0.14848503
43	0x3e9c9fb3	0.3059059
44	0x3e4dcf29	0.20098557
45	0xbe14c3b1	-0.14527775
46	0x3e45a0ea	0.19299665
47	0x3d7679d2	0.06017477
48	0x3e2dabac	0.16960019
49	0xbe4fc9ee	-0.20291874
50	0xbea8c7ea	-0.32965022
51	0xbe03a870	-0.12857223
52	0xbe82ce42	-0.25547987
53	0x3e8c3185	0.2738153
54	0x3dc3bd52	0.09557594
55	0x3e0cee03	0.1376267
56	0x3dd6adb2	0.104823485
57	0xbbce3167	-0.0062925103
58	0x3e85498e	0.2603268
59	0xbe7342e2	-0.23755983
60	0x3ca6c0b6	0.020355564
61	0xbe69b902	-0.22824481
62	0x3dd0dc6a	0.10198291
63	0xbdf089d6	-0.1174504
64	0x3dcbac78	0.09945005
65	0xbd93aa6d	-0.072102405
66	0x3e8c3d36	0.2739045
67	0xbe4cf70d	-0.20016117
68	0xbe4e3d39	-0.20140542
69	0xbe4e1dc5	-0.20128544
70	0x3e9840da	0.29736978
71	0x3dde6259	0.10858602

conv_1.bias f4 [8]
0	0x3ea358d6	0.31903714
1	0xbe87cae5	-0.26521984
2	0xbea947bb	-0.33062539
3	0xbe85867d	-0.2607917
4	0xbe5566e4	-0.20840031
5	0x3e08794f	0.13327526
6	0x3defe932	0.117144
7	0x3e8d3711	0.27581075

conv_2.weight f4 [16, 8, 3, 3]
0	0xbd796f47	-0.060897138
1	0xbda49aa7	-0.0803731
2	0x3d8007cf	0.06251489
3	0xbd43447e	-0.04767274
4	0x3d926a13	0.07149138
5	0xbce5584e	-0.027996209
6	0x3d8a27a9	0.06745846
7	0xbdbb7bbf	-0.09154462
8	0xbd738ecb	-0.05946235
9	0x3d133376	0.03593775
10	0x3ccc2b95	0.024923125
11	0xbcf60c21	-0.03003508
12	0x3d8fe5c9	0.0702625
13	0x3da41ec6	0.08013682
14	0xbdaefd4e	-0.08544408
15	0xbd80cb0d	-0.06288729
16	0x3ddd11b3	0.107943915
17	0xbd22ca6e	-0.039743833
18	0xbd2b21ac	-0.04178016
19	0xbde989ac	-0.11403212
20	0xbd8a381c	-0.06748983
21	0x3cf12b6c	0.02943965
22	0xbc7edcb0	-0.015555546
23	0xbdaf32ff	-0.085546486
24	0x3b352ae0	0.0027643964
25	0xbda4de32	-0.08050193
26	0xbdccc4ad	-0.099984504
27	0xbd84e84b	-0.06489619
28	0xbdd33d8f	-0.10314476
29	0xbd99aeb8	-0.07504028
30	0x3df143e0	0.11780524
31	0x3cb6591b	0.022259286
32	0x3d14c14e	0.036317162
33	0xbde11c8a	-0.109917715
34	0xbd9e84af	-0.07740151
35	0xbd20ace3	-0.039227378
36	0x3c96fe13	0.018431699
37	0xbdd45d98	-0.10369414
38	0xbd4ff3d1	-0.05076963
39	0xbd907b91	-0.070548184
40	0x39b175ab	0.0003384774
41	0xbd338f6f	-0.04383796
42	0xbc054fcf	-0.008136704
43	0xbda3809e	-0.07983516
44	0xbda5a13b	-0.08087393
45	0xbd8d1e80	-0.06890583
46	0xbd25dc5c	-0.040493354
47	0xbdbed2db	-0.09317561
48	0x3dca0e22	0.09865977
49	0xbcc0fb09	-0.023557203
50	0x3dcf531c	0.10123274
51	0x3d15b1cc	0.036546513
52	0xbdccb8aa	-0.099961594
53	0x3da6b454	0.081398636
54	0xbd05578a	-0.032554187
55	0xbd3990f7	-0.045304265
56	0xbdc89a33	-0.09795036
57	0xbdf039df	-0.11729788
58	0x3d0993ca	0.03358821
59	0xbcd3efeb	-0.025871238
60	0x3d3b8c92	0.045788355
61	0xbdc642cb	-0.096807085
62	0x3db301f4	0.08740607
63	0xbdb1e66c	-0.086865276
64	0xbca9a92d	-0.020710552
65	0x3cc6b4dd	0.024256164
66	0x3d77cfb7	0.060500827
67	0x3dc2249a	0.094796374
68	0x3ddb245d	0.10700295
69	0xbdc00194	-0.09375301
70	0x3cf053b7	0.029336793
71	0xbd50f92c	-0.05101888
72	0xbc6093bf	-0.0137071
73	0xbdb59ad4	-0.08867422
74	0x3ddbb0fe	0.10727118
75	0xbdb251f2	-0.08707036
76	0x3d80ce0b	0.062892996
77	0x3d2b0ed9	0.041762207
78	0x3d1ac87b	0.03778885
79	0xbd828095	-0.06372181
80	0x3ddc575f	0.10758852
81	0x3cd2ec56	0.02574746
82	0x3c76b66b	0.01505814
83	0xbdd4e2dc	-0.103948325
84	0x3d4a3ffd	0.04937743
85	0xbc90f258	-0.017693684
86	0xbd5d2ea5	-0.05399956
87	0x3dcf2404	0.10114291
88	0x3cd7177e	0.02625632
89	0xbd857cc2	-0.06517936
90	0xbd74528e	-0.059649043
91	0xbbb86ba0	-0.0056280643
92	0x3d86c3fd	0.065803505
93	0xbcf6b3a0	-0.030114949
94	0xbd89b6a4	-0.06724289
95	0xbd254dac	-0.040357277
96	0xbdb45036	-0.088043615
97	0x3d2c272a	0.042029537
98	0x3dbad259	0.09122152
99	0xbde3396c	-0.11094937
100	0x3ce039ef	0.027371375
101	0x3d795e6d	0.060881067
102	0x3caf109b	0.021370223
103	0xbd2be861	-0.04196966
104	0x3d7bf30f	0.061511096
105	0x3d7dacc6	0.061932348
106	0x3d34807e	0.044067852
107	0xbca9a52c	-0.020708643
108	0xbd00cde0	-0.031446338
109	0x3c4cbcad	0.012496156
110	0xbcaae475	-0.02086089
111	0xbd107522	-0.035267957
112	0x3d9a4f27	0.07534628
113	0x3dcf9e4f	0.10137617
114	0xbc414358	-0.011795841
115	0xbcd83a75	-0.026395062
116	0x3aef76d1	0.0018269663
117	0xbbe7d09b	-0.0070744283
118	0x3ce72a60	0.028218448
119	0x3d0686a2	0.03284324
120	0xbddb8713	-0.10719123
121	0xbd32e756	-0.04367765
122	0x3dcab42f	0.098976485
123	0x3d3b6038	0.04574606
124	0xbbc69b70	-0.00606101
125	0xbd922e42	-0.07137729
126	0xbd93eb9d	-0.07222674
127	0xbdd86e64	-0.1056793
128	0xbd1d54ab	-0.038410824
129	0x3d22bf24	0.039733067
130	0x3d99fa9b	0.07518502
131	0x3d5f54b3	0.054524135
132	0xbdd56971	-0.10420502
133	0xbd90fa81	-0.0707903
134	0xbc96e04d	-0.018417502
135	0x3de970d6	0.11398475
136	0x3c8b8bc1	0.017034413
137	0xbcf9e181	-0.030503036
138	0x3d474d79	0.048657868
139	0xbd380b0c	-0.04493241
140	0xbd9c408a	-0.07629497
141	0x3dafe21b	0.08588048
142	0xbd5bdd8f	-0.05367809
143	0xbcc236e5	-0.023707816
144	0xbdefae15	-0.117031254
145	0x3da27b90	0.07933724
146	0x3db7acd0	0.08968508
147	0x3d30ece5	0.04319467
148	0xbda786ee	-0.08180033
149	0xbdeda7ed	-0.11604295
150	0xbdc36b1b	-0.09541913
151	0x3db4de50	0.08831465
152	0x3d690ae2	0.056895144
153	0x3dcb3898	0.09922904
154	0x3d7d3482	0.061817653
155	0x3cf50cf6	0.029913407
156	0xba904ed5	-0.0011009822
157	0xbdb76738	-0.08955234
158	0xbdcea3bc	-0.100898236
159	0xbde1a272	-0.11017312
160	0x3d45e27b	0.04831169
161	0xbd6cb669	-0.057791147
162	0xbcc24bec	-0.023717843
163	0xbd8ae748	-0.06782395
164	0xbcafece0	-0.021475255
165	0xbda9e081	-0.08294774
166	0xbd9db534	-0.077005774
167	0x3d201f72	0.03909249
168	0xbd0f764e	-0.035024934
169	0x3d95005d	0.0727546
170	0xbd1adc38	-0.037807673
171	0xbdb10d9b	-0.08645173
172	0xbcaa5834	-0.020794012
173	0xbd69ff06	-0.057127975
174	0xbd13af0f	-0.03605562
175	0xbde5c5db	-0.112193786
176	0x3d8709c7	0.06593662
177	0xbda8091d	-0.08204863
178	0x3d729ef3	0.059233617
179	0x3d5b0ccc	0.053479
180	0x3dacae84	0.08431724
181	0xbdb8cdeb	-0.09023651
182	0x3dadf79e	0.08494495
183	0xbd63b67a	-0.055593945
184	0x3d33be0d	0.04388242
185	0x3de2ffca	0.11083944
186	0xbc870ee7	-0.016486598
187	0xba468fbf	-0.00075745204
188	0xbcdd0660	-0.026980579
189	0xbdc9a7b1	-0.09846438
190	0x3d677afa	0.056513764
191	0xbdefd281	-0.11710072
192	0x3d95afb0	0.073089
193	0x3db46f5c	0.088103026
194	0x3de41572	0.11136903
195	0xbce44ee0	-0.027869642
196	0xbdc66605	-0.096874274
197	0x3cd86b4f	0.026418356
198	0x3d854020	0.065063715
199	0xbdf02feb	-0.117278896
200	0xbcdb33c2	-0.026758078
201	0xbd90cec7	-0.0707069
202	0xbc294e1f	-0.010333567
203	0xbd6dcdca	-0.058057584
204	0xbd457eba	-0.04821656
205	0xbd1945d6	-0.037420116
206	0xbde574a0	-0.11203885
207	0x3dc635f9	0.09678263
208	0x3dcaa8d6	0.09895484
209	0xbc96e017	-0.018417401
210	0xbc5a633b	-0.013329322
211	0xbd44604c	-0.0479434
212	0xbdd9d2f5	-0.1063594
213	0xbdeaadef	-0.114589565
214	0x3d341fef	0.043975767
215	0xbd8458f6	-0.064622805
216	0xbd9b2a0a	-0.07576378
217	0xbc16a720	-0.009195119
218	0xbd20c024	-0.03924574
219	0xbd1c2b5c	-0.03812729
220	0x3b782a40	0.003786698
221	0xbcccc7f4	-0.024997689
222	0xbd2634b6	-0.040577613
223	0xbd6720db	-0.056427818
224	0xbdc46cb6	-0.095910475
225	0x3dca3b5c	0.09874603
226	0xbd417b64	-0.047236815
227	0x3cff272a	0.031146605
228	0xbd27c632	-0.0409605
229	0x3c1bc3a2	0.009507092
230	0x3de0dbbc	0.10979411
231	0x3d5e1fd8	0.054229587
232	0xbdd14b1a	-0.102194026
233	0x3d3f4cce	0.046704106
234	0x3de51bc1	0.11186934
235	0x3cfdfd84	0.031004675
236	0x3da1d029	0.079010315
237	0x3dedf3f3	0.11618795
238	0xbc93eed0	-0.01805821
239	0x3cc86174	0.024460532
240	0xbda7c0c8	-0.08191067
241	0xbcc6f450	-0.02428642
242	0x3db2bf25	0.08727864
243	0x3d77768e	0.060415797
244	0xbd98bac0	-0.07457495
245	0xbdc18acc	-0.094503015
246	0xbda4efa4	-0.0805352
247	0xbdee312b	-0.11630472
248	0xbdba3dfa	-0.09093852
249	0xbceec000	-0.029144287
250	0x3da2e33e	0.07953499
251	0x3ca198d2	0.01972619
252	0xbdb7968e	-0.08964263
253	0xbdc1a321	-0.094549425
254	0x3d7015be	0.058614485
255	0xbdb38a58	-0.08766621

conv_2.bias f4 [16]
0	0x3cfdbb79	0.030973183
1	0x3d1b5909	0.037926707
2	0x3db7d157	0.08975475
3	0xbd505e0a	-0.050870933
4	0xbcd88d5f	-0.026434598
5	0x3cf0c9bf	0.029393075
6	0x3c4f40a8	0.012649693
7	0x3ddd5c08	0.10808569
8	0xbd5430ae	-0.051804237
9	0xbbb1369c	-0.0054081213
10	0x3cba6c60	0.022756755
11	0xbcbfd92f	-0.02341899
12	0x3da5b2a8	0.080907166
13	0x3cd29a92	0.02570847
14	0xbdda79f2	-0.106677905
15	0xbc913e5b	-0.017729929

conv_3.weight f4 [32, 16, 3, 3]
0	0xbd1ad011	-0.037796084
1	0x3c04acbb	0.008097823
2	0xbc1eaca5	-0.009684716
3	0xbda94a2f	-0.082661025
4	0xbc78cba0	-0.015185267
5	0xbc02c538	-0.007981591
6	0xbcc94d81	-0.02457309
7	0x3d9cce41	0.07656527
8	0xbc94f49f	-0.01818305
9	0x3d5b46b6	0.053534232
10	0x3ca9112d	0.020638073
11	0xbd9012a1	-0.07034803
12	0x3ca066e3	0.01958031
13	0x3d8d6c62	0.06905438
14	0xbd5f4868	-0.05451241
15	0xbd5ca40d	-0.05386739
16	0x3da70a1d	0.08156226
17	0x3d891f1b	0.06695386
18	0xbd3e6da4	-0.04649128
19	0x3d4d61e1	0.050142173
20	0xbc2ead9e	-0.010661511
21	0xbda843c5	-0.08216051
22	0x3bcd1005	0.006258013
23	0x3cdc9035	0.026924232
24	0xbcccc508	-0.024996296
25	0x3ced759c	0.028986745
26	0xbd91efe4	-0.07125834
27	0x3d6c8ca8	0.057751328
28	0x3d917fca	0.07104452
29	0x3d3c3be2	0.045955546
30	0x3c67699d	0.014124301
31	0x3ce0d5e7	0.027445747
32	0xbd76f892	-0.06029565
33	0xbcaa946f	-0.020822732
34	0xbc02584d	-0.007955623
35	0xbd3df27e	-0.046373837
36	0xbd7c1d3b	-0.061551314
37	0x3d65948d	0.056049872
38	0x3d67a55f	0.056554195
39	0xbd9aff2f	-0.07568204
40	0x3cd9398e	0.026516702
41	0x3d0adb43	0.03390051
42	0x3da220ee	0.07916437
43	0x3d457b1e	0.048213117
44	0x3d9ce6ac	0.07661185
45	0xbcdf83cf	-0.02728453
46	0x3d6f0749	0.058356557
47	0x3d8acea5	0.067776956
48	0xbda12bbc	-0.0786967
49	0xbd8903e6	-0.06690197
50	0x3c8a1e83	0.016860252
51	0x3d3a5d93	0.045499396
52	0xbd299dff	-0.041410442
53	0x3c163c7a	0.009169692
54	0xb8fc5316	-0.00012031772
55	0x3caccb8c	0.021093152
56	0xbd376972	-0.044778295
57	0x3d408706	0.04700377
58	0x3d62fe2e	0.055418186
59	0xbd6cd56f	-0.057820734
60	0x3a53e62f	0.0008083311
61	0x39730828	0.00023177324
62	0x3cdb3768	0.026759818
63	0x3d9efc3f	0.07762956
64	0x3cc82df0	0.024435967
65	0xbc9b21c0	-0.018936992
66	0x3d9946af	0.07484185
67	0xbd01e81b	-0.031715494
68	0xbcc643b4	-0.024202205
69	0x3bba655b	0.005688352
70	0xbd81f840	-0.06346178
71	0x3c148336	0.009064486
72	0xbd6794a5	-0.056538243
73	0x3c0c643e	0.0085688215
74	0x3c02cafb	0.007982965
75	0x3c3cf050	0.011531904
76	0xbd8fec4b	-0.07027491
77	0xbda218c3	-0.07914879
78	0x3d1d067a	0.038336255
79	0x3d9258d4	0.07145849
80	0xbd97740a	-0.073951796
81	0x3cfcdb14	0.030866183
82	0xbd7b4422	-0.061344273
83	0x3bab3326	0.005224603
84	0x3d9ec821	0.07753015
85	0x3d817816	0.06321733
86	0xbd798fa9	-0.06092802
87	0x3d532415	0.051548082
88	0x3d324783	0.04352523
89	0xb905d04c	-0.00012761465
90	0x3da5532d	0.08072505
91	0xbd079449	-0.0331004
92	0xbc9ee144	-0.019394524
93	0xbd2c8628	-0.04212013
94	0x3c4467ff	0.011987685
95	0x3cb4bc70	0.02206251
96	0x3bd98c07	0.006639007
97	0xbd400ebf	-0.046889063
98	0xbd19ab62	-0.03751696
99	0x3ce834a9	0.028345423
100	0xbd95a5be	-0.073070034
101	0xbc54ada1	-0.0129808495
102	0xbaf25496	-0.0018488343
103	0xbd0a4f3e	-0.033766977
104	0x3cf867ae	0.030322876
105	0x3bafca52	0.0053646946
106	0x3d6f9943	0.05849577
107	0xbbf2c158	-0.0074083023
108	0xbd576da0	-0.05259478
109	0x3d7129ec	0.05887787
110	0x3c3eab1e	0.011637477
111	0xbcc38392	-0.023866449
112	0xbd60f9b7	-0.054925647
113	0x3ca0029a	0.01953249
114	0xbda2c5f5	-0.079479136
115	0x3cb3ccdb	0.021948269
116	0x3d28c564	0.04120387
117	0xbd95b59f	-0.07310032
118	0xbd5f77f0	-0.05455774
119	0xbd756527	-0.05991092
120	0x3d8f723b	0.070042096
121	0x3d9115d8	0.070842445
122	0x3baaefba	0.005216566
123	0x3da03913	0.07823386
124	0xbce4386b	-0.027858933
125	0xbda5afbc	-0.08090159
126	0x3cee7510	0.029108554
127	0x3cf1dae1	0.029523315
128	0x3da751b5	0.08169881
129	0xb7c8294b	-2.3861086e-05
130	0x3d82cc70	0.063866496
131	0x3d51396b	0.05108015
132	0x3d770ba9	0.060313854
133	0xbda95c53	-0.082695626
134	0x3d8c87f8	0.068618715
135	0xbd917cf5	-0.07103912
136	0x3d98fe18	0.074703395
137	0xbb62951e	-0.0034573744
138	0xbd974044	-0.073853046
139	0x3cbdc9c7	0.023167504
140	0xbc8afce7	-0.016966296
141	0xbd994c05	-0.07485203
142	0xbcf78cac	-0.030218445
143	0x3c0cb4f4	0.008588064
144	0x3d84ec9f	0.064904444
145	0xbcd1deb7	-0.025618894
146	0x3d4abc15	0.049495775
147	0x3c2b0303	0.01043773
148	0x3b38235d	0.002809725
149	0x3c829ef3	0.015944934
150	0xbd5ffef7	-0.054686513
151	0xbd8ddb54	-0.06926599
152	0xbcd6813c	-0.02618467
153	0xbd9f0942	-0.07765438
154	0xbd1f2e2b	-0.03886239
155	0x3b7b35c2	0.0038331603
156	0xbd60ceec	-0.054884836
157	0xbd0d961f	-0.034566995
158	0xbc755cc3	-0.014975729
159	0xbc1d489b	-0.00959983
160	0xbd3c6ab7	-0.04600021
161	0x3b83372d	0.00400438
162	0xbc3fa868	-0.011697866
163	0x3cc33c3b	0.023832431
164	0x3b7691cd	0.0037623525
165	0xbd2a7293	-0.041613173
166	0xbceb06d5	-0.028689781
167	0xba7bfc49	-0.00096124836
168	0xbd54fb53	-0.051997494
169	0x3bd5da23	0.006526248
170	0xbbc0be60	-0.0058820695
171	0x3d046ead	0.03233211
172	0x3ca1912e	0.019722547
173	0x3d7f7399	0.062366102
174	0xbb33fdaf	-0.002746444
175	0xbd7c35c1	-0.0615747
176	0x3d18956c	0.037251875
177	0xbd66af38	-0.056319445
178	0xbc3ba68c	-0.011453282
179	0xbcdd0a68	-0.026982501
180	0xbd018372	-0.031619497
181	0xbcfc8db0	-0.03082928
182	0x3d9cd52c	0.07657847
183	0x3d436640	0.047704935
184	0x3cbd3796	0.023097795
185	0x3da0409d	0.07824824
186	0xbd9aa90f	-0.075517766
187	0x3c5c59ae	0.013449116
188	0x3d5a84e6	0.053349398
189	0x3d62c341	0.05536199
190	0xbd87d1cd	-0.06631813
191	0x3cf2f686	0.029658567
192	0xbd426e9c	-0.047468767
193	0xbb553189	-0.0032530746
194	0xbc8e721f	-0.017388402
195	0xbd8e7cbe	-0.069573864
196	0xbda2cb28	-0.07948905
197	0xbd608f7f	-0.05482435
198	0x3d1ae132	0.03781242
199	0x3d1c234c	0.0381196
200	0xbd94717a	-0.072482064
201	0xbd00318a	-0.031297244
202	0x3ab286cf	0.0013620498
203	0xbd938f3e	-0.07205056
204	0x3d40516c	0.04695265
205	0x3d9a93bc	0.07547709
206	0x3c71709f	0.014736324
207	0xbd7d944c	-0.061909005
208	0x3c9f3bfa	0.019437779
209	0x3cf7d34a	0.030252118
210	0x3d872a31	0.06599844
211	0xbd359690	-0.04433304
212	0xbd98e681	-0.0746584
213	0x3d160734	0.036627963
214	0x3baa586e	0.00519853
215	0xbcde6847	-0.027149333
216	0xbd0f3554	-0.034962967
217	0xbd301ecd	-0.042998124
218	0x3d8a1dae	0.06743942
219	0xbc6c8635	-0.014436294
220	0x3d760946	0.060067438
221	0x3d984e65	0.074368276
222	0x3c2bf2d6	0.010494908
223	0x3c912270	0.017716616
224	0xbbba9d48	-0.005695019
225	0x3d6a72fe	0.05723857
226	0xbd99c851	-0.075089104
227	0x3d07c216	0.03314408
228	0xbc5e6640	-0.013574183
229	0x3d1bde2d	0.03805368
230	0xb9c09bd8	-0.00036737206
231	0xbcfcc39a	-0.030854989
232	0xbc134aa5	-0.008989965
233	0x3d385601	0.045003895
234	0xbd6d09b0	-0.057870567
235	0xbd57bbc8	-0.052669317
236	0xbc98e58b	-0.018664142
237	0xbcf790f8	-0.030220494
238	0x3d061f1a	0.032744505
239	0x3d65b6be	0.05608248
240	0xbc121aa9	-0.008917489
241	0x3da16620	0.07880807
242	0xbd0e9a19	-0.034814928
243	0xbd3f8b42	-0.046763666
244	0xbd18cfd2	-0.037307568
245	0xbd6b2840	-0.057411432
246	0xbd6f433e	-0.058413737
247	0xbd9811d2	-0.07425274
248	0xbd97416d	-0.07385526
249	0x3cb228c1	0.021747949
250	0x3d502a7c	0.050821766
251	0x3da03c69	0.07824022
252	0x3d915feb	0.07098373
253	0xbb9d3f00	-0.00479877
254	0x3c847843	0.016170627
255	0xbd4c391e	-0.04985916

conv_3.bias f4 [32]
0	0xbd8cd716	-0.06876962
1	0xbd4ffa55	-0.050775845
2	0x3cfdc157	0.03097598
3	0x3d8485cd	0.06470833
4	0xbd4730bc	-0.04863046
5	0xbd08feb3	-0.033446025
6	0xbd406d1c	-0.046979055
7	0xbbeba456	-0.007191221
8	0xbd8a24e8	-0.067453206
9	0xbd857961	-0.06517292
10	0xbc726e16	-0.014796754
11	0x3dbdce3a	0.0926785
12	0x3c65aab7	0.014017752
13	0xbd02ac99	-0.031902883
14	0x3d6cefce	0.057845883
15	0x3d803ce0	0.06261611
16	0x3d7e3282	0.062059887
17	0x3b46a4b5	0.0030310575
18	0xbbe1b545	-0.006888064
19	0x3d614a20	0.05500233
20	0x3d4d1c30	0.05007571
21	0x3d8c3eea	0.068479374
22	0x3d8d19a3	0.068896554
23	0xbcaf687d	-0.021412129
24	0x3d83444c	0.06409511
25	0x3c6c0efc	0.014407869
26	0x3db190d4	0.08670202
27	0x3dae53ee	0.08512102
28	0x3d99f45b	0.0751731
29	0x3d81a2ec	0.06329903
30	0x3d95294c	0.072832674
31	0xbd21f0c8	-0.039536268

linear_1.weight f4 [1, 25088]
0	0xbb211359	-0.0024578182
1	0xbac0da80	-0.0014713556
2	0xbb53c604	-0.0032314071
3	0x3b97fcf3	0.004638308
4	0x3a1ac07c	0.0005903316
5	0xbad1730f	-0.0015979725
6	0xbb396be1	-0.002829306
7	0xbbb82fad	-0.005620918
8	0x39ef299f	0.00045616642
9	0x3bb5f1be	0.0055524996
10	0x3b881c6a	0.004153778
11	0x3ba42972	0.0050098235
12	0x3b8d860f	0.0043189595
13	0x3b2e4e9c	0.0026597148
14	0xb93a5ff4	-0.00017774088
15	0xbb98e5fd	-0.0046660886
16	0x3b985374	0.0046486203
17	0xbb91592f	-0.0044356803
18	0xbb787d47	-0.0037916468
19	0x3b26474b	0.0025372084
20	0x3b635f04	0.0034694085
21	0xbb573a5a	-0.0032841177
22	0x3b82f25f	0.003996178
23	0xbbc19c98	-0.00590856
24	0x3ac532b8	0.0015045023
25	0x3b36a920	0.0027871802
26	0x3a99b500	0.0011726916
27	0xbb68d379	-0.0035526438
28	0xbb8bb6fa	-0.004263756
29	0x3ba558d6	0.0050459905
30	0x3ab64e84	0.0013908898
31	0xbb31c0d9	-0.0027123003
32	0x3bc73efc	0.0060805064
33	0xbaac8a3f	-0.0013163759
34	0xba99015f	-0.0011673382
35	0x3ad5aded	0.0016302444
36	0x3bac718f	0.0052625607
37	0xbb37fa03	-0.0028072603
38	0x38117482	3.46792e-05
39	0xbb399017	-0.0028314644
40	0xbb3b2906	-0.0028558387
41	0xba60981e	-0.0008567589
42	0xb651a9ed	-3.1242337e-06
43	0x3b5e1b2c	0.0033890707
44	0xbb9a6325	-0.004711526
45	0x3b705c40	0.003667608
46	0x3ba1c5bb	0.0049369014
47	0xba3b38c9	-0.00071419455
48	0xba12dae4	-0.0005602075
49	0x3acc923b	0.0015607545
50	0xbbbd658e	-0.0057799285
51	0x3b9839c4	0.004645558
52	0xba90c2d0	-0.0011044387
53	0x39851f70	0.0002539116
54	0x3b4428e0	0.002993159
55	0x3b2c4950	0.0026288815
56	0xbb3f7298	-0.002921259
57	0xbb97f4c8	-0.0046373345
58	0xbbc793e8	-0.00609063
59	0xbbacc00e	-0.005271918
60	0xbaadf590	-0.0013272036
61	0xbba0994e	-0.004901088
62	0xba259a97	-0.0006317286
63	0xbb5a512f	-0.003331255
64	0x3b6a9f19	0.0035800396
65	0x3b8d96de	0.0043209633
66	0x3baf2c5c	0.005345864
67	0xbb877ffc	-0.00413513
68	0xbb91d211	-0.0044500907
69	0x3b0fe4d8	0.002195647
70	0xbabc2f35	-0.001435733
71	0x3b9d18b8	0.0047942065
72	0xbbbd9bf9	-0.0057864157
73	0x3bc00144	0.005859526
74	0xbb8f5d3c	-0.004375128
75	0xbba5d7a6	-0.0050611077
76	0xba2f1576	-0.0006678918
77	0xbb36f1db	-0.0027915153
78	0xbb81f3a1	-0.0039658104
79	0x3b6c4f1e	0.00360579
80	0x3b9fc77b	0.004876075
81	0x3b665d1c	0.0035150712
82	0x3a4a03c8	0.0007706252
83	0xba6e2938	-0.00090851216
84	0xbb61d2da	-0.0034457953
85	0x3bc52e76	0.0060175015
86	0xbb615b06	-0.003438653
87	0xbbb56243	-0.0055353954
88	0x3baf9813	0.005358705
89	0xba045495	-0.0005048004
90	0x3b8b27e2	0.0042466978
91	0xbb090d70	-0.002091255
92	0x3ba156e6	0.004923689
93	0xbb91a949	-0.004445229
94	0x3b796b5e	0.003805838
95	0x3ba13319	0.0049194214
96	0xb8b20d58	-8.490187e-05
97	0x3b8960b6	0.004192437
98	0x397134ae	0.00023003176
99	0xbbbd2dee	-0.0057732975
100	0x3b35b3a0	0.0027725473
101	0xbba094dc	-0.004900558
102	0x39568382	0.00020457621
103	0xbbb9eaf0	-0.0056737587
104	0xbb44b9bf	-0.003001794
105	0xbaf6460d	-0.0018789187
106	0xbb208f30	-0.002449941
107	0xbbcb4796	-0.006203602
108	0xbb4d7bcb	-0.0031354304
109	0xbbbfac94	-0.0058494303
110	0xbbacf3a6	-0.0052780686
111	0xbbce6186	-0.006298247
112	0xbb6e5e27	-0.0036372037
113	0xbab96ee8	-0.0014147433
114	0x3bba5f5a	0.0056876363
115	0xbb917a0d	-0.0044395984
116	0xbb9d390e	-0.004798061
117	0xbba8483e	-0.005135565
118	0x3bc1bd94	0.005912492
119	0xba51bded	-0.00080010184
120	0xbadb26fa	-0.001671999
121	0x3b63393a	0.003467156
122	0xbb745ab4	-0.0037285509
123	0xbadaa175	-0.0016680198
124	0x3bbd83b6	0.0057835234
125	0x3b5c63dc	0.0033628857
126	0xbba06ad6	-0.0048955483
127	0xbae34c2f	-0.001734143
128	0x3a230bec	0.0006219733
129	0x3b15b3c3	0.0022842742
130	0xbb3e14ed	-0.0029004172
131	0x3b90ffdf	0.0044250335
132	0x38da90fe	0.00010422057
133	0xbbb2b06b	-0.0054531596
134	0x3ade8427	0.001697664
135	0xbbc8a7b5	-0.006123508
136	0x39ea6706	0.00044708716
137	0xbbcc9c05	-0.006244185
138	0xbaec24a3	-0.001801629
139	0xbac082dc	-0.0014687437
140	0xbbb9bea8	-0.00566848
141	0xbae977bf	-0.0017812176
142	0x39647404	0.00021786994
143	0xbb68e72e	-0.0035538184
144	0x3a6bd87d	0.0008996798
145	0x3b5ae257	0.003339907
146	0x3a458a69	0.00075355783
147	0xbbcac501	-0.0061880355
148	0xb7659407	-1.3683929e-05
149	0xbb41b603	-0.002955795
150	0x3aebed0d	0.0017999724
151	0xbba5eff1	-0.0050640036
152	0xbb8f2539	-0.004368451
153	0xb95bc604	-0.00020959234
154	0x3b6e97ef	0.0036406477
155	0xbadcf221	-0.0016856828
156	0xb9b0a2f1	-0.00033690737
157	0xba25bf05	-0.00063227146
158	0xbba1f118	-0.0049420707
159	0xba020f05	-0.00049613445
160	0xb9343218	-0.00017184799
161	0x3a89b8de	0.0010507365
162	0x3b3990ba	0.0028315024
163	0x3af74907	0.0018866368
164	0x3b6725ce	0.0035270336
165	0xba9d3c8d	-0.0011996195
166	0xbb32c55a	-0.0027278275
167	0x3bafc939	0.005364564
168	0x3ba53a5c	0.0050423574
169	0x3b61bfa8	0.0034446511
170	0x3b96ec52	0.0046058083
171	0x3b4ae995	0.003096198
172	0x3bb70f04	0.005586507
173	0x3bb44b61	0.00550215
174	0xbba7e97a	-0.005124268
175	0xbbc2b9bc	-0.0059425514
176	0xbb5673dc	-0.0032722866
177	0x3b9e2386	0.004826012
178	0x3bbacb0c	0.0057004746
179	0x39d9382c	0.00041431317
180	0xbb98d520	-0.0046640784
181	0xbb424d0c	-0.0029647974
182	0x3b44de3c	0.0030039689
183	0x3bc0d7f8	0.0058851205
184	0x3aa070ed	0.0012240686
185	0xbb884a15	-0.004159222
186	0x3bc392af	0.005968414
187	0x3bb54c3e	0.0055327704
188	0xbb353cc2	-0.0027654623
189	0xbb5f1738	-0.003404094
190	0x3b6e42a9	0.003635565
191	0xbb9547ed	-0.0045556934
192	0x3bacf1e0	0.005277857
193	0xbaa5ccb1	-0.0012649504
194	0xb8adadba	-8.281642e-05
195	0xbb5ccf32	-0.0033692834
196	0xbbcc3e46	-0.0062330095
197	0x3abb7e09	0.0014304529
198	0xbb133f35	-0.0022468094
199	0xbb722835	-0.0036950235
200	0x3ba52998	0.0050403588
201	0x3a9a90ea	0.0011792455
202	0xbadd31f8	-0.0016875854
203	0xbbbebdca	-0.0058209645
204	0xbb690952	-0.0035558534
205	0xbb073e3c	-0.002063646
206	0x3b2df78c	0.0026545255
207	0xbbbc7307	-0.005751017
208	0x3b6f6a94	0.0036532031
209	0x3bbc58c4	0.0057478864
210	0x3b0040a1	0.0019569772
211	0xbbcd404d	-0.0062637688
212	0x3a592c71	0.00082845154
213	0xbb26e617	-0.0025466734
214	0x3b02bc7c	0.0019948771
215	0xb981805e	-0.00024700438
216	0x3b49e5d8	0.0030807164
217	0xba05ae3e	-0.00050995115
218	0x3a9644ac	0.0011464558
219	0x3b253f9d	0.0025214918
220	0xbb990ca9	-0.0046706987
221	0x3a8acf4b	0.0010590343
222	0x3bb89f74	0.0056342427
223	0x3b909688	0.004412476
224	0x39d2a2b4	0.00040175545
225	0xba9137cd	-0.0011079252
226	0x3b2b5b37	0.0026146898
227	0xbbb5a33a	-0.0055431398
228	0xbaf81436	-0.0018926922
229	0x3bb3acd7	0.0054832506
230	0x3a553f98	0.00081347814
231	0xb8b5c66d	-8.667712e-05
232	0xbba3002f	-0.004974387
233	0xbb86254a	-0.0040938007
234	0x3a656732	0.0008751034
235	0xbb9b667d	-0.004742442
236	0xbaee8071	-0.0018196238
237	0xbb4b96eb	-0.0031065296
238	0x3aff65b0	0.0019485261
239	0x3a7d62f4	0.0009665929
240	0xbbc78fa0	-0.0060901195
241	0x3b08b8bc	0.0020862063
242	0xba150979	-0.00056853105
243	0xbb48bbb0	-0.0030629449
244	0x3b984261	0.004646585
245	0xbb883537	-0.0041567343
246	0xbbbc8f37	-0.005754377
247	0x3a3622c9	0.00069479324
248	0xbb603cb6	-0.0034215874
249	0xbb27d16c	-0.0025607003
250	0xbbb4ace5	-0.0055137747
251	0xbacd4851	-0.0015661811
252	0x3ba4b09e	0.005025937
253	0xbbbb9828	-0.0057249255
254	0xbb8bc131	-0.0042649736
255	0xbab43085	-0.001374737
