models/4/ConvNet_0.pth (torch, 127512 bytes, 7 tensors)

conv_1.weight f4 [8, 1, 3, 3]
000000 36 cb ff 3d 05 1b 16 3e 71 93 50 be 3d 9b 33 3e
       0.12489931 0.14658745 -0.20368744 0.17539687
000010 79 20 50 be 4c 23 7b bd 3b 0c 94 be 74 0e 86 3d
       -0.20324887 -0.06131296 -0.2891558 0.065457255
000020 9d 00 27 3e fd 13 80 be e4 d4 8f 3e 1b ef 5e 3d
       0.16308828 -0.2501525 0.2809211 0.054427247
000030 72 e5 72 3e 62 d7 0e 3d c9 c0 1b 3e 75 fe 60 bd
       0.23720339 0.034873374 0.1521026 -0.05493017
000040 1e da 7d 3e f2 7a 2d 3d 18 59 1f be b4 02 ae 3d
       0.24790236 0.042353578 -0.1556133 0.08496609
000050 c8 43 1d be d8 1d 20 bd a8 a2 0a be 3e 6e 62 3e
       -0.15357888 -0.03909096 -0.13538611 0.22112367
000060 1c b8 86 be b3 5b 1d be 90 c4 c0 bd 4f 3e 4d be
       -0.2631234 -0.15367012 -0.09412491 -0.200433
000070 b7 da 00 3d c6 8f a8 be 5c 13 9a 3e a1 08 91 be
       0.031458583 -0.3292219 0.30092895 -0.28326896
000080 76 b5 83 3e 8e a9 62 3d 44 e6 dd bd 1d d1 52 3e
       0.2572438 0.05533748 -0.10834935 0.20587583
000090 6b 3a a7 3d 23 0d 98 3e b6 e4 81 3d d6 3a 9c bd
       0.08165439 0.29697523 0.06342451 -0.076284096
0000a0 ab b8 ef 3d 4d 58 82 bd f1 55 2e 3e 34 5f a7 3e
       0.117051445 -0.06364498 0.17024972 0.32689822
0000b0 6c 3e 62 3e 91 3c 23 be d1 f7 35 3e 14 bf 3c 3d
       0.22094125 -0.15941073 0.17770316 0.046080664
0000c0 12 2e 1f 3e 42 94 5c be bc a7 ae be ad f3 0f be
       0.15544918 -0.21540931 -0.34112346 -0.14057799
0000d0 f1 c4 88 be 18 30 85 3e 4b 34 bd 3d 79 50 07 3e
       -0.26712754 0.26013255 0.0923849 0.13214292
0000e0 1f 1b d9 3d ec 82 24 bc 52 0c 83 3e e2 b9 6c be
       0.10600876 -0.01004098 0.25595337 -0.23117784
0000f0 85 93 a9 3c 3a 6f 65 be a4 15 dd 3d 19 d1 6d be
       0.020700226 -0.22405711 0.10795143 -0.23224296
000100 88 eb 77 bc 41 20 3c be ff 43 1e 3e 02 de a0 be
       -0.015131839 -0.18371679 0.15455626 -0.3141938
000110 bb eb 9f be 5b 86 a2 be 11 2a 34 3e a8 19 34 bc
       -0.31234536 -0.3174313 0.17594172 -0.010992445

conv_1.bias f4 [8]
000000 c4 ca 78 bd 82 bb ae be bb 47 a9 be ee 96 85 be
       -0.060740247 -0.34127432 -0.33062539 -0.26091713
000010 57 5e 1e be 50 f5 03 bb 70 35 fd be c9 90 4b be
       -0.15465675 -0.0020135231 -0.49454832 -0.1987945

conv_2.weight f4 [16, 8, 3, 3]
000000 83 7a 7b bd 89 72 a5 bd bb 1e 7e 3d e7 72 42 bd
       -0.061396133 -0.080784865 0.062041026 -0.04747286
000010 79 2a 93 3d c2 47 e2 bc 7e 1f 8b 3d ca dc b9 bd
       0.071858354 -0.027622107 0.06793116 -0.09075315
000020 13 8e 70 bd a4 7f 11 3d 2c 7e c7 3c 1f 81 fc bc
       -0.058729243 0.03552212 0.024352156 -0.030823288
000030 e5 8a 8e 3d 41 9f a2 3d a5 bb b0 bd 45 4b 82 bd
       0.06960086 0.079405315 -0.0862954 -0.06362013
000040 ec 5f db 3d 7d ab 26 bd ac 21 2b bd ac 89 e9 bd
       0.10711655 -0.040690888 -0.04178016 -0.11403212
000050 1c 38 8a bd 6c 2b f1 3c b0 dc 7e bc ff 32 af bd
       -0.06748983 0.02943965 -0.015555546 -0.085546486
000060 e0 2a 35 3b 32 de a4 bd ad c4 cc bd 4f e7 84 bd
       0.0027643964 -0.08050193 -0.099984504 -0.06489431
000070 28 3e d3 bd fb ad 99 bd fb 43 f1 3d 5a 58 b6 3c
       -0.1031459 -0.07503887 0.11780544 0.022258926
000080 59 c0 14 3d 9f 1c e1 bd 78 84 9e bd 43 ae 20 bd
       0.03631625 -0.10991787 -0.0774011 -0.03922869
000090 a8 c8 96 3c 60 64 d4 bd c9 ff 4f bd fe 87 90 bd
       0.018406227 -0.103707075 -0.050781045 -0.070571885
0000a0 6b d4 a9 39 17 9b 33 bd df 4d 06 bc 90 8d a3 bd
       0.00032392456 -0.043849077 -0.008197277 -0.07985985
0000b0 20 b5 a5 bd ab e8 8e bd 7a b6 28 bd d8 26 c0 bd
       -0.080911875 -0.06977972 -0.04118965 -0.09382409
0000c0 58 49 c8 3d eb 14 c6 bc 5e fd cd 3d 81 09 12 3d
       0.09779614 -0.024179896 0.100580916 0.035653595
0000d0 16 09 ce bd fd 32 a5 3d 76 6d 24 bd e8 8d 58 bd
       -0.10060327 0.08066366 -0.040143453 -0.052869707
0000e0 60 20 d8 bd 0a 67 ff bd e4 63 d4 3c 21 a7 09 bd
       -0.1055305 -0.12470825 0.025926538 -0.033606652
0000f0 f6 5b 1b 3d 3b ab d6 bd 3e 53 a1 3d 0e 65 d7 bd
       0.037929498 -0.10481878 0.07877205 -0.105173215
000100 2d f6 20 bd 7a c1 b9 3b dc d4 2b 3d c7 fd 9b 3d
       -0.03929727 0.005668816 0.041951045 0.076167636
000110 12 75 b4 3d c9 c4 e2 bd 31 90 47 3c 80 70 8b bd
       0.08811392 -0.1107269 0.012180374 -0.06808567
000120 e6 98 94 bc 2f 84 c1 bd 19 42 ce 3d 5c cf bb bd
       -0.018139314 -0.0944904 0.10071201 -0.0917041
000130 53 8a 68 3d ac 3c 0e 3d 0a 69 05 3d 3d d7 8e bd
       0.05677254 0.03472583 0.032570876 -0.06974647
000140 bb 6f ce 3d ff d0 e6 3c 02 cd 92 3c d3 dc ce bd
       0.10079905 0.028175829 0.017920021 -0.101007126
000150 2e a6 53 3d 8f 65 6c bc ed d3 4f bd ef ab d4 3d
       0.051672153 -0.01442851 -0.050739218 0.10384356
000160 8a 0a f5 3c 40 26 7c bd 8e 52 74 bd a0 6b b8 bb
       0.029912252 -0.061559916 -0.059649043 -0.0056280643
000170 fd c3 86 3d a0 b3 f6 bc a4 b6 89 bd ac 4d 25 bd
       0.065803505 -0.030114949 -0.06724289 -0.040357277
000180 36 50 b4 bd 2a 27 2c 3d 59 d2 ba 3d 0c 4c e3 bd
       -0.088043615 0.042029537 0.09122152 -0.11098489
000190 b2 ff df 3c 34 37 79 3d 1e e0 ae 3c c5 08 2c bd
       0.027343605 0.06084366 0.021347102 -0.04200055
0001a0 26 e3 7b 3d 47 b5 7d 3d 80 82 34 3d 80 90 a9 bc
       0.061495923 0.061940458 0.044069767 -0.020698786
0001b0 dd 5b 25 bd 6b 76 98 3b 48 ed eb bc 3a cc 33 bd
       -0.04037081 0.0046527884 -0.028799668 -0.043895938
0001c0 08 77 8b 3d 41 ed bf 3d 32 fc 9b bc dc 58 04 bd
       0.06809813 0.093714245 -0.019041155 -0.032311305
0001d0 49 57 92 bb f1 e0 b8 bb 84 6c f2 3c 8e bf 0c 3d
       -0.0044659716 -0.0056420495 0.02959276 0.03436237
0001e0 da c2 d8 bd 0f 73 2d bd 39 f3 cd 3d 2e 4f 41 3d
       -0.1058404 -0.042346057 0.10056157 0.047194652
0001f0 83 79 95 bb c8 09 8f bd 36 7a b3 bd 55 76 f8 bd
       -0.0045616045 -0.069842875 -0.08763544 -0.12131945
000200 91 a5 5f bd 21 c0 c6 3c 99 da 71 3d 74 20 1c 3d
       -0.054601256 0.024261536 0.05904636 0.038116887
000210 8d 11 f5 bd 7f 8a b1 bd 1d 93 0e bd d3 13 c9 3d
       -0.11966238 -0.08668994 -0.034808267 0.09818234
000220 7a 75 92 3a db ed 3d bd 7d e0 06 3d be 6c 78 bd
       0.0011173927 -0.046369415 0.032928932 -0.06065058
000230 56 be bc bd 25 87 8f 3d a1 e8 8d bd 2f ad 21 bd
       -0.09215991 0.07008199 -0.06929136 -0.0394718
000240 d0 f7 f7 bd 28 c9 98 3d 69 35 ad 3d e3 04 1f 3d
       -0.12107813 0.074602425 0.08457453 0.03882302
000250 c5 c7 b0 bd f2 ac f6 bd fc 0c cb bd e2 e4 ac 3d
       -0.08631853 -0.120447055 -0.09914586 0.084420934
000260 e4 d2 5b 3d b4 54 c4 3d d9 79 72 3d 97 08 e3 3c
       0.053667918 0.09586468 0.059198234 0.027714057
000270 4c af b8 bb 2d d0 c0 bd a4 9c d6 bd 1d 57 eb bd
       -0.0056361314 -0.094147064 -0.104790956 -0.11491225
000280 78 1f 32 3d cb ef 7f bd ec 4b c2 bc 48 e7 8a bd
       0.043487042 -0.062484544 -0.023717843 -0.06782395
000290 e0 ec af bc 81 e0 a9 bd 34 b5 9d bd 72 1f 20 3d
       -0.021475255 -0.08294774 -0.077005774 0.03909249
0002a0 4e 76 0f bd 5d 00 95 3d 38 dc 1a bd c0 0e b1 bd
       -0.035024934 0.0727546 -0.037807673 -0.086453915
0002b0 57 67 aa bc 0b 05 6a bd 66 b4 13 bd 2a c0 e5 bd
       -0.02080123 -0.057133716 -0.036060713 -0.11218293
0002c0 da 0a 87 3d d4 09 a8 bd b2 9e 72 3d 57 17 5b 3d
       0.06593867 -0.082049996 0.059233375 0.053489055
0002d0 e1 35 65 3d f3 8e e9 bd a4 18 87 3d 9b 0a b5 bd
       0.055959586 -0.114042185 0.06596497 -0.088399135
0002e0 55 60 7b 3c f3 a2 b4 3d 2e a2 50 bd a2 6a 05 bd
       0.015342792 0.088201426 -0.050935917 -0.032572396
0002f0 7b c8 5e bd 67 ad ce bd 40 a3 5d 3d 09 55 f4 bd
       -0.05439041 -0.100916676 0.054110765 -0.11930282
000300 fd b4 91 3d 66 21 b0 3d 8f 33 e0 3d f1 4f f5 bc
       0.07114599 0.0860012 0.10947334 -0.029945346
000310 61 a5 ca bd bc 53 c9 3c c5 4f 6d 3d 7b 87 ff bd
       -0.09894825 0.02457606 0.057937402 -0.12477013
000320 79 2d 0a bd e8 7a 9e bd 03 94 8e bc b2 97 84 bd
       -0.033734772 -0.07738286 -0.017404562 -0.06474246
000330 2f 6b 5b bd 4d 2f 31 bd 92 ab f0 bd 70 1b c3 3d
       -0.053569015 -0.043258 -0.117514744 0.09526718
000340 79 75 c6 3d 2d c7 9e bc 0b 11 73 bc 79 c0 4c bd
       0.09690375 -0.019382084 -0.014835606 -0.049988244
000350 fd c4 db bd 44 06 e9 bd cf 1e 35 3d e5 a4 81 bd
       -0.10730932 -0.11378148 0.044218834 -0.06330279
000360 cb 2b 9b bd fc 02 17 bc 95 d3 20 bd 29 49 1c bd
       -0.07576712 -0.00921702 -0.03926428 -0.03815571
000370 d3 70 76 3b 16 eb cc bc 5b 5e 26 bd 70 1a 67 bd
       0.003760387 -0.025014441 -0.040617328 -0.056421697
000380 6d 6f c4 bd 2f 71 ca 3d ab b5 41 bd 1f 61 fd 3c
       -0.09591565 0.09884869 -0.047292393 0.0309301
000390 c2 17 28 bd 83 a7 1a 3c 68 d7 e0 3d f9 dc 5d 3d
       -0.041038282 0.009439352 0.109785855 0.054165814
0003a0 14 5a d1 bd 6c 6f 3f 3d c1 1b e5 3d 84 fd fd 3c
       -0.10222259 0.04673712 0.11186934 0.031004675
0003b0 29 d0 a1 3d f3 f3 ed 3d d0 ee 93 bc 74 61 c8 3c
       0.079010315 0.11618795 -0.01805821 0.024460532
0003c0 c8 c0 a7 bd 50 f4 c6 bc 25 bf b2 3d 78 73 77 3d
       -0.08191067 -0.02428642 0.08727864 0.060412854
0003d0 b5 bc 98 bd 2a 87 c1 bd ab ef a4 bd 59 33 ee bd
       -0.07457868 -0.094496086 -0.080535255 -0.116308875
0003e0 ce 3b ba bd 7f c1 ee bc 5d e5 a2 3d 08 9b a1 3c
       -0.09093438 -0.029145 0.07953904 0.019727245
0003f0 9a a9 b7 bd 67 48 c3 bd 9b 4e 66 3d aa 6c b3 bd
       -0.08967896 -0.09535294 0.056227308 -0.087609604

conv_2.bias f4 [16]
000000 50 19 81 bc 55 0f 17 bc 9c c8 02 be df 36 63 bd
       -0.01575914 -0.009219964 -0.12771839 -0.05547225
000010 0b 4d 06 be 34 dd 07 bd 73 9e 41 bc 32 58 5e bf
       -0.13115327 -0.03316994 -0.011817562 -0.86853325
000020 a4 07 12 be 01 01 d2 bc 0b 83 90 be a9 d4 79 bd
       -0.14260727 -0.025635244 -0.28224978 -0.060993824
000030 24 0c b2 bd 20 c9 6d bd db 61 12 be 31 92 c3 be
       -0.08693722 -0.058053136 -0.14295141 -0.38197473

conv_3.weight f4 [32, 16, 3, 3]
000000 29 cd 1a bd 50 dd 04 3c 42 73 1e bc 25 4a a9 bd
       -0.037793312 0.008109406 -0.009671034 -0.08266095
000010 cc dd 78 bc 1a 90 02 bc e1 76 c9 bc 39 c0 9c 3d
       -0.015189599 -0.007968927 -0.024592819 0.07653851
000020 c6 eb 94 bc 4d d7 5b 3d 38 5d aa 3c b8 c3 8f bd
       -0.018178832 0.053672124 0.020796403 -0.07019752
000030 5d 3d a1 3c ca 8b 8d 3d bf e3 5e bd 5e 68 5c bd
       0.01968258 0.06911428 -0.054416414 -0.05381047
000040 09 32 a7 3d a3 4c 89 3d d1 7e 3e bd 38 61 4d 3d
       0.0816384 0.067040704 -0.04650766 0.050141543
000050 09 6d 2d bc f8 18 a8 bd 8a 17 d0 3b 73 0f dd 3c
       -0.010585078 -0.082078874 0.0063504623 0.026984906
000060 61 57 cc bc 92 55 ee 3c de da 91 bd 45 56 6c 3d
       -0.02494401 0.029093537 -0.07121824 0.05769946
000070 89 61 91 3d 05 38 3c 3d 04 ca 66 3c 01 5e e0 3c
       0.070986815 0.045951862 0.01408625 0.027388575
000080 ca 04 77 bd c7 25 ab bc d1 88 02 bc 39 f9 3d bd
       -0.0603073 -0.020892037 -0.00796719 -0.046380255
000090 f3 2a 7c bd f7 c1 65 3d 52 fe 67 3d 93 24 9b bd
       -0.061564397 0.056093182 0.056639023 -0.07575335
0000a0 ff 03 d9 3c f6 c9 0a 3d 96 d8 a1 3d 3d 47 45 3d
       0.026491163 0.03388401 0.079026386 0.04816364
0000b0 f4 dc 9c 3d 39 83 df bc e9 0d 6f 3d 1b d2 8a 3d
       0.07659331 -0.027284252 0.058362875 0.06778356
0000c0 6c 2d a1 bd 2f fe 88 bd ec 2c 8a 3c 82 61 3a 3d
       -0.07869992 -0.06689107 0.016867124 0.045503147
0000d0 30 94 29 bd c8 5e 16 3c 2e 2c de 39 c5 97 b1 3c
       -0.04140109 0.009177871 0.00042376056 0.021678815
0000e0 36 5d 35 bd 46 16 43 3d c7 3e 65 3d 54 b7 6a bd
       -0.044278346 0.047628663 0.055968072 -0.05730374
0000f0 31 d0 ba 3a 0b 3e 54 3a 1d 30 e0 3c d1 e0 9f 3d
       0.001425272 0.00080964033 0.027366692 0.07806552
000100 7d b5 cc 3c 5e b7 97 bc 12 20 9a 3d c1 09 00 bd
       0.024988884 -0.018520053 0.07525648 -0.031259302
000110 6b 1f c3 bc c6 e2 c1 3b fa 70 81 bd d7 35 18 3c
       -0.023818692 0.005916926 -0.06320377 0.00929018
000120 b2 57 64 bd fd 03 17 3c 4d fa 0b 3c 08 e4 45 3c
       -0.055747695 0.0092172595 0.008543563 0.012078293
000130 35 a5 8e bd 03 c8 a0 bd 5d 53 1f 3d 52 8c 93 3d
       -0.069651045 -0.07850649 0.03889786 0.07204498
000140 51 2d 96 bd 82 0f fd 3c 68 f8 7b bd f7 bc a4 3b
       -0.07332862 0.030891184 -0.061516196 0.005027409
000150 2c c5 9e 3d 9f cb 80 3d c0 c9 79 bd bd 47 52 3d
       0.07752451 0.06288838 -0.06098342 0.051337946
000160 41 cd 31 3d 6d bc 12 b9 aa 2b a5 3d 3f cf 07 bd
       0.043408636 -0.00013993839 0.08064969 -0.03315663
000170 96 71 9f bc 1c d1 2c bd 47 a9 43 3c 0b 45 b4 3c
       -0.019463342 -0.04219161 0.011942214 0.022005579
000180 c3 e4 d6 3b 92 4d 40 bd 2e d5 19 bd 1e 89 ef 3c
       0.0065580322 -0.046948977 -0.03755682 0.029240187
000190 27 c8 93 bd 30 43 47 bc be bc 75 ba 07 eb 06 bd
       -0.072159104 -0.012162015 -0.0009374133 -0.032938983
0001a0 ac ba fe 3c b9 38 ca 3b 5d c5 72 3d 1a e6 d9 bb
       0.031094871 0.0061713126 0.05927025 -0.0066497447
0001b0 73 ab 57 bd 04 06 71 3d 6a 57 3e 3c 0a 36 c4 bc
       -0.05265374 0.058843628 0.011617521 -0.02395155
0001c0 2c 2a 61 bd b0 05 a0 3c 02 d9 a2 bd 8b dd b3 3c
       -0.05497186 0.019533962 -0.07951547 0.021956226
0001d0 e8 0c 29 3d 23 b7 95 bd 39 76 5f bd ea 65 75 bd
       0.041272074 -0.07310321 -0.054556105 -0.059911646
0001e0 76 70 8f 3d c1 13 91 3d e0 e2 aa 3b 85 3b a0 3d
       0.07003872 0.07083846 0.005215034 0.078238524
0001f0 d6 4a e4 bc eb b4 a5 bd c3 40 f4 3c 41 1a f6 3c
       -0.027867716 -0.08091148 0.029816037 0.030041816
000200 fc 32 a8 3d 69 fb 51 3a 64 c2 83 3d e9 26 53 3d
       0.082128495 0.00080101803 0.064335614 0.05155078
000210 1d 32 7a 3d 55 4c a8 bd e0 aa 8d 3d 4e 67 91 bd
       0.061082948 -0.08217684 0.069173574 -0.07099782
000220 38 10 99 3d 5b 79 5f bb cd 3e 97 bd 62 e8 bd 3c
       0.074737966 -0.0034099433 -0.07385025 0.023182098
000230 02 ee 8a bc 95 66 99 bd 07 9d f7 bc e7 e1 0c 3c
       -0.016959194 -0.07490269 -0.030226244 0.008598781
000240 fb f2 84 3d 6c da d1 bc da bd 4a 3d ea 0a 2b 3c
       0.06491657 -0.025616847 0.049497463 0.010439614
000250 26 3c 38 3b 10 aa 82 3c 38 f9 5f bd d2 da 8d bd
       0.0028112023 0.015950233 -0.054681033 -0.06926502
000260 40 60 d6 bc 57 28 9f bd ca 5d 1f bd 3d 30 79 3b
       -0.026168942 -0.07771366 -0.038907804 0.0038023137
000270 e0 fe 60 bd 4e b5 0d bd 91 c2 75 bc 44 cb 1d bc
       -0.054930568 -0.034596734 -0.0150000015 -0.009630982
000280 2b 75 3c bd 02 fe 81 3b 2d 96 43 bc 3f 54 c1 3c
       -0.046010178 0.0039670477 -0.01193766 0.023599742
000290 4e 7e 66 3b c9 51 2b bd 3a 0f ed bc 26 ca 9d ba
       0.0035170498 -0.041826043 -0.028937925 -0.0012038394
0002a0 4e cd 55 bd 74 de cc 3b 0f 74 cb bb ad 53 04 3d
       -0.052197747 0.0062521044 -0.0062089036 0.032306362
0002b0 a3 03 a2 3c 27 7f 7f 3d 9b c0 37 bb f5 38 7c bd
       0.019777125 0.06237712 -0.0028038386 -0.061577756
0002c0 ce 8f 18 3d 02 ed 66 bd ed ea 3b bc 42 eb dc bc
       0.037246518 -0.056378372 -0.011469585 -0.026967648
0002d0 8e b2 01 bd 1c 51 fc bc 24 0c 9d 3d 3d 44 43 3d
       -0.031664424 -0.030800395 0.07668331 0.0476725
0002e0 de b3 bd 3c 08 63 a0 3d b7 b8 9a bd d8 86 5e 3c
       0.023157056 0.07831389 -0.07554763 0.013581954
0002f0 0c e0 5a 3d 5c ca 62 3d 43 c6 87 bd 7b 1a f3 3c
       0.053436324 0.055368766 -0.06629612 0.029675713
000300 79 66 42 bd 65 32 53 bb 2c 56 8e bc b0 71 8e bd
       -0.047461007 -0.0032226082 -0.017375074 -0.06955278
000310 76 c3 a2 bd c9 8c 60 bd 72 e9 16 3d e8 3d 18 3d
       -0.079474375 -0.054821763 0.036843725 0.037168413
000320 34 fc 95 bd c5 f7 03 bd 7f 96 e8 39 de 88 95 bd
       -0.073234946 -0.032218713 0.00044362617 -0.07301496
000330 3d e4 3b 3d 1e 77 98 3d 65 83 61 3c 4b 98 7d bd
       0.04587196 0.07444595 0.013764237 -0.061912816
000340 e5 11 9f 3c 27 bf f7 3c 95 24 87 3d 89 ad 35 bd
       0.019417712 0.030242516 0.06598774 -0.04435495
000350 81 eb 98 bd 6e f6 15 3d c2 cb a9 3b 20 7b de bc
       -0.07466794 0.036611967 0.0051817605 -0.02715832
000360 1d 69 1d bd 66 77 40 bd 37 5c 82 3d 9e dd 91 bc
       -0.038430322 -0.046988867 0.06365245 -0.01780587
000370 6e c3 64 3d 29 be 8f 3d bf 5e e0 3b 48 aa 5f 3c
       0.05585044 0.07018692 0.006847232 0.013651438
000380 f7 d8 1e bc ce ea 69 3d 5d d1 99 bd 72 de 07 3d
       -0.009695283 0.057108693 -0.07510636 0.033171125
000390 f4 6f 5f bc fc e9 1a 3d 54 f1 b0 b9 de 70 fe bc
       -0.013637532 0.0378208 -0.0003374914 -0.031059679
0003a0 63 bd 17 bc 4b 3d 38 3d a1 76 6c bd 2a b8 56 bd
       -0.009261462 0.04498033 -0.05773032 -0.052421726
0003b0 38 9c 96 bc a1 64 f6 bc 79 30 07 3d 8d a1 66 3d
       -0.018385038 -0.03007728 0.03300521 0.05630641
0003c0 c7 0a 0f bc 28 cf a1 3d 50 32 0e bd e3 52 42 bd
       -0.008730597 0.0790084 -0.03471595 -0.04744233
0003d0 39 f2 1b bd 9e 5f 6f bd 5a 09 72 bd e4 ee 99 bd
       -0.0380728 -0.058440797 -0.05909095 -0.07516268
0003e0 0b 8b 99 bd 37 e0 ab 3c 31 3f 4c 3d b0 31 9e 3d
       -0.074972235 0.020980937 0.04986495 0.07724321
0003f0 65 09 91 3d 43 da 9f bb 61 0b 84 3c fa 95 4c bd
       0.0708187 -0.0048783137 0.016118707 -0.049947716

conv_3.bias f4 [32]
000000 1a 61 89 bd 6f c6 6e bd bf 07 e6 bc f7 36 7c be
       -0.06707974 -0.05829471 -0.028079866 -0.24630342
000010 0a 88 36 bd c9 c1 bb bc e7 00 45 bd 70 49 2f bd
       -0.04456333 -0.022919552 -0.048096564 -0.042794645
000020 f8 cc 9a bd f8 a2 8d bd c7 13 00 bf 9d 4e 47 bd
       -0.07558626 -0.069158494 -0.5003018 -0.048658956
000030 42 12 06 bf db 65 14 be ee 0c 59 bd d6 b5 90 bd
       -0.5237161 -0.1449198 -0.052990846 -0.070659325
000040 36 9a 12 be b3 f8 6b bd 40 55 c6 be dd 58 d1 bd
       -0.1431664 -0.057610225 -0.38736916 -0.102220275
000050 a1 ef 10 be 62 04 6c bd 7e da e4 bc c2 6c 32 be
       -0.14153911 -0.057621367 -0.027936216 -0.174243
000060 2f a9 5e bd b1 8d 40 be 52 16 ce bd c9 3e 0c be
       -0.054360565 -0.18804051 -0.10062851 -0.13695826
000070 b5 fa 71 be c8 d6 78 be 84 19 78 bd ec 67 84 bd
       -0.23630793 -0.24300683 -0.06057121 -0.06465134

linear_1.weight f4 [1, 25088]
000000 fc 12 21 bb 80 da c0 ba 04 c6 53 bb fa fe 97 3b
       -0.0024577966 -0.0014713556 -0.0032314071 0.00463855
000010 b0 b7 1a 3a 80 96 d1 ba aa 60 39 bb fd 2f b8 bb
       0.00059020054 -0.0015990287 -0.0028286376 -0.005620955
000020 30 80 ed 39 ed 7f c9 3b fe f4 99 3b 61 c8 ba 3b
       0.0004529967 0.006149283 0.004698395 0.0057001566
000030 20 9f 9a 3b 07 06 46 3b bf 22 a9 39 e2 dc 76 bb
       0.004718676 0.0030215995 0.0003226008 -0.0037668278
000040 c8 f3 ac 3b 85 f3 79 bb b7 8d 46 bb eb 5e 4f 3b
       0.0052780844 -0.0038139534 -0.003029687 0.003164227
000050 dc 3b 63 3b 9e 50 57 bb 00 ed 82 3b 98 9c c1 bb
       0.003467313 -0.0032854448 0.0039955378 -0.00590856
000060 b8 32 c5 3a 20 a9 36 3b 00 b5 99 3a 24 d3 68 bb
       0.0015045023 0.0027871802 0.0011726916 -0.003552624
000070 fa b6 8b bb d6 58 a5 3b 84 4e b6 3a d9 c0 31 bb
       -0.004263756 0.0050459905 0.0013908898 -0.0027123003
000080 ac 43 c7 3b a0 ba ac ba 38 06 99 ba bd 54 14 3b
       0.006081065 -0.0013178177 -0.0011674827 0.0022633516
000090 71 08 c4 3b a2 50 08 bb ef 29 15 3a 55 86 04 bb
       0.0059824516 -0.0020800014 0.00056901475 -0.002022167
0000a0 f8 7f 1c bb 7f a8 01 ba 4d d7 f9 39 d1 e9 7c 3b
       -0.0023879986 -0.00049460673 0.00047653393 0.0038591514
0000b0 9f 89 86 bb d4 4c 88 3b e9 40 b0 3b f5 a3 8a 38
       -0.004105761 0.0041595493 0.0053788316 6.610892e-05
0000c0 22 0f 1f 3a 70 d8 2a 3b eb 66 bd bb c4 39 98 3b
       0.00060676236 0.0026068948 -0.005780091 0.004645558
0000d0 d0 c2 90 ba 70 1f 85 39 e0 28 44 3b 50 49 2c 3b
       -0.0011044387 0.0002539116 0.002993159 0.0026288815
0000e0 98 72 3f bb c8 f4 97 bb e8 93 c7 bb 0e c0 ac bb
       -0.002921259 -0.0046373345 -0.00609063 -0.005271918
0000f0 90 f5 ad ba ed 9a a0 bb 4e 1f 31 39 08 93 1e bb
       -0.0013272036 -0.004901281 0.00016891697 -0.0024196524
000100 0e d0 90 3b 0c 8b 9b 3b b2 00 b5 3b 2a f6 73 bb
       0.0044193333 0.0047468003 0.0055237645 -0.0037225583
000110 18 aa 7f bb b1 01 35 3b f4 68 57 ba 21 3f af 3b
       -0.0039011296 0.0027619416 -0.00082172384 0.0053481017
000120 77 74 b1 bb e7 c5 c5 3b 5a bb 86 bb c8 a4 9d bb
       -0.005415495 0.0060355547 -0.0041116895 -0.004810903
000130 4c 5d 9e b8 41 ad e0 ba 7c 84 25 bb d4 37 6c 3b
       -7.551405e-05 -0.0017141477 -0.0025255969 0.0036044018
000140 0c c7 9f 3b 1c 5d 66 3b c8 03 4a 3a 38 29 6e ba
       0.004876023 0.0035150712 0.0007706252 -0.00090851216
000150 9f c0 61 bb 76 2e c5 3b 06 5b 61 bb 12 63 b5 bb
       -0.0034447087 0.0060175015 -0.003438653 -0.0055354917
000160 21 f2 b2 3b 1e 83 4c 39 44 38 a6 3b bc 0a b6 ba
       0.005460993 0.00019503801 0.0050726254 -0.0013888697
000170 64 ab ba 3b d1 5f 6a bb bc 0f 99 3b 48 d7 bb 3b
       0.005696701 -0.0035762677 0.004671065 0.0057324506
000180 aa 53 23 3a cf 95 a3 3b 71 fd a2 3a b1 38 9a bb
       0.00062304235 0.004992224 0.001243515 -0.004706465
000190 d4 f4 7c 3b b2 b4 79 bb 3e c5 80 3a 0f ac ac bb
       0.0038598077 -0.0038102088 0.0009824408 -0.0052695344
0001a0 91 b4 2c bb 64 31 aa ba 1a d7 c7 ba 78 35 a4 bb
       -0.0026352743 -0.001298469 -0.00152466 -0.005011257
0001b0 ae 5f 4a bb 66 b0 bf bb 41 f4 ac bb 03 f9 cd bb
       -0.0030879783 -0.0058498858 -0.005278141 -0.006285788
0001c0 3d 5a 6e bb e8 6e b9 ba 5a 5f ba 3b d4 8a 91 bb
       -0.0036369704 -0.0014147433 0.0056876363 -0.0044415984
0001d0 ee be 77 bb c2 96 89 bb bf 93 de 3b 0b 4e 9c 39
       -0.0037803012 -0.00419888 0.006792515 0.00029812785
0001e0 5b 18 f8 b9 a5 c8 95 3b 92 c9 43 bb 5c 55 84 ba
       -0.00047320392 0.004571038 -0.0029874784 -0.001009624
0001f0 50 f0 d0 3b 59 37 83 3b 53 9d 87 bb d5 10 4d ba
       0.0063763037 0.0040044007 -0.0041386276 -0.00078226376
000200 31 d1 dd 3a 41 d5 64 3b 8b 3b de ba 5f 5c b6 3b
       0.0016923306 0.0034917148 -0.0016955001 0.0055652107
000210 4f db 82 3a 1f 11 9a bb f1 a9 2b 3b d8 7b ac bb
       0.0009983572 -0.004701748 0.0026193822 -0.0052637868
000220 9a 49 aa 3a 05 9c cc bb 7c 0b ec ba c0 51 c0 ba
       0.0012991906 -0.006244185 -0.0018008794 -0.0014672801
000230 3c d5 b9 bb 80 10 ea ba 20 4f 5e 39 3c 53 30 bb
       -0.0056711715 -0.0017857701 0.00021201046 -0.002690508
000240 12 3d 00 3b 3f bc 9e 3b 8f 2e 06 3b aa 83 a2 bb
       0.001956765 0.004844218 0.0020474528 -0.0049595432
000250 d3 ee b2 3a 83 1c 0b bb 1e aa 15 3b e1 27 9f bb
       0.0013651497 -0.002122671 0.0022836993 -0.004857049
000260 f4 5e 8b bb fd 95 8e 39 e1 ab 80 3b 81 58 a0 ba
       -0.0042532627 0.000271961 0.0039267396 -0.0012233407
000270 4a d9 9d b9 51 2b 90 b9 35 68 8a bb 15 41 08 3a
       -0.00030107267 -0.00027498094 -0.004223848 0.0005197686
000280 ce 58 8d 3a 65 db 0a 3b fb 83 7f 3b 5a 65 6e 3b
       0.0010783912 0.0021187898 0.0038988579 0.0036376328
000290 66 de 9d 3b 97 ed 32 ba 56 bd 32 bb 5e b1 af 3b
       0.0048177717 -0.0006825565 -0.0027273498 0.00536172
0002a0 22 f3 a4 3b 18 96 61 3b 87 2a 98 3b 3d 1e 86 3b
       0.0050338665 0.0034421738 0.0046437415 0.00409296
0002b0 71 ea f1 3b 0d dd e1 3b 91 75 84 bb d8 69 92 bb
       0.007382684 0.0068928064 -0.0040423353 -0.004468184
0002c0 e4 ff 0f bb 14 b3 af 3b 82 53 bc 3b d2 31 0f 3a
       -0.002197259 0.005361924 0.0057472596 0.0005462441
0002d0 a7 33 97 bb e7 27 11 bb 21 ed 70 3b 01 b2 cd 3b
       -0.0046143117 -0.0022149028 0.0036762434 0.0062773232
0002e0 b7 06 82 3a 4b 59 8f bb 74 f0 c4 3b 1a 82 be 3b
       0.0009920214 -0.004374658 0.0060101096 0.005813849
0002f0 56 b2 05 bb c7 9d 30 bb 71 3c 92 3b 14 ea 38 bb
       -0.0020400486 -0.0026949511 0.0044627716 -0.0028215693
000300 f7 51 ea 3b 19 ac 3e 3a 64 b8 6c 39 38 0b 5d bb
       0.0071508843 0.00072735694 0.00022575405 -0.003372861
000310 cc 85 cc bb c8 38 bb 3a a9 cb e4 ba 06 3b df ba
       -0.006241536 0.001428389 -0.0017455715 -0.001703114
000320 da fd dd 3b 19 f5 05 3b bb a9 6d ba af 7e 98 bb
       0.006774646 0.002044028 -0.00090661243 -0.0046537737
000330 72 53 46 bb 2d de f2 ba 10 de e9 3a 23 4b d9 bb
       -0.003026214 -0.0018529348 0.0017842669 -0.0066312714
000340 3d 8f 73 3b 04 e6 cb 3b 53 2b 1b 3b 57 a0 da bb
       0.0037164234 0.0062224884 0.0023676946 -0.006671946
000350 a0 4a 29 3a 29 5d 3e bb 2c 64 c2 3a e1 9d dd b9
       0.00064579584 -0.0029047227 0.0014830879 -0.00042270034
000360 af 25 62 3b f3 d5 99 b8 b2 04 df 3a f8 e2 5b 3b
       0.0034507324 -7.33546e-05 0.0017014949 0.0033552032
000370 7f 71 33 bb 31 8f 47 3b 9a 4b fa 3b e9 9f 92 3b
       -0.0027380881 0.003045034 0.007638407 0.004474629
000380 80 09 ce 39 10 85 91 ba 2d f5 91 3b 99 b9 5f bb
       0.0003929846 -0.0011102278 0.004454276 -0.0034137724
000390 64 2d 00 ba 12 a4 c2 3b d4 74 d1 3a 66 5a 47 3a
       -0.0004889576 0.005939969 0.0015980252 0.0007604718
0003a0 da 80 94 bb 1f 61 87 bb 85 7b 87 b9 e6 f5 d2 bb
       -0.004531962 -0.004131451 -0.00025841236 -0.006438005
0003b0 00 78 fb ba 76 b6 2a bb 5f 3d d5 3a 0f d1 51 3a
       -0.0019185543 -0.0026048697 0.00162689 0.00080038694
0003c0 b8 9d cd bb 98 c5 df 3a d4 55 87 ba 8f ff 5f bb
       -0.006274905 0.0017072437 -0.0010325261 -0.0034179424
0003d0 39 54 a2 3b 98 20 71 bb 82 e4 aa bb 76 d0 a7 3a
       0.004953888 -0.003679311 -0.0052152285 0.0012803215
0003e0 ca 9b 17 bb fd aa 70 ba 84 c5 6c bb 18 25 4c ba
       -0.002313363 -0.00091807527 -0.003612847 -0.000778751
0003f0 18 5d a4 3b 05 bb b4 bb cb 89 05 bb 4d d0 1a 3a
       0.0050159805 -0.0055154585 -0.002037632 0.0005905673
