models/4/ConvNet_9.pth (torch, 127512 bytes, 7 tensors)

conv_1.weight f4 [8, 1, 3, 3]
0.124307066 0.1461185 -0.20393254 0.17504494 -0.20371482 -0.06179389 -0.2896311 0.0644108
0.16169824 -0.36836085 0.15800741 -0.06429133 0.111986905 -0.08603865 0.03134304 -0.17807198
0.12494345 -0.07602834 -0.1556133 0.08496609 -0.15357888 -0.03909096 -0.13538611 0.22112367
-0.2631234 -0.15367012 -0.09412491 -0.20042086 0.031460565 -0.32922453 0.30108312 -0.28320584
0.25711006 0.05555987 -0.1082174 0.20577802 -0.15688322 0.055832166 -0.17467016 -0.3167254
-0.12467385 -0.30567557 -0.07546383 0.08444746 -0.020628108 -0.15863632 0.17694297 0.043186616
0.15605024 -0.21561612 -0.3425771 -0.140475 -0.2672752 0.25770584 0.09238226 0.13213792
0.10600437 -0.010045582 0.2559481 -0.2311744 0.020689929 -0.22405675 0.10795143 -0.23224296
-0.015131839 -0.18371679 0.15455626 -0.3141938 -0.31234536 -0.3174313 0.17594172 -0.010992445
00000000: b494 fe3d 17a0 153e b1d3 50be fb3e 333e
00000010: 9e9a 50be 971b 7dbd 874a 94be cfe9 833d
00000020: 3994 253e cb99 bcbe b2cc 213e 2cab 83bd
00000030: 6459 e53d 0835 b0bd 8f61 003d 8058 36be
00000040: 5ae2 ff3d bfb4 9bbd 1859 1fbe b402 ae3d
00000050: c843 1dbe d81d 20bd a8a2 0abe 3e6e 623e
00000060: 1cb8 86be b35b 1dbe 90c4 c0bd 203b 4dbe
00000070: cbdc 003d 1e90 a8be 9127 9a3e 5b00 91be
00000080: eea3 833e bf92 633d 16a1 ddbd 79b7 523e
00000090: ffa5 20be 45b0 643d bcdc 32be d529 a2be
000000a0: 0155 ffbd 8281 9cbe c88c 9abd caf2 ac3d
000000b0: 47fc a8bc 8f71 22be 8a30 353e 73e4 303d
000000c0: a2cb 1f3e 79ca 5cbe 4466 afbe aed8 0fbe
000000d0: 4cd8 88be 05f2 833e e932 bd3d 2a4f 073e
000000e0: d218 d93d 3a96 24bc a10b 833e fbb8 6cbe
000000f0: ed7d a93c 226f 65be a415 dd3d 19d1 6dbe
00000100: 88eb 77bc 4120 3cbe ff43 1e3e 02de a0be
00000110: bbeb 9fbe 5b86 a2be 112a 343e a819 34bc

conv_1.bias f4 [8]
-0.064242914 -0.68858814 -0.33062539 -0.26095697 -0.6134954 -0.012046357 -0.49455497 -0.1987945
00000000: ca91 83bd 5047 30bf bb47 a9be 279c 85be
00000010: 090e 1dbf 155e 45bc 4f36 fdbe c990 4bbe

conv_2.weight f4 [16, 8, 3, 3]
-0.061439082 -0.08088037 0.061894197 -0.047570087 0.071607545 -0.027633056 0.0676583 -0.09092797
-0.058740832 0.033329792 0.021588532 -0.035538528 0.066912815 0.076198384 -0.09186041 -0.065320805
0.10444549 -0.04586292 -0.04178016 -0.11403212 -0.06748983 0.02943965 -0.015555546 -0.085546486
0.0027643964 -0.08050193 -0.099984504 -0.06493565 -0.10314706 -0.07504013 0.11773674 0.022228677
0.036273416 -0.10992855 -0.07741085 -0.03921472 0.018080974 -0.103774615 -0.050813448 -0.07079087
0.0002684156 -0.0438704 -0.008184152 -0.07982887 -0.08099207 -0.069799475 -0.041251406 -0.093830824
0.09765367 -0.02422628 0.100432105 0.035504255 -0.100629985 0.08037642 -0.040143453 -0.052865114
-0.10552837 -0.12470428 0.025927072 -0.033606235 0.0379285 -0.1048176 0.07877256 -0.105173215
-0.03929727 0.005668816 0.041951045 0.076167636 0.08811392 -0.1107269 0.012180374 -0.06808567
-0.018085193 -0.0944679 0.101308934 -0.09161335 0.057002082 0.03487116 0.03310676 -0.069169916
0.10110143 0.04616555 0.030011274 -0.09988621 0.07255642 0.0022111803 -0.04766601 0.12572551
0.04980186 -0.05447451 -0.059649043 -0.0056280643 0.065803505 -0.030114949 -0.06724289 -0.040357277
-0.088043615 0.042029537 0.09122152 -0.11095407 0.027403539 0.060878444 0.021412233 -0.041974094
0.061588638 0.06204222 0.044154957 -0.020593453 -0.05199286 -0.010548737 -0.0462254 -0.051607415
0.056522135 0.07693445 -0.024981301 -0.038744546 -0.018466149 -0.0054276204 0.029669987 0.03460256
-0.105881944 -0.04247883 0.10069226 0.047493625 -0.0045919204 -0.06982373 -0.08763544 -0.12131851
-0.054592945 0.024258668 0.059053253 0.038121544 -0.11965539 -0.08668753 -0.034801345 0.09818234
0.0011173927 -0.046369415 0.032928932 -0.06065058 -0.09215991 0.07008199 -0.06929136 -0.0394718
-0.121074006 0.074605145 0.0845677 0.038800158 -0.08631935 -0.12044865 -0.09914954 0.08442287
0.05366217 0.09571251 0.059117325 0.027718352 -0.0056942636 -0.09414845 -0.10480264 -0.11490851
0.043479104 -0.062496915 -0.023717843 -0.06782395 -0.021475255 -0.08294774 -0.077005774 0.03909249
-0.035024934 0.0727546 -0.037807673 -0.086453915 -0.020802286 -0.057133697 -0.036060713 -0.11218293
0.06593867 -0.082049996 0.05923214 0.053489055 0.05596642 -0.11398455 0.06609127 -0.08840393
0.015352608 0.08825104 -0.050935917 -0.03257737 -0.054379582 -0.10091304 0.054131497 -0.11930756
0.07115658 0.08600813 0.10950211 -0.029944904 -0.09894844 0.024574902 0.05793605 -0.12477033
-0.033735763 -0.077385224 -0.017403865 -0.06474246 -0.053569015 -0.043258 -0.117514744 0.09526718
0.09690375 -0.019382084 -0.014835606 -0.049988244 -0.10730932 -0.11378148 0.044218834 -0.06330279
-0.07575446 -0.009191287 -0.039278544 -0.03817272 0.0037338103 -0.024948463 -0.04063995 -0.056435216
-0.095867366 0.05820135 -0.08655094 -0.006971829 -0.07990844 -0.028864356 0.07261178 0.017979046
-0.13695516 0.013056618 0.11186934 0.031004675 0.079010315 0.11618795 -0.01805821 0.024460532
-0.08191067 -0.02428642 0.08727864 0.06046196 -0.074557245 -0.09442346 -0.08052366 -0.116284885
-0.090910666 -0.029115275 0.07949379 0.019737791 -0.08952249 -0.09586296 0.055537697 -0.087414466
00000000: 8ca7 7bbd 9ca4 a5bd c584 7d3d dad8 42bd
00000010: faa6 923d b85e e2bc 6f90 8a3d 7238 babd
00000020: 3a9a 70bd d284 083d 6fda b03c d990 11bd
00000030: 9609 893d e60d 9c3d 5021 bcbd eac6 85bd
00000040: 84e7 d53d c2da 3bbd ac21 2bbd ac89 e9bd
00000050: 1c38 8abd 6c2b f13c b0dc 7ebc ff32 afbd
00000060: e02a 353b 32de a4bd adc4 ccbd fbfc 84bd
00000070: c43e d3bd a4ae 99bd f61f f13d ea18 b63c
00000080: 6f93 143d 3822 e1bd 9489 9ebd 9d9f 20bd
00000090: 8d1e 943c c987 d4bd c321 50bd cefa 90bd
000000a0: 22ba 8c39 73b1 33bd d216 06bc 527d a3bd
000000b0: 2cdf a5bd 07f3 8ebd 3cf7 28bd 602a c0bd
000000c0: a6fe c73d 3176 c6bc 59af cd3d e96c 113d
000000d0: 1817 cebd 649c a43d 766d 24bd 1789 58bd
000000e0: 421f d8bd f564 ffbd 0365 d43c b1a6 09bd
000000f0: ea5a 1b3d 9caa d6bd 8253 a13d 0e65 d7bd
00000100: 2df6 20bd 7ac1 b93b dcd4 2b3d c7fd 9b3d
00000110: 1275 b43d c9c4 e2bd 3190 473c 8070 8bbd
00000120: 6627 94bc 6378 c1bd 0f7b cf3d c89f bbbd
00000130: 047b 693d 10d5 0e3d f49a 073d f5a8 8dbd
00000140: 440e cf3d 1618 3d3d 34da f53c 2491 ccbd
00000150: 7698 943d 73e9 103b 6f3d 43bd 30be 003e
00000160: 09fd 4b3d aa20 5fbd 8e52 74bd a06b b8bb
00000170: fdc3 863d a0b3 f6bc a4b6 89bd ac4d 25bd
00000180: 3650 b4bd 2a27 2c3d 59d2 ba3d e33b e3bd
00000190: 637d e03c ad5b 793d b568 af3c 07ed 2bbd
000001a0: 5e44 7c3d fc1f 7e3d d4db 343d 9ab3 a8bc
000001b0: 77f6 54bd 9cd4 2cbc d856 3dbd 4c62 53bd
000001c0: c183 673d cf8f 9d3d 96a5 ccbc 9ab2 1ebd
000001d0: 5246 97bc 2eda b1bb 790e f33c 6abb 0d3d
000001e0: a2d8 d8bd 48fe 2dbd be37 ce3d ad88 423d
000001f0: d277 96bb beff 8ebd 367a b3bd d775 f8bd
00000200: da9c 5fbd 1dba c63c d3e1 713d 5625 1c3d
00000210: e30d f5bd 3b89 b1bd db8b 0ebd d313 c93d
00000220: 7a75 923a dbed 3dbd 7de0 063d be6c 78bd
00000230: 56be bcbd 2587 8f3d a1e8 8dbd 2fad 21bd
00000240: a6f5 f7bd 95ca 983d d531 ad3d eaec 1e3d
00000250: 33c8 b0bd c8ad f6bd ea0e cbbd e6e5 ac3d
00000260: ddcc 5b3d ec04 c43d 0225 723d 9911 e33c
00000270: f296 babb e7d0 c0bd c4a2 d6bd 2755 ebbd
00000280: 2517 323d c4fc 7fbd ec4b c2bc 48e7 8abd
00000290: e0ec afbc 81e0 a9bd 34b5 9dbd 721f 203d
000002a0: 4e76 0fbd 5d00 953d 38dc 1abd c00e b1bd
000002b0: 8e69 aabc 0605 6abd 66b4 13bd 2ac0 e5bd
000002c0: da0a 873d d409 a8bd 679d 723d 5717 5b3d
000002d0: 0b3d 653d bb70 e9bd dc5a 873d 1f0d b5bd
000002e0: 8189 7b3c f6bc b43d 2ea2 50bd d96f 05bd
000002f0: 20bd 5ebd 7fab cebd fdb8 5d3d 8657 f4bd
00000300: 8aba 913d 0825 b03d a442 e03d 044f f5bc
00000310: 7ba5 cabd 4e51 c93c 5a4e 6d3d 9687 ffbd
00000320: 832e 0abd 257c 9ebd 8d92 8ebc b297 84bd
00000330: 2f6b 5bbd 4d2f 31bd 92ab f0bd 701b c33d
00000340: 7975 c63d 2dc7 9ebc 0b11 73bc 79c0 4cbd
00000350: fdc4 dbbd 4406 e9bd cf1e 353d e5a4 81bd
00000360: 2825 9bbd 0d97 16bc 8ae2 20bd ff5a 1cbd
00000370: f1b2 743b b860 ccbc 1476 26bd 9d28 67bd
00000380: 1c56 c4bd 8a64 6e3d 9f41 b1bd f173 e4bb
00000390: 09a7 a3bd f174 ecbc 7cb5 943d cb48 933c
000003a0: f93d 0cbe 6deb 553c c11b e53d 84fd fd3c
000003b0: 29d0 a13d f3f3 ed3d d0ee 93bc 7461 c83c
000003c0: c8c0 a7bd 50f4 c6bc 25bf b23d f6a6 773d
000003d0: 78b1 98bd 1661 c1bd 97e9 a4bd c526 eebd
000003e0: 5f2f babd 2883 eebc a4cd a23d 26b1 a13c
000003f0: 9157 b7bd cd53 c4bd 7f7b 633d 5b06 b3bd

conv_2.bias f4 [16]
-0.03499691 -0.17050594 -0.12772614 -0.08190694 -0.22252968 -0.032826018 -0.04291685 -0.86853325
-0.14536828 -0.103454284 -0.27161965 -0.59387666 -0.08695251 -0.055756833 -0.16420722 -0.36699072
00000000: eb58 0fbd 1c99 2ebe a4ca 02be d3be a7bd
00000010: d2de 63be 9374 06bd 94c9 2fbd 3258 5ebf
00000020: 6cdb 14be d7df d3bd bb11 8bbe 4d08 18bf
00000030: 2814 b2bd 4761 64bd f025 28be 35e6 bbbe

conv_3.weight f4 [32, 16, 3, 3]
-0.04049511 0.006586309 -0.017900152 -0.08505488 -0.013350049 -0.014569926 -0.0275391 0.07850653
-0.0228477 0.012649171 -0.014326076 -0.114638254 -0.020095179 0.038397536 -0.09436648 -0.09183185
0.0542618 0.033545583 -0.046512607 0.050151307 -0.010572621 -0.08206101 0.006398959 0.027051967
-0.024876364 0.029245932 -0.071083695 0.0040023066 0.013460978 -0.015299934 -0.033658147 -0.024260009
-0.11703741 -0.0680372 -0.056762706 -0.10048722 -0.13401464 -0.018506452 -0.020701837 -0.1470502
-0.044221204 -0.043087777 0.006905324 -0.022037927 0.00380268 -0.026841294 0.058624037 0.06815575
-0.07858303 -0.06702651 0.016737169 0.045323316 -0.04166989 0.009023773 -0.03474178 -0.014847744
-0.0840097 0.014759811 0.021460632 -0.09493632 -0.030485097 -0.03245435 -0.008382788 0.07806552
0.024988884 -0.018520053 0.07525648 -0.031259302 -0.023818692 0.005916926 -0.06320377 0.00929018
-0.05551254 0.009314265 0.008548941 0.012150526 -0.0694444 -0.07863219 0.038892824 0.072189786
-0.073346294 0.017998645 -0.07315431 -0.006589695 0.066419445 0.05236603 -0.07131041 0.040751506
0.03260494 -0.011000379 0.06669894 -0.047104817 -0.033400033 -0.05612561 -0.0018289363 0.008342891
-0.0076915636 -0.061121523 -0.05137716 -0.15216143 -0.25838128 -0.20320761 -0.17226262 -0.20737433
-0.15611456 -0.16238664 -0.10945411 -0.18697126 -0.052655656 0.058844134 0.011616497 -0.023951394
-0.05497119 0.019533962 -0.07951404 0.02195758 0.041272745 -0.07310305 -0.05455727 -0.059913408
0.07004345 0.07083846 0.005215034 0.07825118 -0.027868548 -0.08091148 0.026933447 0.027151812
0.079501815 -0.002058844 0.06183357 0.04904586 0.05883536 -0.08431433 0.06674065 -0.076570645
0.06915568 -0.0087673105 -0.07935483 0.017851794 -0.022434916 -0.08080376 -0.036195673 0.0029127514
0.06483285 -0.025682503 0.049383402 0.010251468 0.0026423675 0.01567735 -0.054904178 -0.06961161
-0.026571315 -0.07774927 -0.038987964 0.0037182092 -0.054989412 -0.03465331 -0.015057401 -0.0095984675
-0.045916226 0.004174619 -0.01193766 0.023599742 0.0035170498 -0.041826043 -0.028937925 -0.0012038394
-0.05219722 0.0062516523 -0.0062099453 0.03227842 0.019694073 0.06230749 -0.0028027147 -0.061652794
0.037218172 -0.056349937 -0.0114393765 -0.026955228 -0.031678386 -0.030860556 0.07656474 0.047556657
0.023065329 0.07818938 -0.07556247 0.013646281 0.0533513 0.055369396 -0.06628934 0.029688098
-0.04750576 -0.0032447407 -0.0173397 -0.06951145 -0.07943376 -0.054803587 0.036799688 0.03711275
-0.07329646 -0.032284223 0.00037677807 -0.073094055 0.045780923 0.074436784 0.013760439 -0.061912816
0.019417712 0.030242516 0.06598774 -0.04435495 -0.07466794 0.036611967 0.0051817605 -0.02715832
-0.038425855 -0.046975493 0.06369002 -0.017816016 0.05584722 0.07025999 0.0068494757 0.01366252
-0.00965688 0.057161275 -0.07504723 0.033399645 -0.013586246 0.037978243 -5.455264e-05 -0.030936763
-0.0090151755 0.045416057 -0.05771309 -0.052418184 -0.018403474 -0.030049084 0.033040386 0.056348987
-0.008607269 0.07909423 -0.034581542 -0.04745513 -0.038138445 -0.05870033 -0.058578752 -0.07478997
-0.073719464 0.023033988 0.052721027 0.080810204 0.0708187 -0.0048783137 0.016118707 -0.049947716
00000000: 33de 25bd f7d1 d73b 57a3 92bc 4131 aebd
00000010: 2aba 5abc b3b6 6ebc ae99 e1bc 08c8 a03d
00000020: 1a2b bbbc 783e 4f3c ebb7 6abc 76c7 eabd
00000030: a59e a4bc bc46 1d3d 3743 c1bd 5612 bcbd
00000040: 9f41 5e3d 1867 093d 0184 3ebd 756b 4d3d
00000050: c938 2dbc 9a0f a8bd 5cae d13b 169c dd3c
00000060: 84c9 cbbc 2a95 ef3c 5494 91bd c825 833b
00000070: 6f8b 5c3c 93ac 7abc 20dd 09bd edbc c6bc
00000080: 4fb1 efbd 1657 8bbd 0380 68bd 3ecc cdbd
00000090: 223b 09be d89a 97bc e696 a9bc 5494 16be
000000a0: 4b21 35bd cf7c 30bd 0e46 e23b e288 b4bc
000000b0: 6236 793b 46e2 dbbc c21f 703d 3e95 8b3d
000000c0: 24f0 a0bd 3245 89bd 631c 893c f1a4 393d
000000d0: 0cae 2abd 72d8 133c 664d 0ebd f443 73bc
000000e0: 470d acbd 22d3 713c 35ce af3c f96d c2bd
000000f0: e2bb f9bc daee 04bd f657 09bc d1e0 9f3d
00000100: 7db5 cc3c 5eb7 97bc 1220 9a3d c109 00bd
00000110: 6b1f c3bc c6e2 c13b fa70 81bd d735 183c
00000120: 1e61 63bd dc9a 183c dc10 0c3c 0013 473c
00000130: de38 8ebd ea09 a1bd 154e 1f3d 3dd8 933d
00000140: 9536 96bd e571 933c edd1 95bd 5eee d7bb
00000150: eb06 883d c37d 563d 310b 92bd 0deb 263d
00000160: c28c 053d ef3a 34bc 7499 883d fbf0 40bd
00000170: 79ce 08bd f8e3 65bd ebb8 efba 9fb0 083c
00000180: 8309 fcbb 905a 7abd db70 52bd 35d0 1bbe
00000190: 8d4a 84be a815 50be 9d65 30be f059 54be
000001a0: 7fdc 1fbe af48 26be 7a29 e0bd 6575 3fbe
000001b0: 75ad 57bd 8c06 713d 1f53 3e3c b735 c4bc
000001c0: 7829 61bd b005 a03c 42d8 a2bd 62e0 b33c
000001d0: 9c0d 293d 0db7 95bd 7277 5fbd c367 75bd
000001e0: f172 8f3d c113 913d e0e2 aa3b 2842 a03d
000001f0: 954c e4bc ebb4 a5bd 88a3 dc3c 7a6d de3c
00000200: d9d1 a23d aced 06bb 3345 7d3d 50e4 483d
00000210: 59fd 703d feac acbd 52af 883d 12d1 9cbd
00000220: 7ea1 8d3d c4a4 0fbc c984 a2bd ed3d 923c
00000230: 6ec9 b7bc 717c a5bd ea41 14bd dce3 3e3b
00000240: 16c7 843d 1d64 d2bc 4046 4a3d c6f5 273c
00000250: 922b 2d3b c96d 803c 34e3 60bd 8890 8ebd
00000260: 16ac d9bc 023b 9fbd d8b1 1fbd 33ad 733b
00000270: 943c 61bd a1f0 0dbd 51b3 76bc e442 1dbc
00000280: a712 3cbd 3ecb 883b 2d96 43bc 3f54 c13c
00000290: 4e7e 663b c951 2bbd 3a0f edbc 26ca 9dba
000002a0: c1cc 55bd a9da cc3b cc7c cbbb 6036 043d
000002b0: 7755 a13c 2336 7f3d c0ad 37bb a487 7cbd
000002c0: 1572 183d 31cf 66bd 396c 3bbc 36d1 dcbc
000002d0: 32c1 01bd 47cf fcbc f9cd 9c3d c5ca 423d
000002e0: 80f3 bc3c c121 a03d 7fc0 9abd a794 5f3c
000002f0: e586 5a3d 05cb 623d b5c2 87bd 7434 f33c
00000300: 6695 42bd b7a5 54bb fd0b 8ebc 055c 8ebd
00000310: 2bae a2bd ba79 60bd 45bb 163d 8a03 183d
00000320: 741c 96bd 763c 04bd 4c8a c539 56b2 95bd
00000330: c784 3b3d 5072 983d 7773 613c 4b98 7dbd
00000340: e511 9f3c 27bf f73c 9524 873d 89ad 35bd
00000350: 81eb 98bd 6ef6 153d c2cb a93b 207b debc
00000360: 6e64 1dbd 6069 40bd ea6f 823d e5f2 91bc
00000370: 0ec0 643d 78e4 8f3d 9171 e03b c3d8 5f3c
00000380: e437 1ebc f121 6a3d 5db2 99bd 11ce 083d
00000390: d998 5ebc 138f 1b3d 74cf 64b8 186f fdbc
000003a0: 63b4 13bc 3006 3a3d 9064 6cbd 73b4 56bd
000003b0: e2c2 96bc 7f29 f6bc 5b55 073d 32ce 663d
000003c0: 8105 0dbc 28fc a13d 60a5 0dbd 4f60 42bd
000003d0: 0f37 1cbd c26f 70bd 46f0 6fbd 7c2b 99bd
000003e0: 3bfa 96bd c6b1 bc3c 01f2 573d d27f a53d
000003f0: 6509 913d 43da 9fbb 610b 843c fa95 4cbd

conv_3.bias f4 [32]
-0.87701195 -0.054604623 -0.04283646 -0.24668328 -0.40560034 -0.27915058 -0.26353955 -0.07557178
-0.07567664 -0.06126365 -0.5003018 -0.045629084 -0.5237161 -0.14380416 -0.053817242 -0.0794938
-0.12721197 -0.05274873 -0.38736916 -0.102546915 -0.14153911 -0.05740588 -0.16818249 -0.17424162
-0.07554814 -0.19692867 -0.112643406 -0.13869497 -0.28918523 -0.24300683 -0.1642325 -0.11021554
00000000: db83 60bf 19a9 5fbd 4975 2fbd 8b9a 7cbe
00000010: d9aa cfbe d3ec 8ebe a8ee 86be 61c5 9abd
00000020: 5bfc 9abd 98ef 7abd c713 00bf 90e5 3abd
00000030: 4212 06bf 6641 13be 786f 5cbd a5cd a2bd
00000040: db43 02be 0d0f 58bd 4055 c6be 1e04 d2bd
00000050: a1ef 10be 6e22 6bbd 0838 2cbe 656c 32be
00000060: fcb8 9abd aba7 49be 96b1 e6bd 0e06 0ebe
00000070: 1610 94be c8d6 78be 912c 28be afb8 e1bd

linear_1.weight f4 [1, 25088]
-0.018053146 -0.017066704 -0.018540587 -0.010151664 -0.017043777 -0.018905941 -0.019603958 -0.02207635
-0.011744431 -0.003938814 -0.0063252132 -0.009117442 -0.011986967 -0.014323075 -0.017517524 -0.018909534
-0.013970645 -0.024555154 -0.027418135 -0.02738632 -0.029041082 -0.038315326 -0.029914157 -0.024062278
-0.014090846 -0.012808168 -0.014422658 -0.020031597 -0.019859105 -0.010549358 -0.014060654 -0.01789102
-0.01047591 -0.01887626 -0.017379783 -0.003589503 0.0023664953 -0.008859508 -0.010118756 -0.013354943
-0.015341074 -0.015656602 -0.012439888 -0.0073863664 -0.011170423 -0.009095428 -0.010496812 -0.020918759
-0.020964336 -0.02231077 -0.036805212 -0.0138516845 -0.016590988 -0.015341437 -0.01260219 -0.013849937
-0.018516608 -0.020232677 -0.021706436 -0.020640656 -0.016540905 -0.020896647 -0.0046920646 -0.003396062
0.00467499 0.0042632483 -0.0015074491 -0.008658083 -0.010621529 -0.0029167533 -0.008459813 -0.0030998224
-0.009141441 0.0006176762 -0.011384997 -0.015898269 -0.009965977 -0.012016415 -0.014100262 -0.011937571
-0.010343954 -0.012080277 -0.014824724 -0.01738733 -0.019040057 -0.009577847 -0.018756831 -0.020456797
-0.0072130514 -0.006769819 0.005115046 0.0010624485 0.01443648 0.014581213 0.014712488 0.0039007056
0.001198038 0.005814621 -0.0045504915 -0.0140161915 0.005525494 0.0007963772 -0.0038476053 -0.013886935
-0.011936441 -0.007352116 -0.004649015 -0.010681684 -0.017180014 -0.021278642 -0.020873489 -0.022036396
-0.01923232 -0.017010093 -0.009417769 -0.01575127 -0.0102124605 -0.0060900417 0.010767644 0.0121155465
0.017237708 0.019025546 -0.0072214375 -0.017321192 -0.012820636 -0.02321449 -0.029964965 -0.024233427
-0.008717488 0.011973396 0.010071637 0.010898847 -0.0042633004 -0.010279018 0.0038281383 -0.0063561224
-0.0064812927 -0.021340009 -0.019618679 -0.020380938 -0.020364955 -0.01569109 -0.011875838 -0.01176745
-0.0018164373 0.0062964465 0.009417155 0.011893733 0.010185899 -0.015830405 -0.03245251 -0.045034032
-0.051308967 -0.04869622 -0.045728203 -0.047801204 -0.033046965 -0.018450797 0.0023709913 0.016086828
0.009871557 0.007942963 0.014502508 0.009742881 0.0074106455 -0.013820147 -0.02076223 -0.014292506
-0.008642534 -0.008268342 -0.005421094 -0.0011508397 0.008932574 0.009349974 0.008031022 -0.0082878815
-0.021904988 -0.017924728 -0.03351898 -0.04886793 -0.05243846 -0.054170627 -0.05027908 -0.04240011
-0.034250997 -0.04165582 -0.028865665 0.00065677194 0.020270184 0.006636378 0.017380483 0.009889193
0.016966557 -0.0040849308 -0.015222139 -0.019671261 -0.018863143 -0.0077489936 -0.008856561 -0.0032268555
0.012001332 0.007854016 0.00042257423 -0.036018286 -0.048709024 -0.03240096 -0.036436517 -0.054851357
-0.03666258 -0.039050374 -0.036745712 -0.03676219 -0.02366133 -0.034646627 -0.034259893 -0.04660959
0.0030655288 0.013894023 0.011277918 0.01377409 0.01129101 -0.0017182331 0.0039232634 -0.010912849
-0.010034778 -0.007467639 -0.00061503035 -0.000874115 0.006147767 0.012098899 -0.021721296 -0.055483844
-0.0592018 -0.038909648 -0.034330938 -0.037851743 -0.032390397 -0.030054128 -0.028325861 -0.018062193
-0.024299962 -0.01981398 -0.029171817 -0.055157844 -0.02912006 -0.00044105263 -0.0016135976 0.011256454
0.009722633 -0.0074147666 -0.0051035695 -0.011874775 -0.0024526918 -0.010806267 -0.0022596836 0.007328199
00000000: 31e4 93bc 79cf 8bbc 6ee2 97bc 2a53 26bc
00000010: 649f 8bbc a2e0 9abc 7b98 a0bc 76d9 b4bc
00000020: b76b 40bc 2b11 81bb bc43 cfbb 5361 15bc
00000030: fc64 44bc 55ab 6abc e980 8fbc 2be8 9abc
00000040: 22e5 64bc e427 c9bc ff9b e0bc 4759 e0bc
00000050: 90e7 edbc 88f0 1cbd 890e f5bc 411e c5bc
00000060: 4bdd 66bc 5ad9 51bc 034d 6cbc 4e19 a4bc
00000070: 90af a2bc 37d7 2cbc a85e 66bc 3090 92bc
00000080: 27a3 2bbc 63a2 9abc 0c60 8ebc de3d 6bbb
00000090: 3417 1b3b 7827 11bc 24c9 25bc b1ce 5abc
000000a0: 2159 7bbc 4642 80bc acd0 4bbc 5509 f2bb
000000b0: 2604 37bc fd04 15bc d2fa 2bbc d15d abbc
000000c0: 66bd abbc 13c5 b6bc 10c1 16bd 2df2 62bc
000000d0: d3e9 87bc a75a 7bbc 6a79 4ebc d9ea 62bc
000000e0: 24b0 97bc 00bf a5bc b2d1 b1bc 9816 a9bc
000000f0: cb80 87bc 722f abbc e4bf 99bb 7790 5ebb
00000100: a930 993b b8b2 8b3b 9995 c5ba a2da 0dbc
00000110: ec05 2ebc 0027 3fbb 079b 0abc 6426 4bbb
00000120: fcc5 15bc 8ceb 213a 2388 3abc 163d 82bc
00000130: 5648 23bc 7fe0 44bc c904 67bc cd95 43bc
00000140: b079 29bc 5bec 45bc 66e3 72bc e06f 8ebc
00000150: e5f9 9bbc 67ec 1cbc eda7 99bc 0395 a7bc
00000160: 765b ecbb 5cd5 ddbb 1e9c a73b db41 8b3a
00000170: fc86 6c3c 0ae6 6e3c a60c 713c fba2 7f3b
00000180: 7c07 9d3a 9488 be3b 4a1c 95bb 2ba4 65bc
00000190: 340f b53b f8c3 503a 1b28 7cbb 0786 63bc
000001a0: 1091 43bc 05ea f0bb c456 98bb 3b02 2fbc
000001b0: 1abd 8cbc 8c50 aebc e1fe aabc ac85 b4bc
000001c0: 198d 9dbc c058 8bbc fc4c 1abc cf08 81bc
000001d0: 2a52 27bc f98e c7bb c66a 303c 4980 463c
000001e0: 1836 8d3c 76db 9b3c cfa1 ecbb 2ce5 8dbc
000001f0: a50d 52bc 502c bebc 1679 f5bc 2e85 c6bc
00000200: cbd3 0ebc 102c 443c 8203 253c 1491 323c
00000210: 28b3 8bbb 5469 28bc 81e1 7a3b 0547 d0bb
00000220: 0661 d4bb 3ed1 aebc 5ab7 a0bc edf5 a6bc
00000230: 68d4 a6bc 9a8a 80bc e092 42bc 43cc 40bc
00000240: 8615 eeba 6c52 ce3b 694a 1a3c efdd 423c
00000250: c2e2 263c c4ae 81bc ecec 04bd 9b75 38bd
00000260: 5a29 52bd b075 47bd 7f4d 3bbd 32cb 43bd
00000270: 415c 07bd 2026 97bc a262 1b3b 86c8 833c
00000280: 50bc 213c 3423 023c ed9b 6d3c 9ba0 1f3c
00000290: 00d5 f23b e66d 62bc 8d15 aabc 1d2b 6abc
000002a0: 6a99 0dbc f177 07bc 6fa3 b1bb c6d7 96ba
000002b0: ee59 123c a230 193c 8c94 033c e5c9 07bc
000002c0: 1772 b3bc e1d6 92bc 334b 09bd bd29 48bd
000002d0: b6c9 56bd 05e2 5dbd 70f1 4dbd bdab 2dbd
000002e0: c64a 0cbd 4b9f 2abd b077 ecbc 382b 2c3a
000002f0: a80d a63c f975 d93b 8461 8e3c 4806 223c
00000300: 73fd 8a3c e2da 85bb 4766 79bc a025 a1bc
00000310: e186 9abc 45eb fdbb 1c1b 11bc a779 53bb
00000320: 3ca1 443c 21ae 003c f48c dd39 e987 13bd
00000330: 1d83 47bd deb6 04bd 753e 15bd d1ab 60bd
00000340: 802b 16bd 49f3 1fbd ac82 16bd f393 16bd
00000350: 68d5 c1bc 9fe9 0dbd 1a54 0cbd b3e9 3ebd
00000360: 0ae7 483b c2a3 633c 04c7 383c b9ac 613c
00000370: eefd 383c 5636 e1ba b88e 803b cecb 32bc
00000380: e968 24bc 19b3 f4bb fd39 21ba dd24 65ba
00000390: 3573 c93b 763a 463c dcf0 b1bc 0743 63bd
000003a0: 967d 72bd b95f 1fbd 999e 0cbd 6e0a 1bbd
000003b0: cbab 04bd 1334 f6bc a30b e8bc 2af7 93bc
000003c0: b710 c7bc ee50 a2bc bcf9 eebc 31ed 61bd
000003d0: 318d eebc 153d e7b9 5a7f d3ba fd6c 383c
000003e0: ae4b 1f3c 92f7 f2bb d83b a7bb 6b8e 42bc
000003f0: 57bd 20bb c50c 31bc 3317 14bb 6421 f03b
