models/32/ConvNet_0.pth (torch, 127512 bytes, 7 tensors)

conv_1.weight f4 [8, 1, 3, 3]
00000000: a874 853e c98f 903e 7ac2 94bd 25ae 9f3e
00000010: fdbe 89bd 7efd 943d cfce 20be 2313 4e3e
00000020: c025 993e 01a0 68be 0b5d 9d3e ad14 a43d
00000030: 2917 873e 16c0 803d 5fcb 363e afd4 f2bc
00000040: 7da6 8c3e 717d 893d 1859 1fbe b402 ae3d
00000050: c843 1dbe d81d 20bd a8a2 0abe 3e6e 623e
00000060: 1cb8 86be b35b 1dbe 90c4 c0bd fc3b 4dbe
00000070: 86dd 003d 4390 a8be 4923 9a3e f6f8 90be
00000080: c2c3 833e 5445 633d 29a5 ddbd 0cf1 523e
00000090: 5d15 9e3d 89cd 963e 8775 7d3d d9ee a3bd
000000a0: 6487 ea3d a07a 85bd 8b65 293e 5032 a53e
000000b0: a518 5f3e f2cc 14be cfcf 453e 1311 773d
000000c0: 6d64 2d3e b550 50be a1fb a8be d240 04be
000000d0: c722 83be 980e 8c3e 203e c43d d521 0d3e
000000e0: d2d5 d63d 0fac c5bb 455d 853e ec46 73be
000000f0: 3bf6 a73c 67b1 69be a8da d03d a4cd f7bd
00000100: ef7d c43d 949c 9abd 4282 8a3e 4769 50be
00000110: b69d 51be 3d69 51be 02ae 963e 6b14 d83d
0.26065564 0.282347 -0.07263656 0.3118755 -0.06725881 0.07274912 -0.15703891 0.20124488
0.29911613 -0.22717287 0.3073505 0.08011756 0.26384857 0.062866375 0.17851017 -0.029642431
0.2747077 0.06713379 -0.1556133 0.08496609 -0.15357888 -0.03909096 -0.13538611 0.22112367
-0.2631234 -0.15367012 -0.09412491 -0.20042413 0.03146126 -0.32922563 0.30105045 -0.28314942
0.2573529 0.05548604 -0.108225174 0.20599765 0.077189185 0.29453686 0.06187966 -0.08004541
0.11451605 -0.065175295 0.16542642 0.32264948 0.21786745 -0.14531305 0.19317554 0.060319018
0.1693284 -0.20343287 -0.33004478 -0.12915352 -0.2561247 0.27354884 0.09582162 0.13782437
0.10490002 -0.006032474 0.26047722 -0.23757523 0.020503154 -0.2282158 0.10197955 -0.1209977
0.095943324 -0.07549396 0.27052504 -0.2035266 -0.20470318 -0.20450301 0.29429632 0.105507694

conv_1.bias f4 [8]
00000000: 948e 9c3e d78a 75be bb47 a9be ca82 85be
00000010: b8c6 30be 9f87 123e 3d42 ef3d 51ac 8d3e
0.30577528 -0.23978744 -0.33062539 -0.26076347 -0.17263305 0.14309548 0.11682556 0.2767053

conv_2.weight f4 [16, 8, 3, 3]
00000000: 45b0 79bd 80ae a4bd 23f9 7f3d 5d90 43bd
00000010: 7551 923d 77bc e5bc 502f 8a3d 1a6a bbbd
00000020: 8b76 73bd d3d9 123d d962 cb3c 9cae f6bc
00000030: 01bc 8f3d 1af5 a33d 1e1f afbd f3e6 80bd
00000040: c8f3 dc3d ea08 23bd ac21 2bbd ac89 e9bd
00000050: 1c38 8abd 6c2b f13c b0dc 7ebc ff32 afbd
00000060: e02a 353b 32de a4bd adc4 ccbd 4ae8 84bd
00000070: 8c3d d3bd a1ae 99bd ee43 f13d cb58 b63c
00000080: 39c1 143d 961c e1bd b384 9ebd e6ac 20bd
00000090: ea11 973c 5356 d4bd 0de8 4fbd 3b73 90bd
000000a0: 7c19 bc39 0d7d 33bd 51ba 04bc 206e a3bd
000000b0: 6292 a5bd f76a 8dbd 5f69 26bd e41b bfbd
000000c0: f5ba c93d a154 c2bc 3cfc ce3d bd06 153d
000000d0: 3c06 cdbd 2c6a a63d 3655 05bd e486 39bd
000000e0: ab8f c8bd 9e3b f0bd b898 093d 77d3 d3bc
000000f0: 1ac2 3b3d d225 c6bd 731f b33d e959 b2bd
00000100: 655a abbc 330b c53c 62d7 763d 54a8 c13d
00000110: 9ba7 da3d ac54 c0bd 281a ef3c 279e 51bd
00000120: 456b 6cbc 73f3 b5bd 2940 dc3d c3d1 b2bd
00000130: 4d67 813d 9818 2e3d 3e50 1a3d 8563 81bd
00000140: 1015 de3d 007b de3c 91ac 883c d169 d1bd
00000150: 360d 513d 029f 81bc e47f 55bd 2394 d23d
00000160: ce61 e63c 7d9c 81bd 8e52 74bd a06b b8bb
00000170: fdc3 863d a0b3 f6bc a4b6 89bd ac4d 25bd
00000180: 3650 b4bd 2a27 2c3d 59d2 ba3d 1839 e3bd
00000190: e239 e03c 865d 793d a714 af3c bce6 2bbd
000001a0: 4ef5 7b3d baac 7d3d 4a80 343d 45a4 a9bc
000001b0: 26f0 fcbc d1b0 593c 20dd a3bc e149 0dbd
000001c0: 1453 9c3d 64c7 d13d 3f0f 35bc 7bf5 cfbc
000001d0: e497 3d3b 2373 01bc 64e6 df3c 1f9d 023d
000001e0: b185 ddbd 5819 37bd b47d c83d 2255 373d
000001f0: 468c e9bb 7a8e 94bd a3f5 94bd bf3f d9bd
00000200: 0e9e 1ebd bb43 213d 3a83 993d dfac 5e3d
00000210: 16df d5bd ed37 91bd 288f 97bc b14e e43d
00000220: a69c 6e3c f5e0 06bd 2be1 3c3d b658 42bd
00000230: ff66 a1bd e8a6 aa3d 5616 66bd e1b2 d6bc
00000240: bcb8 f1bd a1f0 a03d ee6a b63d dd8e 2c3d
00000250: 7480 a9bd 0d79 efbd 917d c5bd aef1 b23d
00000260: dc58 653d dff1 cb3d 1fe7 7e3d 7f0a f93c
00000270: e700 57ba 6db3 b6bd 90e4 cdbd 570e e1bd
00000280: 953c 473d 5453 6bbd ec4b c2bc 48e7 8abd
00000290: e0ec afbc 81e0 a9bd 34b5 9dbd 721f 203d
000002a0: 4e76 0fbd 5d00 953d 38dc 1abd 940d b1bd
000002b0: f856 aabc 58fe 69bd 9cae 13bd d1c5 e5bd
000002c0: ba09 873d 0509 a8bd 039e 723d b90d 5b3d
000002d0: 9e3d ae3d c819 b7bd 5ed6 af3d 40ef 60bd
000002e0: e7b3 363d ec8d e43d 79a8 81bc 0176 4fb8
000002f0: f105 d7bc affa cabd e79a 643d 365b f1bd
00000300: f341 943d 1fe6 b23d 4da6 e23d 88e1 e9bc
00000310: 87d7 c7bd 28b0 d23c 18a2 843d 15b7 f0bd
00000320: 7b20 ddbc 597f 91bd f1b2 2ebc 6d06 6fbd
00000330: c9f0 46bd dda9 1abd c125 e6bd c607 c53d
00000340: 127c c93d 3481 9bbc 7fd6 63bc 96d1 46bd
00000350: 5afd dabd d4c6 ebbd 16f0 313d 9b69 85bd
00000360: 0a2a 9bbd 20a7 16bc 24c0 20bd 5c2b 1cbd
00000370: 402a 783b f4c7 ccbc b634 26bd db20 67bd
00000380: b66c c4bd f7c1 c93d df58 42bd 4962 fd3c
00000390: 2ea5 28bd e071 183c 0567 e03d b656 5d3d
000003a0: 40a9 d1bd 6c71 3e3d c11b e53d 84fd fd3c
000003b0: 29d0 a13d f3f3 ed3d d0ee 93bc 7461 c83c
000003c0: c8c0 a7bd 50f4 c6bc 25bf b23d b076 773d
000003d0: beba 98bd b08a c1bd a1ef a4bd 2e31 eebd
000003e0: f63d babd fabf eebc 32e3 a23d 0399 a13c
000003f0: 2999 b7bd 86a1 c1bd 7718 703d f38f b3bd
-0.06095912 -0.08041096 0.062493455 -0.047745097 0.07144443 -0.028043969 0.067473054 -0.09151097
-0.059439223 0.035852265 0.024827408 -0.030112557 0.07018281 0.08005734 -0.08550857 -0.0629405
0.10788685 -0.039803423 -0.04178016 -0.11403212 -0.06748983 0.02943965 -0.015555546 -0.085546486
0.0027643964 -0.08050193 -0.099984504 -0.06489618 -0.103144735 -0.07504011 0.11780535 0.022259137
0.036317084 -0.109917805 -0.07740154 -0.03922739 0.01844116 -0.103680275 -0.05075841 -0.070532285
0.00035877142 -0.04382043 -0.008101062 -0.07979989 -0.08084561 -0.069051675 -0.040627833 -0.093314916
0.09850112 -0.023721995 0.10106704 0.03638338 -0.10010955 0.081257194 -0.032551967 -0.045294657
-0.097930275 -0.11730121 0.03359291 -0.02585767 0.045839407 -0.096751824 0.08746233 -0.08708555
-0.020917127 0.024053192 0.060264 0.09455934 0.106764995 -0.0939115 0.029187277 -0.051176216
-0.014429872 -0.08884325 0.10754425 -0.08731415 0.06318531 0.042503923 0.03767418 -0.0631781
0.10843861 0.02715826 0.016683849 -0.10225261 0.05103799 -0.015822891 -0.05212392 0.10282161
0.028122809 -0.06328676 -0.059649043 -0.0056280643 0.065803505 -0.030114949 -0.06724289 -0.040357277
-0.088043615 0.042029537 0.09122152 -0.11094874 0.02737135 0.060880207 0.021372152 -0.041968092
0.061513238 0.061932303 0.04406766 -0.020708213 -0.03087623 0.013286785 -0.020002902 -0.034494285
0.076330334 0.10243109 -0.011050998 -0.025385609 0.0028929645 -0.007900986 0.027331538 0.031888124
-0.10816515 -0.044701904 0.09789601 0.044758923 -0.0071273176 -0.07253738 -0.07273414 -0.10607862
-0.03872495 0.039371233 0.074957326 0.05436408 -0.10442941 -0.07090745 -0.01850088 0.11147822
0.014563715 -0.03292938 0.046113174 -0.047447883 -0.07880973 0.08332616 -0.056173645 -0.026208343
-0.118028134 0.07858396 0.08907114 0.042128433 -0.082764536 -0.116930105 -0.096430905 0.08737503
0.055992946 0.099582426 0.062232133 0.030400513 -0.00082017336 -0.089209415 -0.100533605 -0.10989063
0.04864176 -0.057452515 -0.023717843 -0.06782395 -0.021475255 -0.08294774 -0.077005774 0.03909249
-0.035024934 0.0727546 -0.037807673 -0.08645168 -0.020793423 -0.057127327 -0.036055192 -0.11219371
0.06593652 -0.08204845 0.059232723 0.053479884 0.08507846 -0.08940464 0.08585809 -0.054915667
0.044605162 0.11159882 -0.015827404 -4.9462546e-05 -0.02624795 -0.09911095 0.05581179 -0.11784975
0.07239141 0.08735298 0.110668756 -0.028549924 -0.097579055 0.025718763 0.064762294 -0.1175367
-0.026993027 -0.07104368 -0.01066278 -0.058355737 -0.048569474 -0.03775965 -0.1123767 0.09620623
0.09838118 -0.018982507 -0.01390612 -0.04853972 -0.10692854 -0.11512533 0.043441854 -0.06514283
-0.07576378 -0.009195119 -0.03924574 -0.03812729 0.003786698 -0.024997689 -0.040577613 -0.056427818
-0.095910475 0.09851449 -0.047448035 0.030930655 -0.041173153 0.009304494 0.109571494 0.054037772
-0.1023736 0.046494886 0.11186934 0.031004675 0.079010315 0.11618795 -0.01805821 0.024460532
-0.08191067 -0.02428642 0.08727864 0.060415924 -0.07457493 -0.09450281 -0.08053518 -0.11630474
-0.09093849 -0.029144276 0.0795349 0.019726282 -0.0896476 -0.09454636 0.05861708 -0.087676905

conv_2.bias f4 [16]
00000000: 86af f53c 67c8 013d 8520 ae3d 7588 52bd
00000010: aa3d d5bc bf0b da3c 9174 5c3c 9534 f93d
00000020: 8dd7 5abd 89be edbb 2027 f03c 5cdd fbbc
00000030: 04ea a53d 1fcb 453d ec81 cfbd 50d5 d5bc
0.029990923 0.03168526 0.08502296 -0.051399667 -0.02603038 0.02661693 0.013455526 0.12168232
-0.05342822 -0.0072553796 0.029315531 -0.0307452 0.081012756 0.048289414 -0.101322025 -0.026102692

conv_3.weight f4 [32, 16, 3, 3]
00000000: c4ce 1abd 67ae 043c 50ad 1ebc c449 a9bd
00000010: acc8 78bc c1c3 02bc 744c c9bc 6ece 9c3d
00000020: 96f3 94bc b14f 5b3d 9e2d a93c 800c 90bd
00000030: 4376 a03c bf71 8d3d b73e 5fbd c299 5cbd
00000040: 220f a73d 5f21 893d 216e 3ebd 8a61 4d3d
00000050: 5eb4 2ebc a142 a8bd ef18 cd3b ef8e dc3c
00000060: f7bf ccbc 2277 ed3c 49f0 91bd 2a8c 6c3d
00000070: 5a7f 913d 323b 3c3d 9b68 673c dcd4 e03c
00000080: 21f9 76bd 9d95 aabc eb5a 02bc 9cf2 3dbd
00000090: e81d 7cbd a392 653d 5fa5 673d adff 9abd
000000a0: e732 d93c 91da 0a3d 6820 a23d 9c79 453d
000000b0: 94e6 9c3d 1a6f dfbc d50e 6f3d d7d4 8a3d
000000c0: 9128 a1bd 5800 89bd 932a 8a3c 4f66 3a3d
000000d0: 0f95 29bd 614e 163c 9cfb fab8 22ce ac3c
000000e0: 5167 37bd 5e83 403d adfb 623d 04d4 6cbd
000000f0: a7c2 523a 0f80 6e39 2133 db3c e5f8 9e3d
00000100: 251f c83c 152b 9bbc 7541 993d a6f5 01bd
00000110: 385b c6bc 4027 ba3b 5ffd 81bd df5d 143c
00000120: afa7 67bd 1f32 0c3c 0ea4 023c d457 3c3c
00000130: c5f4 8fbd fb1c a2bd fbd7 1c3d db46 923d
00000140: 8e7e 97bd b1d2 fc3c 9447 7bbd 3638 ab3b
00000150: 98c7 9e3d e476 813d 8d8f 79bd 1822 533d
00000160: ae43 323d f3fe 07b9 2f50 a53d 079c 07bd
00000170: 49ed 9ebc f78b 2cbd 863b 443c 69a5 b43c
00000180: 396e d93b 0d17 40bd 6cb4 19bd 8b39 e83c
00000190: d3a3 95bd b894 54bc 1079 f2ba ce44 0abd
000001a0: a178 f83c b5b6 af3b 9198 6f3d a7cf f2bb
000001b0: 126d 57bd 1729 713d 8aab 3e3c 0d81 c3bc
000001c0: 2ef9 60bd 2602 a03c 83c5 a2bd ddcd b33c
000001d0: 89c5 283d 7ab6 95bd 357a 5fbd cf67 75bd
000001e0: d470 8f3d f312 913d eed5 aa3b 5f38 a03d
000001f0: 0c42 e4bc e2b0 a5bd 2967 ee3c 2dd9 f13c
00000200: 5153 a73d c1f1 d9b7 e4cc 823d 453c 513d
00000210: 1b06 773d ca5b a9bd bb86 8c3d bb7f 91bd
00000220: 96fc 983d a9a0 62bb 0b42 97bd c0c1 bd3c
00000230: a907 8bbc 6f4d 99bd 8993 f7bc 799b 0c3c
00000240: 07ef 843d ecd0 d1bc 92c1 4a3d 2119 2b3c
00000250: 5695 383b 8eab 823c 52fa 5fbd 72d8 8dbd
00000260: c073 d6bc 1401 9fbd 9919 1fbd 1d1c 7c3b
00000270: 4cc4 60bd 7f80 0dbd 5c0c 75bc bf00 1dbc
00000280: 4958 3cbd 7803 843b 38ab 3fbc 9239 c33c
00000290: a249 763b 6670 2abd ee03 ebbc 2470 7dba
000002a0: f0f9 54bd 76fa d53b 65c9 c0bb bb6d 043d
000002b0: f992 a13c 8673 7f3d ef12 34bb f534 7cbd
000002c0: df96 183d f5af 66bd cfa8 3bbc b009 ddbc
000002d0: 487c 01bd ed7b fcbc 30da 9c3d 296b 433d
000002e0: b949 bd3c a344 a03d 82a6 9abd ac84 5c3c
000002f0: 158f 5a3d 27cc 623d 78cc 87bd d7ff f23c
00000300: 6f69 42bd 58ae 54bb 7a65 8ebc e975 8ebd
00000310: 30c3 a2bd ac86 60bd 0ee8 1a3d d72e 1c3d
00000320: 2d70 94bd d629 00bd 20a1 b33a 188d 93bd
00000330: 4d5a 403d 3599 9a3d 1294 713c cd6a 7dbd
00000340: 5370 9f3c 27e9 f73c 3246 873d bf7b 35bd
00000350: 17e3 98bd 5843 163d 9954 ab3b 005b debc
00000360: 3238 0fbd f3db 2fbd c969 8a3d f230 6dbc
00000370: fc33 763d 4e91 983d e6cc 2a3c b730 913c
00000380: 0cf5 b6bb 4075 6a3d 03c7 99bd a8c7 073d
00000390: e562 5ebc 0cda 1b3d a9c4 beb9 17d1 fcbc
000003a0: f26e 13bc 0565 383d b2d1 6cbd b58c 57bd
000003b0: 3a97 98bc c00c f7bc ad55 063d f6e0 653d
000003c0: 3cea 10bc 758d a13d fa59 0ebd 357b 3fbd
000003d0: 35b1 18bd 0deb 6abd d342 6fbd af08 98bd
000003e0: 4127 97bd bf1f b23c 6a3e 503d 9e54 a03d
000003f0: 7d5e 913d cb54 9dbb a771 843c d038 4cbd
-0.037794843 0.008098221 -0.009684876 -0.08266023 -0.015184563 -0.007981242 -0.024572589 0.07656561
-0.018182557 0.053542797 0.020651635 -0.07033634 0.019587642 0.06906461 -0.05450317 -0.053857572
0.08157183 0.06695818 -0.046491746 0.05014185 -0.01066312 -0.082158335 0.006259076 0.026923625
-0.02499388 0.028987471 -0.07125909 0.05775086 0.071043685 0.04595489 0.014124061 0.02744525
-0.06029618 -0.020823294 -0.007956247 -0.04637395 -0.06155196 0.056048047 0.056554195 -0.075682975
0.02651353 0.033899847 0.07916337 0.04821168 0.07661167 -0.027274657 0.058363754 0.06778877
-0.078690656 -0.06689519 0.016866004 0.045507725 -0.04140192 0.00917396 -0.00011967795 0.021094386
-0.044776265 0.04700028 0.055415798 -0.05781938 0.000803987 0.00022745154 0.026757779 0.077623166
0.024428913 -0.018941442 0.07483188 -0.03172841 -0.024213418 0.0056809485 -0.06347155 0.009055584
-0.0565564 0.008556872 0.007973684 0.011495549 -0.07029108 -0.07915684 0.038291913 0.07142421
-0.07397185 0.030862184 -0.06134756 0.0052252067 0.07752913 0.06321505 -0.060927916 0.051546186
0.043521576 -0.00012969579 0.080719344 -0.033107784 -0.019400256 -0.04212567 0.011977082 0.02205153
0.006635454 -0.046896983 -0.03752558 0.028347751 -0.073066376 -0.01297491 -0.0018499214 -0.033757024
0.030330958 0.0053623565 0.058495108 -0.007410008 -0.052594252 0.058877077 0.011637578 -0.023865247
-0.054925136 0.019532274 -0.079478286 0.02194875 0.04120401 -0.07310195 -0.054559905 -0.059913453
0.07003942 0.070836924 0.0052134907 0.07823252 -0.027863525 -0.08090378 0.029101925 0.029522503
0.08170188 -2.5980991e-05 0.06386736 0.051082868 0.060308557 -0.082694605 0.06861635 -0.07104441
0.07470052 -0.0034580624 -0.073856436 0.023163676 -0.016971426 -0.074854724 -0.030221717 0.008581989
0.06490903 -0.025612317 0.04950101 0.010443003 0.0028165183 0.015950944 -0.054682083 -0.06926049
-0.02617824 -0.077638775 -0.03884277 0.0038468905 -0.054874703 -0.03454637 -0.01495656 -0.009582697
-0.045982633 0.004028734 -0.011698537 0.023831163 0.003758051 -0.041611098 -0.028688397 -0.00096678943
-0.05199617 0.0065301014 -0.005883383 0.03233121 0.019723402 0.06236603 -0.0027477106 -0.06157394
0.037253257 -0.05632015 -0.011453821 -0.026982158 -0.031612664 -0.030820811 0.076588035 0.047709618
0.023106443 0.078255914 -0.0755129 0.013459366 0.05335911 0.055370476 -0.06630796 0.02966301
-0.04746383 -0.003245255 -0.017382372 -0.06956083 -0.07947385 -0.054815933 0.03781896 0.038130607
-0.07247958 -0.031289898 0.0013704635 -0.07204646 0.046961118 0.07548753 0.014744775 -0.06186943
0.01946274 0.030262543 0.066051856 -0.044307467 -0.07465189 0.036685318 0.0052285907 -0.027143002
-0.0349657 -0.04293437 0.06758458 -0.0144770015 0.06010817 0.0744959 0.010424828 0.017723424
-0.005583411 0.057240725 -0.075086616 0.03314939 -0.013573383 0.038049743 -0.00036386147 -0.03086142
-0.008998619 0.045018215 -0.05781717 -0.052624423 -0.018626798 -0.030157447 0.03279655 0.056122743
-0.008844908 0.07888309 -0.034753777 -0.04674836 -0.037278373 -0.05735307 -0.058413338 -0.07423531
-0.07380534 0.021743653 0.050840773 0.078286394 0.070981 -0.004801368 0.016167475 -0.049858868

conv_3.bias f4 [32]
00000000: 42e1 8cbd e275 4fbd 4f9a de3c 58ee 553d
00000010: 81fd 41bd 639c 05bd 9e9a 40bd 3b6e ebbb
00000020: 272b 83bd f4bb 84bd aca2 20bc a0d7 c23d
00000030: 3101 583c 2367 f8bc ba00 603d 74a0 6a3d
00000040: fdde 623d e950 d53b 1064 1ebc e295 4b3d
00000050: 5e70 583d 935d 893d ac5b 993d d952 77bc
00000060: f300 283d d303 2d3c 6f75 a53d 9475 9e3d
00000070: 0d22 933d ca4a 633d 420c 943d 20a1 1ebd
-0.06878902 -0.05064953 0.02717319 0.052229255 -0.0473609 -0.032619845 -0.047022454 -0.0071847714
-0.06404715 -0.06481162 -0.009804409 0.095137835 0.013183878 -0.030322617 0.054688193 0.057281926
0.05538844 0.0065098894 -0.009667411 0.049703486 0.052841537 0.06707301 0.07488188 -0.015095436
0.04101653 0.010559994 0.08079039 0.0773727 0.07184229 0.055491246 0.072289005 -0.03872788

linear_1.weight f4 [1, 25088]
00000000: fc12 21bb 1e0f c1ba 53e0 53bb d2f1 973b
00000010: 46fb 203a 8e5d cbba 84b9 38bb 3a1e b8bb
00000020: b23f fa39 1fcb b63b c579 893b d734 a63b
00000030: 0cfa 8e3b 20df 303b 6f8d 0bb9 22cd 97bb
00000040: dca8 9a3b 0e42 8fbb 7cdb 75bb 7efb 273b
00000050: 0395 643b 591b 57bb f42a 833b c0a9 c1bb
00000060: 1afe c43a d18e 363b 6280 993a 7a0e 69bb
00000070: fab6 8bbb d658 a53b 844e b63a d9c0 31bb
00000080: 5279 c73b e774 a8ba 53f9 96ba ae25 d83a
00000090: 1ec7 ac3b a1f8 36bb d602 5338 6ed1 37bb
000000a0: 238d 39bb 53aa 59ba b835 5937 c067 5f3b
000000b0: 79ab 99bb ac7d 723b 6cc2 a23b 654c 30ba
000000c0: 5201 0dba 2665 cd3a 5328 bdbb 8c47 983b
000000d0: d0c2 90ba 701f 8539 e028 443b 5049 2c3b
000000e0: 9872 3fbb c8f4 97bb e893 c7bb d3a0 acbb
000000f0: 0332 adba d45c a0bb 92a2 1aba e2e3 57bb
00000100: fbfa 6b3b 687e 8e3b 0b3a b03b 6792 86bb
00000110: c3b9 90bb d30a 123b 9483 b8ba f1d6 9d3b
00000120: 77cf bcbb cac0 c03b fab2 8ebb ddbb a5bb
00000130: 3b1d 2cba 464c 36bb c604 81bb f524 6e3b
00000140: d0fe 9f3b 2365 663b c803 4a3a 3829 6eba
00000150: 9fc0 61bb 762e c53b 065b 61bb 91ef b4bb
00000160: a84b b03b 5cb1 fab9 5460 8c3b 8382 05bb
00000170: b972 a33b 27a4 8fbb 0ef6 7c3b d684 a23b
00000180: 6e1a 84b8 4daf 8a3b f5ef 8e39 827c bbbb
00000190: 6c20 393b 601a 9fbb 843f 7d39 acf0 b8bb
000001a0: 9816 44bb 20d1 f4ba aaf7 1fbb 3153 cabb
000001b0: 88d7 4cbb 66b0 bfbb 13f4 acbb 0cc8 cebb
000001c0: 549a 6ebb 0b08 bbba f07d ba3b a15c 90bb
000001d0: a7ea 9bbb 3076 a7bb 9702 c33b ff62 42ba
000001e0: 6ab3 d1ba 3879 663b dac4 73bb e0be daba
000001f0: 5823 bd3b fb78 5b3b e00b a0bb 407b e1ba
00000200: a101 1d3a 2503 173b 82c2 3abb 86f1 923b
00000210: 279e 2039 5bff b1bb 0a9a e03a dadd c7bb
00000220: d047 f839 06a3 ccbb 8c9c edba 0b5d c1ba
00000230: 3cd5 b9bb 90ca e7ba aeb8 7339 49fa 66bb
00000240: 15e7 713a ef7e 5c3b e98c 503a e006 c9bb
00000250: ca58 9937 4809 41bb 929a ed3a 05a5 a5bb
00000260: 8952 8fbb 0bb5 77b9 9d16 6e3b 40ca ddba
00000270: 0301 c1b9 0ca8 3eba 4113 a3bb 8955 e5b9
00000280: f7be b5b8 d3c0 923a 2632 3c3b 76b4 f93a
00000290: e446 693b 229e 9cba 56bd 32bb 4b08 b03b
000002a0: 22f3 a43b 68ca 623b 09b0 973b afc0 4c3b
000002b0: f4aa b73b 4e6a b53b f76e a6bb cdf6 c1bb
000002c0: 64d7 55bb 5c49 9f3b c821 bb3b 7f93 e739
000002d0: 6875 98bb 5adf 41bb bd8a 453b e0d0 c03b
000002e0: 3d91 9e3a d8fe 89bb 0c42 be3b 1cfc b23b
000002f0: 23cf 32bb 6d57 59bb e0ee 723b fcbe 93bb
00000300: 7f67 ae3b 395b a4ba ad05 a1b8 7eea 5cbb
00000310: cc85 ccbb a846 bd3a 6f4b 12bb 9010 71bb
00000320: 0111 a63b 5014 a03a 581d d7ba 65e4 bebb
00000330: 7bea 68bb 76df 06bb 47e4 2e3b 119c bbbb
00000340: b04c 723b d4fd bd3b 9406 033b 982f ccbb
00000350: ede0 593a 812d 26bb 8145 003b 13d6 a7b9
00000360: 88a6 473b 6815 f0b9 ca72 a13a 8322 2a3b
00000370: f870 97bb 4979 8c3a 7fc3 b83b 86b1 903b
00000380: e72b d139 23e3 8eba 4696 2c3b 7313 b5bb
00000390: 8406 f2ba 5de0 b43b bd07 5b3a 2de9 9ab8
000003a0: 9b7b a2bb 7361 85bb 1d5d 703a dcdd 99bb
000003b0: 7eee e4ba 65e1 45bb 6691 053b cf00 873a
000003c0: 9c26 c6bb 75f8 0c3b 1792 0aba ae39 49bb
000003d0: 7e15 983b ee8d 87bb 0285 bbbb 1275 4a3a
000003e0: 9344 5cbb 5f9b 26bb 153a b4bb f07d cdba
000003f0: 1217 a53b 1f17 bbbb ff37 8bbb 574b b1ba
-0.0024577966 -0.0014729237 -0.0032329753 0.0046369815 0.0006140958 -0.0015515552 -0.0028186748 -0.0056188377
0.00047731173 0.005578413 0.0041954243 0.005072217 0.004363304 0.0026988462 -0.00013308761 -0.004632608
0.0047198366 -0.004371888 -0.0037514856 0.0025632079 0.0034878857 -0.0032822697 0.004002923 -0.0059101284
0.0015029341 0.0027856121 0.0011711235 -0.0035561607 -0.004263756 0.0050459905 0.0013908898 -0.0027123003
0.0060874606 -0.0012852222 -0.0011518396 0.0016490722 0.00527276 -0.002791919 5.030896e-05 -0.0028048414
-0.0028312884 -0.00083032734 1.2946715e-05 0.003408894 -0.0046896306 0.0037001176 0.0049670245 -0.0006725251
-0.000537892 0.0015670403 -0.0057726293 0.004647201 -0.0011044387 0.0002539116 0.002993159 0.0026288815
-0.002921259 -0.0046373345 -0.00609063 -0.005268195 -0.0013213757 -0.0048938785 -0.00058988587 -0.0032942225
0.003600775 0.004348565 0.005378013 -0.004106808 -0.004416676 0.0022284284 -0.0014077299 0.004816883
-0.0057620364 0.0058823572 -0.0043548318 -0.0050577954 -0.0006565635 -0.0027816459 -0.0039373366 0.0036337946
0.004882671 0.0035155497 0.0007706252 -0.00090851216 -0.0034447087 0.0060175015 -0.003438653 -0.0055217226
0.0053801127 -0.0004781586 0.004283944 -0.002037198 0.0049880412 -0.004383582 0.0038598808 0.004959683
-6.2991734e-05 0.0042323233 0.00027263133 -0.0057216296 0.0028248085 -0.004855439 0.00024151622 -0.0056439247
-0.0029920693 -0.0018678047 -0.0024409094 -0.006174468 -0.0031256396 -0.0058498858 -0.0052781194 -0.0063104685
-0.0036407905 -0.0014269365 0.0056912825 -0.0044055735 -0.0047581973 -0.0051105246 0.0059512365 -0.0007415264
-0.0015998904 0.0035167467 -0.003719619 -0.0016688965 0.0057720356 0.0033488858 -0.004884228 -0.0017202869
0.00059893174 0.0023042646 -0.0028497283 0.0044843582 0.00015317705 -0.005432052 0.0017135751 -0.006099445
0.0004735575 -0.00624502 -0.001812832 -0.001475246 -0.0056711715 -0.001768427 0.00023243084 -0.0035244396
0.00092278543 0.0033644994 0.00079555676 -0.0061348528 1.8280367e-05 -0.0029454995 0.001812773 -0.0050550723
-0.0043738526 -0.000236232 0.0036329397 -0.0016921237 -0.00036812582 -0.0007272966 -0.0049766605 -0.00043742012
-8.6663225e-05 0.0011196382 0.0028716414 0.0019050974 0.0035595233 -0.0011948983 -0.0027273498 0.0053720823
0.0050338665 0.0034605507 0.0046291393 0.0031242778 0.005605096 0.005536354 -0.005079146 -0.0059193135
-0.0032629604 0.00486104 0.005710814 0.00044169647 -0.004652668 -0.002958259 0.003014251 0.005884275
0.0012097728 -0.004211288 0.0058062132 0.0054621827 -0.0027284108 -0.0033163682 0.003706865 -0.004508851
0.0053223963 -0.0012539394 -7.6781354e-05 -0.0033709104 -0.006241536 0.0014440613 -0.0022322794 -0.0036783554
0.005067945 0.0012213085 -0.0016411943 -0.0058255666 -0.0035540152 -0.002057997 0.0026686357 -0.0057253917
0.003697198 0.005798081 0.0019992935 -0.0062312596 0.00083114096 -0.0025356712 0.0019572678 -0.0003201222
0.003046425 -0.00045792316 0.0012317535 0.0025960512 -0.004621621 0.0010717298 0.0056385393 0.0044156937
0.00039896296 -0.0010901432 0.0026334687 -0.005526 -0.0018465077 0.0055199102 0.000835534 -7.3867246e-05
-0.0049585826 -0.0040704547 0.00091691484 -0.004695637 -0.0017466096 -0.003019416 0.0020380854 0.0010299924
-0.006047083 0.0021510397 -0.00052860513 -0.0030704546 0.004641234 -0.0041367924 -0.005722643 0.00077231333
-0.003361021 -0.0025422198 -0.005500088 -0.0015677791 0.0050381506 -0.0057095434 -0.0042486186 -0.0013526481
