models/8/ConvNet_9.pth (torch, 127512 bytes, 7 tensors)

conv_1.weight f4 [8, 1, 3, 3]
0.40610483 0.4314481 0.055916116 0.46307635 0.10051977 0.21656337 -0.02095616 0.34963706
0.43247953 -0.06798067 0.4535969 0.22308101 0.40349767 0.20889631 0.33065283 0.11073537
0.42631602 0.24150416 -0.1556133 0.08496609 -0.15357888 -0.03909096 -0.13538611 0.22112367
-0.2631234 -0.15367012 -0.09412491 -0.20050868 0.031367198 -0.32921633 0.3015802 -0.28277832
0.25797477 0.056093056 -0.10738916 0.20691054 0.24745557 0.4596361 0.23028037 0.085974835
0.28110567 0.11138293 0.2923711 0.4545137 0.37053633 -0.19346231 0.14776579 0.015472962
0.100215964 -0.2937284 -0.4169339 -0.22094896 -0.3499812 0.20673825 0.18102998 0.23017421
0.17916794 0.08959071 0.3602435 -0.15675403 0.10681966 -0.13832864 0.17938416 -0.24641123
-0.022249376 -0.18699624 0.14542183 -0.326771 -0.31551555 -0.32030356 0.1864153 0.011621053
00000000: f9ec cf3e c4e6 dc3e 4c08 653d 5818 ed3e
00000010: 4fdd cd3d cac2 5d3e 41ac abbc a103 b33e
00000020: f56d dd3e 7339 8bbd da3d e83e 596f 643e
00000030: 3f97 ce3e eae8 553e 544b a93e 3ac9 e23d
00000040: 1846 da3e de4c 773e 1859 1fbe b402 ae3d
00000050: c843 1dbe d81d 20bd a8a2 0abe 3e6e 623e
00000060: 1cb8 86be b35b 1dbe 90c4 c0bd 2652 4dbe
00000070: e47a 003d 0b8f a8be b868 9a3e 52c8 90be
00000080: 4515 843e d5c1 653d d9ee dbbd 5be0 533e
00000090: fe64 7d3e 6c55 eb3e 9ece 6b3e 9313 b03d
000000a0: 15ed 8f3e bc1c e43d aab1 953e 05b6 e83e
000000b0: f0b6 bd3e fc1a 46be ea4f 173e 4e82 7d3c
000000c0: 073e cd3d 9263 96be 5c78 d5be 7240 62be
000000d0: bc30 b3be 31b3 533e ec5f 393e cab2 6b3e
000000e0: cd77 373e 567b b73d d671 b83e 2184 20be
000000f0: 44c4 da3d 06a6 0dbe 7bb0 373e 3a53 7cbe
00000100: 5344 b6bc f17b 3fbe 76e9 143e 874e a7be
00000110: 418b a1be d4fe a3be a7e3 3e3e 3b66 3e3c

conv_1.bias f4 [8]
-0.12911907 -0.18030947 -0.33062539 -0.25973466 -0.16580755 0.28328094 0.014203548 0.3111971
00000000: ca37 04be 0ca3 38be bb47 a9be f1fb 84be
00000010: 74c9 29be 330a 913e 00b6 683c 3a55 9f3e

conv_2.weight f4 [16, 8, 3, 3]
-0.06312077 -0.081915595 0.061518855 -0.04885816 0.07052309 -0.02822438 0.06847535 -0.090702
-0.05843665 0.023816582 0.013436589 -0.039694723 0.060708635 0.07259674 -0.092072695 -0.06790106
0.10462234 -0.04347073 -0.04178016 -0.11403212 -0.06748983 0.02943965 -0.015555546 -0.085546486
0.0027643964 -0.08050193 -0.099984504 -0.06489527 -0.103145756 -0.075035386 0.117810935 0.022274178
0.036331512 -0.10991898 -0.0773972 -0.039217897 0.018387424 -0.10431028 -0.050934408 -0.070705384
0.00054620084 -0.043771878 -0.0073579717 -0.079032436 -0.080035836 -0.06508439 -0.036355093 -0.08932803
0.101275474 -0.020839632 0.10426501 0.038209394 -0.09803917 0.0837589 -0.03462852 -0.048037983
-0.100835584 -0.11990872 0.03106133 -0.02820127 0.04399584 -0.09797413 0.086251706 -0.079782605
-0.014004391 0.030645965 0.06667268 0.10052969 0.11262081 -0.087871864 0.03488015 -0.045388013
-0.09484875 -0.15164515 0.07016897 -0.1225587 0.067172 0.05983808 0.039727107 -0.02173215
0.16236763 -0.026720826 -0.025465736 -0.13002433 0.037620172 -0.0029887988 -0.039527062 0.12221784
0.07333693 -0.023404468 -0.059649043 -0.0056280643 0.065803505 -0.030114949 -0.06724289 -0.040357277
-0.088043615 0.042029537 0.09122152 -0.11098917 0.027449518 0.060884193 0.021453233 -0.04185647
0.06151965 0.062089026 0.044061776 -0.020734038 -0.08960032 -0.030353153 -0.05252664 -0.060272306
0.082860835 0.10886262 -0.009287053 0.00751535 0.031965405 0.017053226 0.046077017 0.042059235
-0.10117522 -0.049638677 0.08826025 0.04117959 -0.02673927 -0.09403613 -0.09024012 -0.12061699
-0.04533189 0.035204668 0.07997655 0.064884014 -0.09670734 -0.048360072 0.0082827695 0.137187
0.03613781 -0.017615536 0.05714499 -0.043619994 -0.07858306 0.08182194 -0.07102333 -0.038325794
-0.15099867 0.05966117 0.08590578 0.027355874 -0.07932046 -0.10221041 -0.093552895 0.10886346
0.08269915 0.051450636 0.02311939 0.00665502 -0.027458139 -0.10379818 -0.10438609 -0.123465784
0.04856529 -0.05269621 -0.023717843 -0.06782395 -0.021475255 -0.08294774 -0.077005774 0.03909249
-0.035024934 0.0727546 -0.037807673 -0.086551465 -0.020861283 -0.057172786 -0.03606945 -0.11220982
0.065920345 -0.08205339 0.059223764 0.053454027 0.07687272 -0.08192772 0.11128838 -0.04274287
0.07706384 0.15878884 0.010393033 0.048417628 0.028228762 -0.10287278 0.05149804 -0.12527393
0.06441464 0.07833379 0.09811974 -0.038222793 -0.11074247 0.010205237 0.055338595 -0.12291797
-0.027816683 -0.07472833 -0.00891808 -0.051903773 -0.047004327 -0.03014718 -0.10067948 0.097145006
0.098631956 -0.01838082 -0.017144516 -0.053463288 -0.11311446 -0.12009315 0.036421392 -0.07248283
-0.07574005 -0.009279117 -0.039246254 -0.0381024 0.0037925954 -0.024982255 -0.04055002 -0.05643643
-0.09597111 0.083876 -0.060577318 0.017886756 -0.054859035 -0.0029558977 0.097022206 0.041767273
-0.11277791 0.036003273 0.11186934 0.031004675 0.079010315 0.11618795 -0.01805821 0.024460532
-0.08191067 -0.02428642 0.08727864 0.060412627 -0.074575074 -0.094481654 -0.08053531 -0.11630698
-0.09093029 -0.029144736 0.079530895 0.019723952 -0.09030584 -0.094970904 0.057255853 -0.08844618
00000000: 7645 81bd 5dc3 a7bd 32fb 7b3d 7e1f 48bd
00000010: 696e 903d d136 e7bc ce3c 8c3d f8c1 b9bd
00000020: 455b 6fbd fe1a c33c 2425 5c3c ef96 22bd
00000030: 9ea9 783d 9aad 943d 9c90 bcbd b60f 8bbd
00000040: 3d44 d63d 5d0e 32bd ac21 2bbd ac89 e9bd
00000050: 1c38 8abd 6c2b f13c b0dc 7ebc ff32 afbd
00000060: e02a 353b 32de a4bd adc4 ccbd d0e7 84bd
00000070: 153e d3bd 27ac 99bd dc46 f13d 5678 b63c
00000080: 5ad0 143d 341d e1bd 6c82 9ebd f2a2 20bd
00000090: 39a1 963c a1a0 d5bd 99a0 50bd fccd 90bd
000000a0: eb2e 0f3a 244a 33bd 241b f1bb c2db a1bd
000000b0: d4e9 a3bd f74a 85bd 14e9 14bd 9df1 b6bd
000000c0: 8469 cf3d e0b7 aabc e588 d53d 7481 1c3d
000000d0: c3c8 c8bd c989 ab3d a3d6 0dbd 7ac3 44bd
000000e0: e382 cebd b492 f5bd 5574 fe3c 5a06 e7bc
000000f0: fb34 343d a9a6 c8bd bca4 b03d 1065 a3bd
00000100: ac72 65bc 3f0d fb3c b08b 883d 83e2 cd3d
00000110: bda5 e63d 2af6 b3bd 7dde 0e3d c8e8 39bd
00000120: 1040 c2bd de48 1bbe c0b4 8f3d 0e00 fbbd
00000130: 7991 893d c618 753d e4b8 223d 9f07 b2bc
00000140: b343 263e a2e5 dabc 859d d0bc 1925 05be
00000150: 9c17 1a3d b9df 43bb 21e7 21bd 594d fa3d
00000160: ac31 963d baba bfbc 8e52 74bd a06b b8bb
00000170: fdc3 863d a0b3 f6bc a4b6 89bd ac4d 25bd
00000180: 3650 b4bd 2a27 2c3d 59d2 ba3d 4a4e e3bd
00000190: d0dd e03c b461 793d b1be af3c b171 2bbd
000001a0: 07fc 7b3d 1051 7e3d 1f7a 343d 6eda a9bc
000001b0: 5f80 b7bd 2da7 f8bc 2d26 57bd 18e0 76bd
000001c0: f1b2 a93d 5ef3 de3d b928 18bc 5343 f63b
000001d0: 28ee 023d 35b3 8b3c 41bb 3c3d 4e46 2c3d
000001e0: f434 cfbd ed51 4bbd cac1 b43d eeab 283d
000001f0: 500c dbbc 0496 c0bd d0cf b8bd 0a06 f7bd
00000200: efad 39bd c532 103d bfca a33d e9e1 843d
00000210: 7f0e c6bd 3615 46bd 74b4 073c c07a 0c3e
00000220: 3e05 143d 754e 90bc dd10 6a3d e1aa 32bd
00000230: 28f0 a0bd 4392 a73d ae74 91bd 82fb 1cbd
00000240: 659f 1abe 455f 743d 5fef af3d 6d19 e03c
00000250: c472 a2bd b153 d1bd a998 bfbd cef3 de3d
00000260: 2c5e a93d e7bd 523d e064 bd3c 5b12 da3b
00000270: e4ef e0bc 2494 d4bd 60c8 d5bd a1db fcbd
00000280: 66ec 463d fbd7 57bd ec4b c2bc 48e7 8abd
00000290: e0ec afbc 81e0 a9bd 34b5 9dbd 721f 203d
000002a0: 4e76 0fbd 5d00 953d 38dc 1abd e541 b1bd
000002b0: 48e5 aabc 032e 6abd 8fbd 13bd 43ce e5bd
000002c0: 3f01 873d 9c0b a8bd 9e94 723d 9cf2 5a3d
000002d0: 726f 9d3d b8c9 a7bd 2aeb e33d 2613 2fbd
000002e0: a6d3 9d3d 8b99 223e 8a47 2a3c 9051 463d
000002f0: 0140 e73c f7ae d2bd 9cef 523d cf47 00be
00000300: d3eb 833d 776d a03d 01f3 c83d 818f 1cbd
00000310: f3cc e2bd de33 273c b9aa 623d 6bbc fbbd
00000320: d0df e3bc 2b0b 99bd 231d 12bc 0d99 54bd
00000330: 9c87 40bd 38f7 f6bc 0b31 cebd f6f3 c63d
00000340: 8dff c93d 6093 96bc a872 8cbc 52fc 5abd
00000350: 8ea8 e7bd 66f3 f5bd 992e 153d e171 94bd
00000360: 991d 9bbd 7007 18bc aec0 20bd 4311 1cbd
00000370: 318d 783b 96a7 ccbc c717 26bd e329 67bd
00000380: 808c c4bd 2ec7 ab3d ec1f 78bd 3f87 923c
00000390: deb3 60bd bcb7 41bb 94b3 c63d 2914 2b3d
000003a0: 1bf8 e6bd 2b78 133d c11b e53d 84fd fd3c
000003b0: 29d0 a13d f3f3 ed3d d0ee 93bc 7461 c83c
000003c0: c8c0 a7bd 50f4 c6bc 25bf b23d 3b73 773d
000003d0: d1ba 98bd 997f c1bd b2ef a4bd 5b32 eebd
000003e0: a939 babd f1c0 eebc 18e1 a23d 2094 a13c
000003f0: 45f2 b8bd 1b80 c2bd 1d85 6a3d 4523 b5bd

conv_2.bias f4 [16]
0.02167318 0.034567803 0.082747065 -0.069988824 -0.044889413 0.08427193 -0.028849239 0.24585949
-0.08665415 0.008850183 0.07447188 -0.07028818 0.090992 0.07759481 -0.14514853 -0.04816992
00000000: f48b b13c f896 0d3d 4b77 a93d 4d56 8fbd
00000010: f6dd 37bd c396 ac3d 3d55 ecbc 97c2 7b3e
00000020: bb77 b1bd 5c00 113c b784 983d 40f3 8fbd
00000030: 045a ba3d 07ea 9e3d d1a1 14be d24d 45bd

conv_3.weight f4 [32, 16, 3, 3]
-0.03763865 0.008160538 -0.009612934 -0.08229459 -0.014770209 -0.0076572644 -0.02439757 0.07687086
-0.01785682 0.052965816 0.019430364 -0.07212182 0.020942582 0.06854519 -0.05614985 -0.05165352
0.08446545 0.06929137 -0.046997055 0.049682412 -0.010989362 -0.082124434 0.006037957 0.02676236
-0.024388516 0.029347142 -0.07128704 0.05778103 0.07111095 0.045995675 0.014157415 0.027521733
-0.06023123 -0.02075321 -0.007844499 -0.046312798 -0.060090654 0.057296418 0.057576824 -0.07356852
0.028096886 0.035343885 0.08202725 0.05107525 0.07865931 -0.027414214 0.05774033 0.06722449
-0.078194074 -0.06715749 0.016736979 0.046284482 -0.040131837 0.010148196 0.00010625195 0.0209314
-0.045007605 0.047831934 0.0559607 -0.05768429 0.0014085299 0.0010531702 0.027538577 0.07638575
0.022486867 -0.021170408 0.07418414 -0.031903848 -0.024301816 0.002555039 -0.06541281 0.009298329
-0.06381072 0.00011562469 0.0017313964 0.023061855 -0.07562236 -0.08767406 0.076927975 0.09990376
-0.06350766 0.030051552 -0.061005298 0.004147808 0.076731354 0.062382728 -0.06145443 0.05015776
0.041643538 -0.00047687016 0.0800538 -0.034267496 -0.02073212 -0.042081088 0.011726003 0.021444663
0.0067832237 -0.045969382 -0.03663771 0.013594751 -0.0938371 -0.0329985 -0.003484445 -0.053237755
0.0024804547 0.019677712 0.064012185 -0.0155786835 -0.052495494 0.058973234 0.011613108 -0.023672756
-0.05458424 0.019889584 -0.07929814 0.022180747 0.041302986 -0.07310093 -0.05424087 -0.06042454
0.07057222 0.071332134 0.0064962786 0.07785959 -0.029903553 -0.081741475 0.02120864 0.019358383
0.07252489 -0.0016372303 0.05569777 0.039647087 0.06306862 -0.08098509 0.0653167 -0.07619403
0.06934281 -0.0077888616 -0.07340598 0.018077798 -0.023030285 -0.06467918 -0.02427555 0.008325829
0.06489142 -0.025527427 0.049163967 0.010234534 0.0023828128 0.015315771 -0.055180997 -0.06984041
-0.026715273 -0.08007373 -0.036746625 0.011444501 -0.055370025 -0.027583202 -0.002611021 -0.006601393
-0.037575927 0.010689099 -0.012532802 0.025440332 0.008372117 -0.041812517 -0.024375882 0.005708337
-0.051560245 0.011453279 -0.00089272094 0.03264085 0.02018305 0.062687814 -0.0025203063 -0.061086368
0.037660863 -0.05616259 -0.010906528 -0.026490964 -0.031943727 -0.028197207 0.080637924 0.048494257
0.027807513 0.08215629 -0.07295277 0.017493092 0.055568736 0.0553342 -0.06464462 0.03246185
-0.045682617 0.00056956406 -0.015952911 -0.06593126 -0.076623924 -0.057841565 0.03779326 0.038917158
-0.07136014 -0.031162927 0.0022574589 -0.07061892 0.04737549 0.07645163 0.015881198 -0.06678184
0.014654866 0.021355772 0.060809355 -0.049323965 -0.08708117 0.032539964 -0.0017132594 -0.041818354
-0.101485774 -0.0867765 0.07337019 -0.07762097 0.035736267 0.1095565 -0.030081425 0.012280893
0.019987194 0.053484086 -0.073163785 0.038833667 -0.015839368 0.04444522 0.013461677 -0.031583026
0.003889419 0.058072224 -0.062154513 -0.05576244 -0.021753004 -0.032675054 0.03230193 0.05307471
-0.009687057 0.07742116 -0.042188607 -0.087740816 -0.079640344 -0.07040576 -0.095658876 -0.105762586
-0.059219647 0.010276505 0.05732149 0.108518384 0.07127742 -0.0023064967 0.018339831 -0.049413975
00000000: fc2a 1abd c7b3 053c 917f 1dbc 118a a8bd
00000010: bffe 71bc cae9 fabb 6add c7bc 786e 9d3d
00000020: 7748 92bc aff2 583d 6d2c 9f3c 9bb4 93bd
00000030: c78f ab3c 6c61 8c3d 63fd 65bd a492 53bd
00000040: 39fc ac3d a2e8 8d3d fc7f 40bd c97f 4b3d
00000050: ba0c 34bc db30 a8bd 0eda c53b bd3c db3c
00000060: 6dca c7bc 6b69 f03c f1fe 91bd cdab 6c3d
00000070: 9ea2 913d f665 3c3d 81f4 673c 4275 e13c
00000080: 06b5 76bd a302 aabc 3786 00bc 7db2 3dbd
00000090: 9e21 76bd a6af 6a3d add5 6b3d 18ab 96bd
000000a0: 712b e63c c0c4 103d e7fd a73d 4834 513d
000000b0: 2218 a13d c693 e0bc 2081 6c3d feac 893d
000000c0: 3724 a0bd de89 89bd fd1b 893c cc94 3d3d
000000d0: 4861 24bd 9e44 263c 95d3 de38 5478 ab3c
000000e0: e559 38bd 6beb 433d 0c37 653d 5d46 6cbd
000000f0: 6c9e b83a 870a 8a3a 9598 e13c 2270 9c3d
00000100: 6136 b83c 906d adbc dbed 973d 9cad 02bd
00000110: 9a14 c7bc 7172 273b 27f7 85bd 0558 183c
00000120: 32af 82bd 887b f238 06f0 e23a 37ec bc3c
00000130: e5df 9abd 758e b3bd 6a8c 9d3d 589a cc3d
00000140: 4e10 82bd ac2e f63c b1e0 79bd 56ea 873b
00000150: 5425 9d3d 0885 7f3d a4b7 7bbd 3972 4d3d
00000160: 6a92 2a3d 6e04 fab9 3ff3 a33d 135c 0cbd
00000170: 68d6 a9bc 385d 2cbd 6c1e 403c b8ac af3c
00000180: ce45 de3b 644a 3cbd 6c11 16bd 85bc 5e3c
00000190: aa2d c0bd 6f29 07bd 495b 64bb d50f 5abd
000001a0: 208f 223b 2733 a13c d218 833d bc3d 7fbc
000001b0: 8405 57bd eb8d 713d e844 3e3c 5eed c1bc
000001c0: b993 5fbd 7bef a23c 1067 a2bd 66b4 b53c
000001d0: 522d 293d f1b5 95bd ad2b 5ebd b97f 77bd
000001e0: 2b88 903d 9516 923d bcde d43b d974 9f3d
000001f0: 4cf8 f4bc 1368 a7bd bebd ad3c 7995 9e3c
00000200: ee87 943d 5598 d6ba 5823 643d fc64 223d
00000210: 1f2a 813d 83db a5bd c3c4 853d 9e0b 9cbd
00000220: 9a03 8e3d b539 ffbb e055 96bd e417 943c
00000230: 02aa bcbc 8576 84bd 85dd c6bc 0f69 083c
00000240: cbe5 843d e51e d1bc 2860 493d bfae 273c
00000250: f728 1c3b 00ef 7a3c 7805 62bd 7d08 8fbd
00000260: fdd9 dabc b2fd a3bd a183 16bd b781 3b3c
00000270: aecb 62bd 2bf6 e1bc aa1d 2bbb 8050 d8bb
00000280: 37e9 19bd 5521 2f3c 6256 4dbc 3e68 d03c
00000290: 342b 093c 9a43 2bbd eeaf c7bc 000d bb3b
000002a0: d630 53bd 89a6 3b3c 7d05 6aba 69b2 053d
000002b0: ec56 a53c 7862 803d b92b 25bb b335 7abd
000002c0: 4742 1a3d be0a 66bd 4bb1 32bc 9403 d9bc
000002d0: 6dd7 02bd d4fd e6bc 7f25 a53d eaa1 463d
000002e0: 95cc e33c 8f41 a83d 4368 95bd ac4d 8f3c
000002f0: 0b9c 633d 1da6 623d 6664 84bd b8f6 043d
00000300: b21d 3bbd cc4e 153a aeaf 82bc f806 87bd
00000310: 01ed 9cbd 47eb 6cbd 1bcd 1a3d 9967 1f3d
00000320: 4425 92bd 6549 ffbc e0f1 133b a7a0 90bd
00000330: cd0c 423d ac92 9c3d 4919 823c ebc4 88bd
00000340: f71a 703c 4df2 ae3c 3b13 793d ed07 4abd
00000350: 9d57 b2bd a048 053d 728f e0ba b949 2bbd
00000360: c6d7 cfbd e1b7 b1bd 1c43 963d bef7 9ebd
00000370: 3160 123d 295f e03d 526d f6bc cc35 493c
00000380: 2fbc a33c 2112 5b3d e5d6 95bd 0d10 1f3d
00000390: 90c1 81bc 310c 363d 5e8e 5c3c 345d 01bd
000003a0: 9fe5 7e3b 24dd 6d3d bb95 7ebd 2867 64bd
000003b0: 5b33 b2bc 47d6 05bd 074f 043d de64 593d
000003c0: 76b6 1ebc fc8e 9e3d f6cd 2cbd 75b1 b3bd
000003d0: 7a1a a3bd e530 90bd cde8 c3bd 0e9a d8bd
000003e0: 4d90 72bd c95e 283c f0c9 6a3d e33e de3d
000003f0: e5f9 913d 9828 17bb 6a3d 963c 4f66 4abd

conv_3.bias f4 [32]
-0.08104954 -0.09656859 0.042826496 0.0008635682 -0.07767732 -0.036292545 -0.047298852 -0.0040669166
-0.092905246 -0.052560773 -0.018226953 0.054416407 -0.044807743 -0.031388853 0.1193109 0.1026219
0.024663735 0.08279441 0.00061751815 0.07314076 -0.007664044 0.01366058 0.08506573 -0.013490617
0.18611476 0.027132796 0.017214263 0.09787895 0.0026127598 -0.007773771 0.034591787 -0.04937642
00000000: 4dfd a5bd c1c5 c5bd d66a 2f3d 1561 623a
00000010: 4915 9fbd 7ea7 14bd 71bc 41bd c543 85bb
00000020: 1b45 bebd f749 57bd b150 95bc bde3 5e3d
00000030: 5388 37bd 9991 00bd 4659 f43d 6e2b d23d
00000040: 9a0b ca3c 1e90 a93d f1e0 213a d3ca 953d
00000050: a922 fbbb a0d0 5f3c f136 ae3d c007 5dbc
00000060: de94 3e3e 9945 de3c ed04 8d3c c274 c83d
00000070: d63a 2b3b 1ebb febb 1eb0 0d3d ee3e 4abd

linear_1.weight f4 [1, 25088]
-0.0037350103 -0.0022407114 -0.003142682 0.001847434 0.0045594214 0.016771208 -0.006860685 -0.021325279
-0.0068144207 -0.0033947949 -0.0011749245 0.00027771838 -5.3593096e-05 0.0022998203 0.00042709272 -0.0022170742
0.00965622 0.0022106941 -0.0062525254 -0.005656237 -0.004474178 -0.007099864 0.0029925418 -0.0061079157
0.0015185201 0.0023105445 0.000460225 -0.0058057397 -0.0050710253 0.0047294204 0.002438398 -0.0034601851
0.0045624455 0.0075291833 0.013163075 0.008818249 0.0078033595 -0.0040712967 -0.0027489038 -0.009668469
-0.01106473 -0.003133409 -0.0036722198 -0.006190506 -0.017138911 -0.003944836 0.0036370552 0.000721996
-0.0047355485 -0.00056583673 -0.007837812 0.006150911 1.1949412e-05 -5.578236e-05 0.00267632 0.0012973258
-0.0041345046 -0.005083775 -0.0045056012 -0.0033560125 0.00095493277 -0.00044341822 0.012550827 0.0106823435
0.011024185 0.007455564 0.010053898 -0.00094827224 -0.010502897 -0.0056647505 0.0043807235 0.01363401
-0.012579307 0.0028073695 -0.005948002 -0.006619008 -0.0012743066 0.003662854 0.0011295639 0.0069347476
0.01148494 0.007905277 0.004286193 0.0009883248 -0.0045406152 0.005132192 -0.0011722128 -0.0035074656
0.009057656 0.002411843 0.010129336 0.0020543465 0.013724313 -0.00020457333 0.005713922 0.00693957
0.0010864965 0.008719658 0.0054650344 0.006895955 0.022422934 0.0010579019 -0.00932923 -0.0060510146
-0.007615706 -0.0068692183 0.0007067903 -0.0014911866 0.0023349181 -0.0019073838 -0.003341143 -0.013501539
-0.01178921 -0.016529068 -0.001463872 -0.0044105444 -0.00062919187 -0.0009109585 0.006254764 0.0016022995
0.0037870586 0.010117835 0.0051725004 -0.0018671023 0.00972835 0.0032576271 0.0030456719 -0.00069291954
-0.0055087213 0.010633507 -0.007439108 -0.0004973512 -0.0039156633 -0.008363546 0.0033248956 0.00017271012
0.0053334576 -0.0046966947 -0.0033549764 0.0014727204 0.008544109 0.011891963 0.003669211 -0.00455361
0.0049051517 0.0058583105 0.0036081711 0.0077754073 0.0027570715 0.0001880518 0.0040998813 0.00032180196
-0.0049288855 -0.0015611363 0.008698998 0.008649134 0.007920015 -0.0108656 -0.014648769 -0.0051603573
0.017316634 0.010327109 0.0005928225 0.0022231804 0.0041966424 0.0048677926 0.0080750715 0.01591552
0.008137622 0.008745255 0.013476553 0.0020915244 0.001697452 0.003107652 -0.00041676548 -0.0045982953
-0.0020343673 -6.412368e-05 -0.005084134 0.0028901123 0.0095487805 -0.0011960742 0.007099464 0.019649398
0.00692332 -0.012459371 -0.014611648 -0.009571464 -0.0011741084 0.0142934965 0.015369156 -0.006233262
0.015566335 0.012945757 0.0070440425 0.0005176463 -0.003984303 0.0052813045 0.0052954573 -0.0023972378
0.00681937 0.0051486045 -0.002108509 -0.011372965 -0.008392098 0.0004706805 0.0039379364 0.0017176257
0.019331126 0.02033632 0.00702242 0.0068722744 0.0114237135 0.013876846 0.013468911 -0.0073497132
-0.0020861523 0.0067002964 0.00732073 0.011990239 -0.00056079315 0.006174947 0.010931859 0.0069397828
0.0024659801 0.0022661712 0.009691794 0.0021175987 0.0013553785 0.0060207224 0.0008339671 -0.004854886
-0.015355076 -0.0119551625 -0.00142451 -0.010822344 -0.00021753616 -0.0036939562 0.0055123484 0.009380713
0.005743336 0.011010047 0.006938682 0.008677221 0.0021056216 -0.009188423 -0.015483431 0.0008718676
0.0035206166 -0.00529035 -0.0060286885 -0.0015992572 0.008055253 -0.0008067182 0.00070421037 0.0049550557
00000000: 13c7 74bb e6d8 12bb 74f5 4dbb 9925 f23a
00000010: 3367 953b c663 893c 99cf e0bb 5ab2 aebc
00000020: 814b dfbb 357b 5ebb edff 99ba bb9a 9139
00000030: 26c9 60b8 95b8 163b 6aeb df39 554c 11bb
00000040: 1f35 1e3c 4be1 103b fce1 ccbb f457 b9bb
00000050: 209c 92bb faa5 e8bb 851e 443b e924 c8bb
00000060: 1409 c73a 816c 173b 5b4a f139 133e bebb
00000070: d82a a6bb 41f9 9a3b 88cd 1f3b 46c4 62bb
00000080: 9180 953b 5eb7 f63b f0a9 573c 6b7a 103c
00000090: 53b3 ff3b 8368 85bb f426 34bb 8068 1ebc
000000a0: d748 35bc e159 4dbb a0a9 70bb bad9 cabb
000000b0: e766 8cbc af43 81bb a95b 6e3b 5544 3d3a
000000c0: a92c 9bbb a954 14ba 2b6a 00bc 958d c93b
000000d0: 557a 4837 daf7 69b8 3365 2f3b 080b aa3a
000000e0: bd7a 87bb cc95 a6bb b9a3 93bb 8cf0 5bbb
000000f0: 7454 7a3a 967a e8b9 fca1 4d3c ff04 2f3c
00000100: c99e 343c ce4d f43b 1bb9 243c 7995 78ba
00000110: 5814 2cbc 5f9f b9bb 2c8c 8f3b 2f61 5f3c
00000120: 7019 4ebc d8fb 373b 75e7 c2bb 43e4 d8bb
00000130: a206 a7ba 7e0c 703b e00d 943a e13c e33b
00000140: 542b 3c3c 2385 013c 3173 8c3b ad8a 813a
00000150: 71c9 94bb f22b a83b efa4 99ba 82dd 65bb
00000160: 9066 143c 0310 1e3b 84f5 253c 37a2 063b
00000170: f1db 603c bc82 56b9 da3b bb3b 5565 e33b
00000180: c668 8e3a e5dc 0e3c 0814 b33b 77f7 e13b
00000190: 4db0 b73c 4ca9 8a3a a0d9 18bc 9747 c6bb
000001a0: 2c8d f9bb 2e17 e1bb e547 393a eb73 c3ba
000001b0: 6d05 193b 2e01 faba 14f7 5abb 8f35 5dbc
000001c0: 8827 41bc f867 87bc 65df bfba 5486 90bb
000001d0: 5af0 24ba 64cd 6eba c3f4 cc3b 4004 d23a
000001e0: 4d30 783b 47c5 253c 147e a93b 8fb9 f4ba
000001f0: a863 1f3c ea7d 553b e599 473b 0ba5 35ba
00000200: 8182 b4bb 2938 2e3c c3c3 f3bb ad60 02ba
00000210: f74e 80bb 4107 09bc 7ee6 593b 8519 3539
00000220: 49c4 ae3b bbe6 99bb 2adf 5bbb 4c08 c13a
00000230: 97fc 0b3c 82d6 423c 2577 703b 7336 95bb
00000240: 65bb a03b 12f7 bf3b 1177 6c3b d8c8 fe3b
00000250: fcaf 343b c52f 4539 4c58 863b 87b7 a839
00000260: 7d82 a1bb 0b9f ccba 3e86 0e3c 19b5 0d3c
00000270: f3c2 013c a105 32bc 6401 70bc 3718 a9bb
00000280: 9ddb 8d3c 0933 293c a567 1b3a c7b2 113b
00000290: fd83 893b 0182 9f3b 4e4d 043c 4461 823c
000002a0: a953 053c 4248 0f3c c3cc 5c3c f511 093b
000002b0: 0a7d de3a c0a9 4b3b 5181 dab9 4cad 96bb
000002c0: 0553 05bb 237a 86b8 cf98 a6bb 0a68 3d3b
000002d0: 7d72 1c3c 97c5 9cba 9fa2 e83b c6f7 a03c
000002e0: 04dd e23b 6422 4cbc b265 6fbc a1d1 1cbc
000002f0: 8ae4 99ba 452f 6a3c eace 7b3c 6440 ccbb
00000300: f109 7f3c 711a 543c b6d1 e63b a8b2 073a
00000310: c28e 82bb cb0e ad3b 8485 ad3b fa1a 1dbb
00000320: 0675 df3b a0b5 a83b e92e 0abb ac55 3abc
00000330: 037f 09bc abc5 f639 ce09 813b f421 e13a
00000340: 4f5c 9e3c 5b98 a63c 541c e63b d130 e13b
00000350: 872a 3b3c b65b 633c b5ac 5c3c ddd5 f0bb
00000360: d4b7 08bb 298e db3b bce2 ef3b b572 443c
00000370: 3102 13ba 3657 ca3b 8a1b 333c 1e67 e33b
00000380: 489c 213b 0b84 143b 55ca 1e3c 69c7 0a3b
00000390: f5a6 b13a 7b49 c53b 969e 5a3a bc15 9fbb
000003a0: db93 7bbc 96df 43bc a0b6 baba 3350 31bc
000003b0: 6b1a 64b9 4d16 72bb eea0 b43b 90b1 193c
000003c0: 9832 bc3b 7c63 343c e25d e33b e72a 0e3c
000003d0: 78fe 093b 0a8b 16bc 37ae 7dbc 0b8e 643a
000003e0: 25ba 663b ac5a adbb 4e8c c5bb 2b9e d1ba
000003f0: 2efa 033c f179 53ba c29a 383a 055e a23b
