models/batch_32/ConvNet_9.pth (torch, 127512 bytes, 7 tensors)

conv_1.weight f4 [8, 1, 3, 3]
0.25580576 0.2775435 -0.077373944 0.30709583 -0.072121985 0.06806012 -0.16156939 0.19659548
0.2946195 -0.24093665 0.2934176 0.06608312 0.24993066 0.04883199 0.16443412 -0.0434388
0.26064742 0.052972876 -0.1556133 0.08496609 -0.15357888 -0.03909096 -0.13538611 0.22112367
-0.2631234 -0.15367012 -0.09412491 -0.20042433 0.03146099 -0.32922637 0.30103344 -0.28316066
0.25733727 0.05546931 -0.10823972 0.20597918 0.058009822 0.27541566 0.042559516 -0.099100016
0.0956338 -0.08429228 0.14633885 0.3037159 0.1988052 -0.14532553 0.19292074 0.060108177
0.1695843 -0.2029143 -0.329654 -0.12855981 -0.25545815 0.27381414 0.0957946 0.1378487
0.1050749 -0.0060726423 0.26056024 -0.23727898 0.02060584 -0.2279683 0.10227873 -0.11691172
0.099988125 -0.07157219 0.2744125 -0.19964616 -0.20089492 -0.20079115 0.29785404 0.10907055
00000000: f9f8 823e 2e1a 8e3e 3b76 9ebd aa3b 9d3e
00000010: b1b4 93bd 1b63 8b3d 7272 25be 5350 493e
00000020: 5ed8 963e 19b8 76be d53a 963e 9656 873d
00000030: d3ed 7f3e 0e04 483d 6b61 283e e2ec 31bd
00000040: 9473 853e 16fa 583d 1859 1fbe b402 ae3d
00000050: c843 1dbe d81d 20bd a8a2 0abe 3e6e 623e
00000060: 1cb8 86be b35b 1dbe 90c4 c0bd 093c 4dbe
00000070: 3ddd 003d 5c90 a8be 0e21 9a3e 6ffa 90be
00000080: b6c1 833e ca33 633d c9ac ddbd 35ec 523e
00000090: b59b 6d3d 4803 8d3e e352 2e3d f3f4 cabd
000000a0: a7db c33d 6ea1 acbd dad9 153e a780 9b3e
000000b0: 9793 4b3e 37d0 14be 048d 453e fe33 763d
000000c0: 82a7 2d3e c4c8 4fbe 69c8 a8be 2fa5 03be
000000d0: 69cb 82be 5e31 8c3e f62f c43d 3628 0d3e
000000e0: 8231 d73d 04fd c6bb 2768 853e 43f9 72be
000000f0: 94cd a83c 8670 69be 8377 d13d 696f efbd
00000100: 93c6 cc3d 7194 92bd cc7f 8c3e 0b70 4cbe
00000110: 66b7 4dbe 329c 4dbe 5380 983e 6160 df3d

conv_1.bias f4 [8]
0.31978872 -0.26814404 -0.33062539 -0.26079112 -0.21272068 0.1335326 0.11764801 0.2762548
00000000: 59bb a33e 2d4a 89be bb47 a9be 6a86 85be
00000010: 73d3 59be c5bc 083e 71f1 f03d 4571 8d3e

conv_2.weight f4 [16, 8, 3, 3]
-0.06089246 -0.080359586 0.06252768 -0.04766062 0.07151337 -0.02797398 0.067462474 -0.09152952
-0.059445623 0.03593855 0.024924343 -0.03003578 0.0702618 0.08013644 -0.08544425 -0.062890254
0.107940614 -0.039745323 -0.04178016 -0.11403212 -0.06748983 0.02943965 -0.015555546 -0.085546486
0.0027643964 -0.08050193 -0.099984504 -0.064896196 -0.10314473 -0.075040296 0.1178052 0.0222593
0.036317088 -0.10991788 -0.07740152 -0.039227303 0.018430999 -0.10369467 -0.05077058 -0.070549205
0.0003364036 -0.043839596 -0.008142354 -0.079841025 -0.08087763 -0.068910815 -0.04049385 -0.09317442
0.09865801 -0.023553668 0.10123599 0.036549285 -0.09995586 0.081403516 -0.032561436 -0.04530841
-0.09795379 -0.11730244 0.033586476 -0.025873238 0.045776963 -0.096815616 0.08739752 -0.086866505
-0.020703468 0.024263473 0.060500212 0.09480569 0.1070146 -0.09375591 0.029345406 -0.051010523
-0.013888369 -0.08895992 0.1068778 -0.08733447 0.06250094 0.041279044 0.03748242 -0.064145446
0.107064545 0.025641793 0.014926958 -0.10409341 0.049254127 -0.017849512 -0.05416474 0.10100533
0.02609847 -0.06535193 -0.059649043 -0.0056280643 0.065803505 -0.030114949 -0.06724289 -0.040357277
-0.088043615 0.042029537 0.09122152 -0.11094926 0.027371567 0.060881007 0.021370195 -0.04196988
0.061511174 0.06193215 0.04406761 -0.020708682 -0.03159155 0.01230026 -0.021089673 -0.035443965
0.075104825 0.10110046 -0.011993323 -0.026630402 0.0015558455 -0.0068800985 0.028427342 0.033074804
-0.10696733 -0.043444883 0.09923152 0.04596993 -0.0058225654 -0.07111153 -0.0722103 -0.10566887
-0.038429707 0.039738603 0.07516495 0.054481875 -0.1042177 -0.0708368 -0.0184876 0.1141027
0.01715193 -0.030387703 0.048783097 -0.044812236 -0.07617344 0.086013116 -0.05354834 -0.023578005
-0.11722251 0.07909989 0.08944298 0.042999256 -0.08201601 -0.11625474 -0.09561958 0.08808364
0.056673076 0.099194326 0.061774977 0.029870857 -0.0011384027 -0.08959523 -0.100940526 -0.11020977
0.048266914 -0.057835937 -0.023717843 -0.06782395 -0.021475255 -0.08294774 -0.077005774 0.03909249
-0.035024934 0.0727546 -0.037807673 -0.08645174 -0.020793851 -0.057127994 -0.036055524 -0.11219372
0.06593671 -0.08204849 0.059233785 0.053479187 0.08426129 -0.090301715 0.08487608 -0.055655196
0.043814145 0.11077111 -0.01655071 -0.0008278108 -0.027050521 -0.098440826 0.056531064 -0.11707554
0.07311432 0.08812649 0.11139175 -0.02784328 -0.096853234 0.026443316 0.06508654 -0.11726868
-0.026746027 -0.07067797 -0.010312383 -0.058035932 -0.04819097 -0.03740042 -0.11201618 0.09678688
0.09894629 -0.018415254 -0.0133249685 -0.04795113 -0.10635404 -0.114582375 0.04396676 -0.06461895
-0.07576378 -0.009195119 -0.03924574 -0.03812729 0.003786698 -0.024997689 -0.040577613 -0.056427818
-0.095910475 0.09875593 -0.04722508 0.031160051 -0.040949628 0.009517528 0.109806225 0.05424022
-0.1021851 0.046713237 0.11186934 0.031004675 0.079010315 0.11618795 -0.01805821 0.024460532
-0.08191067 -0.02428642 0.08727864 0.060415845 -0.074574895 -0.09450307 -0.08053518 -0.11630464
-0.09093851 -0.02914429 0.07953499 0.019726196 -0.08964071 -0.09454735 0.058618184 -0.08766494
00000000: 5f6a 79bd 9193 a4bd 830e 803d c837 43bd
00000010: 9a75 923d b029 e5bc c429 8a3d d473 bbbd
00000020: 417d 73bd 4d34 133d 232e cc3c 990d f6bc
00000030: 6be5 8f3d 931e a43d 65fd aebd 9bcc 80bd
00000040: f80f dd3d fecb 22bd ac21 2bbd ac89 e9bd
00000050: 1c38 8abd 6c2b f13c b0dc 7ebc ff32 afbd
00000060: e02a 353b 32de a4bd adc4 ccbd 4ce8 84bd
00000070: 8b3d d3bd baae 99bd da43 f13d 2359 b63c
00000080: 3ac1 143d a01c e1bd b084 9ebd cfac 20bd
00000090: 9bfc 963c df5d d4bd d0f4 4fbd 1a7c 90bd
000000a0: 545f b039 2691 33bd 8267 05bc b183 a3bd
000000b0: 2ca3 a5bd 1d21 8dbd e1dc 25bd 3bd2 bebd
000000c0: 360d ca3d 9ff3 c0bc d154 cf3d b4b4 153d
000000d0: a8b5 ccbd e3b6 a63d 245f 05bd 5095 39bd
000000e0: ff9b c8bd 433c f0bd f991 093d 1df4 d3bc
000000f0: a080 3b3d 4447 c6bd 79fd b23d 11e7 b1bd
00000100: 529a a9bc 31c4 c63c 12cf 773d 7c29 c23d
00000110: 782a db3d 1903 c0bd c765 f03c 69f0 50bd
00000120: 0b8c 63bc 9e30 b6bd bfe2 da3d 6adc b2bd
00000130: 7e00 803d 3714 293d 2b87 193d b05e 83bd
00000140: a844 db3d bd0e d23c 3390 743c ed2e d5bd
00000150: b2be 493d 2439 92bc d9db 5dbd e2db ce3d
00000160: 75cc d53c 3cd7 85bd 8e52 74bd a06b b8bb
00000170: fdc3 863d a0b3 f6bc a4b6 89bd ac4d 25bd
00000180: 3650 b4bd 2a27 2c3d 59d2 ba3d 5e39 e3bd
00000190: 563a e03c 5d5e 793d 8c10 af3c 9ce8 2bbd
000001a0: 24f3 7b3d 91ac 7d3d 3d80 343d 41a5 a9bc
000001b0: 2466 01bd 0887 493c 40c4 acbc b12d 11bd
000001c0: 8fd0 993d c20d cf3d a57f 44bc 0028 dabc
000001d0: 83ed cb3a 7372 e1bb 75e0 e83c 7279 073d
000001e0: b011 dbbd 43f3 31bd e539 cb3d f74a 3c3d
000001f0: 38cb bebb eca2 91bd fee2 93bd ec68 d8bd
00000200: 7868 1dbd f2c4 223d 15f0 993d 6328 5f3d
00000210: 1770 d5bd e212 91bd 4f73 97bc adae e93d
00000220: 3482 8c3c a2ef f8bc c9d0 473d 098d 37bd
00000230: d200 9cbd a527 b03d 8155 5bbd a926 c1bc
00000240: 5b12 f0bd 20ff a13d e22d b73d fd1f 303d
00000250: 03f8 a7bd f716 eebd 33d4 c3bd 3265 b43d
00000260: 0722 683d 6526 cb3d c207 7d3d bab3 f43c
00000270: 7536 95ba b47d b7bd e8b9 cebd a9b5 e1bd
00000280: 87b3 453d 60e5 6cbd ec4b c2bc 48e7 8abd
00000290: e0ec afbc 81e0 a9bd 34b5 9dbd 721f 203d
000002a0: 4e76 0fbd 5d00 953d 38dc 1abd 9c0d b1bd
000002b0: de57 aabc 0bff 69bd f5ae 13bd d2c5 e5bd
000002c0: d309 873d 0a09 a8bd 209f 723d fe0c 5b3d
000002d0: 2f91 ac3d 1bf0 b8bd 83d3 ad3d b4f6 63bd
000002e0: 7676 333d f7db e23d 5b95 87bc 7101 59ba
000002f0: 0e99 ddbc 589b c9bd 1e8d 673d 4dc5 efbd
00000300: f6bc 953d a97b b43d 5c21 e43d 9717 e4bc
00000310: fd5a c6bd a79f d83c 184c 853d 902a f0bd
00000320: 7c1a dbbc 9dbf 90bd 45f5 28bc 16b7 6dbd
00000330: e563 45bd 2f31 19bd bd68 e5bd 3338 c63d
00000340: 5aa4 ca3d 96db 96bc f850 5abc 6768 44bd
00000350: 26d0 d9bd 2aaa eabd 7d16 343d f156 84bd
00000360: 0a2a 9bbd 20a7 16bc 24c0 20bd 5c2b 1cbd
00000370: 402a 783b f4c7 ccbc b634 26bd db20 67bd
00000380: b66c c4bd 8d40 ca3d 166f 41bd 5d43 ff3c
00000390: ccba 27bd 68ef 1b3c 16e2 e03d fe2a 5e3d
000003a0: 6c46 d1bd 6156 3f3d c11b e53d 84fd fd3c
000003b0: 29d0 a13d f3f3 ed3d d0ee 93bc 7461 c83c
000003c0: c8c0 a7bd 50f4 c6bc 25bf b23d 9b76 773d
000003d0: b9ba 98bd d38a c1bd a1ef a4bd 2131 eebd
000003e0: f83d babd 02c0 eebc 3ee3 a23d d598 a13c
000003f0: 8c95 b7bd 0ba2 c1bd 9f19 703d ad89 b3bd

conv_2.bias f4 [16]
0.030956443 0.038598083 0.08982329 -0.050854746 -0.026389895 0.030512568 0.012707835 0.10573294
-0.055223744 -0.0051230653 0.022937354 -0.025748238 0.08069902 0.021491433 -0.10745071 -0.01596944
00000000: 5e98 fd3c 0619 1e3d 46f5 b73d 114d 50bd
00000010: 9f2f d8bc 7ef5 f93c 8634 503c 838a d83d
00000020: 4b32 62bd 63df a7bb 1ee7 bb3c f8ed d2bc
00000030: 8745 a53d cd0e b03c 1e0f dcbd 58d2 82bc

conv_3.weight f4 [32, 16, 3, 3]
-0.037796285 0.00809769 -0.009684759 -0.08266117 -0.0151853785 -0.0079816915 -0.024573196 0.07656508
-0.018183276 0.05353492 0.020639578 -0.0703469 0.019581614 0.06905679 -0.05451085 -0.053865522
0.08156526 0.066955656 -0.04649086 0.050142962 -0.010661289 -0.082160324 0.006258729 0.026924418
-0.024996296 0.028987452 -0.07125842 0.057751317 0.0710445 0.04595556 0.014124284 0.027445713
-0.06029566 -0.020822788 -0.007955642 -0.046373844 -0.061551686 0.0560495 0.05655381 -0.07568236
0.026516499 0.033900168 0.079164036 0.04821272 0.07661141 -0.027282614 0.058359105 0.067779385
-0.07869491 -0.066899054 0.016862432 0.04550211 -0.041407004 0.009172396 -0.00012066735 0.021092677
-0.04477863 0.047003444 0.055417623 -0.057821304 0.00080772734 0.00023114277 0.0267594 0.07762996
0.024436595 -0.018936232 0.07484258 -0.031714365 -0.02420115 0.005689045 -0.06346156 0.009064853
-0.056539793 0.008567186 0.00798263 0.011532077 -0.070276596 -0.07914957 0.03833878 0.07146104
-0.07395052 0.030866154 -0.061344326 0.005224278 0.07753011 0.06321745 -0.060928278 0.05154764
0.04352562 -0.00012780642 0.08072602 -0.033099633 -0.01939375 -0.042119086 0.011988568 0.022063138
0.0066396506 -0.04688835 -0.037516225 0.028346604 -0.073069304 -0.012979897 -0.0018474424 -0.033765465
0.030324599 0.0053687687 0.058500167 -0.007404748 -0.052594922 0.058878176 0.0116373915 -0.023866547
-0.054925498 0.01953236 -0.07947941 0.0219482 0.0412036 -0.073100135 -0.054557215 -0.05991073
0.07004213 0.07084297 0.005216619 0.07823392 -0.02785891 -0.0809017 0.02910911 0.029523637
0.08169975 -2.3671702e-05 0.063866675 0.051080763 0.06031431 -0.08269441 0.06862032 -0.07103843
0.07470453 -0.003456013 -0.07385174 0.023169052 -0.01696519 -0.07484998 -0.03021659 0.008588922
0.06490416 -0.025618276 0.049496442 0.010437703 0.0028102114 0.015945598 -0.05468675 -0.06926595
-0.0261839 -0.077654205 -0.038862586 0.0038331938 -0.05488512 -0.03456778 -0.014975488 -0.009600766
-0.046001103 0.004004261 -0.01169691 0.023832925 0.0037635083 -0.041612968 -0.02868981 -0.0009609897
-0.051997487 0.0065262243 -0.0058819912 0.032331992 0.019722834 0.062365845 -0.0027468503 -0.061574742
0.03725128 -0.056319725 -0.011453748 -0.026982933 -0.031620253 -0.030830335 0.076577924 0.04770421
0.023097133 0.07824716 -0.07551784 0.013448514 0.053348698 0.055360757 -0.06631928 0.029658236
-0.04746996 -0.0032538518 -0.017388636 -0.06957511 -0.07948956 -0.05482433 0.037813734 0.0381208
-0.07248113 -0.031296168 0.0013626982 -0.0720496 0.046953417 0.07547747 0.014737138 -0.061911188
0.019436704 0.030251527 0.065996096 -0.044333607 -0.07465864 0.036625538 0.0051968396 -0.027150284
-0.034954283 -0.04299593 0.067443736 -0.014426096 0.060069516 0.07437193 0.010504925 0.017718326
-0.0056912987 0.057237316 -0.07509079 0.03314297 -0.013576235 0.038051024 -0.00036803194 -0.030857015
-0.0089933 0.04500323 -0.057868592 -0.052666422 -0.018660614 -0.030217668 0.03274717 0.056086257
-0.008915068 0.07881099 -0.03481083 -0.04676438 -0.037308615 -0.05741335 -0.058413893 -0.07425352
-0.07385618 0.021747205 0.05082006 0.07823858 0.07098316 -0.0047994344 0.016170185 -0.04985964
00000000: 47d0 1abd 2cac 043c d3ac 1ebc 424a a9bd
00000010: 18cc 78bc a4c5 02bc ba4d c9bc 27ce 9c3d
00000020: 18f5 94bc 6f47 5b3d 5514 a93c 0912 90bd
00000030: 9f69 a03c a56d 8d3d c546 5fbd 18a2 5cbd
00000040: b00b a73d 0c20 893d 336d 3ebd b562 4d3d
00000050: b0ac 2ebc ac43 a8bd 0616 cd3b 9990 dc3c
00000060: 08c5 ccbc 1877 ed3c efef 91bd a58c 6c3d
00000070: c77f 913d e63b 3c3d 8a69 673c d5d5 e03c
00000080: 95f8 76bd 8d94 aabc 6258 02bc 80f2 3dbd
00000090: 9f1d 7cbd 2994 653d f8a4 673d 5aff 9abd
000000a0: 2139 d93c e7da 0a3d c120 a23d b37a 453d
000000b0: 71e6 9c3d ca7f dfbc f509 6f3d ebcf 8a3d
000000c0: cc2a a1bd 5f02 89bd 1523 8a3c 6c60 3a3d
000000d0: 649a 29bd d147 163c ca0e fdb8 8dca ac3c
000000e0: cc69 37bd af86 403d 97fd 623d 08d6 6cbd
000000f0: aabd 533a ea5e 7239 8736 db3c 75fc 9e3d
00000100: 412f c83c 2820 9bbc 1147 993d ece6 01bd
00000110: 7d41 c6bc 2b6b ba3b 22f8 81bd c084 143c
00000120: 4596 67bd 625d 0c3c 94c9 023c 09f1 3c3c
00000130: 2ded 8fbd 2b19 a2bd 2009 1d3d 2a5a 923d
00000140: 5f73 97bd 04db fc3c 3044 7bbd 6c30 ab3b
00000150: 1bc8 9e3d 2778 813d ee8f 79bd 9e23 533d
00000160: ec47 323d c603 06b9 af53 a53d 7b93 07bd
00000170: a4df 9ebc 1085 2cbd b36b 443c c1bd b43c
00000180: 6d91 d93b 000e 40bd 9daa 19bd 2337 e83c
00000190: 5ca5 95bd a2a9 54bc e125 f2ba a84d 0abd
000001a0: 4b6b f83c 7fec af3b df9d 6f3d 87a3 f2bb
000001b0: c66d 57bd 3e2a 713d c2aa 3e3c c783 c3bc
000001c0: 8ff9 60bd 5402 a03c 1ac6 a2bd b6cc b33c
000001d0: 1bc5 283d 86b5 95bd 6377 5fbd f464 75bd
000001e0: 4072 8f3d 1e16 913d 2cf0 aa3b 1b39 a03d
000001f0: 5e38 e4bc caaf a5bd 3a76 ee3c 8edb f13c
00000200: 3352 a73d 9892 c6b7 88cc 823d 103a 513d
00000210: 230c 773d b05b a9bd cf88 8c3d 997c 91bd
00000220: b0fe 983d 477e 62bb 953f 97bd 06cd bd3c
00000230: 95fa 8abc f24a 99bd c888 f7bc 8db8 0c3c
00000240: 79ec 843d 6bdd d1bc c8bc 4a3d e602 2b3c
00000250: 862b 383b 58a0 823c 37ff 5fbd 4edb 8dbd
00000260: 9e7f d6bc 2b09 9fbd 602e 1fbd 5236 7b3b
00000270: 38cf 60bd f296 0dbd c05b 75bc 884c 1dbc
00000280: a76b 3cbd 2d36 833b 65a4 3fbc 443d c33c
00000290: 31a5 763b 5c72 2abd e406 ebbc edea 7bba
000002a0: 51fb 54bd f0d9 d53b b8bd c0bb 8d6e 043d
000002b0: c891 a13c 5473 7f3d 8004 34bb cc35 7cbd
000002c0: cc94 183d 83af 66bd 80a8 3bbc 500b ddbc
000002d0: 3d84 01bd e68f fcbc e3d4 9c3d 7d65 433d
000002e0: 3336 bd3c 0c40 a03d 19a9 9abd 2857 5c3c
000002f0: 2a84 5a3d f6c1 623d 67d2 87bd d4f5 f23c
00000300: dc6f 42bd 933e 55bb 9d72 8ebc 657d 8ebd
00000310: 6ccb a2bd 7a8f 60bd 93e2 1a3d 8e24 1c3d
00000320: fd70 94bd 6930 00bd 909c b23a be8e 93bd
00000330: 3a52 403d ef93 9a3d 0974 713c 9696 7dbd
00000340: b939 9f3c 0dd2 f73c f628 873d 2897 35bd
00000350: a1e6 98bd a904 163d 404a aa3b 466a debc
00000360: 392c 0fbd 801c 30bd f11f 8a3d 6f5b 6cbc
00000370: 740b 763d 4f50 983d d91c 2c3c 0626 913c
00000380: 137e babb ad71 6a3d 33c9 99bd ecc0 073d
00000390: db6e 5ebc 64db 1b3d 69f4 c0b9 dac7 fcbc
000003a0: a258 13bc 4f55 383d 9e07 6dbd bfb8 57bd
000003b0: 25de 98bc 0b8b f7bc e621 063d b4ba 653d
000003c0: 8110 12bc a867 a13d cd95 0ebd 028c 3fbd
000003d0: ebd0 18bd 432a 6bbd 6843 6fbd 3b12 98bd
000003e0: e941 97bd 3227 b23c b228 503d 8c3b a03d
000003f0: 9e5f 913d 9344 9dbb 5677 843c 9f39 4cbd

conv_3.bias f4 [32]
-0.06875813 -0.05075946 0.030053709 0.06528327 -0.04894357 -0.033609085 -0.046910815 -0.007209933
-0.067496836 -0.065216884 -0.016024372 0.09018609 0.014003708 -0.031949475 0.057562303 0.06304804
0.061466925 0.002530115 -0.006659996 0.054900713 0.04834767 0.06835798 0.0670167 -0.021891763
0.06646407 0.0149033535 0.08589311 0.084715635 0.07408397 0.060764037 0.0709883 -0.039519507
00000000: 10d1 8cbd 27e9 4fbd 3233 f63c 3cb3 853d
00000010: 0e79 48bd aea9 09bd 8e25 40bd 4d41 ecbb
00000020: c83b 8abd 6e90 85bd 8b45 83bc 7cb3 b83d
00000030: cf6f 653c 74dd 02bd 73c6 6b3d 551f 813d
00000040: bec4 7b3d 49d0 253b 193c dabb 92df 603d
00000050: 3508 463d 45ff 8b3d 0d40 893d 5b56 b3bc
00000060: 501e 883d 322d 743c bae8 af3d 647f ad3d
00000070: 56b9 973d b6e3 783d 5062 913d 35df 21bd

linear_1.weight f4 [1, 25088]
-0.0024578182 -0.0014713556 -0.0032314071 0.004638535 0.0005911538 -0.0015981626 -0.0028265216 -0.0056204805
0.00045482622 0.0055525256 0.0041540167 0.005009241 0.004317036 0.0026587984 -0.00017940077 -0.004668218
0.0046471027 -0.004436359 -0.003793158 0.0025352954 0.0034683265 -0.0032844688 0.003997226 -0.00590856
0.0015045023 0.0027871802 0.0011726916 -0.003552629 -0.004263756 0.0050459905 0.0013908898 -0.002712072
0.006081464 -0.0013165866 -0.0011657589 0.0016305256 0.005262289 -0.0028068398 3.3675842e-05 -0.0028330998
-0.0028579424 -0.00085900864 -4.7375074e-06 0.0033866826 -0.0047144573 0.0036652477 0.004935801 -0.00071498676
-0.0005600966 0.0015603194 -0.005779874 0.004645558 -0.0011044387 0.0002539116 0.002993159 0.0026288815
-0.002921259 -0.0046373345 -0.0060905796 -0.0052717803 -0.0013268363 -0.004900604 -0.00063276954 -0.0033314645
0.003579248 0.0043206336 0.005344026 -0.004137208 -0.004452826 0.0021924055 -0.0014395756 0.004789826
-0.0057898443 0.005856821 -0.0043778047 -0.005061687 -0.0006678098 -0.0027905458 -0.003969261 0.0036058216
0.0048761596 0.0035150712 0.0007706252 -0.00090851216 -0.0034449033 0.0060175015 -0.0034385147 -0.005535164
0.0053585907 -0.000506073 0.0042457166 -0.0020921298 0.0049215234 -0.004447832 0.0038025333 0.0049166046
-8.6361e-05 0.0041900757 0.00022733236 -0.00577766 0.0027690702 -0.0049058422 0.0002007632 -0.005677112
-0.003004181 -0.0018794483 -0.0024499197 -0.006206997 -0.0031353757 -0.005849652 -0.0052778055 -0.0062990715
-0.0036371036 -0.0014148676 0.0056876363 -0.0044386825 -0.0047975527 -0.0051373327 0.0059093134 -0.0008034052
-0.0016748948 0.003464992 -0.0037286717 -0.0016702119 0.005783483 0.0033619436 -0.00489828 -0.0017351134
0.00062070467 0.0022812341 -0.0029033974 0.004423863 0.00010151706 -0.005456434 0.001693675 -0.0061246534
0.00044559911 -0.0062442264 -0.0018011 -0.0014677935 -0.0056706998 -0.0017837465 0.00021615611 -0.0035533498
0.00089818425 0.0033364508 0.0007494134 -0.0061922106 -1.7245993e-05 -0.0029589725 0.0017975541 -0.0050675687
-0.004369276 -0.0002128756 0.0036398708 -0.0016874789 -0.00033390176 -0.0006272899 -0.0049403845 -0.0004975599
-0.00017349064 0.0010491293 0.002828039 0.0018826469 0.00352482 -0.001200939 -0.0027274163 0.0053625354
0.0050365576 0.0034457755 0.0046045193 0.003093861 0.005582315 0.0054959594 -0.0051290235 -0.00594756
-0.003275026 0.00482587 0.0056997184 0.00041340772 -0.004667854 -0.0029688058 0.003000192 0.005880711
0.0012222151 -0.0041553993 0.005979096 0.005537285 -0.002767374 -0.0034060818 0.0036334347 -0.004559872
0.0052733882 -0.0012696057 -8.4193314e-05 -0.0033717668 -0.0062383725 0.0014318245 -0.0022474383 -0.0037003027
0.005035106 0.0011738152 -0.0016902967 -0.0058222283 -0.0035557232 -0.0020622795 0.0026525036 -0.005754136
0.0036476657 0.005742984 0.0019543387 -0.006266766 0.0008259603 -0.002547777 0.0019942839 -0.00024332915
0.003082586 -0.00051361497 0.0011435655 0.002518763 -0.0046748384 0.0010552055 0.0056290952 0.0044089453
0.0003970344 -0.0011081931 0.002612161 -0.005549308 -0.0018981645 0.0054787747 0.0008117724 -8.7520275e-05
-0.0049749357 -0.004094405 0.00087127945 -0.0047456156 -0.0018240062 -0.0031094102 0.0019477732 0.00096695137
-0.0060927016 0.0020860853 -0.0005696832 -0.003060865 0.0046479027 -0.0041573406 -0.005755483 0.00069216307
-0.0034229723 -0.0025632787 -0.0055190483 -0.0015681279 0.0050209863 -0.005727143 -0.00426735 -0.0013777151
00000000: 5913 21bb 80da c0ba 04c6 53bb dafe 973b
00000010: a9f7 1a3a 7079 d1ba 2a3d 39bb 022c b8bb
00000020: be75 ee39 f6f1 b53b 6b1e 883b 8f24 a43b
00000030: ec75 8d3b 3c3f 2e3b 871d 3cb9 daf7 98bb
00000040: b946 983b e05e 91bb a296 78bb 3327 263b
00000050: dd4c 633b 3e40 57bb 29fb 823b 989c c1bb
00000060: b832 c53a 20a9 363b 00b5 993a 39d3 68bb
00000070: fab6 8bbb d658 a53b 844e b63a 05bd 31bb
00000080: 0447 c73b 5191 acba 61cc 98ba 5cb7 d53a
00000090: 486f ac3b f5f2 37bb 293f 0d38 87ab 39bb
000000a0: 514c 3bbb 182f 61ba e1f6 9eb6 1bf3 5d3b
000000b0: bc7b 9abb a734 703b 80bc a13b f36d 3bba
000000c0: 72d3 12ba a283 cc3a 1965 bdbb c439 983b
000000d0: d0c2 90ba 701f 8539 e028 443b 5049 2c3b
000000e0: 9872 3fbb c8f4 97bb 7c93 c7bb e6be acbb
000000f0: 3de9 adba 3f95 a0bb 72e0 25ba b354 5abb
00000100: d191 6a3b 1a94 8d3b f01c af3b 6b91 87bb
00000110: 03e9 91bb 76ae 0f3b 24b0 bcba f9f3 9c3b
00000120: bcb8 bdbb 93ea bf3b b073 8fbb 82dc a5bb
00000130: f50f 2fba 97e1 36bb 9310 82bb a64f 6c3b
00000140: 31c8 9f3b 1c5d 663b c803 4a3a 3829 6eba
00000150: e3c3 61bb 762e c53b b458 61bb 5260 b5bb
00000160: 1e97 af3b fca9 04ba a71f 8b3b 1d1c 09bb
00000170: bb44 a13b 1ebf 91bb ec33 793b 781b a13b
00000180: b51c b5b8 e74c 893b 1160 6e39 8652 bdbb
00000190: 4a79 353b 30c1 a0bb f683 5239 1107 babb
000001a0: cbe1 44bb d257 f6ba d58e 20bb 1164 cbbb
000001b0: e07a 4dbb 70ae bfbb 71f1 acbb 7168 cebb
000001c0: 795c 6ebb 1473 b9ba 5a5f ba3b 5e72 91bb
000001d0: ca34 9dbb 1257 a8bb eaa2 c13b 9c9b 52ba
000001e0: 2588 dbba eb14 633b bb5c 74bb 03eb daba
000001f0: 5f83 bd3b 0e54 5c3b c081 a0bb bf6c e3ba
00000200: c9b6 223a c280 153b ed46 3ebb 0df6 903b
00000210: 8ee5 d438 e3cb b2bb 4dfe dd3a 51b1 c8bb
00000220: 4d9f e939 5e9c ccbb e312 ecba fa62 c0ba
00000230: 47d1 b9bb 9acc e9ba f7a7 6239 51df 68bb
00000240: 2074 6b3a 5ba8 5a3b 4874 443a 07e8 cabb
00000250: 7dab 90b7 52eb 41bb e89b eb3a d90d a6bb
00000260: 252c 8fbb 5c37 5fb9 e68a 6e3b 652e ddba
00000270: 890f afb9 b670 24ba f3e2 a1bb ae6e 02ba
00000280: 0aeb 35b9 f082 893a 9f56 393b 26c3 f63a
00000290: ab00 673b d368 9dba 74be 32bb 35b8 af3b
000002a0: b509 a53b 85d2 613b 82e1 963b 60c2 4a3b
000002b0: daeb b63b 7317 b43b 5e11 a8bb c0e3 c2bb
000002c0: d2a1 56bb 5522 9e3b b4c4 ba3b a5be d839
000002d0: ccf4 98bb 4c90 42bb df9e 443b fbb2 c03b
000002e0: bc32 a03a 042a 88bb 4bec c33b 1d72 b53b
000002f0: d55c 35bb 9238 5fbb eb1e 6e3b fb6a 95bb
00000300: 63cc ac3b e668 a6ba f190 b0b8 dcf8 5cbb
00000310: 436b ccbb 0fac bb3a c249 13bb c780 72bb
00000320: 88fd a43b b4da 993a f28c ddba 64c8 bebb
00000330: 2307 69bb 4f27 07bb a0d5 2d3b 318d bcbb
00000340: ad0d 6f3b a42f bc3b 5d14 003b 7259 cdbb
00000350: 4285 583a 9bf8 26bb 88b2 023b 2c26 7fb9
00000360: 3605 4a3b 1ea4 06ba b1e3 953a d511 253b
00000370: 632f 99bb d24e 8a3a 4674 b83b ea78 903b
00000380: 0e29 d039 ca40 91ba ca30 2b3b f8d6 b5bb
00000390: d5cb f8ba 4b87 b33b 20cd 543a 178b b7b8
000003a0: c904 a3bb 5c2a 86bb 9366 643a 1c81 9bbb
000003b0: 7e13 efba 3fc7 4bbb 6c4c ff3a 027b 7d3a
000003c0: 49a5 c7bb b4b6 083b cb56 15ba cb98 48bb
000003d0: 6f4d 983b 4d3a 88bb 7e98 bcbb 4772 353a
000003e0: f253 60bb aefc 27bb 22d9 b4bb a489 cdba
000003f0: 1687 a43b c2aa bbbb 20d5 8bbb 7394 b4ba
