models/lr_0.01/ConvNet_5.pth (torch, 127512 bytes, 7 tensors)

conv_1.weight f4 [8, 1, 3, 3]
0	0xbe27b486	-0.16377458
1	0xbea7816e	-0.32715935
2	0x3e97bb45	0.29635063
3	0xbd00b478	-0.03142211
4	0xbe5bb1d6	-0.21454558
5	0xbe87b5c3	-0.2650586
6	0xbc007e20	-0.007842571
7	0x3d065f68	0.03280583
8	0xbe80b87e	-0.25140756
9	0x3ee9d7d5	0.4567248
10	0x3e9f4390	0.31106234
11	0x3e2c6778	0.16836345
12	0xbde74d95	-0.112940945
13	0x3ed06b51	0.40706876
14	0xbc6bf318	-0.01440122
15	0x3ea20d71	0.3165088
16	0x3e80713b	0.25086388
17	0x3d7ca216	0.061678015
18	0x3e567c04	0.20945746
19	0x3e3947ec	0.18093842
20	0xbe0d7cf4	-0.13817197
21	0x3ea7f8c7	0.3280699
22	0xbe83c240	-0.25734138
23	0x3c84a85e	0.016193565
24	0xbea5621b	-0.3230141
25	0xbb8e149a	-0.004335952
26	0xbe328a07	-0.17435466
27	0x3eeeba0c	0.46626318
28	0x3eadb13c	0.33924282
29	0x3ebd31c9	0.36952046
30	0xbe269555	-0.16267903
31	0x3ece8195	0.40333238
32	0x3e83ba13	0.257279
33	0x3dba6129	0.09100563
34	0x3e69f0e0	0.22845793
35	0x3e865b11	0.26241353
36	0xbdf623cf	-0.12018549
37	0x3e88d8ae	0.26727813
38	0xbe7bd132	-0.2459152
39	0x3d587a63	0.052851092
40	0x3eabeedd	0.33580676
41	0xbd531bcc	-0.05154018
42	0xbe1c365f	-0.15255116
43	0x3e5adc54	0.21373111
44	0x3e666416	0.22499117
45	0xbec2f8e0	-0.38080502
46	0xbe1b6f6d	-0.15179224
47	0x3e3493f8	0.1763457
48	0x3e3f268b	0.18667047
49	0xbd5fb172	-0.054612584
50	0x3d49b0fd	0.049241055
51	0xbe82ff6d	-0.255855
52	0x3e16eefe	0.14739606
53	0xbeca501b	-0.3951424
54	0xbe232d1e	-0.1593518
55	0xbda795b0	-0.081828475
56	0x3e58098f	0.21097396
57	0xbca050e5	-0.019569824
58	0x3e9491f5	0.29017606
59	0x3ebeb8b2	0.37250286
60	0x3e7a95de	0.24471232
61	0xbd6b68dd	-0.057473052
62	0x3ed68f5e	0.41906255
63	0xbe164cc2	-0.14677718
64	0x3d945b24	0.07243946
65	0x3e63b529	0.22237076
66	0x3e237f18	0.15966451
67	0xbacfb822	-0.0015847723
68	0xbe411007	-0.1885377
69	0xbe42ebc5	-0.19035251
70	0xbeb66fd7	-0.35632202
71	0xbea79cfb	-0.32736954

conv_1.bias f4 [8]
0	0xbea07eda	-0.3134678
1	0xbdd3f0d3	-0.10348668
2	0x3dcea771	0.10090531
3	0xbe216c46	-0.1576396
4	0xbe2a0377	-0.16602884
5	0x3e33d2e0	0.17560911
6	0xbdfe46ea	-0.124158695
7	0x3e5f6cf2	0.21818903

conv_2.weight f4 [16, 8, 3, 3]
0	0xbd3c50b2	-0.045975395
1	0xbc84f114	-0.016228236
2	0x3d1c9b5e	0.038234107
3	0xbd548852	-0.051887818
4	0xbd306340	-0.043063402
5	0x3da7e78b	0.0819846
6	0xbcbb5044	-0.022865422
7	0x3d403082	0.04692126
8	0x3d9633b1	0.07334078
9	0x3dd0b80f	0.101913564
10	0xbd7dfcd1	-0.062008683
11	0xbde570ec	-0.11203179
12	0x3e00067f	0.12502478
13	0x3d912f9b	0.07089158
14	0xbe3d5eb6	-0.1849316
15	0x3e0758ea	0.13217512
16	0xba39a389	-0.00070815586
17	0xbd1726fa	-0.036902405
18	0xbd6aba2f	-0.057306465
19	0x3e034517	0.12819324
20	0xbca9dcbe	-0.02073514
21	0x3d6fc70d	0.05853944
22	0x3de328a0	0.11091733
23	0xbd7e3077	-0.06205794
24	0xbd82aacf	-0.063802354
25	0x3d7cb43f	0.061695334
26	0x3dc4afb4	0.09603825
27	0x3e3bd004	0.1834107
28	0x3dec60ac	0.11541876
29	0xbc9478cd	-0.018124009
30	0xbc90e94e	-0.017689373
31	0xbdcdc54d	-0.10047398
32	0xbe168336	-0.1469849
33	0x3dd27608	0.10276419
34	0xbda344ee	-0.07972132
35	0xbe088b42	-0.13334373
36	0x3dd8614c	0.10565433
37	0xbda3dcb9	-0.08001084
38	0xbd8f643e	-0.070015416
39	0xbd27e519	-0.04098997
40	0x3dde143f	0.108437054
41	0x3d6f84e9	0.058476362
42	0xbc909378	-0.017648444
43	0xbd361d11	-0.044461314
44	0xbdc69ca4	-0.096978456
45	0xbd190960	-0.037362456
46	0x3dd2b812	0.10289015
47	0x3de7826c	0.11304173
48	0x3d42f53e	0.047597162
49	0xbdbe5941	-0.092943676
50	0x3da26571	0.07929505
51	0x3d8a6010	0.06756604
52	0x3ccaa3f3	0.02473638
53	0x3d724f1b	0.059157472
54	0xbd70d15f	-0.05879342
55	0x3db70e7d	0.0893831
56	0xbdf20107	-0.11816602
57	0xbdc8748b	-0.09787854
58	0x3b24e9fa	0.0025163875
59	0x3b95baa6	0.0045693694
60	0xbdbdd4d8	-0.09269112
61	0xbd540d7e	-0.05177068
62	0x3dc5c1c5	0.09656099
63	0x3d92a2a6	0.07159929
64	0xbc09d456	-0.008412441
65	0x3ddd9444	0.10819295
66	0x3d135f0c	0.035979316
67	0xbca985f1	-0.020693751
68	0xbdad5b78	-0.08464712
69	0x3d341eef	0.043974813
70	0x3d4a75c6	0.049428724
71	0xbd962893	-0.07331958
72	0xbdd06d43	-0.1017709
73	0x3d52fb8a	0.051509418
74	0xbcd3a150	-0.025833756
75	0x3dd55e53	0.104183815
76	0x3d68005a	0.05664096
77	0x3d86272d	0.06550441
78	0xbd9768ba	-0.07393022
79	0xbdad0239	-0.084476896
80	0x3daa18ab	0.08305486
81	0xbd9571d0	-0.07297099
82	0xbdcc8985	-0.09987167
83	0x3d74638a	0.05966524
84	0x3db9a9b4	0.090655714
85	0xbdaa4c37	-0.08315318
86	0xbda9e74d	-0.0829607
87	0xbd3d441e	-0.04620754
88	0x3c63eeeb	0.013911943
89	0x3c9b994b	0.018993994
90	0x3ddbd073	0.10733118
91	0xbdb898de	-0.09013532
92	0xbcc2850c	-0.023745082
93	0x3d4abae8	0.049494654
94	0x3dccbc28	0.099968255
95	0xbc9a90bf	-0.018867848
96	0xbd981ca8	-0.07427341
97	0x3ccc3a66	0.02493019
98	0xbcc3fb92	-0.023923669
99	0xbcefcaf8	-0.029271588
100	0xbd2f5526	-0.042805813
101	0xbd5a5f4c	-0.05331354
102	0xbde02d79	-0.10946173
103	0x3d64830e	0.055789046
104	0x3bef2447	0.007298026
105	0xbc319734	-0.010839272
106	0x3d7427f2	0.059608407
107	0xbce6ac5b	-0.028158357
108	0xbdca2c70	-0.09871757
109	0x3cd8847d	0.026430363
110	0x3dd54682	0.10413839
111	0xbd0042de	-0.03131377
112	0xbd2bd762	-0.041953452
113	0x3c9be2aa	0.01902898
114	0x3d9231db	0.071384154
115	0xbdbe9081	-0.09304906
116	0xbdea80ff	-0.11450385
117	0x3de23a94	0.11046329
118	0x3d7adac2	0.06124378
119	0xbd0946cd	-0.033514787
120	0x3cc1685e	0.023609336
121	0x3d7a59c3	0.06112076
122	0xbd31a9ba	-0.043374754
123	0xbd02950e	-0.03188043
124	0xbd6f0d2b	-0.058362167
125	0x3ce11537	0.027475936
126	0x3db259ef	0.0870856
127	0xbdf0a6dd	-0.11750577
128	0x3d1c3500	0.038136482
129	0x3dbe07a4	0.09278801
130	0xbdb4976d	-0.08817945
131	0x3de6b6f7	0.112653665
132	0xbd3cc456	-0.046085678
133	0xbd040658	-0.032232612
134	0x3db1cf1e	0.086820826
135	0xbdd48f74	-0.10378924
136	0xbd42a94c	-0.047524735
137	0x3dc19a66	0.09453277
138	0xbd226fe5	-0.039657492
139	0x3cba7268	0.022759631
140	0x3dee184b	0.11625727
141	0x3c77b8b2	0.015119718
142	0xbdacdf7b	-0.08441063
143	0xbdb39b85	-0.08769897
144	0xbd68efa0	-0.05686915
145	0xbdda0f0c	-0.10647401
146	0x3db4a197	0.08819883
147	0xbc600470	-0.013672933
148	0x3d51a22e	0.051180057
149	0xbd895f2e	-0.06707607
150	0x3c9292ac	0.017892204
151	0xbc90d1e0	-0.017678201
152	0xbd0162f2	-0.031588502
153	0xbcc443f4	-0.023958184
154	0x3db09377	0.08621877
155	0xbd8a56ba	-0.06754823
156	0x3e09be70	0.13451552
157	0x3e3a25ed	0.1817853
158	0x3ccf7e25	0.025328705
159	0x3d38ae63	0.045088183
160	0x3e13d23a	0.14435664
161	0xbc51350b	-0.012768994
162	0x3d189ec7	0.037260797
163	0xbdbd4f5b	-0.092436515
164	0x3dc65534	0.0968422
165	0x3d9d5998	0.07683104
166	0x3be24621	0.0069053327
167	0xbd150c28	-0.036388546
168	0x3da9dc72	0.08294
169	0xbd80361a	-0.06260319
170	0xbdbfa1e7	-0.09357052
171	0xbd942567	-0.072336964
172	0xbd626bbf	-0.055278536
173	0x3b622b86	0.0034510805
174	0x3e2c4a95	0.16825326
175	0xbd2c6beb	-0.042095106
176	0x3e03092c	0.12796468
177	0x3e334ff0	0.17510962
178	0x3e36be71	0.17846085
179	0xbbdde4d2	-0.0067716623
180	0x3ddf4a0e	0.10902797
181	0x3d81a4a7	0.06330233
182	0x3d53dea9	0.051726017
183	0x3de49726	0.11161642
184	0x3d437686	0.047720455
185	0xbdd2df83	-0.10296538
186	0x3d91bb2f	0.071157806
187	0xbcb30f14	-0.021857776
188	0xbdded907	-0.108812384
189	0xbde7c72d	-0.11317287
190	0xbdda130a	-0.10648163
191	0xbcd0eeb1	-0.025504442
192	0xbd0c11e3	-0.034196746
193	0xbe00464e	-0.12526819
194	0xbcd78fdd	-0.026313717
195	0x3d210e7f	0.039320465
196	0xbd0e8505	-0.034794826
197	0xbdb6633e	-0.08905648
198	0x3d6e54df	0.058186408
199	0x3cc93d69	0.024565415
200	0xbd9fa3a8	-0.07794887
201	0xbd3adb29	-0.045619164
202	0xbd9a92ae	-0.07547508
203	0xbd2f468e	-0.042791896
204	0xbda70592	-0.08155359
205	0xbc217da9	-0.00985662
206	0x3db62982	0.08894636
207	0x3d26349b	0.040577512
208	0xbcac3986	-0.021023523
209	0x3d82674e	0.0636736
210	0x3c58ffef	0.013244613
211	0xbd6c4458	-0.057682365
212	0x3d0f92e3	0.03505219
213	0x3db2f864	0.08738783
214	0xbdda4630	-0.106579185
215	0xbbe131c5	-0.006872388
216	0xbd3d1884	-0.046165958
217	0xbd6ae3e4	-0.05734624
218	0x3c055878	0.008138768
219	0x3dcd184b	0.10014399
220	0x3dad36d9	0.08457727
221	0xbd9d4eda	-0.07681055
222	0x3d9aad09	0.07552535
223	0xbb4aa5a0	-0.0030921474
224	0xbd4642ae	-0.048403434
225	0x3d922d71	0.071375735
226	0xbd829bf0	-0.06377399
227	0x3deb2691	0.11481965
228	0xbd63d71a	-0.05562506
229	0x3cf7198f	0.030163554
230	0x3c6bc45b	0.0143900765
231	0x3de49159	0.11160535
232	0xbccd4981	-0.025059463
233	0xbdbd49c1	-0.09242583
234	0xbd52c8ce	-0.051461034
235	0xbd9ad941	-0.07560969
236	0x3dda07bc	0.106460065
237	0xbda0d262	-0.07852627
238	0xbce13c33	-0.027494526
239	0xbd693cb3	-0.056942653
240	0xbc8b230b	-0.016984483
241	0x3da7d74a	0.0819536
242	0xbdeb9184	-0.11502364
243	0x3d9d0d3f	0.07668542
244	0x3e5139ab	0.20432155
245	0x3d3503cf	0.044193085
246	0x3e4fa272	0.20276812
247	0xbb919350	-0.00444261
248	0x3e32c23f	0.17456912
249	0x3d387bc3	0.045039903
250	0x3e493459	0.19648875
251	0x3c90b18c	0.017662786
252	0x3dd7ee4a	0.10543497
253	0xbd8f7c7b	-0.07006165
254	0x3df2b517	0.118509464
255	0x3d2b65fc	0.041845307

conv_2.bias f4 [16]
0	0x3d2df716	0.042471968
1	0xbdec961c	-0.115520686
2	0xbc99da56	-0.018780869
3	0xbda958f0	-0.082689166
4	0x3dc021f1	0.09381474
5	0x3db3acd9	0.087732024
6	0xbcb16d13	-0.021658456
7	0x3d6f49c6	0.058419965
8	0xbcf55048	-0.029945508
9	0xbdec60aa	-0.11541875
10	0x3de917e3	0.11381509
11	0x3c03c3dd	0.008042303
12	0x3d2a2268	0.04153672
13	0xbdd0b856	-0.10191409
14	0x3d50568f	0.0508638
15	0x3bd4dfd2	0.006496408

conv_3.weight f4 [32, 16, 3, 3]
0	0x3da7ffdf	0.082031004
1	0x3ddb055b	0.10694381
2	0x3ca319c0	0.01990974
3	0xbd53b8fd	-0.05169009
4	0x3c943d26	0.018095564
5	0x3d98dcac	0.07463965
6	0x3d3307eb	0.043708723
7	0x3cc0179b	0.023448756
8	0x3c2721a9	0.010200896
9	0xbd8839cd	-0.066516496
10	0x3d2b129f	0.041765805
11	0x3d6e974c	0.058249757
12	0x3d2e2d57	0.04252371
13	0xbb0ad8df	-0.0021186394
14	0xbd8dafd5	-0.06918303
15	0xbd68869f	-0.05676901
16	0xbcd08260	-0.025452793
17	0xbd9d0c8e	-0.0766841
18	0xbd4589b3	-0.048227023
19	0x3d04dd9f	0.032437917
20	0x3b3434ea	0.002749736
21	0x3d191ff5	0.037383992
22	0x3d348630	0.044073284
23	0x3c0737d0	0.008253053
24	0xbd10b8f8	-0.03533265
25	0xbd9c914b	-0.076449
26	0x3bb5ab20	0.0055440813
27	0x3d3f7830	0.04674548
28	0xbc9b215d	-0.018936807
29	0xbdb36f9d	-0.08761523
30	0xbc7c18ae	-0.0153867435
31	0x3da9788e	0.08274947
32	0xbc5ec2ee	-0.01359628
33	0x3da5e176	0.08099644
34	0xbdac0cb8	-0.084008634
35	0xbd7e7497	-0.062122907
36	0x3d98a50b	0.074533544
37	0x3d48ec70	0.04905361
38	0xbc05673c	-0.008142289
39	0x3c3b81d8	0.011444531
40	0xbda99920	-0.082811594
41	0xbdc36743	-0.0954118
42	0x3d44eaac	0.048075363
43	0x3d3782db	0.044802528
44	0x3a916d54	0.0011095204
45	0x3cfa5b0a	0.030560989
46	0x3d2eabb0	0.042644203
47	0xbccd2dc1	-0.025046231
48	0xbce98443	-0.02850545
49	0x3d0a5293	0.033770155
50	0xbcfc1507	-0.030771745
51	0xbbd3f6f7	-0.0064686495
52	0x3d1d7f2c	0.03845136
53	0x3d0af736	0.033927165
54	0x3c053de2	0.00813243
55	0x3d095cfb	0.03353594
56	0xbda10cb3	-0.0786375
57	0x3d304b31	0.043040458
58	0xbc607bea	-0.013701418
59	0xbc4dc9da	-0.012560332
60	0x3c828e8f	0.015937118
61	0x3cdf9239	0.027291404
62	0xbdb54c49	-0.08852441
63	0x3cb599f8	0.022168145
64	0xbd79b1fb	-0.06096075
65	0x3d60056d	0.054692674
66	0x3c124dd5	0.008929689
67	0xbcd8c81d	-0.026462609
68	0xbdc73cfa	-0.09728427
69	0x3b537500	0.0032265782
70	0xbd9e8f78	-0.07742208
71	0x3d8b1825	0.067917146
72	0x3d94905c	0.07254097
73	0xbc414d6c	-0.011798244
74	0xbadf7334	-0.0017047883
75	0x3db71c5c	0.08940956
76	0x3d95d387	0.07315736
77	0x3bd7070f	0.0065621207
78	0x3cd9e430	0.026598066
79	0xbd25a8ec	-0.0404443
80	0xbd4a2ee0	-0.04936111
81	0x3cb7697c	0.022389166
82	0x3c2e96b5	0.010656049
83	0x3c3e4913	0.011614102
84	0x3d550a1a	0.052011587
85	0x3c924a19	0.017857598
86	0xbda1e0a3	-0.07904174
87	0x3c7ab739	0.015302473
88	0xbd832ec8	-0.06405407
89	0x3d4c6f2e	0.049910717
90	0xbc3b8680	-0.0114456415
91	0x3d890109	0.066896506
92	0x3d214016	0.039367758
93	0xba96773f	-0.001147963
94	0x3d2b97ea	0.041892923
95	0x3d835389	0.064124174
96	0xbd95c57e	-0.07313059
97	0x3cb3b3fe	0.021936413
98	0x3c1ca13e	0.0095599275
99	0x3db30d03	0.08742716
100	0x3dc8e081	0.09808446
101	0xbdfe52cd	-0.12418137
102	0x3d9a57c8	0.07536274
103	0x3d1757d3	0.03694899
104	0xbdf379ff	-0.11888503
105	0x3c7f72d6	0.015591344
106	0xbde3ed95	-0.111292996
107	0xbd256dfa	-0.040388085
108	0x3da8db50	0.082449555
109	0x3d7eeba1	0.062236432
110	0xbdc730e5	-0.09726123
111	0x3cd8dd7c	0.0264728
112	0x3b0a9c5a	0.0021150322
113	0x3c9070a7	0.017631842
114	0xbdc16d8f	-0.09444725
115	0x3cfd0df3	0.03089044
116	0xbda34287	-0.079716735
117	0xbd9d21e6	-0.07672481
118	0x3d97b7a1	0.07408071
119	0x3d9cb153	0.076510094
120	0xbd76b78d	-0.06023364
121	0x3d899d26	0.06719427
122	0x3cdaa049	0.026687758
123	0xbbc3d1d0	-0.0059759393
124	0xbd3a5857	-0.045494404
125	0xbd94465d	-0.07239983
126	0x3d97b832	0.07408179
127	0xbc69e810	-0.014276519
128	0x3c0ea89d	0.008707193
129	0x3d2f3bdf	0.042781707
130	0xbdab9718	-0.08378428
131	0xbdafc0c4	-0.08581689
132	0xbd87d1ae	-0.0663179
133	0xbc955239	-0.018227683
134	0x3beccde3	0.007226692
135	0x3d25cab4	0.040476516
136	0x3d09680d	0.033546496
137	0x3c9e3bc6	0.019315612
138	0xbc267889	-0.010160574
139	0xbd087b28	-0.033320576
140	0x3bad3a35	0.00528648
141	0x3be530c0	0.006994337
142	0x3cb4d9c5	0.022076497
143	0xbdcd8d2d	-0.10036693
144	0xbd553fcf	-0.052062806
145	0x3d831e4f	0.06402265
146	0xbd373021	-0.044723634
147	0x3c7c525e	0.015400497
148	0xbda3c352	-0.07996239
149	0x3da09f57	0.07842892
150	0x3d600f1b	0.054701906
151	0xbd6507be	-0.055915587
152	0xbd6f257c	-0.058385357
153	0xbd9e7f76	-0.07739155
154	0x3d3a7f41	0.045531515
155	0xbd8333ec	-0.06406388
156	0x3cd8a059	0.026443647
157	0xbd91427b	-0.07092758
158	0x3bd34ebf	0.0064485963
159	0x3c923cb2	0.017851207
160	0x3d47b922	0.04876054
161	0x3da5d9fe	0.08098219
162	0xbccbe35d	-0.024888689
163	0x3d53d49f	0.051716443
164	0x3da15be5	0.078788556
165	0xbbe0640a	-0.006847863
166	0xbcfd1af4	-0.030896641
167	0xbdadbc3b	-0.08483168
168	0xbcec461e	-0.028842028
169	0x3c1ea069	0.009681799
170	0xbca8ded0	-0.020614058
171	0x3d0aa2ff	0.03384685
172	0x3cf22b1d	0.029561574
173	0x3d21ee75	0.03953405
174	0xbd5dfc54	-0.054195717
175	0xbd4b758f	-0.04967266
176	0x3d5073df	0.050891753
177	0x3cc53260	0.024071872
178	0xbd86442f	-0.06555974
179	0xbd293a52	-0.041315384
180	0xbcba7157	-0.022759123
181	0xbc7c7695	-0.015409132
182	0xbd6f83ef	-0.05847543
183	0x3d573571	0.0525412
184	0xbba07492	-0.0048967088
185	0x3c631596	0.013860127
186	0xbce11e30	-0.027480215
187	0x3d8b8ba1	0.068137415
188	0x3db190d7	0.08670204
189	0xbc867e35	-0.016417602
190	0xbd1c9c10	-0.03823477
191	0x3d82636e	0.06366621
192	0x3d7bf7b1	0.061515514
193	0xbbc08ad6	-0.0058759255
194	0x3d31b9b4	0.04338999
195	0xbd975520	-0.07389283
196	0x3d66264c	0.056188866
197	0xbb0e4425	-0.0021708098
198	0xbc9a074a	-0.018802304
199	0x3cecb0ec	0.028892957
200	0x3d0bec04	0.03416063
201	0xbd53a9ce	-0.05167561
202	0xbda749e0	-0.081683874
203	0x3c187619	0.0093055
204	0x3ca5c783	0.020236736
205	0xbd9f2bc6	-0.07772021
206	0x3daac9a2	0.0833924
207	0x3d390e93	0.045179915
208	0x3d3798b2	0.044823356
209	0xbc6a1bc6	-0.014288848
210	0x3bb6211d	0.0055581466
211	0xbd83a8e0	-0.06428695
212	0x3d9de95c	0.077105254
213	0xbd3c0d0d	-0.045910884
214	0x3d3c98f8	0.04604432
215	0x3d5cbd50	0.05389148
216	0xbd33ac71	-0.043865625
217	0xbd10ff48	-0.035399705
218	0x3d56a204	0.052400604
219	0xbd43da9a	-0.047815897
220	0x3d6420d3	0.055695366
221	0x3bc6c7f3	0.0060663163
222	0x3d8065e5	0.06269435
223	0x3d314693	0.043280195
224	0x3d4d6754	0.05014737
225	0x3d24d800	0.040245056
226	0xbc1a675a	-0.009424055
227	0x3d21011f	0.03930771
228	0xbd4f9294	-0.050676897
229	0xbbeb4751	-0.0071801324
230	0x3cfaab6d	0.03059932
231	0xbc314ede	-0.010822026
232	0x3aa20935	0.0012362363
233	0x3d859c10	0.06523907
234	0x3cfa0ea7	0.030524565
235	0x3da2e34a	0.07953508
236	0x3d878d96	0.06618802
237	0x3d121fa8	0.03567472
238	0x3d9bf8cc	0.076158136
239	0x3c2e0222	0.010620626
240	0x3c2ec664	0.010667417
241	0xbda7b8e1	-0.0818956
242	0xba86a9ff	-0.0010274051
243	0x3cdf23d3	0.027238762
244	0xbd935e52	-0.071957245
245	0xbd892a75	-0.06697551
246	0xbd0d18b6	-0.034447394
247	0x3b981d8a	0.004642193
248	0xbda4e9c7	-0.08052402
249	0x3d78c330	0.06073302
250	0xbd6b9afe	-0.05752086
251	0xbd70955d	-0.058736194
252	0x3c2a9a61	0.010412783
253	0x3b9039d2	0.004401424
254	0xbd55ceb6	-0.052199088
255	0x3d2eb972	0.042657323

conv_3.bias f4 [32]
0	0x3d8b40c9	0.06799466
1	0xbd004ca5	-0.031323094
2	0xbd9938a6	-0.07481508
3	0x3d6bd691	0.057577673
4	0xba24d72c	-0.00062881666
5	0x3d390c1b	0.04517756
6	0x3d39f16f	0.045396265
7	0xbc6b850a	-0.014374981
8	0xbd5adc79	-0.053432915
9	0x3cef193f	0.029186843
10	0xbc531419	-0.01288321
11	0xbce007ad	-0.02734741
12	0xbdb44be7	-0.0880354
13	0xbcdfc007	-0.027313245
14	0x3d53d032	0.051712222
15	0x3d8675c1	0.065654285
16	0xbc4ad199	-0.012379074
17	0xbd692805	-0.05692293
18	0xbd5ccd01	-0.053906444
19	0xbd94a0ab	-0.072572075
20	0xbd5f0253	-0.054445576
21	0xbd0d3555	-0.03447469
22	0x3daf88e0	0.08571029
23	0x3d54bfb3	0.05194063
24	0xbc99253f	-0.018694518
25	0x3d67c843	0.05658747
26	0x3d4c7a50	0.049921334
27	0x3e008138	0.12549293
28	0x3a8ae6e0	0.001059737
29	0x3c438334	0.011933137
30	0x3ca5f602	0.020258907
31	0xbda0e3a5	-0.0785592

linear_1.weight f4 [1, 25088]
0	0x3bdb9f87	0.0067023668
1	0x3c1823c9	0.009285876
2	0x3bc01a1f	0.005862489
3	0x3c480f99	0.01221075
4	0x3c10b91a	0.008833194
5	0xba6dccbe	-0.00090713415
6	0x3c43bd3a	0.011946971
7	0x3c042863	0.00806627
8	0x3c1287d5	0.008943518
9	0x37c66391	2.3649804e-05
10	0x39a19909	0.00030822333
11	0xbbe37b4d	-0.006942189
12	0x3aa21fc9	0.0012369092
13	0xbb06429a	-0.0020486475
14	0xbb35d8cd	-0.0027747632
15	0xbc056238	-0.008141093
16	0xbb86f9d4	-0.0041191373
17	0x3b5ef0e8	0.0034018103
18	0x3b6393ef	0.0034725626
19	0x3c45cfb3	0.012073445
20	0x3c3d8504	0.011567358
21	0x3c81f2d1	0.015862854
22	0x3c96fb10	0.018430263
23	0x3c219bb5	0.009863784
24	0x3b948d2a	0.0045334296
25	0x3c097418	0.008389495
26	0x3bf869f1	0.0075809886
27	0xbbf6f547	-0.0075365636
28	0x3ba9c7a1	0.0051812683
29	0x3c0705c1	0.008241118
30	0x3be7f6b0	0.007078968
31	0x3c061405	0.008183484
32	0x3b93bc48	0.004508529
33	0x3bc2b60b	0.0059421114
34	0x3be413ce	0.0069603687
35	0xbb851e13	-0.004062423
36	0x3b814a37	0.0039456147
37	0xbc2f28b5	-0.010690858
38	0xbc814503	-0.015779978
39	0x3b0616a3	0.002046027
40	0x3ae5c977	0.0017531355
41	0x3b9646f9	0.0045860973
42	0xbae046cb	-0.0017110942
43	0xbbfce7fe	-0.0077180853
44	0xba0d79cd	-0.0005396873
45	0xbb1d9a5a	-0.00240483
46	0x3beffc14	0.007323751
47	0x3c7fa75b	0.0156038655
48	0x3bce00c8	0.006286714
49	0x3c90a5ea	0.017657239
50	0x3c9045e2	0.017611448
51	0x3ab13b3d	0.0013521683
52	0x3c58d21a	0.013233686
53	0x3c2ad982	0.0104278345
54	0x3c44bafd	0.012007472
55	0xb987a67d	-0.0002587325
56	0x3c6aee35	0.01433902
57	0x3c46ff44	0.012145821
58	0x3b1b83d0	0.002372969
59	0x3be4a8cd	0.0069781304
60	0x3b4e7c31	0.003150713
61	0xba60a4a0	-0.0008569453
62	0xbc121588	-0.008916266
63	0xbb8c29a1	-0.0042774235
64	0xbc5deec8	-0.013545699
65	0xbb0b9785	-0.002130003
66	0x3b41aabe	0.0029551233
67	0x3c308262	0.010773273
68	0x3bff2dae	0.007787428
69	0x3bad75d6	0.005293588
70	0xbb7c89ef	-0.0038534363
71	0xba8f27d6	-0.0010921906
72	0x3bc96ed3	0.0061472445
73	0xbba5c110	-0.0050584152
74	0xbbbd307f	-0.0057736035
75	0xbb18e06e	-0.002332713
76	0xbb932da9	-0.004491527
77	0x3c59708b	0.013271461
78	0x3c4588f4	0.012056578
79	0x3b616d73	0.0034397512
80	0x3bde7bb7	0.0067896503
81	0x3c09f194	0.008419413
82	0x3b8fec0c	0.0043921527
83	0x3b95a715	0.004567037
84	0x3ba2ea7e	0.0049718013
85	0x3c226881	0.009912611
86	0x3c0a34b3	0.008435416
87	0x3bdd1be9	0.006747712
88	0xbbd40c22	-0.006471173
89	0xbc61380d	-0.013746274
90	0xbc17aa6f	-0.009256943
91	0x3c22c7d4	0.009935338
92	0x3c499a9e	0.01230493
93	0x3c689749	0.014196225
94	0xbb29660e	-0.0025848183
95	0x3c19b21f	0.009380846
96	0xbc046b9d	-0.008082298
97	0xbbed9861	-0.007250831
98	0xbc8d9769	-0.017284112
99	0xbbd6780c	-0.0065450724
100	0x3ba0a507	0.0049024853
101	0xba606fd8	-0.0008561588
102	0xbc2e77a8	-0.010648645
103	0xbbc5a1d0	-0.0060312524
104	0xbc06ea86	-0.008234626
105	0x3b5e011d	0.0033875175
106	0x3bb73270	0.0055907294
107	0x3b177e5a	0.0023116083
108	0x3c4affc2	0.012390079
109	0x3ba4477b	0.005013404
110	0x3c28870a	0.010286102
111	0x3beb34ca	0.007177924
112	0x3bca5bc6	0.006175491
113	0x3b918460	0.004440829
114	0x3bd2bd35	0.0064312466
115	0xbb2661a0	-0.002538778
116	0xbc7ba56e	-0.015359266
117	0xbc9caff4	-0.01912687
118	0xbafec225	-0.0019436522
119	0xbc0e12c8	-0.00867147
120	0xb9be1853	-0.00036257747
121	0x3ba92da7	0.005162913
122	0x3c07aaf0	0.008280501
123	0x3b0ad635	0.0021184806
124	0xbbfc90ad	-0.0077076764
125	0xbc4a31b3	-0.012340951
126	0xbc840876	-0.016117316
127	0xbbe03b66	-0.0068430183
128	0x3b648759	0.0034870713
129	0xbbca5ff2	-0.0061759884
130	0xbc916a58	-0.017750904
131	0xbb2f872c	-0.002678345
132	0xbca5f349	-0.020257609
133	0xbce23592	-0.027613435
134	0x3a65a220	0.0008759815
135	0x3bb720cb	0.005588626
136	0x3c3e8752	0.011628943
137	0x3c792c4c	0.015208315
138	0x3c6f67cb	0.0146121485
139	0xbc30b117	-0.010784409
140	0x3c0be688	0.00853885
141	0x3c34add1	0.011027769
142	0xb99fb107	-0.0003045874
143	0xbc8f4141	-0.01748717
144	0xbcc94996	-0.024571221
145	0xbc1f64fb	-0.009728665
146	0xbc17eafc	-0.009272333
147	0xbcbe90e7	-0.023262454
148	0xbb112c6e	-0.0022151726
149	0xbba802eb	-0.005127301
150	0xba96c3e5	-0.0011502473
151	0xbbceb6bd	-0.006308405
152	0xbc6669d8	-0.014063321
153	0xbca588f0	-0.020206898
154	0xbb91ae26	-0.004445809
155	0xbcad3c69	-0.02114697
156	0xbc855d7b	-0.016279927
157	0xbcbba42e	-0.022905435
158	0xbcc383eb	-0.023866614
159	0xbcb32dd4	-0.021872438
160	0xbc74ebd9	-0.014948809
161	0xbcb3e761	-0.021960916
162	0xbc80a699	-0.01570444
163	0xbba33919	-0.004981172
164	0x3c796b0b	0.015223275
165	0x3c9ca065	0.01911945
166	0x3c2406f0	0.01001142
167	0x3c1d8bba	0.009615833
168	0x3ba6af1f	0.005086794
169	0x3c1e3b22	0.009657653
170	0xbc7e994e	-0.01553948
171	0xbc63e84a	-0.0139103625
172	0xbbdfb3cd	-0.006826854
173	0x3ba1df79	0.00493997
174	0xbc8c59bb	-0.01713263
175	0xbc7a219b	-0.015266801
176	0xbc94668c	-0.018115304
177	0xbbf1896c	-0.0073711183
178	0xbcb62db0	-0.022238582
179	0xbc8f7207	-0.017510427
180	0xbcadf5f9	-0.021235453
181	0xbc86961f	-0.016429005
182	0xbcadc0e5	-0.021210143
183	0xbcc6796d	-0.024227822
184	0xbc895044	-0.016761906
185	0xbc42d69e	-0.011891989
186	0xbc981355	-0.018563906
187	0xbce5cc06	-0.028051388
188	0xbcc70ff6	-0.024299603
189	0xbca69bd0	-0.020337969
190	0xbc855398	-0.016275212
191	0x3b252d9e	0.0025204192
192	0xbb62f93d	-0.003463342
193	0x3cc82b22	0.02443463
194	0x3ccc6bef	0.02495381
195	0x3a03d0ad	0.00050283485
196	0x3c2f04f8	0.010682337
197	0x3b5074cb	0.0031807895
198	0xbc46fcf6	-0.0121452715
199	0xbb0cd7cf	-0.0021490937
200	0xbc650cc6	-0.013980096
201	0xbcbdea00	-0.023182869
202	0xbcc5b634	-0.024134733
203	0xbcde9d3b	-0.027174583
204	0xbcb57b24	-0.022153445
205	0x3c012973	0.007883417
206	0x3c2fee5d	0.010737983
207	0xbbd3921f	-0.006456628
208	0xbae3cade	-0.0017379185
209	0xbbd10bbc	-0.0063795727
210	0xbba64102	-0.0050736675
211	0xbc1a80b6	-0.009430101
212	0x3baa7396	0.005201767
213	0xbb4ea3e6	-0.0031530797
214	0xbc3d141e	-0.011540441
215	0xbd1d7812	-0.038444586
216	0xbc838fd2	-0.01605979
217	0xbb96f2d7	-0.0046065855
218	0xbb868f70	-0.0041064546
219	0xbbb2a3ef	-0.0054516713
220	0xbbfd99ac	-0.0077392664
221	0x3cd01f25	0.025405476
222	0x3ccc9362	0.024972621
223	0xbc381d5d	-0.0112374695
224	0x3bdd5ad2	0.0067552114
225	0xbb03fd93	-0.0020140156
226	0xbbf9cd75	-0.0076233693
227	0x3b5c0edb	0.003357819
228	0xbc396c88	-0.01131738
229	0xbc371015	-0.011173268
230	0xbc9cdd81	-0.01914859
231	0xbc275d22	-0.010215076
232	0x3aa067fd	0.0012238022
233	0x3c9b2c3f	0.018941997
234	0x3cdd12f2	0.026986573
235	0x3c3ac833	0.01140027
236	0xbc6b50a2	-0.014362486
237	0xbb95bf51	-0.004569926
238	0xb9e0e23d	-0.0004289317
239	0x3cdedc5c	0.027204685
240	0x3c81e488	0.015856043
241	0x3ac6c9a5	0.0015166296
242	0xbaa4802a	-0.0012550403
243	0xbd1bab2d	-0.038005043
244	0xbcd8208a	-0.026382703
245	0x3cb8a6fe	0.022540566
246	0x3b08c12b	0.002086709
247	0xbad23333	-0.0016036987
248	0xbacb765e	-0.0015522947
249	0x3c9fea20	0.01952082
250	0x3c9ea0ec	0.019363843
251	0x3bf5efc2	0.007505388
252	0xbbd8bf35	-0.0066145905
253	0xbc6ad794	-0.014333624
254	0xbbf73014	-0.007543573
255	0x3a92e5d7	0.0011207414
