models/new_1/ConvNet_11.pth (torch, 127524 bytes, 7 tensors)

conv_1.weight f4 [8, 1, 3, 3]
00000000: 399e ce3e 6de8 d93e a472 5d3d 65e2 e73e
00000010: abe6 ae3d bf6f 533e ade1 3bbd 31c6 a63e
00000020: 6f79 d53e ffbb 8fbd 8983 ec3e 2a25 763e
00000030: 53a3 d23e 6b98 623e 04dd b03e deab e43d
00000040: ae54 db3e 52a3 773e 1859 1fbe b402 ae3d
00000050: c843 1dbe d81d 20bd a8a2 0abe 3e6e 623e
00000060: 1cb8 86be b35b 1dbe 90c4 c0bd ae2b 4dbe
00000070: 271f 013d aa8e a8be c953 9a3e 18df 90be
00000080: 6cc1 833e 76bf 633d 2256 ddbd 1515 533e
00000090: 8a0c 843e 22f3 ef3e 433b 6e3e 5dde d23d
000000a0: 39b3 973e b25d ee3d 0e1c a03e bd78 f23e
000000b0: 6768 c03e 91b4 5fbe 4a31 053e 4091 2a3c
000000c0: fe0b a33d 9061 9ebe 4d1b d9be 7ede 6ebe
000000d0: 4c33 babe e701 483e af12 503e 2b4c 823e
000000e0: 3a8b 533e 359b dd3d 0f02 c33e 3d43 0bbe
000000f0: e5d5 ee3d 1864 01be bc3c 443e 117f 81be
00000100: ed9d c3bc 2e8b 3cbe 956a 143e ad10 a6be
00000110: 564a 9fbe defa a2be 4ac4 453e 1ef2 903c
0.4035509 0.4256014 0.054064408 0.45289913 0.0854009 0.20648097 -0.045869518 0.32573083
0.4169421 -0.07018279 0.46194103 0.24037614 0.41140231 0.22128455 0.34543622 0.111655936
0.42838043 0.24183396 -0.1556133 0.08496609 -0.15357888 -0.03909096 -0.13538611 0.22112367
-0.2631234 -0.15367012 -0.09412491 -0.20036194 0.03152385 -0.32921344 0.30142048 -0.28295207
0.25733507 0.055602513 -0.10807444 0.20613511 0.25790817 0.46865183 0.23264794 0.10296319
0.29628924 0.11638965 0.31271404 0.4735774 0.37579653 -0.21846224 0.13007084 0.010410607
0.07961272 -0.3093381 -0.4240364 -0.23327062 -0.3636726 0.19531976 0.20319627 0.25448737
0.2065858 0.10820619 0.38087508 -0.13599868 0.11661891 -0.12635839 0.19163793 -0.25292256
-0.023879016 -0.18412468 0.14493783 -0.32434598 -0.311114 -0.3183202 0.1931316 0.017693575

conv_1.bias f4 [8]
00000000: f7ce e0bc 2442 26be bb47 a9be e867 85be
00000010: a12e 0fbe e53d 9d3e 882d bc3b f569 8e3e
-0.027442439 -0.16236168 -0.33062539 -0.26055837 -0.13982631 0.30711284 0.0057427324 0.27815214

conv_2.weight f4 [16, 8, 3, 3]
00000000: afd9 79bd 332f a5bd 9617 7f3d 95de 42bd
00000010: 245d 923d f88d e7bc 9d1d 8c3d a9df bbbd
00000020: 3492 75bd 73ea 053d 9ced b13c 1662 06bd
00000030: 7e70 8a3d 517f 9f3d 9966 b3bd 450f 84bd
00000040: 1c2c da3d 4d49 2abd ac21 2bbd ac89 e9bd
00000050: 1c38 8abd 6c2b f13c b0dc 7ebc ff32 afbd
00000060: e02a 353b 32de a4bd adc4 ccbd 05e8 84bd
00000070: d73c d3bd d2ae 99bd 844f f13d 9b8b b63c
00000080: e6e5 143d ff13 e1bd 5983 9ebd afa4 20bd
00000090: 9027 a13c f893 d3bd 45e4 4fbd 32f9 8ebd
000000a0: 00ac 493a e0af 33bd 4f24 efbb 2567 a2bd
000000b0: d706 a5bd f62e 88bd 59ce 1bbd ca45 babd
000000c0: c622 cf3d d223 afbc 8217 d43d bdf5 193d
000000d0: 1772 cbbd 927a a83d f5db 03bd 7732 39bd
000000e0: 54a3 c8bd 2774 efbd 85a1 0b3d 4d4f d0bc
000000f0: 2683 3f3d 76e2 c3bd e231 b53d cffd b9bd
00000100: a34c c2bc b213 ae3c a4c6 693d e2af bc3d
00000110: a6b7 d53d f4de c8bd bdf5 d13c 47bd 5fbd
00000120: da37 ce3c 1c5b f7bc 8e11 0b3e 3870 45bc
00000130: 516e 233e b66f d93d bf08 be3d efc2 ea3c
00000140: e15b 283e 4680 a83d 1598 a73d 3a2a 83bd
00000150: 9fb8 133e e9fd b83d 9f64 773c f550 333e
00000160: a589 f23d ff91 30bc 8e52 74bd a06b b8bb
00000170: fdc3 863d a0b3 f6bc a4b6 89bd ac4d 25bd
00000180: 3650 b4bd 2a27 2c3d 59d2 ba3d 3214 e3bd
00000190: c3ca df3c 7210 793d 5cea af3c deaa 2bbd
000001a0: b9e6 7b3d 208f 7d3d 2de9 333d 77ca aabc
000001b0: 8b48 a63c 57ea a13d c96c 833c 60e9 353d
000001c0: c90e 333e 2555 263e d825 253d 2228 513d
000001d0: a4ba 323d 7b45 50bd b57a bfbc dd7a 57bc
000001e0: 19fa 26be d22e ebbd 85b2 323d cdc3 9fbb
000001f0: bc73 89bd f75e f9bd b62b 14bd 4a9c 76bd
00000200: d02a 7dbb 1465 c73d 9be2 153e 4c31 e63d
00000210: 865d 3dbd f47a 333b ea0c 293d a2c2 a53d
00000220: 6de0 9cbc 719e 7cbd 284a 9bba 411c d4bd
00000230: cde4 fabd 7009 143d 2850 e2bd 7b63 87bd
00000240: 7a01 ffbd 90fc ac3d c903 e53d 0f5f 163d
00000250: a760 a5bd 3509 d6bd cd3f bebd 507d d63d
00000260: db88 9f3d b268 bc3d 958d 693d 326a 183d
00000270: d6df 32bc 83f6 c9bd fd3a d5bd 45e7 f0bd
00000280: d37b 413d 4924 6cbd ec4b c2bc 48e7 8abd
00000290: e0ec afbc 81e0 a9bd 34b5 9dbd 721f 203d
000002a0: 4e76 0fbd 5d00 953d 38dc 1abd 590f b1bd
000002b0: 2d66 aabc bffb 69bd 56b2 13bd 28cb e5bd
000002c0: 9b03 873d 2ffa a7bd 748d 723d ff34 5b3d
000002d0: 90a1 8b3d 9db8 cebd ba49 be3d 86eb 99bd
000002e0: 6080 013d b3c1 e23d d9ee 07bd 0281 d6bb
000002f0: d33e dfbc 898d d1bd 01cc 513d fe3e 03be
00000300: b2ac 923d 654b ab3d 31cc d43d b241 ffbc
00000310: c2ae d5bd b316 923c a743 963d c6d8 dabd
00000320: 7bfa 09bc 7e4f 83bd 05ec 13bb e0c3 31bd
00000330: 662c 2bbd cccd dfbc e500 cbbd 5822 d63d
00000340: 64f4 d53d 20d5 86bc 5a23 9dbb f660 2abd
00000350: c45f d4bd 8611 d9bd b895 4f3d 2335 75bd
00000360: 2a24 9bbd 6937 17bc 9fa4 22bd 0f17 1cbd
00000370: 04f8 743b 1568 d0bc 2d1b 26bd 7948 67bd
00000380: d06f c5bd c9d1 b23d e07a 67bd 46a9 bf3c
00000390: 2e3f 57bd 19ae 2bba 171b cf3d fcb4 313d
000003a0: a105 e5bd 73d4 1b3d c11b e53d 84fd fd3c
000003b0: 29d0 a13d f3f3 ed3d d0ee 93bc 7461 c83c
000003c0: c8c0 a7bd 50f4 c6bc 25bf b23d f277 773d
000003d0: 42ba 98bd c582 c1bd 1eef a4bd 4e2f eebd
000003e0: 2e3d babd 26c0 eebc dbde a23d c9a2 a13c
000003f0: 5ff1 b6bd 48e1 bdbd fc6c 813d e440 b3bd
-0.060998615 -0.08065643 0.062278353 -0.047575552 0.071466714 -0.028265938 0.06841586 -0.09173519
-0.059953883 0.03269429 0.021719746 -0.032808386 0.067597374 0.077879556 -0.08759803 -0.06448225
0.106529444 -0.04157381 -0.04178016 -0.11403212 -0.06748983 0.02943965 -0.015555546 -0.085546486
0.0027643964 -0.08050193 -0.099984504 -0.06489567 -0.10314339 -0.075040475 0.117827445 0.022283366
0.03635206 -0.10990142 -0.07739896 -0.039219555 0.019672185 -0.10330957 -0.050754804 -0.06981124
0.00076931715 -0.0438689 -0.0072980295 -0.079298295 -0.08057945 -0.06649582 -0.038038585 -0.090953425
0.101140544 -0.021379385 0.10356046 0.03758787 -0.0993387 0.082265034 -0.03219219 -0.045214143
-0.09796777 -0.11692076 0.034089584 -0.025428439 0.046755932 -0.09564678 0.08847405 -0.09081613
-0.023718184 0.021249626 0.057074204 0.092132345 0.10435419 -0.0980815 0.025629872 -0.05462387
0.025173116 -0.030194812 0.13580915 -0.012050681 0.15960051 0.1061701 0.09279012 0.028657405
0.16441299 0.08227591 0.08183304 -0.064045385 0.14425896 0.090328045 0.0150996735 0.17511351
0.1184266 -0.010776996 -0.059649043 -0.0056280643 0.065803505 -0.030114949 -0.06724289 -0.040357277
-0.088043615 0.042029537 0.09122152 -0.11087836 0.027318364 0.0608067 0.021474056 -0.041911
0.06149933 0.061904073 0.043923546 -0.020848496 0.020298263 0.07906025 0.016043084 0.044412017
0.17486109 0.16243418 0.040319294 0.051063664 0.043635026 -0.05084751 -0.023373941 -0.0131518515
-0.16306342 -0.1148354 0.04362728 -0.004875636 -0.06711528 -0.12176316 -0.0361745 -0.060207643
-0.0038630255 0.09736076 0.14637224 0.112398714 -0.04623177 0.0027386518 0.04127208 0.08093764
-0.019149983 -0.06167454 -0.0011847662 -0.103569515 -0.122506715 0.036141813 -0.11050445 -0.06610771
-0.124514535 0.0844661 0.111823626 0.03671175 -0.080750756 -0.10450975 -0.09289513 0.1047312
0.07789775 0.091996565 0.05701979 0.03721065 -0.010917624 -0.098614715 -0.10411642 -0.11762861
0.04723723 -0.05765179 -0.023717843 -0.06782395 -0.021475255 -0.08294774 -0.077005774 0.03909249
-0.035024934 0.0727546 -0.037807673 -0.086455055 -0.020800674 -0.05712485 -0.036058746 -0.112203896
0.065924846 -0.082020156 0.05921693 0.053517338 0.06817925 -0.10093806 0.09291406 -0.07515626
0.03161657 0.110721014 -0.033186767 -0.0065461406 -0.027251637 -0.10232074 0.051219944 -0.12816998
0.07161845 0.0836399 0.10390509 -0.031159256 -0.10433723 0.01783309 0.073371224 -0.106858775
-0.008421536 -0.06411646 -0.0022571099 -0.04339969 -0.04179039 -0.027319811 -0.0991228 0.10455769
0.104470044 -0.016459048 -0.004795474 -0.041596375 -0.10369828 -0.105990455 0.050679892 -0.05986513
-0.07575257 -0.009229519 -0.039707776 -0.038107928 0.0037379274 -0.025440255 -0.04055326 -0.0564656
-0.09640467 0.087314196 -0.056513667 0.023396146 -0.052550487 -0.0006549075 0.10112589 0.04338549
-0.11182714 0.038044404 0.11186934 0.031004675 0.079010315 0.11618795 -0.01805821 0.024460532
-0.08191067 -0.02428642 0.08727864 0.060417123 -0.07457401 -0.094487704 -0.080534205 -0.116301164
-0.090937 -0.029144358 0.079526626 0.019730942 -0.08932757 -0.092714846 0.06319615 -0.08752611

conv_2.bias f4 [16]
00000000: fcb0 963c bde9 ec3b 087e ac3d 490e 87bd
00000010: b12a 0ebd 3984 ce3d 90c6 c43b 4631 5a3e
00000020: a145 70bd 0344 703c 4f64 9bbc d21f 18bd
00000030: 87a3 8c3d bdba ae3d deee 1fbe ff5b 1ebd
0.01839494 0.007230012 0.08422476 -0.065945216 -0.034708682 0.10083813 0.006005116 0.21307859
-0.058660153 0.014664653 -0.01896873 -0.03713972 0.06867128 0.08531711 -0.15618464 -0.038661953

conv_3.weight f4 [32, 16, 3, 3]
00000000: 7464 17bd 98c8 0f3c 0028 18bc 268b a7bd
00000010: e10b 69bc b718 f6bb a959 c4bc 81aa 9e3d
00000020: f9f8 8fbc 2a9a 1c3d 8540 bcbb 7ebd dbbd
00000030: c8d5 753c 5f18 4c3d b69d b7bd 37d9 48bd
00000040: 9ac5 b63d 77a2 753d 608d 46bd 01c4 473d
00000050: 14b8 4abc f7c0 aabd 15e3 ad3b 83fc d33c
00000060: 3c0d ccbc ed03 e53c 67a3 94bd 352e 6d3d
00000070: 20ac 913d b730 3c3d 7cc3 6c3c 782e e23c
00000080: 6fd3 76bd 2386 a5bc 4835 f8bb d71e 3dbd
00000090: f07b 76bd 6b60 643d 8865 603d c5c8 92bd
000000a0: 8bb5 eb3c acbd 0c3d 356f ac3d 2884 593d
000000b0: e09e a23d af0b d8bc 93e3 723d d73f 8e3d
000000c0: 4136 9fbd 6dea 86bd b24f a03c cbfa 383d
000000d0: b1eb 25bd 3c53 3a3c 9b0a a33a 60ab b73c
000000e0: 8b45 34bd de8d 493d 757d 6d3d a4c4 65bd
000000f0: 71aa 243b d5a2 363b 7ac2 ed3c e22a a03d
00000100: 630d c43c 019a 99bc b82a 993d d625 ecbc
00000110: 304e a7bc 7b9d 163b 55a3 83bd b820 583c
00000120: 7fba 7cbd 5508 2dbc c8f8 9bbc ddc1 e13c
00000130: 32f6 acbd df39 efbd 4c25 953d d1e0 e43d
00000140: 2ccb 84bd b005 f23c a998 80bd 6ba0 853a
00000150: 40a3 9b3d 7b5d 7e3d aeca 82bd a9b8 583d
00000160: cf25 283d 68b4 8eba 7d46 a83d c66d 05bd
00000170: a650 9dbc c36d 23bd ec78 663c 87df bf3c
00000180: 74b4 0a3c c153 37bd 5960 12bd 1a39 893c
00000190: a3e4 cabd 3c1f 56bd 70fd b23b 1253 50bd
000001a0: 8540 45bc bba6 cf3c b27b a13d 3140 04bc
000001b0: c572 56bd 5163 723d 82c2 403c 81d2 bfbc
000001c0: f0c9 5fbd 48ee a03c 9745 a1bd 2ce9 b73c
000001d0: 257b 293d f419 94bd b74c 51bd 430c 68bd
000001e0: a6e1 8f3d 857d 963d 11cf 1f3c d64c a33d
000001f0: 6dfc efbc eccc a7bd dced f43c 26da b43c
00000200: d5a8 883d 4e16 e03b e58d 813d 8c71 183d
00000210: 4a26 8f3d 370d 91bd b6d0 913d f0b2 90bd
00000220: 4698 9b3d e025 3ebb a324 96bd c519 c73c
00000230: 50a8 80bc 9b08 94bd 440a 02bd f998 ed3b
00000240: 613e 863d 25ee ccbc 941e 4e3d f9f7 373c
00000250: fdf2 553b 4bd6 8a3c 11d2 5dbd a73a 8dbd
00000260: 18fe cfbc 7c16 d4bd e305 17bd 2853 2e3d
00000270: a9b8 acbd 9521 a7bc 857e 533d d9ac 85bc
00000280: c537 81bc b4e6 813d 6c56 30bc c364 d83c
00000290: ae63 b63b b1dc 29bd 9edf bdbc f1e3 d13a
000002a0: 50c9 58bd 0691 403c b1f6 5fbb 7b5b 063d
000002b0: ea7c a83c 86a6 803d 6013 27bb 5a34 78bd
000002c0: 226e 1b3d 4118 66bd 77f9 25bc 0796 d4bc
000002d0: f2d5 09bd 29e1 d5bc 7eb9 aa3d 705c 433d
000002e0: 4ed2 043d 0bec b23d b1bc 94bd 5b0e aa3c
000002f0: 3db7 733d 6c76 833d 5a03 6ebd 56c7 0f3d
00000300: 313e 09bd f3cd 033c fea9 97bc f944 61bd
00000310: 76be 98bd 4267 85bd d131 1a3d 96f3 1f3d
00000320: 4984 92bd 9e87 ffbc 2e35 243b 3b00 92bd
00000330: bd5e 413d 1133 9b3d 758d 783c 458c 47bd
00000340: 3881 d63c 135f f43c 02fd a73d 445d 18bd
00000350: 0ec8 a9bd 177a 433d 6c3d 863b ffe3 2ebd
00000360: 4b90 0abe 26ae c3bd bab6 903d 1002 fbbd
00000370: 5996 003d 70be f53d e67a 5fbd 21e1 783c
00000380: 6c7b f63c cbef 513d 2596 92bd 4594 213d
00000390: d7d1 a0bc 0202 593d ffb6 8a3c af65 0abd
000003a0: d62c 713c 41a7 7d3d 321c 60bd 1c25 41bd
000003b0: 99fb 51bc d4ec cebc 64ab 243d 566e 803d
000003c0: 991e 39bb a0fc ad3d 23b7 00bd 2306 bcbd
000003d0: ba66 60bd acca 9cbc b3c8 d8bd 18e3 a7bd
000003e0: 1930 eb3b 52f2 9bbb 34fb 8f3d 3619 213e
000003f0: 9f30 943d efe5 dfba d1ec 893c 9af4 48bd
-0.036961034 0.008775853 -0.0092868805 -0.08180837 -0.014224024 -0.0075102705 -0.023968535 0.07747365
-0.017574774 0.03823296 -0.005744996 -0.10729502 0.015004583 0.04982793 -0.08965628 -0.049035277
0.08924408 0.05996939 -0.04847467 0.04877091 -0.012372989 -0.083375864 0.0053066113 0.025877243
-0.024908654 0.027955974 -0.07257729 0.057905395 0.07112908 0.045944896 0.014450904 0.027610049
-0.060260233 -0.020205563 -0.007574711 -0.04617199 -0.06017679 0.055756014 0.054784328 -0.071672
0.02877309 0.034360573 0.084196486 0.05310455 0.07940459 -0.026372759 0.059299063 0.0694577
-0.0777402 -0.06587682 0.019569252 0.04516105 -0.040507976 0.011372384 0.0012439074 0.022420585
-0.044011634 0.04920756 0.057980973 -0.056095734 0.0025126005 0.0027868052 0.029023398 0.07820679
0.023932165 -0.018750193 0.07478851 -0.028826635 -0.020423025 0.002298205 -0.064276375 0.0131913945
-0.061701294 -0.010561069 -0.019039527 0.027558262 -0.084453955 -0.1168096 0.072825044 0.11175693
-0.064840645 0.029543728 -0.062791176 0.0010194903 0.07599497 0.06210087 -0.06386314 0.05291048
0.041051682 -0.0010887505 0.082165696 -0.03257539 -0.019203495 -0.0398996 0.014066916 0.023422016
0.008465875 -0.04475761 -0.035736416 0.016750861 -0.0990689 -0.05227588 0.005462341 -0.050860472
-0.012039308 0.025348058 0.07884921 -0.008071945 -0.052355547 0.059176747 0.011765124 -0.023415806
-0.054635942 0.019644871 -0.07874601 0.022450052 0.041377205 -0.07231513 -0.05109855 -0.05665232
0.07025461 0.0734816 0.009753958 0.0797364 -0.02929517 -0.081933826 0.029898576 0.022076678
0.06672827 0.0068385964 0.06325892 0.03721766 0.06989725 -0.07082599 0.071198866 -0.070653796
0.07597403 -0.0029014274 -0.07331207 0.02430428 -0.015705258 -0.07228204 -0.03174807 0.007250902
0.065548666 -0.0250159 0.05032213 0.011228555 0.0032646053 0.016947886 -0.054155413 -0.06895953
-0.025389716 -0.10355851 -0.03687085 0.042559773 -0.08433659 -0.020401755 0.05163433 -0.016317772
-0.015773663 0.06342831 -0.010762792 0.026415234 0.005566082 -0.041470233 -0.023177918 0.0016013366
-0.05292636 0.011753326 -0.003417414 0.032802086 0.020567376 0.06281762 -0.0025493726 -0.0605968
0.037946828 -0.056175474 -0.010130278 -0.025950445 -0.0336513 -0.026108341 0.08336161 0.047695577
0.032427125 0.08736428 -0.072625525 0.020758798 0.05950092 0.064190716 -0.058108665 0.03510221
-0.033506576 0.008044708 -0.018513676 -0.054997418 -0.074582025 -0.065138355 0.037645165 0.03905066
-0.07154138 -0.031192597 0.0025056112 -0.0712895 0.04720949 0.075780995 0.015170445 -0.048717756
0.026184663 0.029830491 0.08202554 -0.03719832 -0.082901105 0.047723856 0.0040966775 -0.042697903
-0.13531606 -0.095547006 0.07066102 -0.12256253 0.031393383 0.11999214 -0.054560564 0.015190394
0.030088149 0.051254075 -0.07157544 0.03944804 -0.01963131 0.05298043 0.016932962 -0.03378838
0.014720162 0.061927084 -0.05471439 -0.04715453 -0.012816333 -0.025259413 0.040202513 0.06271045
-0.0028246997 0.0849545 -0.031424653 -0.09180858 -0.054785468 -0.01913961 -0.10585155 -0.081976116
0.0071773645 -0.0047591114 0.07030335 0.15732273 0.07235836 -0.0017082075 0.016836556 -0.049061395

conv_3.bias f4 [32]
00000000: a20a bcbd 988a 8abd 2f4c 583d 44e0 b83a
00000010: d3b0 2abd 5df3 40bc d420 74bd f5bc 97bc
00000020: 500f b4bd a3dc 31bd 9904 ad3c 8493 4f3d
00000030: 3e81 da3b 38bd cebc 5a46 bc3d 172d 013e
00000040: 9da5 223d fd8d ae3c c282 efbc 8527 693d
00000050: 2176 c83c 06ff 4a3d 9772 d73d ef99 fcbc
00000060: f45d d43d d78c d43d 027a 573c fae1 e03d
00000070: 0cf7 d73c 0be6 f43c 0ae5 163d 6dd3 23bd
-0.091817155 -0.06764716 0.05280703 0.0014104922 -0.04167254 -0.011776772 -0.05960162 -0.018522719
-0.08791983 -0.043423306 0.021120356 0.05067779 0.006668239 -0.02523671 0.09193106 0.12614857
0.039708722 0.02130794 -0.029237155 0.056922454 0.02447039 0.049559616 0.10519903 -0.03083512
0.10369483 0.103784256 0.0131516475 0.109806016 0.026362918 0.02989485 0.036839522 -0.039996553

linear_1.weight f4 [1, 25088]
00000000: 147c dbbb 496c b7bb f687 c7bb 44a8 303b
00000010: 4df5 613b 3618 333c 3259 cdbb dc50 83bc
00000020: 5787 313a e926 6ebb c070 573b 621e 243c
00000030: 6e8a a33b 51db 443c 0389 193c b583 863b
00000040: cce8 9a3c 433e 883c 3fb0 1bb9 239a 0abc
00000050: eea0 10bc 3bca 29bc ab97 6a3b 7901 1ebc
00000060: 36c3 aeba 85a4 5dba 3652 3fbb 19a5 47bc
00000070: b9cf ddbb 8d5a 113b a11f 0eba a2f0 00bb
00000080: 34d8 eb3b 4394 573c 44f3 913c 48a2 643c
00000090: ef98 473c c2bb 96bb 139b 0dbc ef29 7ebc
000000a0: a281 75bc 82e1 53bb 7297 c1bb 2c7d 27bc
000000b0: 9360 9ebc 5127 ad3a f0b1 633c 690e e93b
000000c0: 63ba c8bb 2855 78bb 69b0 91bc 7829 593b
000000d0: fc60 cab9 cb7b 1ebb 33ff 333a 20de 0bbb
000000e0: b3c1 a3bb 4241 e0bb 5f4a ebbb 73d3 80bb
000000f0: 83df 593b 5cca 823b f606 a93c 7a3c de3c
00000100: 30e7 bb3c df05 7f3c f79d ad3c 29f8 dc3b
00000110: 5f05 b8bb 9034 2dba c552 1a3c 6f47 183c
00000120: ba1d 79bc a618 f53b 1444 60b8 2784 c9ba
00000130: fecb 0e3c 7569 d33c a98c af3b 6ad8 fc3b
00000140: e658 9e3c aab1 423c 4f41 f23b e47f 09ba
00000150: 0ace a0bb 0472 af3b 3f20 4bbb 207a d2bb
00000160: 37d8 c63b d91c 023c 5478 123c ff9a 0d3b
00000170: 0746 c33c 3515 b93b 5291 853b 0a87 9f3b
00000180: e2da 4bbc f141 c9bb 176e 993b e0c8 293c
00000190: 6911 d23c 32f4 b2bb db94 7cbc dcd2 29bc
000001a0: 55d8 9cbc 694e a1bb 600f ad3c a183 bbba
000001b0: 019d e93b 0ef3 3339 ad70 92bb cf7a 8abc
000001c0: 9982 b0bc ec55 d5bc 887b 26bc e344 60bc
000001d0: ee44 acbb 68aa 393b 2e74 013c fb32 d739
000001e0: a4a7 173c d3ab c63c 9032 df3b 5bb8 213b
000001f0: f2f6 023c 80dd 573c ba98 1c39 d629 6abc
00000200: 6903 b4bb 676b 293c 1bc1 20bc 4b3f 2ebc
00000210: 3d8f 49bc a055 87bc 1115 653c f259 363c
00000220: 31b6 463c 53dc c7bb c56f 2cbc 6b5c 88bb
00000230: 4b52 723c 2a46 2d3c 0916 b93b eaf4 dcbb
00000240: a0b1 343b 2216 e43b 6798 663b d6f9 303c
00000250: d779 343c cc28 443c 39a2 223c 3d8f 83bb
00000260: b7b3 11bc 4a4b b1bb 0e9e c23b 9865 9b3c
00000270: e408 7d3c 21b4 a6bc 0432 f5bb ae31 ab3b
00000280: 4811 0b3c fa8e 093c 18b0 05bc 48d5 32bb
00000290: 3101 ee3b e121 4c3c 6074 143b ed3d 093c
000002a0: e928 d63b 820f 3f3c 1570 993c c6f2 e03b
000002b0: 9fca 0abb 7ed3 33bb 7a6a fdbb 5fdf 25bc
000002c0: 10c8 08bc f351 3739 9d52 6cbc ded9 99bb
000002d0: ac2f a23a 1b12 94bc f5d3 e2bb e13f cf3c
000002e0: 21c1 883c 843e d4bc 2934 15bd 22e6 32bc
000002f0: 3c4c 083c f0ca 843c 96d3 963c 02df 92bc
00000300: 243d a53b d6fe 9b3c 885c db3b 4bbc b6bb
00000310: 6d7b 20bb 9ab9 983b 8dd1 923b a510 99ba
00000320: 471d 0d3b ca40 82bb d139 dabb e963 d6bc
00000330: dbf1 a8bc 2943 653b 4bb9 73bc 74c8 f4bb
00000340: 6161 d43c 735a b03c b9b0 6cbc 156b 963a
00000350: 96ee 013c de3d 2a3c 7bd2 c33b 792b f9bc
00000360: 3ced 4fb9 1d5f e53c 3f72 c13c c2cb b23c
00000370: 29d1 7dbc bd3f 023c 0059 503c 15cc e33b
00000380: 1c3f 5f3b 1a8e 413b 6476 513c 49b4 de3b
00000390: 2632 c339 e3b2 d13b 837b b0bb 2a1e b8bc
000003a0: 28a5 8ebc 0bb3 c7bb c5a0 79ba 59ca 0fbc
000003b0: d24c 843b ede1 493b 95ca 403b 9c70 9b3c
000003c0: f91f 1fbb c8e1 bcbb 7211 833c c01d 023c
000003d0: 9c37 bbba 477d 4e3b f9ae 0639 0daa bb3c
000003e0: a3b5 f4ba 4029 85bc 7369 f9bb 2eb1 babb
000003f0: c142 fd3a 4fff 59bb abef 00ba 3bca eb3b
-0.006698141 -0.0055976254 -0.006089206 0.0026955763 0.0034478486 0.010931065 -0.0062667364 -0.016029768
0.00067721814 -0.003633911 0.00328736 0.010017009 0.0049908673 0.01201518 0.009371045 0.004105056
0.018909834 0.016631251 -0.00014847609 -0.008459601 -0.008827431 -0.010363157 0.0035795968 -0.009643906
-0.0013333324 -0.0008454996 -0.0029193289 -0.012185358 -0.0067691472 0.0022179217 -0.0005421583 -0.0019674678
0.0071974043 0.013157907 0.017816193 0.0139547065 0.012182458 -0.004600019 -0.00864293 -0.015512927
-0.01498452 -0.0032330458 -0.0059079463 -0.010222714 -0.01933316 0.001321057 0.013897404 0.0071123135
-0.0061257347 -0.0037892554 -0.017784314 0.003313629 -0.000386007 -0.0024182673 0.0006866336 -0.0021342114
-0.004997456 -0.006843717 -0.0071804966 -0.0039314567 0.0033244796 0.0039914083 0.020633202 0.027128447
0.022937387 0.015565365 0.021193488 0.00674345 -0.0056158747 -0.00066072587 0.009419148 0.009294375
-0.015204841 0.007479745 -5.3469164e-05 -0.0015374467 0.008715628 0.025807122 0.005357344 0.0077162283
0.0193295 0.011883179 0.0073930393 -0.00052451924 -0.0049073743 0.005354168 -0.0030994562 -0.00642325
0.0060682553 0.007941448 0.008939821 0.0021607277 0.023837103 0.00564828 0.0040761614 0.004868393
-0.012442322 -0.006141894 0.004682313 0.010362834 0.025643067 -0.0054612393 -0.015416349 -0.010365214
-0.019146124 -0.0049226773 0.021125495 -0.0014306196 0.007129312 0.00017161315 -0.0044689984 -0.016904263
-0.021546649 -0.026041947 -0.010161288 -0.013688299 -0.0052572405 0.002833033 0.007901235 0.0004104598
0.009256277 0.024251854 0.0068114474 0.0024676535 0.007993447 0.013175368 0.00014934214 -0.014292201
-0.0054935706 0.010340548 -0.009811665 -0.010635207 -0.012302217 -0.016520321 0.013982073 0.011129843
0.012128399 -0.0060992627 -0.010524695 -0.0041614077 0.014790128 0.01057581 0.0056483787 -0.006743063
0.0027571693 0.0069606462 0.0035186054 0.010801753 0.011015377 0.011972617 0.009926372 -0.004014878
-0.008892945 -0.0054105865 0.0059392517 0.018969342 0.015444014 -0.020349564 -0.007482769 0.005224428
0.008488007 0.008395905 -0.00815966 -0.002728777 0.0072633256 0.012459249 0.0022652373 0.008376581
0.0065356386 0.011661412 0.018730203 0.0068648783 -0.00211779 -0.0027439292 -0.0077336403 -0.010124057
-0.00834848 0.00017482768 -0.014423993 -0.0046951612 0.0012373826 -0.01807504 -0.00692224 0.025299015
0.016693654 -0.025908716 -0.036426697 -0.010919126 0.008318957 0.01621005 0.018411439 -0.017928604
0.005042689 0.019042414 0.00669438 -0.0055766455 -0.002448763 0.0046607973 0.004480547 -0.0011677934
0.0021532343 -0.0039750086 -0.0066597243 -0.026170688 -0.020623138 0.0034982658 -0.01487572 -0.007470185
0.02592534 0.021527505 -0.014446431 0.0011476005 0.0079304185 0.010390727 0.005976019 -0.030416237
-0.00019829435 0.027999455 0.023614047 0.021825675 -0.015491762 0.007949767 0.012716532 0.0069518187
0.0034064716 0.0029534162 0.012784574 0.006796394 0.00037230662 0.006399499 -0.0053858175 -0.02247532
-0.017412737 -0.0060943416 -0.0009522553 -0.008776271 0.004037478 0.0030804828 0.0029417623 0.018974595
-0.0024280532 -0.00576422 0.01599953 0.007941663 -0.0014283541 0.0031507777 0.00012844418 0.022908235
-0.0018669855 -0.016255021 -0.0076114475 -0.005697391 0.0019322262 -0.0033263748 -0.0004918526 0.0071957386
