models/new_1/ConvNet_6.pth (torch, 127512 bytes, 7 tensors)

conv_1.weight f4 [8, 1, 3, 3]
0	0x3eb0f2e2	0.34560305
1	0x3ebb3d80	0.36570358
2	0x3b85e5e2	0.004086242
3	0x3ecb607b	0.39722046
4	0x3cc097bf	0.023509858
5	0x3e1ce3fc	0.15321344
6	0xbdacaa00	-0.084308624
7	0x3e8dda70	0.27705717
8	0x3ebcaeab	0.3685201
9	0xbdd76215	-0.105167545
10	0x3ed695dc	0.4191121
11	0x3e49964e	0.19686243
12	0x3ebe65a0	0.3718691
13	0x3e2dc65d	0.16970201
14	0x3e962d7e	0.29331583
15	0x3d9c6398	0.076361835
16	0x3ec332fe	0.3812484
17	0x3e41c860	0.18924093
18	0xbe1f5918	-0.1556133
19	0x3dae02b4	0.08496609
20	0xbe1d43c8	-0.15357888
21	0xbd201dd8	-0.03909096
22	0xbe0aa2a8	-0.13538611
23	0x3e626e3e	0.22112367
24	0xbe86b81c	-0.2631234
25	0xbe1d5bb3	-0.15367012
26	0xbdc0c490	-0.09412491
27	0xbe4d3486	-0.20039567
28	0x3d00ea5e	0.03147351
29	0xbea88dc3	-0.32920656
30	0x3e9a4943	0.3013402
31	0xbe90e16b	-0.2829698
32	0x3e83d86d	0.25751057
33	0x3d63fa65	0.055658717
34	0xbddd2cec	-0.10799584
35	0x3e5332a4	0.20624787
36	0x3e513a36	0.20432362
37	0x3ed24835	0.41070715
38	0x3e3a9b24	0.18223244
39	0x3d51faa3	0.051264416
40	0x3e6ed637	0.23323904
41	0x3d710068	0.058838278
42	0x3e8c3324	0.27382767
43	0x3ed8e18f	0.42359588
44	0x3ea6b0f8	0.3255689
45	0xbe534366	-0.20631179
46	0x3e11c2d8	0.14234483
47	0x3c8d8cb8	0.017279014
48	0x3dc4012d	0.09570537
49	0xbe94caa6	-0.29060858
50	0xbed093dd	-0.4073781
51	0xbe5bddd2	-0.21471336
52	0xbeb1067e	-0.34575266
53	0x3e57cd91	0.21074511
54	0x3e15f4af	0.1464412
55	0x3e456989	0.1927854
56	0x3e1ee14a	0.15515628
57	0x3d40de51	0.047087017
58	0x3ea10ad7	0.31453583
59	0xbe433e6b	-0.1906678
60	0x3d869ede	0.0657327
61	0xbe3bd6af	-0.18343614
62	0x3e0f2fd9	0.13983096
63	0xbe65ef45	-0.22454555
64	0xbad55523	-0.0016275983
65	0xbe2a43cf	-0.1662743
66	0x3e2e388c	0.17013758
67	0xbe9ae8c0	-0.302557
68	0xbe96fd91	-0.2949033
69	0xbe98b9b5	-0.29829183
70	0x3e58aea7	0.21160375
71	0x3cf75a37	0.030194385

conv_1.bias f4 [8]
0	0x3ca671d2	0.020317946
1	0xbe384ced	-0.17998095
2	0xbea947bb	-0.33062539
3	0xbe855cc3	-0.26047334
4	0xbe36cfa2	-0.17852643
5	0x3e8c0601	0.2734833
6	0x3d42e2d7	0.047579613
7	0x3e7eae4c	0.24871176

conv_2.weight f4 [16, 8, 3, 3]
0	0xbd78740c	-0.060657546
1	0xbda486d3	-0.08033528
2	0x3d80440e	0.062629804
3	0xbd416683	-0.047216903
4	0x3d92d647	0.071697764
5	0xbce3f8d1	-0.027828606
6	0x3d8bdeb4	0.068295866
7	0xbdbb2981	-0.091387756
8	0xbd73a6a5	-0.059485096
9	0x3d0a308f	0.033737715
10	0x3cb84437	0.022493465
11	0xbd03cda6	-0.032178544
12	0x3d8bddc4	0.06829408
13	0x3da03eb7	0.07824462
14	0xbdb2a787	-0.087233596
15	0xbd84277f	-0.06452846
16	0x3dda0556	0.10645549
17	0xbd2a2323	-0.041537415
18	0xbd2b21ac	-0.04178016
19	0xbde989ac	-0.11403212
20	0xbd8a381c	-0.06748983
21	0x3cf12b6c	0.02943965
22	0xbc7edcb0	-0.015555546
23	0xbdaf32ff	-0.085546486
24	0x3b352ae0	0.0027643964
25	0xbda4de32	-0.08050193
26	0xbdccc4ad	-0.099984504
27	0xbd84e80a	-0.064895704
28	0xbdd33cb1	-0.1031431
29	0xbd99aeb5	-0.07504026
30	0x3df14b1e	0.117819056
31	0x3cb677c0	0.022273898
32	0x3d14d338	0.036334246
33	0xbde11a1c	-0.10991308
34	0xbd9e855c	-0.0774028
35	0xbd20ac96	-0.03922709
36	0x3c9de03e	0.019271966
37	0xbdd3cecd	-0.103421785
38	0xbd4f7103	-0.050644886
39	0xbd8f9aea	-0.070119694
40	0x3a18c4d4	0.00058276695
41	0xbd33750c	-0.043812796
42	0xbbf9b93c	-0.0076209586
43	0xbda2b79c	-0.07945177
44	0xbda52dd3	-0.08065381
45	0xbd8e6a7c	-0.06953904
46	0xbd28107e	-0.041031353
47	0xbdc024f3	-0.093820475
48	0x3dc87587	0.097880416
49	0xbcc808c6	-0.024418246
50	0x3dcd81d4	0.100345284
51	0x3d095463	0.033527743
52	0xbdd3557e	-0.10319041
53	0x3da05326	0.07828359
54	0xbd09d1b9	-0.033647273
55	0xbd3dcb55	-0.04633649
56	0xbdcaa138	-0.09894031
57	0xbdf25bb2	-0.11833896
58	0x3d056df6	0.03257557
59	0xbcdb8002	-0.026794437
60	0x3d38097b	0.044930916
61	0xbdc7e3cc	-0.09760246
62	0x3db172de	0.08664487
63	0xbdb917e6	-0.090377614
64	0xbcc3fea7	-0.023925139
65	0x3caca6ed	0.02107569
66	0x3d6a1f86	0.05715897
67	0x3dbbbd40	0.09166956
68	0x3dd49149	0.103792734
69	0xbdca1b2b	-0.09868463
70	0x3cc873e9	0.024469333
71	0xbd64df3a	-0.055876948
72	0x3be6b43c	0.0070405286
73	0xbd6f1535	-0.058369834
74	0x3e002b3e	0.12516496
75	0xbd39e6d0	-0.045386136
76	0x3de359ff	0.1110115
77	0x3d9a47f4	0.07533255
78	0x3d8ff452	0.07029022
79	0xbc541501	-0.012944461
80	0x3e0d019b	0.13770144
81	0x3d917e19	0.07104129
82	0x3d7e72f5	0.06212135
83	0xbd8bdde5	-0.068294324
84	0x3deb0269	0.11475069
85	0x3d4e6324	0.050387517
86	0xbb944343	-0.00452462
87	0x3e1e6a45	0.15470226
88	0x3db4239a	0.08795853
89	0xbcc2cc67	-0.023779107
90	0xbd74528e	-0.059649043
91	0xbbb86ba0	-0.0056280643
92	0x3d86c3fd	0.065803505
93	0xbcf6b3a0	-0.030114949
94	0xbd89b6a4	-0.06724289
95	0xbd254dac	-0.040357277
96	0xbdb45036	-0.088043615
97	0x3d2c272a	0.042029537
98	0x3dbad259	0.09122152
99	0xbde34242	-0.11096622
100	0x3cdffe1e	0.027342852
101	0x3d793935	0.060845573
102	0x3caf49bb	0.021397462
103	0xbd2bd670	-0.04195255
104	0x3d7bd6c3	0.06148411
105	0x3d7d8370	0.061892927
106	0x3d3429e6	0.04398527
107	0xbcaa65ed	-0.020800555
108	0x3c12277d	0.008920548
109	0x3d6c0e51	0.05763084
110	0x3c4ba104	0.012428526
111	0x3cafa183	0.02143932
112	0x3e0e7979	0.13913526
113	0x3e155893	0.1458457
114	0x3d06869f	0.03284323
115	0x3cf34cd7	0.029699726
116	0x3d15238f	0.036410864
117	0xbd392065	-0.04519691
118	0xbc5e70ec	-0.013576727
119	0xbbd8ea0b	-0.006619697
120	0xbe1bcd32	-0.15214995
121	0xbdc64c03	-0.09682467
122	0x3d5c970f	0.053855
123	0x3b1bf6ac	0.002379815
124	0xbd600508	-0.0546923
125	0xbdeafa44	-0.11473516
126	0xbd5b48af	-0.053536113
127	0xbdac98ae	-0.08427559
128	0xbc9d2998	-0.019184873
129	0x3d8b0a4b	0.067890726
130	0x3ddb1431	0.106972106
131	0x3da8d893	0.08244433
132	0xbd963265	-0.07333831
133	0xbd1132bf	-0.035448786
134	0x3c2f72f0	0.010708556
135	0x3db16185	0.086611785
136	0xbc4580b3	-0.01205461
137	0xbd6adcea	-0.057339586
138	0x3c40c63f	0.011766016
139	0xbdafae00	-0.0857811
140	0xbde45210	-0.11148465
141	0x3d41ff7c	0.04736279
142	0xbdc26a7b	-0.09492966
143	0xbd6b58aa	-0.057457604
144	0xbdeb4703	-0.11488154
145	0x3db606cd	0.08888016
146	0x3de225a1	0.110423334
147	0x3d3e2163	0.04641856
148	0xbd984059	-0.07434148
149	0xbdd0f3b3	-0.10202732
150	0xbdb0281f	-0.086014025
151	0x3dda2901	0.10652352
152	0x3d9f0573	0.07764711
153	0x3dc776e8	0.097394764
154	0x3d7a318a	0.0610824
155	0x3d197f17	0.037474718
156	0xbbad285e	-0.005284353
157	0xbdbe8325	-0.093023576
158	0xbdcd6d15	-0.10030571
159	0xbdea2216	-0.114322826
160	0x3d497ca2	0.049191125
161	0xbd65b31a	-0.056079008
162	0xbcc24bec	-0.023717843
163	0xbd8ae748	-0.06782395
164	0xbcafece0	-0.021475255
165	0xbda9e081	-0.08294774
166	0xbd9db534	-0.077005774
167	0x3d201f72	0.03909249
168	0xbd0f764e	-0.035024934
169	0x3d95005d	0.0727546
170	0xbd1adc38	-0.037807673
171	0xbdb10f32	-0.086454764
172	0xbcaa561c	-0.020793013
173	0xbd69f0c5	-0.05711438
174	0xbd13aa2c	-0.03605096
175	0xbde5c9bc	-0.112201184
176	0x3d8703e9	0.06592543
177	0xbda80915	-0.08204857
178	0x3d728eb8	0.05921814
179	0x3d5b0f80	0.05348158
180	0x3d9b6aa4	0.075886995
181	0xbdc52c1c	-0.09627554
182	0x3dbc3792	0.09190287
183	0xbd874664	-0.06605223
184	0x3d16de8f	0.036833342
185	0x3de4c9e5	0.11171321
186	0xbccf6aa0	-0.025319397
187	0xbb4775eb	-0.0030435275
188	0xbcd6ba79	-0.026211964
189	0xbdd6ab79	-0.104819246
190	0x3d4aa466	0.04947319
191	0xbe03b18f	-0.12860702
192	0x3d8b401c	0.06799337
193	0x3da5cacc	0.08095321
194	0x3dd06009	0.10174567
195	0xbd0b1778	-0.03395793
196	0xbdd8d1d5	-0.10586897
197	0x3c838c2f	0.016058056
198	0x3d914705	0.07093624
199	0xbde30b0a	-0.1108609
200	0xbc8814ed	-0.01661154
201	0xbd875842	-0.06608631
202	0xbbad8b15	-0.005296121
203	0xbd4bc110	-0.049744666
204	0xbd338df0	-0.043836534
205	0xbd001c07	-0.03127673
206	0xbdd67471	-0.10471428
207	0x3dc88809	0.09791572
208	0x3dca21ed	0.09869752
209	0xbcab88af	-0.0209392
210	0xbc4e9897	-0.012609622
211	0xbd478d35	-0.04871865
212	0xbde031c8	-0.10946995
213	0xbde80022	-0.1132815
214	0x3d336ed1	0.043806855
215	0xbd87d897	-0.06633108
216	0xbd9b1a9d	-0.075734355
217	0xbc153638	-0.009107165
218	0xbd1f21a8	-0.038850456
219	0xbd1c0d0d	-0.038098384
220	0x3b7a6696	0.0038208119
221	0xbccab36d	-0.02474376
222	0xbd26167c	-0.040548787
223	0xbd670371	-0.056399766
224	0xbdc43d44	-0.09581998
225	0x3db49e8d	0.08819304
226	0xbd67624d	-0.05649023
227	0x3cbae002	0.022811893
228	0xbd52e2ad	-0.051485706
229	0xb8f4498c	-0.00011648526
230	0x3dce84a4	0.10083893
231	0x3d370791	0.04468495
232	0xbde3b317	-0.11118143
233	0x3d1ba8e1	0.038002852
234	0x3de51bc1	0.11186934
235	0x3cfdfd84	0.031004675
236	0x3da1d029	0.079010315
237	0x3dedf3f3	0.11618795
238	0xbc93eed0	-0.01805821
239	0x3cc86174	0.024460532
240	0xbda7c0c8	-0.08191067
241	0xbcc6f450	-0.02428642
242	0x3db2bf25	0.08727864
243	0x3d7778f8	0.0604181
244	0xbd98ba87	-0.07457452
245	0xbdc189d3	-0.09450116
246	0xbda4eee9	-0.08053381
247	0xbdee2feb	-0.116302334
248	0xbdba3d41	-0.090937145
249	0xbceebfe4	-0.029144235
250	0x3da2e0d4	0.07953039
251	0x3ca1998c	0.019726537
252	0xbdb7a45e	-0.089668974
253	0xbdbfd81d	-0.09367392
254	0x3d7a5f54	0.06112607
255	0xbdb40e09	-0.087917395

conv_2.bias f4 [16]
0	0x3caabce4	0.020842023
1	0xbc04162a	-0.008061925
2	0x3da54e57	0.08071583
3	0xbd861c0c	-0.06548318
4	0xbd1a2724	-0.037634984
5	0x3dbaa1d2	0.09112896
6	0x3c3e9cce	0.011634065
7	0x3e4c5446	0.19954023
8	0xbd5c9d6a	-0.05386106
9	0x3ca77ded	0.020445788
10	0xbac8fb58	-0.0015333695
11	0xbd799ec5	-0.06094243
12	0x3da3e8b4	0.08003369
13	0x3dac6058	0.084168136
14	0xbe046885	-0.12930496
15	0xbc8ef444	-0.01745046

conv_3.weight f4 [32, 16, 3, 3]
0	0xbd1987cb	-0.037483018
1	0x3c089f6f	0.008338793
2	0xbc1c8571	-0.009553299
3	0xbda89eaf	-0.082333915
4	0xbc7208bb	-0.014772589
5	0xbbfe56c5	-0.0077618086
6	0xbcc70034	-0.024292089
7	0x3d9dbec0	0.07702398
8	0xbc91d7ea	-0.017803151
9	0x3d2ec6a9	0.042669926
10	0x3bb9aa18	0.0056660287
11	0xbdb81a5f	-0.08989405
12	0x3c909248	0.017647877
13	0x3d76f837	0.06029531
14	0xbd90ec83	-0.07076361
15	0xbd559ca3	-0.052151334
16	0x3da72191	0.08160699
17	0x3d76ba1f	0.060236093
18	0xbd3fa3ae	-0.046786956
19	0x3d4dbb0d	0.050227214
20	0xbc303adc	-0.010756221
21	0xbda915a0	-0.08256078
22	0x3bca561c	0.006174816
23	0x3cdba395	0.0268114
24	0xbcc8b9cc	-0.024502657
25	0x3cef6f3c	0.029227845
26	0xbd91e985	-0.071246184
27	0x3d6d197a	0.057885624
28	0x3d91b78e	0.071150884
29	0x3d3c608f	0.045990523
30	0x3c6ad08d	0.014331949
31	0x3ce1dfb6	0.027572494
32	0xbd76b872	-0.060234495
33	0xbca7f7c7	-0.020503892
34	0xbbff08c1	-0.007783026
35	0xbd3da81c	-0.0463029
36	0xbd780a91	-0.060556952
37	0x3d671fcc	0.05642681
38	0x3d667b6e	0.056270055
39	0xbd967ccf	-0.07348024
40	0x3ce61000	0.028083801
41	0x3d0dc5d2	0.034612484
42	0x3da7727e	0.081761345
43	0x3d4fc7f2	0.050727792
44	0x3d9fe08b	0.078065
45	0xbcc36fc4	-0.023857005
46	0x3d7eaf27	0.062178757
47	0x3d93a7bc	0.07209727
48	0xbd9ba252	-0.075993195
49	0xbd83195c	-0.06401321
50	0x3cac45e3	0.021029418
51	0x3d3d2192	0.046174593
52	0xbd238f87	-0.0399318
53	0x3c47cf06	0.012195354
54	0x3a402c1c	0.00073307916
55	0x3cb32a5d	0.021870786
56	0xbd35d886	-0.044395946
57	0x3d45b504	0.048268333
58	0x3d68dc0b	0.056850474
59	0xbd69552c	-0.05696599
60	0x3ae7292e	0.0017636174
61	0x3adae803	0.0016701225
62	0x3ce5e9a0	0.028065503
63	0x3daa414e	0.08313237
64	0x3cf27071	0.029594632
65	0xbc5d5e9a	-0.013511324
66	0x3da07451	0.078346856
67	0xbcd85cab	-0.026411375
68	0xbc93e2a2	-0.018052403
69	0x3ba94f22	0.005166904
70	0xbd7e7636	-0.062124453
71	0x3c6648df	0.01405546
72	0xbd66ef1b	-0.056380372
73	0xba9d0a90	-0.0011981297
74	0xbbd99e6a	-0.006641199
75	0x3cf9b982	0.030483965
76	0xbd8d2b21	-0.06892992
77	0xbdbf9363	-0.09354284
78	0x3d89b09e	0.0672314
79	0x3dc28049	0.09497125
80	0xbd8f0db1	-0.06985033
81	0x3cf17109	0.029472845
82	0xbd7f13ba	-0.062274672
83	0x3b584d2c	0.0033004982
84	0x3d9d177c	0.07670495
85	0x3d800b9f	0.062522165
86	0xbd7e4bda	-0.062084056
87	0x3d5689bf	0.05237746
88	0x3d2f6367	0.042819407
89	0xba2d7085	-0.0006616193
90	0x3da844b4	0.08216229
91	0xbd039b6e	-0.03213065
92	0xbc98dfa0	-0.01866132
93	0xbd26677c	-0.040626034
94	0x3c5abd09	0.013350734
95	0x3cbdd036	0.023170572
96	0x3bfc668e	0.007702655
97	0xbd3b3c8d	-0.045712043
98	0xbd151f96	-0.036407076
99	0x3c8532cf	0.016259579
100	0xbdc14b34	-0.09438172
101	0xbd2acf48	-0.041701585
102	0x3b33772f	0.0027384271
103	0xbd29599f	-0.041345235
104	0x3c0353fc	0.008015629
105	0x3c936c69	0.01799603
106	0x3d89d7f7	0.06730645
107	0xbc4782ff	-0.012177228
108	0xbd573290	-0.052538455
109	0x3d71ca00	0.059030533
110	0x3c40e231	0.011772678
111	0xbcc341ba	-0.023835052
112	0xbd609af0	-0.05483526
113	0x3ca05631	0.01957235
114	0xbda2735a	-0.07932158
115	0x3cb4796b	0.022030553
116	0x3d28f732	0.04125137
117	0xbd8f9519	-0.0701086
118	0xbd4c9e38	-0.049955577
119	0xbd60580b	-0.054771464
120	0x3d9057c9	0.07047994
121	0x3d962e2b	0.073330246
122	0x3c20645f	0.009789555
123	0x3da1cf77	0.07900899
124	0xbce3aa52	-0.027791176
125	0xbda24266	-0.07922821
126	0x3ced3ae0	0.028958738
127	0x3cd046a9	0.025424318
128	0x3d997b67	0.0749424
129	0x3ba956e2	0.005167828
130	0x3d8648ee	0.06556879
131	0x3d414729	0.047187004
132	0x3d8a1162	0.06741597
133	0xbd9bf3bf	-0.0761485
134	0x3d9095f1	0.07059849
135	0xbd8e2e1a	-0.06942387
136	0x3d9e5c1b	0.077324115
137	0xba4660ce	-0.00075675256
138	0xbd952623	-0.072826646
139	0x3ccab223	0.024743145
140	0xbc76377c	-0.015027877
141	0xbd95858b	-0.07300862
142	0xbcf38a05	-0.029728899
143	0x3c19cea9	0.0093876505
144	0x3d85cb38	0.065329015
145	0xbccd272c	-0.025043093
146	0x3d4d8e42	0.050184496
147	0x3c2fd5bd	0.0107321115
148	0x3b4b7ee2	0.003105097
149	0x3c887011	0.016655
150	0xbd5f303d	-0.054489363
151	0xbd8d4cc1	-0.06899405
152	0xbcd128d8	-0.025532171
153	0xbdc275b4	-0.09495106
154	0xbd1fbecb	-0.039000314
155	0x3cc6718f	0.02422407
156	0xbd975cb1	-0.07390726
157	0xbcda1b68	-0.026624396
158	0x3c8d636a	0.017259318
159	0xbc967c14	-0.018369712
160	0xbcfdd59c	-0.030985646
161	0x3d092e6b	0.033491533
162	0xbc34b1ba	-0.011028701
163	0x3cce462f	0.02517995
164	0x3b8e7b7d	0.004348217
165	0xbd27ffc0	-0.041015387
166	0xbcd1e41f	-0.025621472
167	0x388ef4f6	6.816715e-05
168	0xbd5627d0	-0.052284062
169	0x3c1b43a8	0.00947658
170	0xbb9ad76c	-0.0047253873
171	0x3d0591b7	0.032609668
172	0x3ca59ce3	0.020216411
173	0x3d80b645	0.06284765
174	0xbb24d5f8	-0.002515195
175	0xbd79a78e	-0.06095081
176	0x3d1ae4a9	0.037815724
177	0xbd658bf3	-0.05604167
178	0xbc2fcfbf	-0.010730683
179	0xbcd80772	-0.026370738
180	0xbd06399c	-0.032769784
181	0xbce405ea	-0.027834851
182	0x3da5a439	0.080879636
183	0x3d42ff40	0.047606707
184	0x3ceabee9	0.028655486
185	0x3dab271a	0.083570674
186	0xbd96e0e3	-0.073671125
187	0x3c952b5e	0.018209156
188	0x3d6c174e	0.057639413
189	0x3d84e4c7	0.06488948
190	0xbd6e3769	-0.058158312
191	0x3d0dead5	0.03464778
192	0xbd10500d	-0.035232592
193	0x3bc86a43	0.006116183
194	0xbc89a83c	-0.016803853
195	0xbd6af89a	-0.05736599
196	0xbd97529c	-0.07388803
197	0xbd71dfb3	-0.059051227
198	0x3d1707c4	0.03687264
199	0x3d1b6fab	0.03794829
200	0xbd9416dc	-0.072309226
201	0xbd037c78	-0.032101125
202	0x3aa99cd9	0.0012940421
203	0xbd930a27	-0.07179671
204	0x3d3eb97a	0.046563603
205	0x3d9a125e	0.075230345
206	0x3c763515	0.015027304
207	0xbd4e6a70	-0.050394475
208	0x3cd41887	0.025890602
209	0x3cf9e704	0.030505665
210	0x3da15e4f	0.07879316
211	0xbd202742	-0.03909994
212	0xbda40b48	-0.08009964
213	0x3d3d0c83	0.04615451
214	0x3bb6b210	0.005575426
215	0xbd140fe7	-0.03614798
216	0xbdd82c2c	-0.105553
217	0xbd875258	-0.06607503
218	0x3dbe37c3	0.092879795
219	0xbdb58da3	-0.08864906
220	0x3d606a2e	0.05478876
221	0x3df640f8	0.120241106
222	0xbd41f698	-0.04735431
223	0x3c9306c0	0.017947555
224	0x3cc7c4e7	0.024385883
225	0x3d66559b	0.056233983
226	0xbd8fe8ec	-0.07026848
227	0x3d2401c4	0.040040746
228	0xbc60c74e	-0.013719393
229	0x3d4c1aad	0.049830128
230	0x3c4b12df	0.012394636
231	0xbcec455b	-0.028841665
232	0x3c08b2ef	0.008343442
233	0x3d6a4cd9	0.057202194
234	0xbd60d2f9	-0.0548887
235	0xbd46c0d0	-0.048523724
236	0xbc78f504	-0.015195135
237	0xbcd1d147	-0.025612487
238	0x3d1bd4ed	0.03804486
239	0x3d74454c	0.0596364
240	0xbb938681	-0.004502118
241	0x3da94970	0.0826596
242	0xbd0797e4	-0.03310384
243	0xbd847c7c	-0.06469056
244	0xbd1c5c48	-0.038173944
245	0xbcc823c3	-0.024431115
246	0xbd9e8b33	-0.07741394
247	0xbd8143cd	-0.0631176
248	0xbca0d139	-0.019631015
249	0x3c8a5e85	0.016890774
250	0x3da4f7f9	0.080551095
251	0x3e09a758	0.13442743
252	0x3d927a43	0.07152226
253	0xbb71c18e	-0.003688905
254	0x3c871a75	0.016492108
255	0xbd4a02e5	-0.049319167

conv_3.bias f4 [32]
0	0xbd8d96b9	-0.06913514
1	0xbd71b78d	-0.05901294
2	0x3d63a25d	0.055574764
3	0x3c4f0a0d	0.012636674
4	0xbd2fd9ec	-0.042932436
5	0xbc298178	-0.010345809
6	0xbd50a2b1	-0.050936405
7	0xbc138632	-0.009004163
8	0xbda6d0b0	-0.08145273
9	0xbd658b8d	-0.05604129
10	0x3cdbb892	0.026821408
11	0x3d6709ec	0.056405947
12	0x3c19f741	0.009397329
13	0xbc5d456a	-0.013505319
14	0x3dc41820	0.09574914
15	0x3dc9b159	0.098482795
16	0x3d28e6d3	0.041235756
17	0x3cabfb08	0.020993724
18	0xbd046936	-0.0323269
19	0x3d4c8cc8	0.049938947
20	0x3d046b8e	0.032329135
21	0x3d64a6dd	0.055823196
22	0x3dbdcd41	0.09267665
23	0xbc92f777	-0.017940266
24	0x3dab1963	0.083544515
25	0x3db7e124	0.08978489
26	0x3d0d993d	0.034569968
27	0x3dce6ad5	0.1007897
28	0x3d2a3e9b	0.04156361
29	0x3cef4169	0.029205995
30	0x3d4e6513	0.05038936
31	0xbd1ef0ab	-0.038803738

linear_1.weight f4 [1, 25088]
0	0xbb96b0ce	-0.0045987135
1	0xbb71945f	-0.0036862118
2	0xbb964a5c	-0.004586501
3	0x3b61256f	0.0034354588
4	0xbb75eadd	-0.0037524023
5	0x3b8e47d4	0.0043420587
6	0xbb0d28b3	-0.0021539151
7	0xbc29a7a8	-0.010354914
8	0xb955670f	-0.00020351655
9	0x3b5f44ef	0.0034068187
10	0x3bc31dd9	0.005954486
11	0x3c0cf7ed	0.008604032
12	0x3bad945c	0.005297227
13	0x3bd2e843	0.006436379
14	0x3b57cbc2	0.0032927846
15	0x398e5b58	0.00027152407
16	0x3c37b58a	0.011212716
17	0x3bf0deaa	0.0073507624
18	0xba6843a3	-0.00088601763
19	0xbb091ba5	-0.0020921018
20	0xbb58e975	-0.0033098136
21	0xbb9aa30e	-0.0047191447
22	0x3bf528b5	0.0074816593
23	0xbbd18cc9	-0.0063949567
24	0xba420979	-0.0007401924
25	0x3a161fdc	0.00057267933
26	0xba82421f	-0.0009937919
27	0xbc0b582f	-0.008504911
28	0xbbb09d52	-0.005389848
29	0x3b765f77	0.0037593523
30	0x3a34f6ef	0.0006903251
31	0xbb14ce5d	-0.002270601
32	0x3bd3186c	0.0064421203
33	0x3b5abe16	0.003337746
34	0x3c0b4004	0.008499149
35	0x3c17cb51	0.009264783
36	0x3c038ca4	0.008029137
37	0xbb65567e	-0.003499418
38	0xbb51860e	-0.0031970772
39	0xbc04e67e	-0.008111594
40	0xbc2796b1	-0.010228799
41	0xbb5bc85d	-0.0033536174
42	0xbba22a32	-0.0049488777
43	0xbb90476c	-0.0044030454
44	0xbc5a4862	-0.0133229215
45	0x3a1531c2	0.00056913134
46	0x3bdfb0ae	0.006826482
47	0x3b27a726	0.0025581806
48	0xbba85ed7	-0.005138259
49	0xbb95c1b2	-0.0045702094
50	0xbc32b9a3	-0.010908517
51	0x3baa121b	0.0051901466
52	0xba5d3be7	-0.0008439407
53	0xba8516b0	-0.0010153856
54	0x3b09fff9	0.0021057113
55	0x38169687	3.5902976e-05
56	0xbb8fc4db	-0.0043874807
57	0xbbbf9b37	-0.0058473605
58	0xbbda606e	-0.0066643273
59	0xbb94f027	-0.00454523
60	0x3aa86427	0.001284723
61	0x3a1e858c	0.0006047122
62	0x3c16a7e6	0.009195304
63	0x3c4db63b	0.012555654
64	0x3c4ccecd	0.012500477
65	0x3bff37b1	0.0077886214
66	0x3c2b4bdc	0.010455098
67	0xb984c681	-0.000253249
68	0xbbd4ec42	-0.0064978907
69	0xb95133d1	-0.00019951096
70	0x3bcdbd67	0.006278682
71	0x3c27694a	0.010217974
72	0xbc3125a1	-0.010812194
73	0x3b33142b	0.0027325253
74	0xbc082846	-0.008310383
75	0xbbf74e96	-0.00754721
76	0x3aa103c4	0.0012284447
77	0x3bc95022	0.006143586
78	0xbb317e05	-0.002708317
79	0x3b14fad3	0.002273251
80	0x3c2ca692	0.01053776
81	0x3bac7a99	0.005263638
82	0x3b211376	0.002457825
83	0xba9365a0	-0.0011245497
84	0xbb99dd56	-0.0046955748
85	0x3ba97ed0	0.005172588
86	0xbb548b01	-0.0032431486
87	0xbbc09e98	-0.005878281
88	0x3bbd417e	0.0057756295
89	0x3b5cb6fa	0.0033678398
90	0x3be9c431	0.0071339835
91	0x3a5bb191	0.00083806465
92	0x3c4f84b0	0.0126659125
93	0x3b0dea6b	0.0021654617
94	0x3c12f80b	0.008970271
95	0x3c2108a3	0.009828719
96	0x3a8aba9c	0.0010584178
97	0x3b24362f	0.002505671
98	0x3ba0a1e1	0.00490211
99	0x3c11eaed	0.008906108
100	0x3c9f6d0b	0.019461175
101	0xba3c185e	-0.0007175262
102	0xbbced9e0	-0.006312594
103	0xbc5f9983	-0.01364744
104	0xbc826592	-0.015917573
105	0xbb9eef72	-0.0048503214
106	0x3becd83f	0.007227927
107	0xbbad86a6	-0.0052955924
108	0x3ac54072	0.0015049113
109	0xbb847631	-0.00404241
110	0xbbef5154	-0.0073033962
111	0xbc8f1f4b	-0.017470976
112	0xbc106b88	-0.0088147
113	0xbc37eaf7	-0.011225454
114	0xb9881aba	-0.00025959854
115	0xbc01f839	-0.007932716
116	0xbb82b854	-0.003989259
117	0x3807fb5e	3.2420612e-05
118	0x3c0d0c8d	0.008608949
119	0x3af2941b	0.0018507274
120	0x3bac8d48	0.0052658655
121	0x3c30f31e	0.010800151
122	0x38fb00f4	0.0001196879
123	0x391a801e	0.00014734312
124	0x3c1ad4f1	0.009450183
125	0x3c14d937	0.009084991
126	0xbbd189ad	-0.006394586
127	0xbc14dbc4	-0.009085599
128	0x3ad1ad70	0.0015997123
129	0x3c3eadca	0.011638114
130	0xbaf76e96	-0.0018877562
131	0x3b5114f6	0.0031903363
132	0xbc27e7e7	-0.010248161
133	0xbc819f20	-0.015822947
134	0x3bf80f07	0.007570151
135	0x3a26f88c	0.0006369434
136	0x3bafca64	0.005364703
137	0xbbdf7b4c	-0.006820118
138	0xbb9741a7	-0.0046159807
139	0xba81d887	-0.0009906449
140	0x3b80c254	0.0039294157
141	0x3b958f9b	0.0045642382
142	0x3b516f1f	0.0031957102
143	0xbb205cfd	-0.0024469488
144	0x3baba6c5	0.0052383863
145	0x3bff0fe6	0.0077838777
146	0x3b5122a3	0.0031911514
147	0x3bdb7d11	0.0066982587
148	0x3bed6510	0.0072447136
149	0x3b436158	0.002981266
150	0x3b360504	0.0027773986
151	0xbbfdcfd7	-0.0077457237
152	0xbbcfa814	-0.006337175
153	0xbb6e8489	-0.0036394915
154	0x3b296949	0.0025850108
155	0x3a9793f7	0.0011564483
156	0xbb4840c2	-0.0030556177
157	0xbc414edc	-0.011798587
158	0xbc233aef	-0.009962781
159	0x3c0d63db	0.008629764
160	0x3c4767a3	0.012170705
161	0xbba33e21	-0.0049817716
162	0xbb66bec2	-0.0035208915
163	0x3a02ae55	0.0004985084
164	0x3bab11d0	0.0052206293
165	0x3c1b80e1	0.009491176
166	0x3b959a17	0.004565488
167	0x3c29a88e	0.010355128
168	0x3bb73145	0.00559059
169	0x3c1a4fb3	0.009418416
170	0x3c4e8a75	0.012606253
171	0x3c055d0d	0.008139861
172	0x3bab31ec	0.005224457
173	0x3b82b60c	0.003988987
174	0xbad4bd0e	-0.0016230659
175	0xb95f6dde	-0.00021307866
176	0xbb08feb3	-0.0020903766
177	0x3b79dcc4	0.0038125971
178	0xbba733eb	-0.0051026247
179	0xbc0d0b2d	-0.008608622
180	0xbc0276db	-0.007962908
181	0xbc42f8fd	-0.011900184
182	0x3b39e51c	0.002836532
183	0x3c7d6681	0.015466333
184	0x3bbfbea9	0.005851586
185	0xbc850372	-0.016236994
186	0xbcb03b68	-0.021512702
187	0xbbcf59f4	-0.006327862
188	0x3ca58fa1	0.02021009
189	0x3cb36984	0.0219009
190	0x3bee1a16	0.0072662933
191	0xbc23694f	-0.009973838
192	0x3bfd4db4	0.00773021
193	0x3c43221c	0.011909988
194	0x3b990ed1	0.0046709557
195	0xbb95b1fb	-0.004568336
196	0xbbb8adcc	-0.0056359526
197	0x3b715f5e	0.0036830525
198	0x3b45a57d	0.0030158453
199	0xba2eeaa6	-0.00066725386
200	0x3bba72bc	0.005689947
201	0x39d80dbb	0.0004120896
202	0xbb09356b	-0.002093638
203	0xbc6638e4	-0.01405165
204	0xbc511e50	-0.012763575
205	0xbb1fbdb0	-0.0024374537
206	0xbc0e13e4	-0.0086717345
207	0xbc928d16	-0.01788954
208	0x3b21e3fb	0.0024702537
209	0xb986c90d	-0.00025708266
210	0xbbb5ff07	-0.0055540833
211	0xbbcab68c	-0.006186312
212	0x3ad39878	0.0016143462
213	0x3bb22e59	0.005437654
214	0xbbd8832a	-0.006607433
215	0xbcba308c	-0.022728227
216	0xbb31c71e	-0.002712674
217	0x3d021197	0.031755056
218	0x3cbd48bf	0.023105977
219	0x3c55a95f	0.0130408695
220	0xbbba888a	-0.0056925463
221	0x3bd3fc7f	0.006469309
222	0x3c3849ec	0.011248093
223	0x3beaf2b1	0.0071700444
224	0x3a852cdd	0.0010160465
225	0x3b132888	0.0022454578
226	0x3bfb6900	0.007672429
227	0x3a20992c	0.000612634
228	0xba871df1	-0.0010308606
229	0x3bc1407a	0.005897579
230	0xbb9c2ce2	-0.0047660926
231	0xbc77f386	-0.015133744
232	0xbc9f5a66	-0.019452285
233	0xbbec9eaa	-0.0072210627
234	0xb905089a	-0.00012687073
235	0xbc600958	-0.013674103
236	0xb99922aa	-0.0002920826
237	0xba8c69e2	-0.0010712708
238	0xbbafd2e1	-0.005365715
239	0x3b365bfa	0.0027825818
240	0xbc48b2ae	-0.012249632
241	0x3a867ba4	0.0010260236
242	0x3c3a4f20	0.011371404
243	0xbbf719cd	-0.0075409175
244	0xbc32f883	-0.010923508
245	0xbadede2d	-0.0017003469
246	0x3b9dca7f	0.004815399
247	0x3ca68ef9	0.020331847
248	0x3b361d43	0.0027788437
249	0xbc019c9b	-0.007910873
250	0xbb62feb4	-0.0034636678
251	0x39a728ca	0.00031883112
252	0x3bb94b2f	0.0056547145
253	0xbb269e5d	-0.0025423982
254	0xbb18067a	-0.002319722
255	0x3b5cadfb	0.0033673036
