models/new_1/ConvNet_5.pth (torch, 127512 bytes, 7 tensors)

conv_1.weight f4 [8, 1, 3, 3]
0	0x3ea9f3d6	0.33193845
1	0x3eb440fc	0.3520583
2	0xbc0f564a	-0.0087486
3	0x3ec3dea9	0.38255814
4	0x3c06cee6	0.008228039
5	0x3e0e6730	0.1390655
6	0xbdc38c59	-0.095482536
7	0x3e874d82	0.2642632
8	0x3eb6321d	0.35585108
9	0xbde8b4e2	-0.11362626
10	0x3ed247ff	0.41070554
11	0x3e4074b2	0.18794516
12	0x3eb9b90e	0.36273998
13	0x3e23ca6c	0.15995187
14	0x3e915c76	0.28390855
15	0x3d8c57fe	0.06852721
16	0x3ebed94d	0.37275162
17	0x3e381fb2	0.17980841
18	0xbe1f5918	-0.1556133
19	0x3dae02b4	0.08496609
20	0xbe1d43c8	-0.15357888
21	0xbd201dd8	-0.03909096
22	0xbe0aa2a8	-0.13538611
23	0x3e626e3e	0.22112367
24	0xbe86b81c	-0.2631234
25	0xbe1d5bb3	-0.15367012
26	0xbdc0c490	-0.09412491
27	0xbe4d37a5	-0.20040758
28	0x3d00ea5f	0.031473514
29	0xbea88ec5	-0.32921425
30	0x3e9a3f28	0.3012631
31	0xbe90e94e	-0.28302997
32	0x3e83ce7a	0.25743467
33	0x3d63b6f9	0.05559442
34	0xbddd4eb4	-0.10806027
35	0x3e531a50	0.20615506
36	0x3e4a1580	0.19734764
37	0x3ece8b93	0.40340862
38	0x3e3240a5	0.17407472
39	0x3d22eb13	0.039774965
40	0x3e636aae	0.22208664
41	0x3d4525c0	0.048131704
42	0x3e87ff03	0.26561746
43	0x3ed478f3	0.41498527
44	0x3ea2b572	0.31779057
45	0xbe4fbf21	-0.20287754
46	0x3e14c060	0.1452651
47	0x3c9f1feb	0.0194244
48	0x3dcd2b5d	0.100180365
49	0xbe920159	-0.28516653
50	0xbece1993	-0.40253887
51	0xbe564898	-0.2092613
52	0xbeae181f	-0.34002778
53	0x3e5b56d2	0.21419838
54	0x3e0b8802	0.13626102
55	0x3e3a3eab	0.18187968
56	0x3e14458c	0.14479655
57	0x3d11648c	0.03549628
58	0x3e9af002	0.30261236
59	0xbe4d6ca8	-0.2006098
60	0x3d64a451	0.055820767
61	0xbe45bb35	-0.19309695
62	0x3e061112	0.1309245
63	0xbe5ea168	-0.21741259
64	0x3b91ec36	0.0044532074
65	0xbe24f2c0	-0.16108227
66	0x3e34906f	0.17633222
67	0xbe980d40	-0.2969761
68	0xbe94ae9e	-0.29039472
69	0xbe961ba6	-0.2931797
70	0x3e5d2d97	0.21599422
71	0x3d0919c2	0.03347183

conv_1.bias f4 [8]
0	0x3d839d95	0.06426541
1	0xbe257985	-0.16159637
2	0xbea947bb	-0.33062539
3	0xbe8569e7	-0.2605736
4	0xbe2a6759	-0.16640987
5	0x3e82d4eb	0.2555307
6	0x3d719bf8	0.058986634
7	0x3e699d58	0.22813928

conv_2.weight f4 [16, 8, 3, 3]
0	0xbd798051	-0.060913388
1	0xbda52426	-0.080635354
2	0x3d7ed04d	0.06221037
3	0xbd422bee	-0.047405176
4	0x3d924fe7	0.071441464
5	0xbce6b9a9	-0.028164702
6	0x3d8b36cf	0.06797563
7	0xbdbb7d85	-0.091548
8	0xbd745797	-0.059653845
9	0x3d09fd33	0.033688735
10	0x3cb8546d	0.022501195
11	0xbd0560ce	-0.032563023
12	0x3d8bbc14	0.068229824
13	0x3da018c0	0.07817221
14	0xbdb37e98	-0.0876438
15	0xbd843d9f	-0.06457066
16	0x3dd9e05e	0.10638498
17	0xbd2b9777	-0.041892495
18	0xbd2b21ac	-0.04178016
19	0xbde989ac	-0.11403212
20	0xbd8a381c	-0.06748983
21	0x3cf12b6c	0.02943965
22	0xbc7edcb0	-0.015555546
23	0xbdaf32ff	-0.085546486
24	0x3b352ae0	0.0027643964
25	0xbda4de32	-0.08050193
26	0xbdccc4ad	-0.099984504
27	0xbd84e7ef	-0.0648955
28	0xbdd33cb2	-0.10314311
29	0xbd99aeb1	-0.07504023
30	0x3df14a3e	0.11781739
31	0x3cb6755c	0.022272758
32	0x3d14d318	0.036334127
33	0xbde11a07	-0.109912924
34	0xbd9e8460	-0.07740092
35	0xbd20acca	-0.039227284
36	0x3c9caa75	0.019124249
37	0xbdd3d5c8	-0.1034351
38	0xbd4f9e6d	-0.050688196
39	0xbd8fa23c	-0.070133656
40	0x3a1f5a97	0.00060788676
41	0xbd3381bb	-0.043824892
42	0xbbfd6204	-0.0077326316
43	0xbda2b441	-0.07944537
44	0xbda5445b	-0.080696784
45	0xbd8dddd4	-0.06927076
46	0xbd271587	-0.040792014
47	0xbdbf5128	-0.09341651
48	0x3dc94e87	0.09829431
49	0xbcc4c257	-0.02401845
50	0x3dce9061	0.10086132
51	0x3d0c1d97	0.034207907
52	0xbdd206b1	-0.102551825
53	0x3da1c1a4	0.07898262
54	0xbd08ecb7	-0.033428874
55	0xbd3d0138	-0.04614374
56	0xbdca610b	-0.09881791
57	0xbdf1ba7c	-0.11803147
58	0x3d0692d6	0.032854877
59	0xbcd9ba42	-0.026578072
60	0x3d392a5e	0.04520642
61	0xbdc76ae7	-0.09737187
62	0x3db1b932	0.08677901
63	0xbdb6d73e	-0.08927773
64	0xbcbcee41	-0.023062827
65	0x3cb45125	0.022011349
66	0x3d6f372c	0.058402225
67	0x3dbdef42	0.092741504
68	0x3dd6ee0f	0.10494625
69	0xbdc728fb	-0.09724613
70	0x3cd27f58	0.025695488
71	0xbd5f708d	-0.054550696
72	0x3a27324b	0.00063780387
73	0xbd85994c	-0.0652338
74	0x3df40620	0.11915231
75	0xbd672c92	-0.05643899
76	0x3dc9baf6	0.09850113
77	0x3d849d8e	0.06475364
78	0x3d7696b0	0.0602023
79	0xbccb8882	-0.024845365
80	0x3e0372d4	0.12836772
81	0x3d879532	0.066202536
82	0x3d6fcb48	0.058543473
83	0xbd8f5cef	-0.070001476
84	0x3dd72a66	0.10506134
85	0x3d2b52f0	0.041827142
86	0xbc20f8ec	-0.009824973
87	0x3e1627b5	0.14663585
88	0x3da56ffb	0.08077999
89	0xbce1155a	-0.027476002
90	0xbd74528e	-0.059649043
91	0xbbb86ba0	-0.0056280643
92	0x3d86c3fd	0.065803505
93	0xbcf6b3a0	-0.030114949
94	0xbd89b6a4	-0.06724289
95	0xbd254dac	-0.040357277
96	0xbdb45036	-0.088043615
97	0x3d2c272a	0.042029537
98	0x3dbad259	0.09122152
99	0xbde34400	-0.11096954
100	0x3ce01555	0.027353922
101	0x3d79441e	0.060855977
102	0x3caf2db5	0.0213841
103	0xbd2bd0d4	-0.0419472
104	0x3d7bd8bf	0.061486002
105	0x3d7d8909	0.061898265
106	0x3d344027	0.044006493
107	0xbcaa3e5f	-0.020781694
108	0x3bd714b6	0.0065637482
109	0x3d663f5e	0.056212775
110	0x3c52280a	0.012826929
111	0x3c72d9ed	0.014822465
112	0x3e07f00b	0.13275163
113	0x3e12a1b5	0.14319499
114	0x3cec3444	0.028833516
115	0x3cd1b592	0.025599275
116	0x3d168ccb	0.036755364
117	0xbd318a38	-0.043344706
118	0xbc2d2584	-0.010568026
119	0xbb736e54	-0.0037144618
120	0xbe18336d	-0.14863367
121	0xbdbb11c2	-0.091342464
122	0x3d6bde5c	0.057585105
123	0x3bab020d	0.0052187503
124	0xbd507b56	-0.050898872
125	0xbde475ab	-0.11155256
126	0xbd7201a7	-0.059083607
127	0xbdb79b53	-0.089651726
128	0xbcc71f4c	-0.024306916
129	0x3d759251	0.05995399
130	0x3dc936d0	0.09824908
131	0x3d98e0ea	0.07464774
132	0xbda6c33a	-0.08142705
133	0xbd3553b1	-0.044269267
134	0x3b618b85	0.0034415436
135	0x3db576d0	0.08860552
136	0xbc1c6e86	-0.009547835
137	0xbd60a617	-0.054845896
138	0x3c84a49b	0.016191771
139	0xbda46122	-0.08026339
140	0xbddbd886	-0.10734658
141	0x3d53bfc8	0.05169657
142	0xbdb87824	-0.0900729
143	0xbd5e04bc	-0.054203734
144	0xbde99e34	-0.11407128
145	0x3db573c1	0.08859969
146	0x3dde12a8	0.10843402
147	0x3d3f27ec	0.04666893
148	0xbd99f980	-0.075182915
149	0xbdd471f0	-0.10373294
150	0xbdb067ee	-0.08613573
151	0x3dd673f9	0.10471339
152	0x3d992ae0	0.07478881
153	0x3dcb4858	0.09925908
154	0x3d80bcec	0.06286034
155	0x3d1cde58	0.03829798
156	0xbb7a33ba	-0.0038177804
157	0xbdbb6b88	-0.09151369
158	0xbdcaf1a8	-0.099093735
159	0xbde6db15	-0.11272255
160	0x3d4c2c86	0.04984715
161	0xbd646f46	-0.05577018
162	0xbcc24bec	-0.023717843
163	0xbd8ae748	-0.06782395
164	0xbcafece0	-0.021475255
165	0xbda9e081	-0.08294774
166	0xbd9db534	-0.077005774
167	0x3d201f72	0.03909249
168	0xbd0f764e	-0.035024934
169	0x3d95005d	0.0727546
170	0xbd1adc38	-0.037807673
171	0xbdb10ea9	-0.08645374
172	0xbcaa4001	-0.020782473
173	0xbd69f7a2	-0.057120927
174	0xbd13a8fa	-0.03604982
175	0xbde5c7cc	-0.11219749
176	0x3d87058e	0.06592856
177	0xbda80998	-0.08204955
178	0x3d7297d5	0.05922683
179	0x3d5b10ee	0.053482942
180	0x3d9aab62	0.0755222
181	0xbdc72e24	-0.097255975
182	0x3db4c776	0.08827107
183	0xbd887379	-0.0666265
184	0x3d0fc5df	0.035100814
185	0x3ddd97b0	0.10819948
186	0xbcd77f73	-0.02630589
187	0xbbb5697e	-0.0055362573
188	0xbcf66a4a	-0.03007998
189	0xbdcc0279	-0.09961409
190	0x3d612af0	0.05497259
191	0xbdfb3021	-0.12265039
192	0x3d962687	0.07331567
193	0x3db1d52a	0.08683236
194	0x3ddda754	0.10822931
195	0xbced3066	-0.028953742
196	0xbdcd3a99	-0.10020942
197	0x3cb5ff72	0.022216532
198	0x3d91f478	0.07126707
199	0xbde2f9ec	-0.11082825
200	0xbc8ce935	-0.017201046
201	0xbd865db5	-0.06560842
202	0xbbada2f5	-0.005298967
203	0xbd4e02af	-0.050295528
204	0xbd313a41	-0.043268446
205	0xbcffccec	-0.031225644
206	0xbdd78ba0	-0.10524678
207	0x3dc9ef24	0.098600656
208	0x3dcc16ac	0.09965262
209	0xbc9f73af	-0.019464342
210	0xbc3d18e9	-0.011541584
211	0xbd41347a	-0.047169186
212	0xbddbc611	-0.107311375
213	0xbde6b51e	-0.11265014
214	0x3d385db7	0.04501125
215	0xbd83f76b	-0.064436756
216	0xbd9b24b0	-0.07575357
217	0xbc1669da	-0.00918051
218	0xbd201eb4	-0.03909178
219	0xbd1c2055	-0.03811677
220	0x3b793264	0.003802442
221	0xbccc01f6	-0.024903279
222	0xbd262ad0	-0.040568173
223	0xbd671116	-0.05641278
224	0xbdc45eb1	-0.095883735
225	0x3db8a507	0.090158515
226	0xbd6138e8	-0.05498591
227	0x3cc3b370	0.023889273
228	0xbd4abed7	-0.049498405
229	0x3ac711d1	0.0015187805
230	0x3dd1251a	0.10212155
231	0x3d3e82b6	0.046511374
232	0xbde0e9c6	-0.10982089
233	0x3d1fd387	0.039020088
234	0x3de51bc1	0.11186934
235	0x3cfdfd84	0.031004675
236	0x3da1d029	0.079010315
237	0x3dedf3f3	0.11618795
238	0xbc93eed0	-0.01805821
239	0x3cc86174	0.024460532
240	0xbda7c0c8	-0.08191067
241	0xbcc6f450	-0.02428642
242	0x3db2bf25	0.08727864
243	0x3d7778e8	0.06041804
244	0xbd98ba88	-0.07457453
245	0xbdc18a31	-0.09450186
246	0xbda4eee9	-0.08053381
247	0xbdee30bc	-0.11630389
248	0xbdba3d1a	-0.090936854
249	0xbceec021	-0.029144349
250	0x3da2e08b	0.079529844
251	0x3ca19a4b	0.019726893
252	0xbdb7b8a1	-0.08970762
253	0xbdc08237	-0.093998365
254	0x3d76b9e4	0.060235873
255	0xbdb3f6dc	-0.08787319

conv_2.bias f4 [16]
0	0x3cb92ea4	0.022605248
1	0xbbec0b32	-0.007203483
2	0x3db98359	0.09058256
3	0xbd81814d	-0.0632349
4	0xbd0cbf5a	-0.034362175
5	0x3db8998b	0.09013661
6	0x3bf11fc0	0.007358521
7	0x3e4b1705	0.19833
8	0xbd24413d	-0.04010128
9	0x3cea602d	0.028610313
10	0xbacc0a65	-0.0015567063
11	0xbd65579d	-0.055991758
12	0x3d9ae9ae	0.07564102
13	0x3d9d8d74	0.07692996
14	0xbdf8c3be	-0.1214671
15	0xbc688e17	-0.014194033

conv_3.weight f4 [32, 16, 3, 3]
0	0xbd1a0395	-0.037601072
1	0x3c080df6	0.00830411
2	0xbc1d2cb1	-0.009593175
3	0xbda8df90	-0.08245766
4	0xbc735eb3	-0.014854121
5	0xbbff1c0d	-0.0077853263
6	0xbcc7acfa	-0.024374474
7	0x3d9d876e	0.07691847
8	0xbc92511e	-0.017860945
9	0x3d3aa482	0.045567043
10	0x3c262f80	0.010143161
11	0xbdac0173	-0.08398714
12	0x3c936892	0.017994199
13	0x3d80f908	0.06297499
14	0xbd853ca2	-0.065057054
15	0xbd5a5548	-0.053303987
16	0x3da5f2c3	0.08102944
17	0x3d801de8	0.06255704
18	0xbd3f3e36	-0.04669019
19	0x3d4dabca	0.05021266
20	0xbc2fcc36	-0.01072984
21	0xbda8e6c2	-0.082471386
22	0x3bcb5047	0.006204638
23	0x3cdb9b8c	0.026807569
24	0xbccad2cf	-0.024758724
25	0x3cee2f14	0.029075183
26	0xbd920729	-0.07130272
27	0x3d6cd766	0.057822607
28	0x3d919ea5	0.07110337
29	0x3d3c3fa1	0.04595912
30	0x3c697a89	0.014250406
31	0x3ce18970	0.027531356
32	0xbd76dd5d	-0.060269702
33	0xbca90ced	-0.020636046
34	0xbc008744	-0.00784475
35	0xbd3dc751	-0.04633266
36	0xbd79b660	-0.060964942
37	0x3d65f812	0.05614478
38	0x3d66092f	0.056161102
39	0xbd9802f8	-0.07422441
40	0x3ce1f074	0.027580477
41	0x3d0d03d5	0.034427483
42	0x3da5cb06	0.08095364
43	0x3d4cc18f	0.04998928
44	0x3d9f10c3	0.07766869
45	0xbcc6a69d	-0.02424937
46	0x3d7d619c	0.061860666
47	0x3d931722	0.071821466
48	0xbd9c3dbc	-0.076289624
49	0xbd839812	-0.064254895
50	0x3ca8dcdc	0.020613126
51	0x3d3d5ffb	0.046234112
52	0xbd238582	-0.039922245
53	0x3c407205	0.011745934
54	0x3a04d213	0.0005066704
55	0x3cb185a0	0.021670163
56	0xbd365071	-0.04451031
57	0x3d449c27	0.04800048
58	0x3d67b13b	0.056565505
59	0xbd6a4ed5	-0.057204086
60	0x3ace102b	0.0015721371
61	0x3ab99709	0.0014159392
62	0x3ce2b99b	0.027676394
63	0x3da779b8	0.08177513
64	0x3ce9d08d	0.028541828
65	0xbc70f61b	-0.014707114
66	0x3d9ec9b5	0.07753316
67	0xbce31ae2	-0.02772278
68	0xbca156ed	-0.01969477
69	0x3bae00e7	0.005310166
70	0xbd7f67f4	-0.062354997
71	0x3c4c7aec	0.012480479
72	0xbd71bdba	-0.059018828
73	0xbaf4ddda	-0.001868184
74	0xbbd676c9	-0.006544922
75	0x3cbdeeef	0.023185221
76	0xbd929fc0	-0.07159376
77	0xbdbb987d	-0.09159944
78	0x3d6ccb17	0.05781087
79	0x3db22ef3	0.08700361
80	0xbd921112	-0.07132162
81	0x3cf00432	0.029298875
82	0xbd80198b	-0.06254872
83	0x3b5b8ab6	0.0033499426
84	0x3d9c4c2f	0.07631718
85	0x3d7e79ff	0.062128063
86	0xbd7ec7d5	-0.062202293
87	0x3d515fc1	0.05111671
88	0x3d2ddc1f	0.042446252
89	0xba2549ab	-0.0006305228
90	0x3da76139	0.081728406
91	0xbd04a643	-0.032385122
92	0xbc9a63fd	-0.018846506
93	0xbd282002	-0.04104615
94	0x3c544df8	0.012958042
95	0x3cbafaf2	0.022824738
96	0x3bf038bb	0.0073309815
97	0xbd3ca5e1	-0.046056632
98	0xbd16c975	-0.03681322
99	0x3c9e0804	0.019290932
100	0xbdb54c1d	-0.08852408
101	0xbd0b01c2	-0.033937223
102	0x3aeee6b2	0.0018226712
103	0xbd21cdb7	-0.039502826
104	0x3c6fbdb2	0.014632629
105	0x3c74fb2d	0.014952463
106	0x3d83132c	0.06400141
107	0xbc36e86b	-0.011163811
108	0xbd577b17	-0.052607622
109	0x3d7166c1	0.058935884
110	0x3c3f5015	0.011676808
111	0xbcc3c2d5	-0.023896614
112	0xbd60d713	-0.05489261
113	0x3c9fcd64	0.019507118
114	0xbda2b40f	-0.079445
115	0x3cb41ce3	0.02198643
116	0x3d289ed8	0.04116711
117	0xbd8f947e	-0.070107445
118	0xbd4dd877	-0.050255265
119	0xbd622456	-0.055210434
120	0x3d903d12	0.07042898
121	0x3d964c6b	0.07338794
122	0x3c17321a	0.009228254
123	0x3da0d04d	0.0785223
124	0xbce2fb72	-0.02770779
125	0xbda1efe0	-0.07907081
126	0x3cedae06	0.029013645
127	0x3cda25d9	0.026629375
128	0x3d9d1895	0.07670704
129	0x3b8cdde7	0.0042989138
130	0x3d85c5c1	0.06531859
131	0x3d47d701	0.048789028
132	0x3d873626	0.06602125
133	0xbd9ec497	-0.0775234
134	0x3d90e23f	0.07074403
135	0xbd8e8805	-0.069595374
136	0x3d9d6815	0.07685868
137	0xbaa4782f	-0.0012548025
138	0xbd95be43	-0.0731168
139	0x3cc85948	0.024456635
140	0xbc7aa49a	-0.015298033
141	0xbd9714cb	-0.07377013
142	0xbcf4625d	-0.02983206
143	0x3c18f96b	0.00933681
144	0x3d853a57	0.06505268
145	0xbccfa2eb	-0.02534624
146	0x3d4c2f44	0.049849764
147	0x3c2d26a9	0.010568299
148	0x3b43f7bc	0.00299023
149	0x3c865063	0.016395753
150	0xbd5f8525	-0.054570336
151	0xbd8d6814	-0.06904617
152	0xbcd273a0	-0.0256899
153	0xbdbd9c74	-0.09258357
154	0xbd23329b	-0.039843183
155	0x3c9e0f68	0.019294456
156	0xbd8e465b	-0.06947013
157	0xbcea1132	-0.028572652
158	0x3c27f5f0	0.010251507
159	0xbc77d812	-0.015127199
160	0xbd05b5b8	-0.032644004
161	0x3cea28b5	0.028583864
162	0xbc2cb55f	-0.010541289
163	0x3ccf7a92	0.025327
164	0x3b974593	0.004616448
165	0xbd25fdde	-0.04052531
166	0xbcd5d7f5	-0.026103953
167	0x38a550dd	7.882875e-05
168	0xbd52c5c2	-0.051458128
169	0x3c15396f	0.0091079315
170	0xbb98dd8d	-0.004665083
171	0x3d04e819	0.032447908
172	0x3ca40391	0.020021232
173	0x3d804bb9	0.06264443
174	0xbb2e4097	-0.0026588792
175	0xbd7aaa27	-0.061197426
176	0x3d19e3a6	0.037570618
177	0xbd662ab0	-0.056193054
178	0xbc346a59	-0.011011683
179	0xbcd9f971	-0.0266082
180	0xbd08cf0d	-0.033400584
181	0xbcf21e3f	-0.029555438
182	0x3da21571	0.07914246
183	0x3d406835	0.04697438
184	0x3cda4841	0.026645781
185	0x3da7a40d	0.08185587
186	0xbd994755	-0.07484309
187	0x3c84fbca	0.016233344
188	0x3d64a281	0.05581904
189	0x3d828ef7	0.06374925
190	0xbd721049	-0.059097562
191	0x3d0d9559	0.034566257
192	0xbd17c6cb	-0.037054818
193	0x3b9fef51	0.0048808237
194	0xbc80ed19	-0.015738057
195	0xbd71efba	-0.05906651
196	0xbd97b065	-0.074066915
197	0xbd69bf4e	-0.057067208
198	0x3d15c0be	0.036560766
199	0x3d1a082d	0.037605453
200	0xbd9507d6	-0.07276885
201	0xbd04a7af	-0.032386478
202	0x3a777715	0.0009440047
203	0xbd93c6e0	-0.07215667
204	0x3d3d3f03	0.04620267
205	0x3d99c3ab	0.07508024
206	0x3c72d773	0.014821875
207	0xbd532bf6	-0.051555596
208	0x3ccf15b7	0.02527891
209	0x3cfe7d9f	0.03106576
210	0x3d9e3464	0.077248365
211	0xbd228c80	-0.039684772
212	0xbda0d5c4	-0.078532726
213	0x3d37f73f	0.044913527
214	0x3bc1d25c	0.0059149694
215	0xbd0a6931	-0.033791725
216	0xbdb2fed6	-0.08740012
217	0xbd57f575	-0.05272432
218	0x3dc39c24	0.09551266
219	0xbd85d81a	-0.06535359
220	0x3d8682a9	0.0656789
221	0x3df6f222	0.12057902
222	0xbcbc144b	-0.022958895
223	0x3d06514a	0.032792367
224	0x3d08bdfa	0.0333843
225	0x3d676b38	0.056498736
226	0xbd92f200	-0.07175064
227	0x3d195305	0.03743269
228	0xbc620d35	-0.013797094
229	0x3d3c4611	0.045965258
230	0x3c0c1a35	0.00855117
231	0xbcf3385e	-0.029689964
232	0x3b42d2fc	0.0029727807
233	0x3d5cd854	0.053917244
234	0xbd633287	-0.05546811
235	0xbd4ab996	-0.049493395
236	0xbc82ba72	-0.015958045
237	0xbcda63b4	-0.02665887
238	0x3d160353	0.036624264
239	0x3d706cac	0.058697388
240	0xbbb3f6e3	-0.0054920777
241	0x3da786b3	0.08179989
242	0xbd096937	-0.033547606
243	0xbd6ad07c	-0.057327732
244	0xbd02616f	-0.0318312
245	0xbcd34ee6	-0.025794458
246	0xbd88726d	-0.0666245
247	0xbd6d56fa	-0.057944275
248	0xbcc41220	-0.023934424
249	0x3cdc6411	0.026903184
250	0x3dadf19d	0.0849335
251	0x3e09a248	0.13440812
252	0x3d919f8b	0.071105085
253	0xbb8eba52	-0.004355707
254	0x3c8519d2	0.016247664
255	0xbd4b7952	-0.049676247

conv_3.bias f4 [32]
0	0xbd8ed0a3	-0.06973388
1	0xbd7027b4	-0.058631614
2	0x3d687cbf	0.056759592
3	0x3c69f0a3	0.014278564
4	0xbd0c2c9b	-0.034222227
5	0xbc1fe9d0	-0.009760335
6	0xbd4bc8a2	-0.049751885
7	0xbc0d0923	-0.008608135
8	0xbdab010f	-0.08349811
9	0xbd72413c	-0.059144244
10	0x3d19a94b	0.037514966
11	0x3d6e2c94	0.05814798
12	0x3c6722f8	0.014107458
13	0xbc632121	-0.013862879
14	0x3db8e999	0.0902893
15	0x3dcee9ad	0.10103164
16	0x3d4077bc	0.046989188
17	0x3cac8b58	0.021062538
18	0xbcfb36bc	-0.030665748
19	0x3d3f9551	0.04677326
20	0x3d26b0b4	0.04069586
21	0x3d4f9b74	0.05068536
22	0x3dba23e4	0.09088877
23	0xbc40d49b	-0.011769439
24	0x3d802873	0.06257715
25	0x3dc13714	0.094343334
26	0x3d23dab5	0.040003497
27	0x3dcb6593	0.09931483
28	0x3d443f0e	0.047911696
29	0x3d1364ac	0.03598468
30	0x3d721b89	0.05910829
31	0xbd15f67a	-0.03661201

linear_1.weight f4 [1, 25088]
0	0xbb7e3a82	-0.0038792198
1	0xbb4504d0	-0.0030062683
2	0xbb8007b1	-0.003907167
3	0x3b82ab45	0.003987702
4	0xbb00b5b6	-0.0019639558
5	0x3bc7ac0d	0.006093508
6	0x38be8b01	9.0857975e-05
7	0xbbe8286a	-0.007084896
8	0x3b2974e1	0.0025857019
9	0x3bb64188	0.005562011
10	0x3be1bb0c	0.006888753
11	0x3c1061f8	0.00881242
12	0x3bd53a73	0.006507212
13	0x3bc7a34b	0.006092464
14	0x3b3ef3c6	0.0029137
15	0xb9aa8202	-0.0003252179
16	0x3c295cc4	0.010337058
17	0x3bb62651	0.005558767
18	0xba7a9e82	-0.00095603627
19	0xb9dfbcf5	-0.00042674658
20	0xba6c1a32	-0.0009006589
21	0xbb43a8ec	-0.0029855324
22	0x3be9d4b8	0.0071359538
23	0xbbc3567f	-0.005961239
24	0xb8d9f0ef	-0.00010392244
25	0x3a9f8d48	0.0012172842
26	0xb9b1b63e	-0.00033895852
27	0xbbfc5fb7	-0.00770184
28	0xbbab9776	-0.0052365614
29	0x3b8047c3	0.0039148047
30	0x3a5ab485	0.00083429395
31	0xbb15b5f9	-0.002284406
32	0x3bcd37c4	0.0062627513
33	0x3b553f1f	0.0032538844
34	0x3bfdcb37	0.0077451724
35	0x3c0d73ac	0.008633535
36	0x3c021e08	0.00794173
37	0xbb26e62f	-0.002546679
38	0xbaee880c	-0.0018198504
39	0xbbc6864e	-0.006058491
40	0xbbefc40e	-0.0073170727
41	0xbb2590ca	-0.0025263303
42	0xbb9053f2	-0.0044045383
43	0xbb50f80d	-0.003188613
44	0xbc35ee2e	-0.01110415
45	0x3af8b036	0.0018973413
46	0x3c01ab85	0.007914429
47	0x3b291353	0.0025798872
48	0xbb6b722c	-0.0035926206
49	0xbb712a9a	-0.0036799074
50	0xbc1de5b7	-0.009637288
51	0x3baa05ec	0.005188694
52	0xba8ed5b0	-0.0010897424
53	0xba6708ca	-0.00088132604
54	0x3b0aecf0	0.0021198355
55	0x39d57da1	0.00040720127
56	0xbb877c77	-0.0041347104
57	0xbbb9fde0	-0.005676016
58	0xbbd627b8	-0.0065354966
59	0xbb984e85	-0.004648032
60	0x3a241609	0.0006259387
61	0xba4c98fc	-0.0007804779
62	0x3c03609e	0.008018641
63	0x3c333f2d	0.010940355
64	0x3c433ec0	0.011916816
65	0x3bee7037	0.0072765606
66	0x3c051cfb	0.008124585
67	0xbb13ac1d	-0.0022533007
68	0xbbe6dbd5	-0.007045249
69	0xbaa65644	-0.0012690504
70	0x3b13f499	0.0022576211
71	0x3bdccd89	0.006738369
72	0xbc393c96	-0.011305949
73	0x3b1e2067	0.00241282
74	0xbbfe2931	-0.0077563752
75	0xbc028dff	-0.007968425
76	0x3ad65e2a	0.0016354967
77	0x3ba1d86c	0.0049391296
78	0xbb3bc27a	-0.0028649853
79	0x3b14800f	0.0022659337
80	0x3c1d724d	0.009609771
81	0x3ba49db8	0.0050236844
82	0x3b0f6a94	0.0021883594
83	0xba853614	-0.0010163211
84	0xbb91321e	-0.0044310233
85	0x3bacc8c9	0.005272959
86	0xbb5c1f25	-0.00335879
87	0xbbbb0b73	-0.005708152
88	0x3bc0ac74	0.005879933
89	0x3b0f42cb	0.002185988
90	0x3bcb120d	0.00619722
91	0xba3d7162	-0.0007226673
92	0x3c2a7d2e	0.010405822
93	0x3a1326f1	0.00056134077
94	0x3beb8462	0.007187412
95	0x3c088d47	0.008334464
96	0xba244de3	-0.00062677095
97	0x3adc54f6	0.0016809988
98	0x3b6a5bd0	0.003576029
99	0x3bc963af	0.0061459164
100	0x3c83eb02	0.016103271
101	0xbb0ba184	-0.0021305988
102	0xbbc041d0	-0.0058672205
103	0xbc600d76	-0.013675084
104	0xbc7a1750	-0.015264347
105	0xbb80ecc7	-0.003934476
106	0x3bcb3284	0.0062010903
107	0xbba4685e	-0.0050173244
108	0x3a572054	0.00082064164
109	0xbb899731	-0.0041989316
110	0xbbf57890	-0.007491179
111	0xbc99dd73	-0.018782353
112	0xbbeab4c3	-0.0071626618
113	0xbc04a5cc	-0.00809617
114	0x3ae0c751	0.0017149245
115	0xbbe7d3a8	-0.007074792
116	0xbb95f7da	-0.0045766653
117	0xbab5ec83	-0.001387969
118	0x3c00cd1c	0.007861402
119	0x38edc4d0	0.000113377
120	0x3ad5cea8	0.0016312199
121	0x3bffa252	0.0078013325
122	0xbb4e86da	-0.0031513483
123	0xbb1f7676	-0.0024332083
124	0x3bdeb0ed	0.0067959935
125	0x3bafbe3f	0.0053632553
126	0xbc1d7616	-0.009610673
127	0xbc0f5276	-0.008747688
128	0x398253a5	0.00024857852
129	0x3c104328	0.008805074
130	0xbb54b922	-0.003245898
131	0xba4a293b	-0.00077118323
132	0xbc3e555b	-0.01161703
133	0xbc8300e3	-0.015991634
134	0x3ba99ab7	0.005175914
135	0xba242351	-0.0006261366
136	0x3b854dcd	0.0040681125
137	0xbbdc8f20	-0.006730929
138	0xbb612cfb	-0.0034359086
139	0xbb9adaa9	-0.0047257734
140	0x3ac0d009	0.0014710437
141	0x3b613859	0.0034365861
142	0x3b1d627d	0.0024015002
143	0xbb0a266a	-0.0021080025
144	0x3ba6e52b	0.005093237
145	0x3be62ed6	0.0070246262
146	0x3ae7cbc3	0.0017684627
147	0x3b49bdce	0.0030783298
148	0x3bbeca3e	0.005822449
149	0x3a2a71e9	0.0006501959
150	0x3a29f7f0	0.0006483784
151	0xbc0797bf	-0.008275925
152	0xbbe5685a	-0.007000965
153	0xbad9b493	-0.0016609601
154	0x3ae3137f	0.0017324536
155	0xbae5d9e3	-0.0017536249
156	0xbb911188	-0.0044271387
157	0xbc53328b	-0.012890468
158	0xbc091a53	-0.008368093
159	0x3c0a1563	0.008427951
160	0x3bdaeb9b	0.0066809184
161	0xbbd50640	-0.006500989
162	0xbb810141	-0.003936917
163	0x3acf4e9e	0.0015816276
164	0x3be2ba67	0.0069191935
165	0x3c01cd56	0.007922491
166	0x3b933d69	0.0044934046
167	0x3c2066be	0.009790121
168	0x3b9ae007	0.004726413
169	0x3bf65088	0.0075169243
170	0x3c36a1a1	0.011146934
171	0x3bee60cf	0.007274724
172	0x3bb6e9c4	0.0055820663
173	0x3b86bf37	0.00411215
174	0xbb55c965	-0.0032621261
175	0xba485b6b	-0.0007643017
176	0xbaa216df	-0.0012366435
177	0x3b905dab	0.0044056973
178	0xbb3d4df2	-0.002888557
179	0xbc0604ee	-0.008179886
180	0xbc0d20a5	-0.00861374
181	0xbc2bf293	-0.010494846
182	0x3a8b7b2f	0.001064157
183	0x3c5d9aa4	0.013525639
184	0x3bc75477	0.006083067
185	0xbc796909	-0.015222796
186	0xbc9a1415	-0.018808404
187	0xbbd78932	-0.0065776343
188	0x3c7e9ed1	0.0155407945
189	0x3c578c67	0.013156033
190	0x3b3dd7d8	0.0028967764
191	0xbc3bc8cd	-0.011461449
192	0x3be48225	0.0069735222
193	0x3c22f339	0.009945684
194	0x3baa4794	0.005196521
195	0xbb033159	-0.0020018427
196	0xbbd24f03	-0.0064181103
197	0x3b0ceac4	0.0021502236
198	0x3afd128d	0.0019307897
199	0xbaf4b724	-0.0018670303
200	0x3b9f2874	0.0048571173
201	0x39c92c79	0.00038370842
202	0xbb54f271	-0.003249314
203	0xbc76c502	-0.015061619
204	0xbc669d44	-0.014075581
205	0xbbd85996	-0.0066024764
206	0xbc268963	-0.0101645915
207	0xbc9f0c6f	-0.019415108
208	0xb8f77eb7	-0.0001180148
209	0x3af655f4	0.0018793927
210	0xbb5228fc	-0.0032067886
211	0xbbc6f684	-0.0060718674
212	0x3aa43c77	0.0012530227
213	0x3b7e4b40	0.0038802177
214	0xbbb66e3d	-0.0055673406
215	0xbcbb607d	-0.022873158
216	0xbaf5d984	-0.0018756841
217	0x3ca9f740	0.02074778
218	0x3c714de3	0.014728042
219	0x3be1a0af	0.00688561
220	0xbba96acc	-0.005170202
221	0x3bd395f8	0.0064570867
222	0x3c2c41ee	0.010513766
223	0x3c093f28	0.008376874
224	0x38d2b5be	0.000100474324
225	0x3a350144	0.00069047906
226	0x3bcad8ed	0.0061904103
227	0xbac0579f	-0.0014674551
228	0xbaa45332	-0.0012537001
229	0x3b9ca7f7	0.004780765
230	0xbbe40a73	-0.0069592535
231	0xbc71caa1	-0.014757783
232	0xbc8a9dc3	-0.01692093
233	0xbc1174f0	-0.008877978
234	0xbb8540f2	-0.00406658
235	0xbc68e1d8	-0.014214002
236	0xbaba1543	-0.001419701
237	0xb9bd9599	-0.00036160348
238	0xbb000076	-0.0019531525
239	0x3b7a0367	0.0038149
240	0xbc274286	-0.0102087315
241	0x3a436c7f	0.0007454827
242	0x3c21eac7	0.009882635
243	0xbbfd1c3f	-0.0077243145
244	0xbc184cf6	-0.009295693
245	0xbbb4ccfa	-0.005517599
246	0xba3dcdeb	-0.0007240462
247	0x3c4fddbf	0.012687146
248	0xbac2008f	-0.0014801192
249	0xbbb76c75	-0.005597646
250	0xbb5fc286	-0.0034143045
251	0x3b0eb9c0	0.0021778196
252	0x3ba10466	0.0049138544
253	0xbb750b89	-0.0037390909
254	0xbb4d99b7	-0.0031372139
255	0x3aac3ed2	0.001314128
