models/new_1/ConvNet_8.pth (torch, 127512 bytes, 7 tensors)

conv_1.weight f4 [8, 1, 3, 3]
0	0x3ec0a9a7	0.37629434
1	0x3ecc1a5c	0.3986386
2	0x3d061da5	0.032743115
3	0x3edbcfdc	0.42932022
4	0x3d6b0668	0.057379156
5	0x3e3aec3d	0.1825418
6	0xbd73cc4f	-0.059521016
7	0x3e9bc937	0.30426952
8	0x3ec9e2f7	0.39430973
9	0xbdafd7e1	-0.085860975
10	0x3ee229b2	0.44172436
11	0x3e613135	0.21991427
12	0x3ec9f9a5	0.39448276
13	0x3e497a5a	0.1967558
14	0x3ea3fcac	0.3202871
15	0x3dcac682	0.099011436
16	0x3ed080ec	0.4072336
17	0x3e5db531	0.2165115
18	0xbe1f5918	-0.1556133
19	0x3dae02b4	0.08496609
20	0xbe1d43c8	-0.15357888
21	0xbd201dd8	-0.03909096
22	0xbe0aa2a8	-0.13538611
23	0x3e626e3e	0.22112367
24	0xbe86b81c	-0.2631234
25	0xbe1d5bb3	-0.15367012
26	0xbdc0c490	-0.09412491
27	0xbe4d34b2	-0.20039633
28	0x3d00f845	0.03148677
29	0xbea88e14	-0.32920897
30	0x3e9a480c	0.30133092
31	0xbe90de5c	-0.28294647
32	0x3e83d18a	0.25745803
33	0x3d63d2f2	0.055621095
34	0xbddd3926	-0.10801916
35	0x3e532368	0.20618975
36	0x3e6e68cc	0.23282164
37	0x3ee161f2	0.4402004
38	0x3e556121	0.20837833
39	0x3da3e743	0.08003094
40	0x3e880d9a	0.26572877
41	0x3db6036a	0.0888737
42	0x3e990386	0.298855
43	0x3ee7ce8d	0.45274773
44	0x3eb56a2c	0.35432565
45	0xbe578217	-0.21045719
46	0x3e0eab73	0.1393259
47	0x3c848a3e	0.0161792
48	0x3db7d233	0.08975639
49	0xbe98a691	-0.2981458
50	0xbed3f9ae	-0.41401428
51	0xbe63b167	-0.22235642
52	0xbeb4fbe2	-0.3534842
53	0x3e51c55b	0.20485441
54	0x3e309a96	0.1724647
55	0x3e61f9be	0.22067925
56	0x3e37aa62	0.1793609
57	0x3d9941f0	0.0748328
58	0x3eb03204	0.3441316
59	0xbe29e9c8	-0.16593087
60	0x3db8d753	0.09025445
61	0xbe218039	-0.1577157
62	0x3e268a14	0.1626361
63	0xbe6ff431	-0.23432995
64	0xbc0b3089	-0.008495458
65	0xbe2fbc8c	-0.17161769
66	0x3e257a51	0.16159941
67	0xbe9eca58	-0.3101375
68	0xbe99c77f	-0.30035016
69	0xbe9c369c	-0.30510414
70	0x3e533f8a	0.20629707
71	0x3cdd9c22	0.027051989

conv_1.bias f4 [8]
0	0x3b115f47	0.0022182034
1	0xbe2ba6af	-0.16762803
2	0xbea947bb	-0.33062539
3	0xbe8567da	-0.26055795
4	0xbe0f284c	-0.13980216
5	0x3e96c43c	0.2944659
6	0x3d015a2f	0.031580146
7	0x3e900cd1	0.28134778

conv_2.weight f4 [16, 8, 3, 3]
0	0xbd7951a4	-0.060868874
1	0xbda4d246	-0.08047919
2	0x3d804063	0.06262281
3	0xbd42c077	-0.04754683
4	0x3d92402a	0.071411446
5	0xbce5ae6a	-0.028037269
6	0x3d8bc0c3	0.06823876
7	0xbdbc2c65	-0.09188155
8	0xbd75279a	-0.05985222
9	0x3d084a79	0.033274148
10	0x3cb5221a	0.022110987
11	0xbd062413	-0.032749247
12	0x3d8a6887	0.06758218
13	0x3d9eb682	0.07749654
14	0xbdb431c7	-0.08798557
15	0xbd8502f7	-0.06494706
16	0x3dd8ab44	0.10579541
17	0xbd2cea10	-0.042215407
18	0xbd2b21ac	-0.04178016
19	0xbde989ac	-0.11403212
20	0xbd8a381c	-0.06748983
21	0x3cf12b6c	0.02943965
22	0xbc7edcb0	-0.015555546
23	0xbdaf32ff	-0.085546486
24	0x3b352ae0	0.0027643964
25	0xbda4de32	-0.08050193
26	0xbdccc4ad	-0.099984504
27	0xbd84e778	-0.06489462
28	0xbdd33cca	-0.10314329
29	0xbd99ae32	-0.07503928
30	0x3df14a7c	0.11781785
31	0x3cb677cb	0.022273919
32	0x3d14d89c	0.036339387
33	0xbde1199d	-0.109912135
34	0xbd9e830c	-0.07739839
35	0xbd20ad69	-0.039227877
36	0x3ca0822d	0.019593323
37	0xbdd37551	-0.10325111
38	0xbd4f4c0c	-0.050609633
39	0xbd8efac3	-0.06981423
40	0x3a47a594	0.00076159206
41	0xbd3377ed	-0.043815542
42	0xbbe9ca49	-0.00713471
43	0xbda24aeb	-0.07924446
44	0xbda4f5e0	-0.080547094
45	0xbd87de40	-0.06634188
46	0xbd1b7b86	-0.037959598
47	0xbdb9f58c	-0.090800375
48	0x3dcfd903	0.101488136
49	0xbcac3719	-0.021022366
50	0x3dd498c9	0.10380704
51	0x3d1b4924	0.03791155
52	0xbdcac9b2	-0.099017516
53	0x3da90006	0.082519576
54	0xbd0377db	-0.032096725
55	0xbd37ee10	-0.04490477
56	0xbdc7f7fb	-0.097640954
57	0xbdef4aad	-0.11684165
58	0x3d0bad81	0.034101013
59	0xbcd021a0	-0.025406659
60	0x3d3ef799	0.046622846
61	0xbdc48075	-0.09594814
62	0x3db4a523	0.0882056
63	0xbdb59ff8	-0.08868402
64	0xbcb416f9	-0.02198361
65	0x3cbc8c45	0.023016104
66	0x3d729d98	0.059232324
67	0x3dc05c4c	0.09392604
68	0x3dd94fd9	0.10610933
69	0xbdc4ef53	-0.0961596
70	0x3cde89b8	0.027165279
71	0xbd5974ce	-0.05308991
72	0x3c998961	0.018742265
73	0xbd25ae43	-0.040449392
74	0x3e0e25f1	0.13881661
75	0xbcd1bd36	-0.025602918
76	0x3e0be596	0.13661799
77	0x3dc46ce7	0.09591084
78	0x3db723f8	0.08942407
79	0x3c36fa54	0.011168081
80	0x3e1d66d6	0.1537126
81	0x3d9c5dce	0.07635079
82	0x3d9170ee	0.07101618
83	0xbd7c04c3	-0.06152798
84	0x3e040ee0	0.128963
85	0x3d8be5ce	0.06830941
86	0x3c06f9a1	0.008238227
87	0x3e2d52ba	0.16926089
88	0x3dd4cc66	0.103905484
89	0xbc8204cb	-0.015871426
90	0xbd74528e	-0.059649043
91	0xbbb86ba0	-0.0056280643
92	0x3d86c3fd	0.065803505
93	0xbcf6b3a0	-0.030114949
94	0xbd89b6a4	-0.06724289
95	0xbd254dac	-0.040357277
96	0xbdb45036	-0.088043615
97	0x3d2c272a	0.042029537
98	0x3dbad259	0.09122152
99	0xbde33a15	-0.11095063
100	0x3cdfacdf	0.027304111
101	0x3d79285a	0.060829498
102	0x3caf5d6b	0.02140685
103	0xbd2bcb58	-0.04194197
104	0x3d7bd580	0.061482906
105	0x3d7d8630	0.06189555
106	0x3d341464	0.04396476
107	0xbcaa932f	-0.020822136
108	0x3c5ddc87	0.013541347
109	0x3d84e988	0.06489855
110	0x3c76ab63	0.01505551
111	0x3d02af44	0.031905428
112	0x3e1d1f96	0.1534408
113	0x3e1e4367	0.154554
114	0x3d26d1c6	0.0407274
115	0x3d278b5b	0.040904384
116	0x3d26f757	0.040763225
117	0xbd4445e7	-0.047918227
118	0xbc8c18d9	-0.017101692
119	0xbc202abf	-0.009775816
120	0xbe210e54	-0.15728122
121	0xbdd5d534	-0.10441056
122	0x3d4983e5	0.04919805
123	0xbad5b478	-0.0016304394
124	0xbd775393	-0.060382437
125	0xbdf13ecb	-0.11779555
126	0xbd392e76	-0.045210324
127	0xbd972dee	-0.07381807
128	0xbc26ce1b	-0.010180975
129	0x3da59016	0.08084123
130	0x3dfc72dd	0.12326596
131	0x3dc5c8a8	0.09657413
132	0xbd767288	-0.06016782
133	0xbc9f17af	-0.019420473
134	0x3cc66d75	0.024222115
135	0x3daa97c3	0.083297275
136	0xbc7cbe63	-0.015426251
137	0xbd769647	-0.06020191
138	0x3b9c601f	0.0047722007
139	0xbdc10113	-0.09424033
140	0xbdf068d2	-0.11738743
141	0x3d2774f8	0.040883034
142	0xbdd2ff7e	-0.103026375
143	0xbd7f5603	-0.062337887
144	0xbdedbfc2	-0.116088405
145	0x3db9687f	0.09053134
146	0x3deb208c	0.11480817
147	0x3d38f823	0.045158517
148	0xbd96a1af	-0.073550574
149	0xbdcaf65b	-0.0991027
150	0xbdadfd5b	-0.08495589
151	0x3de2f446	0.11081748
152	0x3daa5a9b	0.08318063
153	0x3dbf49e7	0.09340268
154	0x3d6b7d1e	0.057492368
155	0x3d1046b8	0.035223693
156	0xbc1de41f	-0.009636908
157	0xbdc6a493	-0.09699359
158	0xbdd46ee9	-0.10372717
159	0xbdf01b52	-0.11723961
160	0x3d40d002	0.04707337
161	0xbd6b37d2	-0.05742628
162	0xbcc24bec	-0.023717843
163	0xbd8ae748	-0.06782395
164	0xbcafece0	-0.021475255
165	0xbda9e081	-0.08294774
166	0xbd9db534	-0.077005774
167	0x3d201f72	0.03909249
168	0xbd0f764e	-0.035024934
169	0x3d95005d	0.0727546
170	0xbd1adc38	-0.037807673
171	0xbdb1102e	-0.08645664
172	0xbcaa6066	-0.02079792
173	0xbd69f540	-0.057118654
174	0xbd13a793	-0.036048483
175	0xbde5cd73	-0.11220827
176	0x3d8700fd	0.065919854
177	0xbda80223	-0.082035325
178	0x3d729be4	0.0592307
179	0x3d5b271f	0.053504106
180	0x3d967bbe	0.07347821
181	0xbdc4eb73	-0.09615221
182	0x3dc1fb45	0.09471754
183	0xbd8e79c7	-0.06956821
184	0x3d14f622	0.036367543
185	0x3de7e711	0.11323369
186	0xbce33432	-0.02773485
187	0xbb2c86d0	-0.0026325472
188	0xbcc428de	-0.023945268
189	0xbdccaaf9	-0.09993548
190	0x3d5c7402	0.05382157
191	0xbe000532	-0.12501982
192	0x3d9644b6	0.07337324
193	0x3dafb25b	0.085789405
194	0x3dd9a140	0.10626459
195	0xbcf3aa40	-0.029744267
196	0xbdd259f2	-0.10271062
197	0x3c9e98bf	0.019359944
198	0x3d95851f	0.073007815
199	0xbddd475a	-0.10804625
200	0xbc497bd5	-0.01229759
201	0xbd84cf6d	-0.06484876
202	0xbb54174d	-0.003236252
203	0xbd3dc231	-0.046327773
204	0xbd2e09f2	-0.042489953
205	0xbcec47a6	-0.028842758
206	0xbdd0534e	-0.10172139
207	0x3dd472af	0.10373437
208	0x3dd554d6	0.10416572
209	0xbc810947	-0.015751494
210	0xbbcfab64	-0.00633757
211	0xbd2f11a7	-0.042741444
212	0xbdd4d668	-0.10392457
213	0xbddd72f8	-0.10812944
214	0x3d475788	0.04866746
215	0xbd7bf3b2	-0.061511703
216	0xbd9b2b9d	-0.07576678
217	0xbc17544d	-0.0092364075
218	0xbd215ffc	-0.03939818
219	0xbd1c26bc	-0.038122877
220	0x3b755070	0.0037431978
221	0xbcceb25e	-0.025231536
222	0xbd262e73	-0.04057164
223	0xbd67413d	-0.0564587
224	0xbdc50f91	-0.0962211
225	0x3db85020	0.08999658
226	0xbd5e9b00	-0.05434704
227	0x3cc7f4a7	0.024408652
228	0xbd4d7e6a	-0.050169386
229	0x3ac9bb8c	0.0015390976
230	0x3dd109de	0.1020696
231	0x3d3a6bec	0.04551308
232	0xbde10c51	-0.10988677
233	0x3d20153f	0.03908276
234	0x3de51bc1	0.11186934
235	0x3cfdfd84	0.031004675
236	0x3da1d029	0.079010315
237	0x3dedf3f3	0.11618795
238	0xbc93eed0	-0.01805821
239	0x3cc86174	0.024460532
240	0xbda7c0c8	-0.08191067
241	0xbcc6f450	-0.02428642
242	0x3db2bf25	0.08727864
243	0x3d77794f	0.060418423
244	0xbd98bab0	-0.07457483
245	0xbdc186c2	-0.09449531
246	0xbda4eee5	-0.08053378
247	0xbdee2edb	-0.11630031
248	0xbdba3e24	-0.09093884
249	0xbceebf9c	-0.0291441
250	0x3da2debf	0.07952642
251	0x3ca1a2a4	0.019730873
252	0xbdb743c9	-0.08948476
253	0xbdbf186f	-0.09330832
254	0x3d7b9f07	0.061430957
255	0xbdb3aab3	-0.08772793

conv_2.bias f4 [16]
0	0x3cfe4afd	0.031041617
1	0x3b9ce358	0.0047878437
2	0x3dbb8735	0.09156648
3	0xbd8478e0	-0.064683676
4	0xbd0862c8	-0.03329733
5	0x3dc3705f	0.095429175
6	0x3a068f17	0.00051330164
7	0x3e586de9	0.21135677
8	0xbd62e3e6	-0.055393122
9	0x3bfbe219	0.007686865
10	0xbc523b62	-0.012831541
11	0xbd34bd8e	-0.044126086
12	0x3d92cd63	0.07168081
13	0x3da08439	0.078377195
14	0xbe164b00	-0.14677048
15	0xbcca8bf7	-0.024724944

conv_3.weight f4 [32, 16, 3, 3]
0	0xbd186dad	-0.03721397
1	0x3c0c13a5	0.0085496055
2	0xbc1b2277	-0.009468666
3	0xbda7e911	-0.08198751
4	0xbc6c1560	-0.014409393
5	0xbbf9c5a5	-0.007622438
6	0xbcc4f404	-0.024042137
7	0x3d9e5a81	0.07732106
8	0xbc9057a5	-0.017619917
9	0x3d2280ca	0.039673604
10	0xb93528ab	-0.00017276655
11	0xbdc7c80b	-0.09754952
12	0x3c6d6a80	0.014490724
13	0x3d5d640a	0.054050483
14	0xbda1115b	-0.078646384
15	0xbd5eec0e	-0.054424338
16	0x3da3efa0	0.08004689
17	0x3d6ccb1e	0.057810895
18	0xbd45f6d1	-0.048331086
19	0x3d477434	0.048694804
20	0xbc4c8f65	-0.01248536
21	0xbdab694a	-0.08369692
22	0x3ba900e3	0.0051575764
23	0x3cd1857c	0.025576346
24	0xbcd0a1ef	-0.025467841
25	0x3ce5014c	0.02795472
26	0xbd947237	-0.07248347
27	0x3d6cf6c9	0.05785254
28	0x3d918a5f	0.0710647
29	0x3d3bea0f	0.045877513
30	0x3c6c078d	0.014406097
31	0x3ce1c11e	0.027557906
32	0xbd76faf3	-0.060297918
33	0xbca6dba7	-0.02036841
34	0xbbfe432c	-0.0077594724
35	0xbd3d7d5c	-0.04626213
36	0xbd746874	-0.059669927
37	0x3d68f917	0.056878176
38	0x3d666d6a	0.05625669
39	0xbd93ff64	-0.07226446
40	0x3ced5645	0.0289718
41	0x3d101ca0	0.03518355
42	0x3daa5ad8	0.08318108
43	0x3d5618b2	0.052269645
44	0x3da2734c	0.079321474
45	0xbcd04cad	-0.025427187
46	0x3d777162	0.060410865
47	0x3d905fb9	0.07049508
48	0xbd9e076f	-0.077162616
49	0xbd858d7d	-0.065211274
50	0x3ca388cd	0.019962693
51	0x3d3a4683	0.0454774
52	0xbd249395	-0.040179808
53	0x3c4020e0	0.011726588
54	0x3a74fcb4	0.0009345517
55	0x3cb48d99	0.022040175
56	0xbd35aa70	-0.044351995
57	0x3d475dbb	0.048673373
58	0x3d6a4932	0.05719871
59	0xbd68a205	-0.05679514
60	0x3b07369a	0.002063191
61	0x3b02039a	0.0019838572
62	0x3ce748f0	0.028233021
63	0x3da4ac78	0.08040708
64	0x3cd598e0	0.026073873
65	0xbc8a3d0e	-0.016874816
66	0x3d9d1dee	0.07671724
67	0xbce61d08	-0.028090015
68	0xbca5b781	-0.020229103
69	0x3b77f8d5	0.0037837524
70	0xbd813815	-0.06309525
71	0x3c54948a	0.012974868
72	0xbd771e0b	-0.060331386
73	0xbbe860f9	-0.007091638
74	0xbc5aa5cf	-0.013345196
75	0x3ce11e81	0.027480366
76	0xbd9d5067	-0.07681351
77	0xbdd06b6c	-0.10176739
78	0x3d89a8f1	0.06721676
79	0x3dca372e	0.09873806
80	0xbd8919af	-0.06694352
81	0x3cf4804a	0.02984633
82	0xbd7f465d	-0.062322963
83	0x3b2b373a	0.0026125447
84	0x3d9d5c29	0.07683594
85	0x3d80a0e9	0.06280691
86	0xbd809c3d	-0.062798
87	0x3d57c2fd	0.05267619
88	0x3d2c64c5	0.04208829
89	0xba2aff8f	-0.00065230665
90	0x3da7f2e8	0.082006276
91	0xbd052607	-0.03250697
92	0xbc9c6c8f	-0.019094734
93	0xbd2601b3	-0.040528964
94	0x3c5ca590	0.013467208
95	0x3cbdb5b1	0.023157926
96	0x3c02fc45	0.007994716
97	0xbd39bdba	-0.045346953
98	0xbd1430aa	-0.036179222
99	0x3c6e7b37	0.014555744
100	0xbdc91702	-0.098188415
101	0xbd4844f0	-0.04889387
102	0x3a7e29c2	0.00096955535
103	0xbd45477e	-0.048163883
104	0xbb19ba70	-0.0023457073
105	0x3c807239	0.015679466
106	0x3d85a62b	0.06525835
107	0xbc7739cc	-0.015089463
108	0xbd56d8ad	-0.052452732
109	0x3d7257f6	0.059165917
110	0x3c40a7ca	0.011758754
111	0xbcc127b8	-0.02357851
112	0xbd602aec	-0.054728433
113	0x3ca0f971	0.019650193
114	0xbda1dae5	-0.07903079
115	0x3cb624af	0.022234289
116	0x3d29acdb	0.041424613
117	0xbd93b48a	-0.072121695
118	0xbd541ee7	-0.051787283
119	0xbd6b7310	-0.05748278
120	0x3d8e984a	0.069626406
121	0x3d94d467	0.07267075
122	0x3c097649	0.008390018
123	0x3da12fd7	0.07870453
124	0xbceeebc4	-0.029165156
125	0xbda654fc	-0.08121678
126	0x3cf60add	0.030034477
127	0x3cc77dae	0.024351921
128	0x3d939ba2	0.07207419
129	0x3be46949	0.006970559
130	0x3d854fe0	0.065093756
131	0x3d354716	0.044257246
132	0x3d8ad746	0.067793414
133	0xbd992734	-0.074781805
134	0x3d91d558	0.0712077
135	0xbd911c78	-0.07085508
136	0x3d9adc0e	0.07561503
137	0xbb4a92c5	-0.0030910235
138	0xbd97d14c	-0.07412967
139	0x3cc557ed	0.024089778
140	0xbc861c42	-0.016370896
141	0xbd981998	-0.074267566
142	0xbd0121c0	-0.031526327
143	0x3bf7004b	0.0075378767
144	0x3d8601ad	0.065432884
145	0xbccd0061	-0.025024595
146	0x3d4ddad0	0.050257504
147	0x3c326527	0.010888374
148	0x3b4fa053	0.0031681254
149	0x3c8974b6	0.016779285
150	0xbd5ecb7f	-0.054393288
151	0xbd8d6692	-0.06904329
152	0xbcd11520	-0.025522768
153	0xbdd08232	-0.10181083
154	0xbd216736	-0.03940507
155	0x3d082c53	0.033245396
156	0xbda4e376	-0.08051197
157	0xbcbe0dd7	-0.023199959
158	0x3d042769	0.032264147
159	0xbc92b3a5	-0.017907927
160	0xbc9add98	-0.018904492
161	0x3d4ff356	0.050769173
162	0xbc33aabb	-0.010965998
163	0x3cd31804	0.025768287
164	0x3ba18262	0.004928873
165	0xbd29014a	-0.041260995
166	0xbcc91808	-0.024547592
167	0x3aa6fe0c	0.0012740507
168	0xbd575eac	-0.05258052
169	0x3c3132ff	0.010815381
170	0xbb7ac1a9	-0.0038262403
171	0x3d061231	0.032732192
172	0x3ca845b7	0.020541055
173	0x3d80e318	0.06293315
174	0xbb25a925	-0.002527782
175	0xbd7864cb	-0.060643
176	0x3d1b312f	0.037888702
177	0xbd65db96	-0.056117617
178	0xbc2b122f	-0.010441347
179	0xbcd6b9ff	-0.026211737
180	0xbd07f491	-0.03319222
181	0xbcdd37cb	-0.027004143
182	0x3da8d1de	0.08243154
183	0x3d41c03f	0.04730248
184	0x3cf59405	0.029977808
185	0x3daeb227	0.085300736
186	0xbd9604cd	-0.073251344
187	0x3ca03afc	0.019559376
188	0x3d6f7cf1	0.058468763
189	0x3d84adf0	0.064784884
190	0xbd6e5bf8	-0.058193177
191	0x3d0b38c6	0.03398969
192	0xbd0aad78	-0.03385684
193	0x3be8ce10	0.0071046427
194	0xbc9a00d7	-0.018799229
195	0xbd61b0ef	-0.055100378
196	0xbd972da1	-0.0738175
197	0xbd80735d	-0.06272004
198	0x3d193b5a	0.037410118
199	0x3d1e2d17	0.03861722
200	0xbd93391f	-0.07188629
201	0xbd017e32	-0.03161449
202	0x3ae61f36	0.0017556909
203	0xbd925469	-0.07145006
204	0x3d3fccea	0.04682628
205	0x3d9aa16a	0.075503185
206	0x3c76c257	0.015060983
207	0xbd55cf8c	-0.052199885
208	0x3cbca8cb	0.023029706
209	0x3cd83fd6	0.026397627
210	0x3d9ef14b	0.07760867
211	0xbd2a742c	-0.041614696
212	0xbdaedd33	-0.08538284
213	0x3d3751ae	0.04475563
214	0x3abba66e	0.0014316568
215	0xbd2f9879	-0.04287002
216	0xbe03bde9	-0.12865414
217	0xbdae8c93	-0.08522906
218	0x3db3abfc	0.08773038
219	0xbdead098	-0.11465567
220	0x3d2f79ef	0.042840894
221	0x3dfa596e	0.122240886
222	0xbd70cfc3	-0.058791887
223	0x3cb95c88	0.02262713
224	0x3d030e68	0.03199616
225	0x3d561038	0.05226156
226	0xbd91795d	-0.07103226
227	0x3d24c164	0.040223494
228	0xbc92aa02	-0.017903332
229	0x3d4fc579	0.050725434
230	0x3c6e3716	0.014539501
231	0xbd033147	-0.032029416
232	0x3c32c919	0.010912203
233	0x3d6fc682	0.05853892
234	0xbd5f4dd6	-0.05451759
235	0xbd42cd99	-0.047559354
236	0xbc635ac7	-0.0138766235
237	0xbccc927a	-0.02497219
238	0x3d21476b	0.03937475
239	0x3d79b66c	0.060964987
240	0xbb63240f	-0.0034658944
241	0x3daba994	0.08381954
242	0xbd04e3b8	-0.032443732
243	0xbda6f4fb	-0.08152195
244	0xbd3f3721	-0.046683434
245	0xbc89d466	-0.016824912
246	0xbdc4a06e	-0.09600912
247	0xbd8cec1e	-0.06880973
248	0xbb797cf9	-0.0038068874
249	0x3c02bb51	0.00797923
250	0x3db112ba	0.0864615
251	0x3e1c5386	0.15266237
252	0x3d941f9c	0.072325915
253	0xbb161e01	-0.0022906067
254	0x3c8d8fb2	0.017280433
255	0xbd4765aa	-0.04868094

conv_3.bias f4 [32]
0	0xbdac5dbb	-0.08416315
1	0xbd86e8ed	-0.06587396
2	0x3d686f32	0.05674667
3	0x3c0b5e5c	0.008506384
4	0xbd47daf1	-0.048792783
5	0xbc2bbb47	-0.010481662
6	0xbd5e0acf	-0.054209527
7	0xbc5dcbdd	-0.013537374
8	0xbdaa5296	-0.08316533
9	0xbd51b229	-0.051195297
10	0x3d05e3ee	0.032688074
11	0x3d4ecd55	0.05048879
12	0x3c382eb5	0.011241605
13	0xbc8e7fe8	-0.017394975
14	0x3dc07b64	0.09398535
15	0x3ded861b	0.11597844
16	0x3d17e4f7	0.037083592
17	0x3ca3753a	0.019953359
18	0xbcc6b9bf	-0.024258493
19	0x3d608863	0.05481757
20	0x3ce0f961	0.027462663
21	0x3d78c5e0	0.060735583
22	0x3dbf4893	0.09340014
23	0xbd12d565	-0.03584804
24	0x3dd00a05	0.10158161
25	0x3dcb2888	0.0991984
26	0x3d0f98f8	0.03505799
27	0x3de80be2	0.113303915
28	0x3cfcd47e	0.030863043
29	0x3cd7bd9e	0.026335534
30	0x3d303229	0.043016586
31	0xbd26bfd9	-0.040710304

linear_1.weight f4 [1, 25088]
0	0xbbc2bc38	-0.0059428476
1	0xbba46f92	-0.005018183
2	0xbbbc5e5a	-0.0057485523
3	0x3b29feb7	0.0025939175
4	0xbb829e46	-0.003986153
5	0x3be68c76	0.007035787
6	0xbb8c1dcd	-0.0042760135
7	0xbc695ba9	-0.014243045
8	0xb9c3ac85	-0.00037321835
9	0x3aaede00	0.0013341308
10	0x3bee808d	0.007278508
11	0x3c3516c5	0.011052792
12	0x3bdb0ee4	0.0066851247
13	0x3c31521e	0.010822801
14	0x3c034452	0.008011894
15	0x3ba28de6	0.0049607633
16	0x3c8aef31	0.016959758
17	0x3c62d36c	0.013844352
18	0x3b33dc71	0.0027444626
19	0xba49cbe9	-0.00076979265
20	0xbb1fca37	-0.0024382004
21	0xbba88682	-0.0051429877
22	0x3c2a42ad	0.010391873
23	0xbbf5c8a3	-0.0075007244
24	0xbafe4e0a	-0.001940192
25	0xba1ed5a1	-0.0006059055
26	0xbb18662a	-0.0023254254
27	0xbc2bf836	-0.01049619
28	0xbbcbeb8b	-0.0062231473
29	0x3b3b3afa	0.0028569088
30	0xb87af504	-5.9832833e-05
31	0xbb148318	-0.0022661146
32	0x3be082bc	0.0068515223
33	0x3bd2500b	0.0064182333
34	0x3c5468eb	0.0129644675
35	0x3c2c430f	0.010514035
36	0x3bf0aebf	0.00734505
37	0xbbb827c3	-0.0056199743
38	0xbbc2973d	-0.005938439
39	0xbc29c1d2	-0.010361152
40	0xbc418b6a	-0.011813024
41	0xbb791235	-0.0038005237
42	0xbbd119c6	-0.0063812463
43	0xbc02de9f	-0.007987647
44	0xbc8e2b65	-0.017354676
45	0xba211fb0	-0.00061463844
46	0x3c01f42a	0.007931748
47	0x3b763852	0.003757019
48	0xbbe17dc3	-0.006881447
49	0xbb8f1e4a	-0.0043676244
50	0xbc514c80	-0.012774587
51	0x3b9da029	0.0048103523
52	0xba34048a	-0.00068671315
53	0xbafa717d	-0.0019107308
54	0x3aae5ae4	0.0013302234
55	0xbab16bd4	-0.0013536164
56	0xbba59ce8	-0.005054105
57	0xbbd7bf6a	-0.0065840976
58	0xbbe5f519	-0.0070177433
59	0xbb90697a	-0.004407105
60	0x3b08be61	0.0020865428
61	0x3abaffb6	0.0014266882
62	0x3c414d64	0.0117982365
63	0x3c94bde0	0.018156946
64	0x3c7b8fff	0.015354156
65	0x3c126623	0.008935484
66	0x3c6abb82	0.014326932
67	0x3b3fb533	0.002925229
68	0xbbb0ba50	-0.005393304
69	0x3a9830d9	0.0011611237
70	0x3c2a7a69	0.010405161
71	0x3c6e96f4	0.014562357
72	0xbc0604eb	-0.0081798835
73	0x3be50ac4	0.0069898088
74	0xbb991078	-0.0046711527
75	0xbbe5e89e	-0.0070162555
76	0x3b4561ed	0.0030118183
77	0x3c4a5ceb	0.012351255
78	0xba8c5b50	-0.0010708366
79	0x3b8c8c21	0.0042891656
80	0x3c64d726	0.013967311
81	0x3be450d1	0.006967642
82	0x3b8234e9	0.0039735925
83	0xba887053	-0.0010409452
84	0xbbb024a3	-0.005375461
85	0x3b9aa471	0.00471931
86	0xbb457de5	-0.0030134853
87	0xbbc3f5a5	-0.005980211
88	0x3babf622	0.005247847
89	0x3b9aae86	0.004720512
90	0x3bf9d44f	0.007624186
91	0x39c21bf4	0.0003702339
92	0x3c81ce6a	0.015845496
93	0x3b950049	0.004547153
94	0x3c0c0207	0.008545405
95	0x3c08ffc2	0.008361759
96	0xbb8ede43	-0.0043599918
97	0xbb20a7a0	-0.0024513975
98	0x3b39e75a	0.0028366656
99	0x3c23c7fb	0.0099964095
100	0x3cb38157	0.02191226
101	0x3a003518	0.0004890724
102	0xbbe38388	-0.00694317
103	0xbc235999	-0.009970092
104	0xbc94f7c6	-0.018184554
105	0xbb9c71f0	-0.0047743246
106	0x3c46cdc1	0.0121340165
107	0xbbc28321	-0.005936042
108	0x3b731c1d	0.0037095614
109	0xbb66aebf	-0.0035199372
110	0xbc145a1e	-0.009054689
111	0xbcb1ed6f	-0.021719662
112	0xbc6328d3	-0.013864714
113	0xbc99141b	-0.018686345
114	0xbb972530	-0.0046125874
115	0xbc3ea348	-0.011635609
116	0xbbbabb1a	-0.005698574
117	0x3aef474b	0.00182555
118	0x3c251e49	0.010078021
119	0x3b7bf9ba	0.003844841
120	0x3c1b7e01	0.009490491
121	0x3c717cc8	0.014739223
122	0x3a878ae8	0.001034108
123	0x3aac73d1	0.0013157075
124	0x3be7bfd5	0.0070724287
125	0x3c259cba	0.010108167
126	0xbbc5814c	-0.0060273763
127	0xbc68c684	-0.014207486
128	0x38a5459a	7.8807774e-05
129	0x3c7ce8e2	0.015436383
130	0xbbce31c8	-0.0062925555
131	0xbb37865f	-0.0028003675
132	0xbc29f49f	-0.010373264
133	0xbc9784d9	-0.018495964
134	0x3c2f8474	0.010712732
135	0x3b6eabca	0.0036418312
136	0x3bdc20cc	0.006717777
137	0xbc0033c4	-0.007824842
138	0xbbf17c32	-0.0073695416
139	0xbbaccf3f	-0.005273729
140	0x3c1a4e13	0.009418028
141	0x3be0dbfb	0.006862161
142	0x3ad84aa1	0.0016501733
143	0xbb91f892	-0.0044546807
144	0x3b9a35f0	0.004706137
145	0x3c1e8ad1	0.009676651
146	0x3c01786b	0.007902245
147	0x3c0e3c05	0.008681302
148	0x3be76f31	0.0070628156
149	0x3bc8c3f6	0.006126876
150	0x3bea91ed	0.007158509
151	0xbaf69627	-0.001881306
152	0xbbf09132	-0.0073415274
153	0xbbe048e4	-0.0068446267
154	0x3a6e9ef0	0.0009102663
155	0x3b505dbc	0.0031794151
156	0x3b93b034	0.004507089
157	0xbc2aef63	-0.010433051
158	0xbc1cfc7b	-0.00958168
159	0x3abeb9c3	0.0014551211
160	0x3c406db0	0.011744902
161	0x3b31da98	0.0027138349
162	0xbbca9b28	-0.006183047
163	0x395e3575	0.00021191484
164	0x3bc0d68a	0.00588495
165	0x3c407bc1	0.011748255
166	0x3ba050a3	0.004892425
167	0x3c1700d6	0.009216508
168	0x3ba71d20	0.0050999075
169	0x3c401004	0.011722568
170	0x3c745535	0.014912893
171	0x3bf8d604	0.007593872
172	0x3b1d5269	0.002400542
173	0x3adcb714	0.001683923
174	0xbb24e360	-0.002515994
175	0xba167a3f	-0.0005740262
176	0xbaa1151e	-0.0012289619
177	0x3b67e491	0.003538404
178	0xbc09bdbe	-0.0084070545
179	0xbbd43c4f	-0.006476916
180	0xbb25ca2f	-0.0025297513
181	0xbca8533b	-0.0205475
182	0xbaa19522	-0.001232777
183	0x3c8f4eb6	0.017493587
184	0x3bf3bb1f	0.007438078
185	0xbc8a4612	-0.016879115
186	0xbcd0d5b5	-0.025492528
187	0xbb934d23	-0.0044952794
188	0x3c8d2167	0.017227842
189	0x3cbe9dcf	0.023268608
190	0x3c38bbfe	0.01127529
191	0xbc33a77f	-0.010965227
192	0x3bfe408f	0.007759161
193	0x3c81d692	0.015849385
194	0x3bad9fd2	0.005298593
195	0xbba08c94	-0.0048995707
196	0xbb95f6ce	-0.0045765406
197	0x3b60bcb8	0.0034292173
198	0x3b996b8f	0.0046820114
199	0x3747847b	1.189217e-05
200	0x3b8c33e5	0.0042786472
201	0xba8ce942	-0.0010750669
202	0xbbb55771	-0.0055341055
203	0xbcba7884	-0.022762544
204	0xbc9ef2d4	-0.019402899
205	0xba62bd01	-0.00086493796
206	0xbc1f871e	-0.009736804
207	0xbc0ccf4b	-0.008594344
208	0x3cbda6b4	0.02315078
209	0x3ca613fb	0.0202732
210	0xbb27ae2b	-0.002558599
211	0x3abf155d	0.001457851
212	0x3c05a9fd	0.008158204
213	0x3c8ce0ea	0.017197091
214	0x3b52d45f	0.003217004
215	0xbcc52b41	-0.024068477
216	0xbb868179	-0.00410479
217	0x3d10c179	0.03534076
218	0x3ceb157c	0.028696768
219	0x3c90c856	0.017673653
220	0xbbf687cb	-0.007523512
221	0x3bf7b471	0.007559352
222	0x3c490da1	0.012271316
223	0x3bae6b75	0.0053228685
224	0x3ad94185	0.0016575312
225	0x39b49b00	0.0003444776
226	0x3c2d7b99	0.01058855
227	0x3b8c1f6f	0.004276208
228	0x3873043c	5.793966e-05
229	0x3bb54742	0.0055321762
230	0xbbb64d91	-0.005563446
231	0xbcad3b14	-0.021146335
232	0xbcb4da9c	-0.022076897
233	0xbbe81402	-0.0070824632
234	0xbb6065eb	-0.0034240435
235	0xbc706454	-0.014672358
236	0xba856e3f	-0.0010179951
237	0xbace1111	-0.0015721639
238	0xbc079cb3	-0.008277106
239	0x3bcc36de	0.0062321266
240	0xbc36ef9e	-0.011165528
241	0x3abedd26	0.0014561757
242	0x3cb16a25	0.021657059
243	0x39ec2612	0.00045041792
244	0xbc18d26f	-0.009327515
245	0xbad689ca	-0.0016367969
246	0x3bb31c66	0.005466032
247	0x3cab617e	0.020920511
248	0x3b2d07ca	0.0026402348
249	0xbc3ffda3	-0.011718187
250	0xbbc14833	-0.0058984994
251	0xbb9108a0	-0.004426077
252	0x3b82e39b	0.003994418
253	0xbb691310	-0.003556434
254	0xba647757	-0.0008715293
255	0x3bb3d457	0.0054879594
