models/new_1/ConvNet_13.pth (torch, 127524 bytes, 7 tensors)

conv_1.weight f4 [8, 1, 3, 3]
0	0x3ed57209	0.41688564
1	0x3ee0496a	0.4380601
2	0x3d8413c8	0.064490855
3	0x3eef2645	0.46708885
4	0x3dc9e4c9	0.098580904
5	0x3e5ca9c3	0.21549134
6	0xbd160cbe	-0.036633246
7	0x3eab13fd	0.33413687
8	0x3ed90f59	0.42394522
9	0xbd87c2c5	-0.06628946
10	0x3eef3097	0.4671676
11	0x3e7c88e9	0.24661602
12	0x3ed5452d	0.4165434
13	0x3e6b32d1	0.22968604
14	0x3eb55356	0.35415143
15	0x3dedf64a	0.116192415
16	0x3ede2d98	0.4339416
17	0x3e7f78bd	0.24948402
18	0xbe1f5918	-0.1556133
19	0x3dae02b4	0.08496609
20	0xbe1d43c8	-0.15357888
21	0xbd201dd8	-0.03909096
22	0xbe0aa2a8	-0.13538611
23	0x3e626e3e	0.22112367
24	0xbe86b81c	-0.2631234
25	0xbe1d5bb3	-0.15367012
26	0xbdc0c490	-0.09412491
27	0xbe4d2abd	-0.20035835
28	0x3d012b1f	0.031535264
29	0xbea88e8d	-0.32921258
30	0x3e9a49f9	0.30134562
31	0xbe90e7ab	-0.2830175
32	0x3e83be5f	0.2573118
33	0x3d635499	0.0555006
34	0xbddd627d	-0.10809801
35	0x3e531a2c	0.20615453
36	0x3e857dff	0.2607269
37	0x3ef0cdc4	0.47031987
38	0x3e6c2814	0.23062164
39	0x3dd6a6bb	0.1048102
40	0x3e99a038	0.3000505
41	0x3ded5c98	0.115899265
42	0x3e9e77fa	0.3095091
43	0x3ef150c1	0.47131923
44	0x3ebf47e2	0.3735953
45	0xbe64c3c7	-0.22340308
46	0x3dfdcbb0	0.12392366
47	0x3b95312d	0.0045529814
48	0x3d94f017	0.07272356
49	0xbea1f333	-0.3163086
50	0xbedc9361	-0.4308119
51	0xbe76f9b7	-0.24118696
52	0xbebdf3dd	-0.37100115
53	0x3e4142ab	0.18873088
54	0x3e5e079b	0.21682589
55	0x3e89429c	0.2680863
56	0x3e5e3dbc	0.21703237
57	0x3dfa1169	0.12210352
58	0x3eca9afd	0.39571372
59	0xbe001bdf	-0.12510632
60	0x3e010609	0.12599958
61	0xbded5667	-0.115887456
62	0x3e4d6bae	0.20060608
63	0xbe8540e2	-0.26026064
64	0xbcea868b	-0.028628608
65	0xbe402ada	-0.18766347
66	0x3e0d0d06	0.137745
67	0xbea8adce	-0.32945102
68	0xbea0b080	-0.3138466
69	0xbea59882	-0.32342917
70	0x3e41dfad	0.18932982
71	0x3c88d1ca	0.016701598

conv_1.bias f4 [8]
0	0xbd96e70f	-0.0736829
1	0xbe2e4bca	-0.17021099
2	0xbea947bb	-0.33062539
3	0xbe856d1b	-0.26059803
4	0xbe410f7f	-0.18853568
5	0x3ea5a172	0.32349735
6	0xbc570b8e	-0.013125313
7	0x3ea1f09f	0.31628892

conv_2.weight f4 [16, 8, 3, 3]
0	0xbd785e95	-0.060637075
1	0xbda48c77	-0.08034604
2	0x3d80f284	0.06296256
3	0xbd418ba4	-0.047252312
4	0x3d92a665	0.071606435
5	0xbce54377	-0.027986271
6	0x3d8cd3ad	0.068763115
7	0xbdbb2688	-0.09138209
8	0xbd7386c7	-0.059454706
9	0x3cfe3381	0.031030418
10	0x3ca5d211	0.020241769
11	0xbd0a4b75	-0.033763368
12	0x3d873f0c	0.06603822
13	0x3d9c3af2	0.076284304
14	0xbdb52511	-0.088449605
15	0xbd87cf9e	-0.06631397
16	0x3dd6b973	0.104845904
17	0xbd2db345	-0.042407293
18	0xbd2b21ac	-0.04178016
19	0xbde989ac	-0.11403212
20	0xbd8a381c	-0.06748983
21	0x3cf12b6c	0.02943965
22	0xbc7edcb0	-0.015555546
23	0xbdaf32ff	-0.085546486
24	0x3b352ae0	0.0027643964
25	0xbda4de32	-0.08050193
26	0xbdccc4ad	-0.099984504
27	0xbd84e998	-0.06489867
28	0xbdd33e1b	-0.1031458
29	0xbd99afc4	-0.07504228
30	0x3df14f81	0.11782742
31	0x3cb68726	0.02228124
32	0x3d14e3d7	0.036350098
33	0xbde11609	-0.10990531
34	0xbd9e8531	-0.07740248
35	0xbd20a93e	-0.039223902
36	0x3ca1d4c9	0.019754784
37	0xbdd34b80	-0.10317135
38	0xbd4fd5f5	-0.050741155
39	0xbd8eb40f	-0.06967937
40	0x3a561b84	0.00081675523
41	0xbd339b3b	-0.04384921
42	0xbbe12606	-0.006870988
43	0xbda21573	-0.07914247
44	0xbda48474	-0.08033076
45	0xbd7e222d	-0.06204431
46	0xbd0a6f28	-0.033797413
47	0xbdb1e947	-0.08687072
48	0x3dd87f02	0.105711
49	0xbc8aab0a	-0.01692726
50	0x3ddcd8c1	0.1078353
51	0x3d2c3838	0.042045802
52	0xbdc2c07a	-0.09509368
53	0x3db10ba1	0.08644796
54	0xbd065ebc	-0.03280519
55	0xbd3aee56	-0.04563745
56	0xbdc98079	-0.09838957
57	0xbdf04def	-0.11733615
58	0x3d09c0da	0.033631183
59	0xbcd205ae	-0.025637474
60	0x3d3e1f5a	0.046416618
61	0xbdc49476	-0.09598629
62	0x3db50388	0.08838564
63	0xbdb269c4	-0.087115794
64	0xbca2e01a	-0.01988225
65	0x3ccdabe8	0.025106385
66	0x3d7a610c	0.061127707
67	0x3dc5579c	0.09635851
68	0x3dde06b2	0.10841121
69	0xbdc1a155	-0.094546
70	0x3cf1027c	0.02942013
71	0xbd51368e	-0.051077418
72	0x3cf31fdc	0.029678278
73	0xbcba29f3	-0.022725081
74	0x3e0d4813	0.13797025
75	0x3ab90ef6	0.0014118839
76	0x3e33e5b2	0.1756809
77	0x3de9791e	0.114000544
78	0x3dd3de88	0.10345179
79	0x3d295c0e	0.041347556
80	0x3e2cfbb3	0.1689289
81	0x3dacd3ee	0.0843886
82	0x3dae3365	0.085058965
83	0xbd85a3fb	-0.065254174
84	0x3e1d3bad	0.15354796
85	0x3dcb2540	0.09919214
86	0x3c8eb0da	0.017418314
87	0x3e382f50	0.17986798
88	0x3dfe13bd	0.124061085
89	0xbc45efdd	-0.012081114
90	0xbd74528e	-0.059649043
91	0xbbb86ba0	-0.0056280643
92	0x3d86c3fd	0.065803505
93	0xbcf6b3a0	-0.030114949
94	0xbd89b6a4	-0.06724289
95	0xbd254dac	-0.040357277
96	0xbdb45036	-0.088043615
97	0x3d2c272a	0.042029537
98	0x3dbad259	0.09122152
99	0xbde3121e	-0.1108744
100	0x3cdfbe03	0.027312284
101	0x3d78f0fd	0.0607767
102	0x3cafcc74	0.021459796
103	0xbd2bc694	-0.041937426
104	0x3d7bb1af	0.06144875
105	0x3d7d75a5	0.061879773
106	0x3d33c504	0.04388906
107	0xbcaaee31	-0.020865532
108	0x3cc0fda3	0.023558443
109	0x3da71464	0.08158186
110	0x3c362f6e	0.011119707
111	0x3d690525	0.05688967
112	0x3e3d7803	0.18502812
113	0x3e24bdf7	0.16088091
114	0x3d4380fc	0.04773043
115	0x3d65fd2f	0.056149658
116	0x3d1c0e63	0.038099658
117	0xbd5aa334	-0.0533783
118	0xbcdc2a8e	-0.02687576
119	0xbc71fb7c	-0.014769431
120	0xbe2c4e82	-0.16826823
121	0xbdf855a3	-0.12125709
122	0x3d269a81	0.04067469
123	0xbc0bc58c	-0.008530986
124	0xbd90fc17	-0.07079332
125	0xbdfb970d	-0.1228467
126	0xbd00d899	-0.031456564
127	0xbd60819e	-0.054811113
128	0xbae9f21b	-0.0017848642
129	0x3ddabd80	0.106806755
130	0x3e2028e1	0.15640594
131	0x3df16b1f	0.1178801
132	0xbd1d0635	-0.038335998
133	0x3c3825ff	0.011239528
134	0x3d3bc09b	0.04583798
135	0x3da0997c	0.07841775
136	0xbcb71b58	-0.022351906
137	0xbd8350d5	-0.06411902
138	0xbc01583e	-0.007894574
139	0xbde39fbc	-0.11114451
140	0xbe01eb0b	-0.12687318
141	0x3cf3c1a1	0.029755415
142	0xbdf006c0	-0.117200375
143	0xbd8ced37	-0.06881183
144	0xbe00ae81	-0.12566568
145	0x3dad0e60	0.084500074
146	0x3de6e926	0.11274938
147	0x3d13e2bd	0.036104906
148	0xbda3e7cc	-0.08003196
149	0xbdd1c7cc	-0.10243186
150	0xbdbd8877	-0.09254544
151	0x3ddcc05b	0.107788764
152	0x3da8e5cd	0.08246956
153	0x3dbd01db	0.092288695
154	0x3d6dab24	0.05802454
155	0x3d200e9a	0.039076425
156	0xbc2e49d9	-0.010637724
157	0xbdc7ef54	-0.09762445
158	0xbdd12515	-0.10212151
159	0xbdeed1ea	-0.11661132
160	0x3d4bf1ec	0.04979126
161	0xbd5f5eb1	-0.054533664
162	0xbcc24bec	-0.023717843
163	0xbd8ae748	-0.06782395
164	0xbcafece0	-0.021475255
165	0xbda9e081	-0.08294774
166	0xbd9db534	-0.077005774
167	0x3d201f72	0.03909249
168	0xbd0f764e	-0.035024934
169	0x3d95005d	0.0727546
170	0xbd1adc38	-0.037807673
171	0xbdb110c9	-0.0864578
172	0xbcaa65fc	-0.020800583
173	0xbd69f56e	-0.057118826
174	0xbd13b3fa	-0.03606031
175	0xbde5cb81	-0.11220456
176	0x3d87055b	0.06592818
177	0xbda7f968	-0.08201867
178	0x3d72916f	0.059220728
179	0x3d5b36c1	0.053519014
180	0x3d8f82b8	0.070073545
181	0xbdc8c988	-0.09804064
182	0x3dc7ed9b	0.097621165
183	0xbd96b89a	-0.07359429
184	0x3d0e037e	0.0346713
185	0x3deeb747	0.11656051
186	0xbcff8acc	-0.031194113
187	0xbb0a8918	-0.0021138843
188	0xbca3a973	-0.01997826
189	0xbdced4de	-0.10099195
190	0x3d54f02b	0.051986855
191	0xbe033a0d	-0.12815113
192	0x3d964b72	0.07338609
193	0x3dad3e45	0.084591426
194	0x3dd4f367	0.10397988
195	0xbcef5f8a	-0.029220361
196	0xbdd3baf6	-0.10338394
197	0x3c92713d	0.017876262
198	0x3d960722	0.07325579
199	0xbdda1097	-0.106476955
200	0xbbfc9306	-0.0077079562
201	0xbd8356c7	-0.06413036
202	0xbadcbc07	-0.0016840704
203	0xbd2c5007	-0.042068508
204	0xbd2be67a	-0.041967846
205	0xbcd98a14	-0.026555099
206	0xbdc6dd8b	-0.09710225
207	0x3dda718f	0.10666191
208	0x3dd93ca3	0.10607269
209	0xbc794881	-0.01521504
210	0xbb39c739	-0.0028347506
211	0xbd2599ce	-0.040429883
212	0xbdd32679	-0.103100725
213	0xbdd571c5	-0.104220904
214	0x3d53ba2f	0.05169123
215	0xbd73cbc6	-0.059520505
216	0xbd9b206d	-0.07574544
217	0xbc1759d8	-0.009237729
218	0xbd214ebd	-0.03938173
219	0xbd1c142d	-0.03810518
220	0x3b751753	0.0037397936
221	0xbccea5eb	-0.0252256
222	0xbd260cd1	-0.040539566
223	0xbd673ca2	-0.05645431
224	0xbdc5282a	-0.09626801
225	0x3db0b023	0.086273454
226	0xbd6c9661	-0.0577606
227	0x3cbba226	0.022904467
228	0xbd59796d	-0.053094316
229	0xbab87c8c	-0.0014075204
230	0x3dce92e9	0.10086615
231	0x3d303f84	0.043029323
232	0xbde5f789	-0.11228854
233	0x3d1bb163	0.038010966
234	0x3de51bc1	0.11186934
235	0x3cfdfd84	0.031004675
236	0x3da1d029	0.079010315
237	0x3dedf3f3	0.11618795
238	0xbc93eed0	-0.01805821
239	0x3cc86174	0.024460532
240	0xbda7c0c8	-0.08191067
241	0xbcc6f450	-0.02428642
242	0x3db2bf25	0.08727864
243	0x3d7779a9	0.06041876
244	0xbd98b7bb	-0.07456919
245	0xbdc17a9c	-0.09447214
246	0xbda4ef23	-0.08053424
247	0xbdee2e86	-0.116299674
248	0xbdba3cf1	-0.09093655
249	0xbceebf3a	-0.029143918
250	0x3da2de6c	0.0795258
251	0x3ca1b159	0.019737886
252	0xbdb6993a	-0.089159444
253	0xbdbdad89	-0.09261615
254	0x3d830956	0.06398265
255	0xbdb31e4c	-0.08746013

conv_2.bias f4 [16]
0	0x3d07d673	0.0331635
1	0x3be51404	0.0069909114
2	0x3dc08fb2	0.09402408
3	0xbd872234	-0.065983206
4	0xbd19eb41	-0.03757787
5	0x3ddb8a29	0.10719711
6	0x3b683d0c	0.0035436777
7	0x3e5e8acc	0.21732634
8	0xbd866a75	-0.06563274
9	0x3be9c15e	0.007133647
10	0xbcca005e	-0.024658378
11	0xbd65a279	-0.05606315
12	0x3da6fc36	0.08153574
13	0x3da2ced9	0.07949609
14	0xbe28c005	-0.164795
15	0xbd0a0647	-0.033697393

conv_3.weight f4 [32, 16, 3, 3]
0	0xbd173ae4	-0.036921397
1	0x3c0f99df	0.008764713
2	0xbc197548	-0.009366341
3	0xbda77d07	-0.08178144
4	0xbc69577a	-0.014242047
5	0xbbfa2894	-0.007634232
6	0xbcc4e632	-0.024035547
7	0x3d9e6da5	0.07735757
8	0xbc91342d	-0.017725075
9	0x3d1b676d	0.03794043
10	0xbc2696b4	-0.010167766
11	0xbdea877b	-0.11451622
12	0x3c55ab18	0.01304128
13	0x3d30c485	0.043156166
14	0xbdce4958	-0.10072583
15	0xbd575bbf	-0.05257773
16	0x3db53329	0.08847649
17	0x3d6b8ac6	0.05750539
18	0xbd495b8a	-0.049159564
19	0x3d4584db	0.048222404
20	0xbc5582aa	-0.013031641
21	0xbdab7d38	-0.08373493
22	0x3ba08c9c	0.0048995744
23	0x3ccff657	0.025386019
24	0xbccbbb6c	-0.024869643
25	0x3ce246aa	0.027621586
26	0xbd95be90	-0.073117375
27	0x3d6cecbc	0.057842955
28	0x3d916b59	0.07100553
29	0x3d3bc245	0.045839567
30	0x3c6c1683	0.014409664
31	0x3ce136b4	0.027491905
32	0xbd77511d	-0.06038009
33	0xbca55e8e	-0.020186689
34	0xbbfa4d13	-0.0076385825
35	0xbd3d67de	-0.046241634
36	0xbd76c8a0	-0.060249925
37	0x3d62bd94	0.055356577
38	0x3d5e678a	0.05429796
39	0xbd923276	-0.07138531
40	0x3cea121d	0.02857309
41	0x3d0b3f8a	0.033996142
42	0x3dad3983	0.08458235
43	0x3d5acb81	0.053416733
44	0x3da2f5cd	0.07957039
45	0xbce52db1	-0.027975889
46	0x3d6c664f	0.057714757
47	0x3d8ab8d6	0.06773536
48	0xbda29338	-0.07938236
49	0xbd8add5b	-0.067805015
50	0x3c90658c	0.017626546
51	0x3d331966	0.043725394
52	0xbd2b3518	-0.04179868
53	0x3c22e819	0.009943032
54	0x3a9708d5	0.0011523018
55	0x3cb610cf	0.022224812
56	0xbd349b19	-0.044093225
57	0x3d49b076	0.049240552
58	0x3d6d3b17	0.05791768
59	0xbd65b240	-0.056078196
60	0x3b1e905c	0.0024194932
61	0x3b32dbd1	0.0027291665
62	0x3ced49fb	0.02896594
63	0x3d9bebb3	0.076133154
64	0x3cad8d49	0.021185534
65	0xbcaea594	-0.021319188
66	0x3d94be6f	0.07262885
67	0xbcff2c5b	-0.03114908
68	0xbcbb5c08	-0.022871032
69	0x3a445f46	0.00074910035
70	0xbd8799bd	-0.0662112
71	0x3c34944d	0.011021686
72	0xbd757883	-0.059929382
73	0xbc54cd15	-0.0129883485
74	0xbcc78fea	-0.024360616
75	0x3ce8f1b1	0.02843556
76	0xbdb3ec02	-0.08785249
77	0xbe02154e	-0.1270344
78	0x3d942670	0.07233894
79	0x3debc749	0.1151262
80	0xbd8b045c	-0.06787941
81	0x3ce77622	0.028254572
82	0xbd824acb	-0.06361922
83	0xb9e839ab	-0.00044293454
84	0x3d993267	0.074803166
85	0x3d7c2aa3	0.0615641
86	0xbd84f74f	-0.06492483
87	0x3d58b7b1	0.052909557
88	0x3d247469	0.04015008
89	0xbab7f88b	-0.0014035864
90	0x3da8d93b	0.082445584
91	0xbd04b7c3	-0.03240181
92	0xbc9cac2a	-0.019125063
93	0xbd21de01	-0.03951836
94	0x3c6901b0	0.014221594
95	0x3cc1100f	0.023567228
96	0x3c109b52	0.008826094
97	0xbd356d0e	-0.044293456
98	0xbd106a35	-0.035257537
99	0x3cd8d412	0.02646831
100	0xbdc49fa4	-0.096007615
101	0xbd66fe48	-0.056394845
102	0x3c8005c3	0.015627747
103	0xbd4cb233	-0.04997463
104	0xbcafb56f	-0.021448819
105	0x3d038e13	0.032117914
106	0x3dae5928	0.08513099
107	0xbc11a21e	-0.008888749
108	0xbd57d2e7	-0.052691367
109	0x3d7175ce	0.058950238
110	0x3c3e55bb	0.011617119
111	0xbcc30dc3	-0.023810273
112	0xbd60d7a6	-0.05489316
113	0x3c9f111b	0.019417336
114	0xbda1fa3b	-0.07909056
115	0x3cb623a3	0.02223379
116	0x3d28689f	0.0411154
117	0xbd9bbb94	-0.07604137
118	0xbd5cd5f6	-0.053914987
119	0xbd768d29	-0.060193215
120	0x3d8c01be	0.0683627
121	0x3d9318fc	0.071825
122	0x3c040d03	0.008059743
123	0x3da3bc48	0.07994896
124	0xbcf72075	-0.030166844
125	0xbdac232b	-0.08405145
126	0x3ccc65c8	0.024950877
127	0x3c802912	0.015644584
128	0x3d6e054a	0.058110513
129	0x3acc3e36	0.0015582505
130	0x3d68f681	0.05687571
131	0x3ce40042	0.027832154
132	0x3d830090	0.06396592
133	0xbd994902	-0.07484628
134	0x3d8693a0	0.06571126
135	0xbd951d4a	-0.07280977
136	0x3d986dcf	0.07442819
137	0xbb99af9e	-0.0046901247
138	0xbd978d20	-0.07399964
139	0x3cc0771f	0.023494301
140	0xbc885b52	-0.016645107
141	0xbd928b30	-0.07155454
142	0xbd02283e	-0.03177666
143	0x3bd9718f	0.0066358517
144	0x3d866bfa	0.06563564
145	0xbccb6672	-0.024829123
146	0x3d4f05cf	0.05054265
147	0x3c3689f9	0.011141294
148	0x3b531820	0.0032210425
149	0x3c8b6875	0.017017582
150	0xbd5e12c5	-0.05421712
151	0xbd8d884f	-0.069107644
152	0xbcd056a1	-0.025431933
153	0xbdde1e09	-0.108455725
154	0xbd32a03b	-0.04360984
155	0x3d29e2a3	0.041475903
156	0xbdb7a244	-0.089664966
157	0xbcb89bea	-0.022535283
158	0x3d5e9b6f	0.05434745
159	0xbc94a327	-0.018144203
160	0xbc7feff2	-0.015621172
161	0x3d82061d	0.06348822
162	0xbc2c1be7	-0.010504699
163	0x3cde2190	0.027115613
164	0x3bc256eb	0.0059307716
165	0xbd289dff	-0.0411663
166	0xbcb327fb	-0.02186965
167	0x3b077d93	0.0020674213
168	0xbd5793d7	-0.052631225
169	0x3c597df5	0.013274659
170	0xbb5402a7	-0.0032350214
171	0x3d06c359	0.03290114
172	0x3ca924ae	0.020647373
173	0x3d80c9fc	0.062885255
174	0xbb23b70c	-0.002498093
175	0xbd777be9	-0.060420904
176	0x3d1bc37b	0.03802822
177	0xbd65f37f	-0.05614042
178	0xbc23daf3	-0.010000932
179	0xbcd35b5b	-0.025800398
180	0xbd0cbc70	-0.034359396
181	0xbcd27928	-0.025692537
182	0x3dacf03b	0.08444258
183	0x3d425dbb	0.04745267
184	0x3d08758f	0.033315238
185	0x3db5a655	0.08869616
186	0xbd94951f	-0.07255005
187	0x3cafa634	0.021441557
188	0x3d7966f8	0.060889214
189	0x3d6b96d4	0.057516888
190	0xbd824ff0	-0.06362903
191	0x3cede1d9	0.029038357
192	0xbd1fc616	-0.03900727
193	0x3b561cbe	0.003267094
194	0xbcccd29d	-0.025002772
195	0xbd78b5ad	-0.060720135
196	0xbda3ca97	-0.07997625
197	0xbd94ca20	-0.07265115
198	0x3d1ab30b	0.037768405
199	0x3d203f72	0.039123006
200	0xbd925d82	-0.071467414
201	0xbcff7b94	-0.031186856
202	0x3b334a63	0.002735757
203	0xbd91c2d1	-0.071172364
204	0x3d4097d6	0.047019802
205	0x3d9ab7d8	0.07554597
206	0x3c73eb38	0.0148876235
207	0xbd4c9b9b	-0.049953084
208	0x3ccf6bb3	0.02531991
209	0x3cddd386	0.027078401
210	0x3da8881a	0.08229084
211	0xbd188211	-0.037233416
212	0xbdaf5ad4	-0.08562246
213	0x3d42dcb1	0.04757375
214	0x3b45bdff	0.003017306
215	0xbd410da4	-0.04713215
216	0xbe0bf666	-0.13668212
217	0xbddf5bbb	-0.10906168
218	0x3d68c4eb	0.05682842
219	0xbe01bb85	-0.1266919
220	0x3cd519fa	0.026013363
221	0x3dec95ab	0.115519844
222	0xbd64a329	-0.055819664
223	0x3c853ef5	0.016265372
224	0x3d0211eb	0.03175537
225	0x3d4d567f	0.050131317
226	0xbd8f9cf3	-0.070123576
227	0x3d2ee3e8	0.042697817
228	0xbca5dabd	-0.020245904
229	0x3d621ef9	0.05520532
230	0x3ca85238	0.020547017
231	0xbd0c991e	-0.03432571
232	0x3c9125f3	0.01771829
233	0x3d8382e8	0.06421453
234	0xbd617f06	-0.05505278
235	0xbd3ffd5b	-0.046872478
236	0xbc449637	-0.011998705
237	0xbccdfc3a	-0.025144685
238	0x3d272b57	0.040812816
239	0x3d829a60	0.06377101
240	0xbb116a4c	-0.0022188602
241	0x3daf7203	0.08566668
242	0xbcfb6fc5	-0.030692944
243	0xbdca7c1a	-0.09886952
244	0xbd9064a3	-0.07050445
245	0xbd05fce1	-0.032711867
246	0xbdef840d	-0.116951086
247	0xbdc49aaa	-0.09599812
248	0x3a49dacc	0.0007700145
249	0xbc43ec1c	-0.011958148
250	0x3d803655	0.06260363
251	0x3e1e08e0	0.15433073
252	0x3d94e117	0.07269495
253	0xba0a59ec	-0.00052776816
254	0x3c911686	0.017710935
255	0xbd4835b9	-0.04887936

conv_3.bias f4 [32]
0	0xbdd2efde	-0.10299657
1	0xbd979d53	-0.07403054
2	0x3d3cc5ca	0.046087064
3	0xba281826	-0.000641229
4	0xbd2271bb	-0.039659243
5	0xbcb299ac	-0.021801792
6	0xbd6900f3	-0.05688567
7	0xbcc1d42e	-0.023660745
8	0xbdb7d601	-0.08976365
9	0xbd44db2d	-0.048060585
10	0x3cb7d316	0.02243952
11	0x3d118e78	0.03553626
12	0x3c1b97d5	0.009496649
13	0xbcce7a49	-0.025204794
14	0x3dd2418e	0.1026641
15	0x3e0ea61b	0.13930552
16	0x3d192236	0.03738614
17	0x3cc34066	0.023834419
18	0xbccff684	-0.025386102
19	0x3d5cf409	0.053943668
20	0x3c57decc	0.0131756775
21	0x3d362c80	0.044476032
22	0x3dd3ec28	0.103477776
23	0xbcd6a08f	-0.026199607
24	0x3dd8bbaf	0.10582673
25	0x3de74289	0.112919874
26	0x3c6d7ed3	0.014495569
27	0x3decbf67	0.115599446
28	0x3ca41cad	0.020033205
29	0x3cdf05aa	0.02722438
30	0x3d1e95c5	0.03871705
31	0xbd2959a5	-0.041345257

linear_1.weight f4 [1, 25088]
0	0xbc08e6c4	-0.0083558
1	0xbbe76068	-0.007061053
2	0xbbef7192	-0.00730724
3	0x3b39e5ce	0.0028365734
4	0x3c249641	0.010045589
5	0x3c80cf49	0.015723841
6	0xbb937d84	-0.0045010466
7	0xbc941ad4	-0.018079199
8	0xbb33b0b2	-0.002741855
9	0xbc1872df	-0.009304731
10	0xb9f93fc5	-0.00047540493
11	0x3be5bd9c	0.0070111286
12	0x3adcf540	0.0016857758
13	0x3c3ccd02	0.011523487
14	0x3c21c954	0.0098746605
15	0x3b8adc8e	0.004237718
16	0x3c948e68	0.01813431
17	0x3c736fe5	0.014858221
18	0xbba40a63	-0.005006121
19	0xbc6e54ad	-0.0145465555
20	0xbc6fbbed	-0.014632207
21	0xbc53978a	-0.012914548
22	0x3ba1202f	0.0049171667
23	0xbc3bee23	-0.01147035
24	0xbb089339	-0.0020839705
25	0xbb0f064f	-0.0021823829
26	0xbb8f1832	-0.004366898
27	0xbc65d1ab	-0.0140270395
28	0xbbf07c11	-0.0073390086
29	0x3adc61aa	0.0016813774
30	0xba89b538	-0.0010506278
31	0xbb198975	-0.0023427878
32	0x3bddebc8	0.006772492
33	0x3c7bc13e	0.015365897
34	0x3ca71552	0.020395909
35	0x3c863465	0.016382406
36	0x3c56dd94	0.013114352
37	0xbbc3efd7	-0.005979519
38	0xbc497e18	-0.0122981295
39	0xbc9d3d2d	-0.01919421
40	0xbc92fc89	-0.017942684
41	0xbb653e1c	-0.0034979647
42	0xbbf90d91	-0.007600494
43	0xbc700026	-0.014648473
44	0xbcd15368	-0.025552467
45	0xbb48fb1a	-0.0030667246
46	0x3c3218e8	0.010870196
47	0x3bc0320f	0.0058653424
48	0xbc50c24a	-0.012741635
49	0xbbcfa893	-0.0063372343
50	0xbc9443e9	-0.018098788
51	0x3b246384	0.002508373
52	0xba4aba34	-0.0007733435
53	0xbb426dfa	-0.0029667602
54	0x39624add	0.00021580928
55	0xbb80a25c	-0.0039256047
56	0xbbae08a3	-0.005311088
57	0xbbe272e9	-0.006910671
58	0xbbf73c4f	-0.007545031
59	0xbb822403	-0.003971578
60	0x3b722d83	0.0036953397
61	0x3b9e9c7c	0.0048404317
62	0x3cbd8607	0.023135198
63	0x3cf2f2b6	0.02965675
64	0x3cae08c5	0.021244416
65	0x3c68fedd	0.01422092
66	0x3c944c86	0.018102895
67	0x3b0e2bfd	0.00216937
68	0xbc38147d	-0.011235354
69	0xbaeac02e	-0.0017910057
70	0x3c0e3291	0.008679048
71	0x3bb3dedd	0.005489214
72	0xbca2e4db	-0.019884517
73	0x3b96fdd9	0.0046078977
74	0xbb823cdd	-0.0039745406
75	0x39085272	0.00013000684
76	0x3be6d64b	0.0070445887
77	0x3cc9615e	0.024582561
78	0x3bd3f50f	0.0064684222
79	0x3c015fed	0.007896406
80	0x3ca7f7db	0.020503929
81	0x3c546690	0.012963906
82	0x3c0ba865	0.008524035
83	0xb9eaeb94	-0.00044807477
84	0xbbb073a4	-0.005384879
85	0x3bbcbf5c	0.0057601165
86	0xbb64bb34	-0.003490162
87	0xbbdfbf1c	-0.006828202
88	0x3bb7afb1	0.005605661
89	0x3c079cc3	0.008277121
90	0x3c1d35f9	0.009595388
91	0x3b9dfcdb	0.0048214025
92	0x3cf4ec5c	0.029897861
93	0x3c149705	0.009069209
94	0x3be6569e	0.0070293685
95	0x3ba0b0eb	0.0049039028
96	0xbc89de26	-0.016829561
97	0xbc1fd3b0	-0.00975506
98	0x3b558f60	0.003258668
99	0x3c26f273	0.01018964
100	0x3cd61014	0.026130714
101	0xbbf3962a	-0.0074336724
102	0xbcb67323	-0.022271698
103	0xbc567869	-0.013090231
104	0xbc9e36d9	-0.019313263
105	0xbc298af5	-0.010348071
106	0x3cab7640	0.02093041
107	0xb957329a	-0.00020522848
108	0x3c123e3c	0.008925971
109	0x3a3da37c	0.0007234139
110	0xbbdf6290	-0.0068171695
111	0xbcc21d57	-0.023695631
112	0xbceac1db	-0.02865689
113	0xbd08861a	-0.033331014
114	0xbc7cf0fe	-0.015438316
115	0xbc8a2136	-0.01686154
116	0xbbd14cdf	-0.0063873376
117	0x3b9ac062	0.004722641
118	0x3c1384a1	0.009003789
119	0x3b289ede	0.0025729458
120	0x3c5da13a	0.013527209
121	0x3cfe8e92	0.031073842
122	0x3c5b504a	0.013385842
123	0x3becb4fb	0.007223723
124	0x3c4dd5e2	0.012563201
125	0x3ca3dd34	0.020002939
126	0x3b82d9fb	0.0039932705
127	0xbbec1197	-0.0072042453
128	0xbc25dc56	-0.010123333
129	0x3aa242b4	0.0012379498
130	0xbc75cd33	-0.015002537
131	0xbc8a5f0a	-0.016891021
132	0xbca11592	-0.019663606
133	0xbc951ddc	-0.018202715
134	0x3c399b7f	0.011328577
135	0x3c133509	0.008984813
136	0x3c4f5751	0.012655095
137	0xbbeb292d	-0.0071765394
138	0xbc41fd0e	-0.011840118
139	0xbc56dbeb	-0.013113956
140	0x3c907a76	0.017636519
141	0x3c382928	0.011240281
142	0x3bb93208	0.005651716
143	0xbc03e783	-0.008050802
144	0x3a96be5b	0.0011500822
145	0x3bdda6a0	0.006764248
146	0x3b511323	0.0031902276
147	0x3c393bf0	0.011305794
148	0x3c04be30	0.008101985
149	0x3bf0ccac	0.0073486175
150	0x3b698dd7	0.0035637522
151	0xbc0cab9a	-0.008585835
152	0xbc191d86	-0.009345418
153	0xbc229a3d	-0.009924469
154	0x39b33e2e	0.00034187868
155	0x3cae0cbf	0.021246312
156	0x3c9e271e	0.019305762
157	0xbcb85f28	-0.022506312
158	0xbc573cc0	-0.0131370425
159	0x38fa7ec9	0.000119445445
160	0x3bc616d4	0.006045202
161	0x3b56574b	0.003270584
162	0xbc1974f4	-0.009366263
163	0xbc1d8855	-0.009615024
164	0x3b16d5c1	0.002301559
165	0x3c685689	0.014180788
166	0x3bc9bec4	0.0061567742
167	0x3bc200de	0.0059205135
168	0x3bfe5eb7	0.0077627557
169	0x3c5d2b84	0.013499144
170	0x3c999f16	0.018752616
171	0x3ba8f7c9	0.0051564914
172	0xbb2c3ae1	-0.0026280212
173	0xbb29c33b	-0.002590372
174	0xbbf4eea2	-0.0074747363
175	0xbc4163b1	-0.011803553
176	0xbbea2102	-0.007145048
177	0x3acefde5	0.0015792219
178	0xbc745bb4	-0.014914442
179	0xba967fb1	-0.0011482147
180	0x3bae93ae	0.0053276634
181	0xbc9db57b	-0.019251576
182	0xbbd8bf20	-0.0066145808
183	0x3d0243ac	0.03180282
184	0x3cb6a4a1	0.022295298
185	0xbca20433	-0.019777393
186	0xbd0f9b1c	-0.035060033
187	0xbc8727a8	-0.016498402
188	0x3bd12e32	0.0063836807
189	0x3bfe02c9	0.007751797
190	0x3c83c33b	0.016084304
191	0xbc9b0d72	-0.01892731
192	0x3b96ea39	0.0046055582
193	0x3ca4c6d7	0.020114345
194	0x3c06a08f	0.008216991
195	0xbb991194	-0.004671285
196	0xbb3a00d4	-0.0028381841
197	0x3bd016c1	0.0063503687
198	0x3bf387e0	0.007431969
199	0xb9c342c5	-0.00037243046
200	0x3b78b8bb	0.0037951905
201	0xbb8aee15	-0.0042398074
202	0xbc1721d6	-0.009224376
203	0xbcd89dc7	-0.026442422
204	0xbcb73142	-0.022362355
205	0x3b4f9eac	0.003168027
206	0xbc997dd8	-0.018736765
207	0xbb97ba9e	-0.004630401
208	0x3d05f39e	0.032703035
209	0x3cd30f3f	0.025764106
210	0xbcab054a	-0.020876545
211	0x3a0e31f7	0.00054243155
212	0x3c2c1483	0.010502937
213	0x3c2c8a9e	0.010531096
214	0x3c4493e4	0.0119981505
215	0xbc93b020	-0.018028319
216	0x3b9c1b6f	0.0047640125
217	0x3d06925e	0.03285443
218	0x3cc4a122	0.024002615
219	0x3cabf9f9	0.02099322
220	0xbcabc2a1	-0.02096683
221	0x3af90c81	0.0019000919
222	0x3c2e45cc	0.010636758
223	0x3c238797	0.009981058
224	0x3b533be4	0.0032231743
225	0x3b4f83d3	0.0031664267
226	0x3c7cbb99	0.015425586
227	0x3c0c9b8a	0.008582005
228	0x3a05311d	0.0005080866
229	0x3bc0940c	0.0058770236
230	0xbbd25074	-0.006418282
231	0xbcb92b52	-0.022603665
232	0xbcaf0959	-0.021366762
233	0xbbf65b48	-0.007518206
234	0x3b241ece	0.0025042775
235	0xbc5c72b6	-0.013455084
236	0x3b033aa8	0.0020023976
237	0xbb8b5c48	-0.004252944
238	0x3a8ab7a3	0.0010583292
239	0x3c911034	0.017707922
240	0xbb7bd817	-0.003842836
241	0xbc37a5b1	-0.0112089375
242	0x3c32dee4	0.010917399
243	0x3c45d3a0	0.012074381
244	0x3b27d6de	0.0025610249
245	0x3b665b69	0.00351497
246	0xbad561a0	-0.0016279705
247	0x3cac6917	0.021046204
248	0xbb4c49c6	-0.0031171902
249	0xbcb3cb21	-0.021947445
250	0xbc370b9e	-0.011172203
251	0xbb094ea7	-0.0020951421
252	0x3b187f46	0.002326922
253	0xbb66d0d8	-0.0035219695
254	0x3ad314f2	0.0016104265
255	0x3bcdf9df	0.0062858905
