models/lr_0.001/ConvNet_9.pth (torch, 127512 bytes, 7 tensors)

conv_1.weight f4 [8, 1, 3, 3]
00000000: dbe3 8e3e 9d07 9a3e 4038 5abd d64d a93e
00000010: 8fda 43bd 676e bc3d 2998 0cbe 9b87 613e
00000020: b682 a23e bfd7 38be e7a6 b43e c419 013e
00000030: d742 9e3e b0b8 dc3d 0668 653e 5a0e 833c
00000040: d6cd a33e 2f5d e83d 1859 1fbe b402 ae3d
00000050: c843 1dbe d81d 20bd a8a2 0abe 3e6e 623e
00000060: 1cb8 86be b35b 1dbe 90c4 c0bd ff3b 4dbe
00000070: 57dc 003d 5c90 a8be df23 9a3e 8bf9 90be
00000080: adc2 833e 2e49 633d 04a3 ddbd 04f1 523e
00000090: f2d7 de3d 8f7b a63e 2e47 c03d 690c 48bd
000000a0: 36ca 133e d76e 0abd b04b 483e f800 b43e
000000b0: 3517 7e3e ea28 1cbe da21 3f3e cd77 5a3d
000000c0: 8174 253e c542 59be a66f adbe f579 0dbe
000000d0: 4cdf 87be 9011 883e ae20 c73d 2598 0e3e
000000e0: 4ebe d83d a16e 98bb 65f8 853e 1ccf 72be
000000f0: c367 b13c a2ed 68be 8f15 d13d 6d06 fdbd
00000100: 8d28 c03d 54d5 9dbd d487 893e 0c23 52be
00000110: dee1 52be 2f01 53be b475 963e b5ee d73d
0.27908215 0.30083933 -0.0532763 0.33067197 -0.047815856 0.09200745 -0.1372992 0.22024386
0.3174035 -0.1805105 0.35283586 0.12607485 0.3091037 0.10777414 0.22402963 0.015998054
0.31992978 0.11345898 -0.1556133 0.08496609 -0.15357888 -0.03909096 -0.13538611 0.22112367
-0.2631234 -0.15367012 -0.09412491 -0.20042418 0.031460132 -0.32922637 0.30105492 -0.28315386
0.25734463 0.05548971 -0.108221084 0.20599753 0.10881032 0.32516143 0.093885764 -0.04883996
0.14432606 -0.03379711 0.19560122 0.3515699 0.2481354 -0.15249982 0.18665257 0.053336907
0.16157724 -0.21216877 -0.33874243 -0.13816054 -0.2653755 0.265759 0.0972303 0.13925226
0.10583173 -0.00465186 0.26166072 -0.23711818 0.021655923 -0.227469 0.1020919 -0.12354741
0.093827344 -0.07706705 0.2686144 -0.20521182 -0.20593974 -0.2060592 0.29386675 0.10543577

conv_1.bias f4 [8]
00000000: 103e 8c3e 7faa 28be bb47 a9be 2f82 85be
00000010: e273 1bbe 1d8d 323e 320e d13d 1c77 933e
0.273911 -0.16471289 -0.33062539 -0.26075885 -0.15180925 0.17436643 0.10207786 0.2880181

conv_2.weight f4 [16, 8, 3, 3]
00000000: 828f 79bd 6f8c a4bd 8e23 803d 334d 43bd
00000010: cc8b 923d 95da e4bc a34a 8a3d cd40 bbbd
00000020: 8a2f 73bd 6ced 103d fb0c c83c 9cac f9bc
00000030: 7cf4 8e3d 2259 a33d 4faa afbd 978c 81bd
00000040: 4f7a dc3d e1e6 23bd ac21 2bbd ac89 e9bd
00000050: 1c38 8abd 6c2b f13c b0dc 7ebc ff32 afbd
00000060: e02a 353b 32de a4bd adc4 ccbd 55e8 84bd
00000070: aa3d d3bd baae 99bd a444 f13d 735b b63c
00000080: 3ec2 143d 711c e1bd bd84 9ebd b9ac 20bd
00000090: 1077 963c 4375 d4bd d706 50bd 4596 90bd
000000a0: 8d15 a339 3390 33bd 783e 05bc b17e a3bd
000000b0: fb97 a5bd f8f6 8cbd 120b 26bd d1f1 bebd
000000c0: 3208 ca3d 836a c2bc 13f4 ce3d 0c74 153d
000000d0: 0a13 cdbd a660 a63d a518 06bd 2043 3abd
000000e0: d0ea c8bd bf99 f0bd 90f7 083d bc1a d5bc
000000f0: a420 3b3d 8f5c c6bd 04e7 b23d 2d43 b2bd
00000100: a831 abbc 273f c53c a6b3 763d 6b9b c13d
00000110: 3d8f da3d 547f c0bd a655 ee3c 6406 52bd
00000120: 3d94 6bbb c8cc 9bbd 33b7 f73d c715 99bd
00000130: 6d28 9e3d bc5e 6b3d 2626 4e3d 5ff2 45bd
00000140: e011 fd3d 7fac 163d 5a4b dd3c b9f2 bbbd
00000150: 5efc 7c3d 7021 8bbb 26b4 26bd bf7a e83d
00000160: e8f9 223d 0981 54bd 8e52 74bd a06b b8bb
00000170: fdc3 863d a0b3 f6bc a4b6 89bd ac4d 25bd
00000180: 3650 b4bd 2a27 2c3d 59d2 ba3d f135 e3bd
00000190: c644 e03c 6862 793d 3b27 af3c b5dd 2bbd
000001a0: 70ff 7b3d 61af 7d3d 7480 343d b5a3 a9bc
000001b0: 2138 9bbc d924 d93c 6316 ccbb 8de1 afbc
000001c0: fa0d ba3d 681d f03d f116 f63a 3fb0 31bc
000001d0: 4475 8e3c 88b4 5bbc 92d2 b03c cda5 d43c
000001e0: 1b8d e9bd 1ead 50bd 4d89 bb3d 6638 1f3d
000001f0: bfce 5cbc 556a a1bd aa11 8ebd 3079 d1bd
00000200: 4063 0ebd e9f8 303d 4c1e a23d e8ec 703d
00000210: 1780 cdbd e9b7 87bd cd54 60bc ff32 e43d
00000220: 6748 6f3c 69c8 06bd 3cdb 3b3d 1c70 43bd
00000230: 80cb a1bd 50ac a93d 36e4 67bd 4cbe d9bc
00000240: 2f16 f3bd d910 a23d fca0 b73d aed3 293d
00000250: 1b51 a8bd a947 eebd c996 c6bd 7760 b43d
00000260: 8431 683d c18b cc3d 4aae 803d 7d69 fe3c
00000270: ed01 3cba 24bb b5bd 7bde ccbd 3cd5 e0bd
00000280: f020 493d 1b3a 69bd ec4b c2bc 48e7 8abd
00000290: e0ec afbc 81e0 a9bd 34b5 9dbd 721f 203d
000002a0: 4e76 0fbd 5d00 953d 38dc 1abd 310d b1bd
000002b0: 8b54 aabc 18fe 69bd 77ae 13bd fbc5 e5bd
000002c0: 7509 873d 6d08 a8bd bf9e 723d 130d 5b3d
000002d0: af0f b03d a32b b4bd 3d58 b33d e4e5 5dbd
000002e0: a570 3c3d 82f0 e73d 946d 76bc 629e b33a
000002f0: 9a78 c9bc 7876 cbbd 27ab 633d 7f0b f2bd
00000300: aa0d 943d 7098 b23d b028 e23d bcbe eabc
00000310: 1f22 c8bd 47c9 d03c 1418 853d 65ab efbd
00000320: c369 d8bc 5814 91bd e589 26bc 59ae 6cbd
00000330: 8077 46bd 4aec 18bd 6d30 e5bd 7f0e c63d
00000340: 132d cb3d 3ebf 94bc 5dbd 5bbc c994 43bd
00000350: 6a5d d9bd 40ab eabd dd5b 353d deb9 83bd
00000360: cc29 9bbd 95a5 16bc 84be 20bd e02a 1cbd
00000370: e831 783b dbc5 ccbc 8d34 26bd b920 67bd
00000380: 896c c4bd 8601 c53d bb9a 4bbd 194e ea3c
00000390: 11f3 31bd 063c e83b 21b2 db3d 4c6d 543d
000003a0: 85f9 d5bd 067e 353d c11b e53d 84fd fd3c
000003b0: 29d0 a13d f3f3 ed3d d0ee 93bc 7461 c83c
000003c0: c8c0 a7bd 50f4 c6bc 25bf b23d fc75 773d
000003d0: f5ba 98bd 6a8a c1bd a7ef a4bd 3031 eebd
000003e0: d03d babd 4ac0 eebc 28e3 a23d 6598 a13c
000003f0: fdb0 b7bd b2b5 c1bd 2cc5 6f3d eaa7 b3bd
-0.060927875 -0.08034598 0.062567815 -0.047681045 0.071555704 -0.02793626 0.06752517 -0.09143219
-0.05937151 0.035382673 0.024420252 -0.030477814 0.069802254 0.07975985 -0.08577406 -0.063256435
0.10765516 -0.040015105 -0.04178016 -0.11403212 -0.06748983 0.02943965 -0.015555546 -0.085546486
0.0027643964 -0.08050193 -0.099984504 -0.06489626 -0.10314496 -0.075040296 0.1178067 0.022260403
0.036318056 -0.10991753 -0.077401616 -0.03922722 0.01836732 -0.103739284 -0.050787773 -0.07059912
0.0003110584 -0.04383869 -0.0081325695 -0.07983149 -0.080856286 -0.06883043 -0.0405379 -0.093234666
0.098648444 -0.02373243 0.10105147 0.036487624 -0.10013397 0.08123903 -0.032738347 -0.04547417
-0.09810412 -0.11748075 0.03343922 -0.026013725 0.045685425 -0.09685623 0.08735469 -0.08704219
-0.020897701 0.024077965 0.06022992 0.09453472 0.10671852 -0.09399286 0.029093575 -0.051275626
-0.0035946511 -0.07607418 0.12095489 -0.07474857 0.07722554 0.057463393 0.05032935 -0.048326846
0.12356925 0.0367856 0.02701347 -0.09177155 0.061764114 -0.0042459294 -0.040699147 0.11351537
0.03978911 -0.05188087 -0.059649043 -0.0056280643 0.065803505 -0.030114949 -0.06724289 -0.040357277
-0.088043615 0.042029537 0.09122152 -0.11094273 0.027376544 0.060884863 0.021381011 -0.041959483
0.0615229 0.061934832 0.044067815 -0.020707944 -0.018947663 0.026506828 -0.0062282546 -0.021469856
0.09084697 0.11724359 0.0018775148 -0.010845243 0.017389901 -0.013409741 0.021584783 0.025957966
-0.11403867 -0.050946347 0.091570474 0.038872145 -0.0134770265 -0.07881609 -0.06936963 -0.10228193
-0.03476262 0.04320613 0.07915935 0.05881968 -0.10034197 -0.06626875 -0.013692093 0.11142539
0.014604664 -0.03290597 0.045863375 -0.047714338 -0.07900143 0.08284819 -0.056614123 -0.026579998
-0.118694656 0.0791337 0.08966252 0.04146164 -0.08218595 -0.11634762 -0.09696729 0.08807462
0.056687847 0.099875934 0.06283243 0.03105616 -0.0007171918 -0.08873585 -0.10003372 -0.10978171
0.049103677 -0.05694018 -0.023717843 -0.06782395 -0.021475255 -0.08294774 -0.077005774 0.03909249
-0.035024934 0.0727546 -0.037807673 -0.08645094 -0.020792266 -0.05712709 -0.036055055 -0.112194024
0.06593601 -0.08204732 0.059233423 0.053479265 0.085967414 -0.087973855 0.087570645 -0.05417432
0.046005864 0.1132517 -0.015040774 0.0013703818 -0.02459364 -0.099347055 0.055583145 -0.11818599
0.07229169 0.087204814 0.11042917 -0.028655402 -0.09772133 0.025486602 0.06498733 -0.11702613
-0.026417619 -0.070839584 -0.010164713 -0.05778346 -0.048453808 -0.037334718 -0.11190877 0.09670734
0.099207066 -0.018157598 -0.013411847 -0.047749314 -0.106135204 -0.114584446 0.04427706 -0.06431936
-0.075763315 -0.009194751 -0.03924419 -0.038126826 0.0037871543 -0.024996689 -0.04057746 -0.05642769
-0.09591014 0.09619431 -0.04970811 0.028601693 -0.043444697 0.0070872335 0.10727335 0.051862046
-0.10447983 0.04430964 0.11186934 0.031004675 0.079010315 0.11618795 -0.01805821 0.024460532
-0.08191067 -0.02428642 0.08727864 0.060415253 -0.07457534 -0.094502285 -0.080535226 -0.116304755
-0.09093821 -0.029144425 0.07953483 0.019725988 -0.08969305 -0.09458484 0.058537647 -0.087722614

conv_2.bias f4 [16]
00000000: 89ad f33c 0e62 d63c 99d0 b03d bf75 63bd
00000010: 8cc1 bbbc bcc1 3b3d 82cf 593c a5e4 293e
00000020: 99c8 43bd d53e 20bc 0706 b53c 3618 47bd
00000030: a3a2 a53d faec b03d bf57 aabd 035c e8bc
0.029745834 0.026169803 0.08633537 -0.055532213 -0.022919439 0.045839056 0.013294103 0.16591127
-0.047798727 -0.009780605 0.0220976 -0.048607074 0.08087661 0.0863895 -0.083175175 -0.028364187

conv_3.weight f4 [32, 16, 3, 3]
00000000: c6c8 1abd f4b4 043c 33b7 1ebc 1c48 a9bd
00000010: 6dcd 78bc 68cc 02bc e547 c9bc cace 9c3d
00000020: 57f4 94bc 32e4 5b3d 7961 aa3c 20c5 8fbd
00000030: 53dd a13c 52b6 8d3d 3ec4 5ebd 670a 5cbd
00000040: 4b43 a73d 5956 893d 676e 3ebd 0663 4d3d
00000050: 9bb7 2ebc 9f41 a8bd 004b cd3b 6590 dc3c
00000060: a9a9 ccbc f688 ed3c 8bee 91bd 898c 6c3d
00000070: f77e 913d cf3b 3c3d 2b6b 673c d1d4 e03c
00000080: 50f8 76bd 6c91 aabc a357 02bc d2f2 3dbd
00000090: 120d 7cbd 3fa0 653d dfaf 673d 53f7 9abd
000000a0: 0b42 d93c e0e0 0a3d 2123 a23d 497d 453d
000000b0: 00e6 9c3d fd4b dfbc d81f 6f3d 9cd2 8a3d
000000c0: 1726 a1bd f900 89bd 2b0f 8a3c 8365 3a3d
000000d0: 3096 29bd bb4d 163c dbfa eab8 61df ac3c
000000e0: 715b 37bd 8a96 403d 3304 633d 1fc8 6cbd
000000f0: e8dd 573a d4dd 7e39 ba33 db3c bdf4 9e3d
00000100: bcfe c73c 3165 9bbc 672e 993d 371b 02bd
00000110: bfcf c6bc d6d4 b83b bbfb 81bd aeda 133c
00000120: 3fe6 67bd 1043 0b3c 477c 003c 4264 3d3c
00000130: e0ed 8fbd 3129 a2bd f020 1d3d 2a47 923d
00000140: 17a5 97bd 00c8 fc3c 7e43 7bbd 5e05 ab3b
00000150: 65ca 9e3d 6a77 813d db95 79bd 2725 533d
00000160: 3a39 323d 3679 05b9 4e60 a53d 027b 07bd
00000170: bcca 9ebc 7a74 2cbd 8346 443c fe9b b43c
00000180: 99ed d93b 6406 40bd 4cb1 19bd f1e2 e83c
00000190: 2b74 95bd 63d2 53bc 4865 d8ba 38d7 09bd
000001a0: 8615 f93c 50a2 b53b 40e1 6f3d 5d6b f1bb
000001b0: 4c6c 57bd 1229 713d 03b4 3e3c 5b81 c3bc
000001c0: 0efa 60bd 7407 a03c cdc4 a2bd e9d3 b33c
000001d0: 2fc7 283d febc 95bd 7b93 5fbd 0a8e 75bd
000001e0: a266 8f3d 3c0e 913d 7a0a aa3b 1b36 a03d
000001f0: 1649 e4bc 19b2 a5bd a0ed f03c 4b4f f43c
00000200: 17e7 a73d e59b bc39 2376 833d 0d5d 523d
00000210: d675 783d 97c5 a8bd e709 8d3d 134f 91bd
00000220: b025 993d 86e4 5dbb 6407 97bd 3458 be3c
00000230: 537f 8abc 691d 99bd f026 f7bc 9497 0d3c
00000240: fbfe 843d af8c d1bc 60d9 4a3d 1fa3 2b3c
00000250: 375b 3a3b 27dd 823c 81d6 5fbd 24c7 8dbd
00000260: 0d2e d6bc 3a78 9ebd 956c 1dbd 032f 8e3b
00000270: 69c4 5fbd 2efa 0bbd 5f57 6dbc e4ce 19bc
00000280: d7e7 3abd 558b 923b fa5c 3ebc 0f0a c43c
00000290: b6e0 7b3b 2a0a 2abd 1ff2 e9bc 62fc 5fba
000002a0: 7e8c 54bd ab02 db3b a189 bcbb 6a8a 043d
000002b0: 52d4 a13c 7a96 7f3d e460 32bb 5c13 7cbd
000002c0: ffbb 183d aa99 66bd ec14 3bbc 4ab5 dcbc
000002d0: 6f18 01bd b86b fbbc 002a 9d3d b0cb 433d
000002e0: 4081 be3c 8396 a03d 3a79 9abd 47a1 5e3c
000002f0: 521d 5b3d 803b 633d 0593 87bd b4b2 f33c
00000300: 21f6 41bd 844c 4ebb 01de 8dbc 8c3b 8ebd
00000310: 6186 a2bd 5f61 60bd 3253 1b3d 65ae 1c3d
00000320: 9329 94bd d591 ffbc 0e67 c43a 1f48 93bd
00000330: 79c6 403d 34da 9a3d 91ac 733c 1234 7dbd
00000340: c961 9f3c 3732 f73c 4b62 873d e990 35bd
00000350: f31f 99bd 9497 163d 5ddb ab3b 1127 dfbc
00000360: 2fb6 0abd 72a4 28bd 9101 8f3d ba97 5bbc
00000370: 554a 7d3d 3025 9d3d a0bd 3a3c 2626 9f3c
00000380: 64f8 5fbb 48c7 6a3d 839c 99bd 2534 083d
00000390: 4f3d 5dbc 364b 1c3d 30e1 6eb9 5848 fcbc
000003a0: 4546 11bc 9dfa 383d 854a 6cbd 0af8 56bd
000003b0: 1980 97bc f7ff f5bc 1304 073d d061 663d
000003c0: c4e9 0ebc 97e3 a13d 42e6 0dbd 5715 3fbd
000003d0: 0d29 17bd 46fa 67bd 2381 6ebd e04a 97bd
000003e0: 77b1 95bd 6942 b43c fd4d 523d 2615 a23d
000003f0: 9e6a 913d 8862 9cbb 60a1 843c 1824 4cbd
-0.03778913 0.008099783 -0.009687233 -0.08265707 -0.015185696 -0.007983305 -0.024570415 0.076566294
-0.018182917 0.05368442 0.020798432 -0.070200205 0.019758856 0.069195405 -0.05438637 -0.053720858
0.08167132 0.06705923 -0.046492007 0.050143264 -0.010663892 -0.08215641 0.006265044 0.026924321
-0.024983244 0.028995972 -0.071255766 0.057751212 0.07104295 0.045955475 0.014124672 0.027445229
-0.060295403 -0.020821296 -0.007955465 -0.04637415 -0.061535902 0.056061026 0.056564208 -0.075667046
0.02652075 0.033905864 0.079168566 0.048215184 0.076610565 -0.027257914 0.058379978 0.06778452
-0.07868593 -0.06689639 0.016852936 0.045506965 -0.041402996 0.009173806 -0.00011204715 0.02110261
-0.04476494 0.047018565 0.055423927 -0.057808038 0.0008234666 0.00024305965 0.026758064 0.07761524
0.024413459 -0.01896915 0.07479554 -0.031764235 -0.024268983 0.0056406064 -0.06346842 0.009024305
-0.056616064 0.008499876 0.00784213 0.011559548 -0.07027793 -0.07918013 0.03836149 0.0714248
-0.07404535 0.030857086 -0.061343662 0.0052191457 0.077534474 0.063216045 -0.06093393 0.051549103
0.043511607 -0.00012729023 0.08075009 -0.033076294 -0.01938378 -0.04210327 0.011979702 0.02204704
0.0066506383 -0.046881095 -0.0375226 0.028428527 -0.07297548 -0.012928578 -0.0016509676 -0.033652514
0.030405771 0.005543031 0.058564425 -0.007367535 -0.052593514 0.05887706 0.011639598 -0.023865392
-0.05492597 0.019534804 -0.07947693 0.021951633 0.04120558 -0.07311438 -0.054584008 -0.059949912
0.070019975 0.07082793 0.005189237 0.0782282 -0.027866881 -0.0809061 0.029410183 0.029822966
0.08198374 0.00035974305 0.06419017 0.05135827 0.060659252 -0.08240812 0.06886654 -0.0709516
0.074778914 -0.0033858134 -0.073744565 0.023235418 -0.016906416 -0.07476313 -0.030169934 0.008642096
0.06493946 -0.025579778 0.04952371 0.010475903 0.0028435716 0.015974594 -0.054647926 -0.06922749
-0.026145006 -0.07737775 -0.03843363 0.0043391003 -0.05463067 -0.034174137 -0.014486163 -0.0093877055
-0.045631256 0.004472176 -0.011618847 0.023930578 0.0038433499 -0.0415136 -0.028557835 -0.0008544383
-0.051891796 0.0066836677 -0.0057537113 0.032358564 0.019754563 0.062399365 -0.0027218396 -0.0615419
0.037288662 -0.05629889 -0.011418562 -0.026941914 -0.031517442 -0.030691013 0.076740265 0.047801673
0.02325499 0.07841208 -0.075426534 0.013588256 0.05349476 0.055476665 -0.066198386 0.029748298
-0.047353867 -0.0031478712 -0.017317774 -0.069449514 -0.07935787 -0.05478036 0.037921138 0.038252253
-0.07234492 -0.031197468 0.0014984326 -0.071914904 0.04706428 0.0756115 0.014872686 -0.061817236
0.019455807 0.030175311 0.06610545 -0.04432765 -0.07476797 0.03676565 0.005244656 -0.027240308
-0.03386515 -0.041172452 0.06982721 -0.013402874 0.061838467 0.076731086 0.011397749 0.01942737
-0.0034175152 0.057318956 -0.07500555 0.033252854 -0.013503387 0.038157664 -0.00022781338 -0.030796215
-0.008866851 0.04516088 -0.057688255 -0.052482642 -0.018493699 -0.03002928 0.03296287 0.056245625
-0.008722726 0.079047374 -0.03464342 -0.04665121 -0.036904383 -0.056635164 -0.058228623 -0.07387328
-0.07309239 0.022004323 0.051343907 0.0791419 0.07100414 -0.004772488 0.01619023 -0.04983911

conv_3.bias f4 [32]
00000000: 02b8 8bbd 8a93 48bd d675 4d3d d677 853d
00000010: c316 36bd c8f7 d7bc 99f0 40bd 52c2 f9bb
00000020: 2bca 7cbd b6d3 84bd 9082 b23c 3662 de3d
00000030: b98f 073c 480b 9cbc dd2c 843d d83a 8a3d
00000040: 9e2d 6e3d 597f 693c 64f8 4bbc 6871 523d
00000050: 94fb 993d 9aa9 b23d b364 b93d 0638 26bc
00000060: 212e 7f3d 65e2 8a3c bbff ad3d 7365 a03d
00000070: 6305 a63d aa72 973d ba36 bb3d bd8e 1abd
-0.06822206 -0.04896883 0.050161205 0.065169975 -0.0444553 -0.026363268 -0.04710445 -0.0076220417
-0.06171624 -0.06485693 0.021790773 0.10858576 0.008274012 -0.019048348 0.064538695 0.06749505
0.058148973 0.014251553 -0.012449358 0.051377684 0.07518688 0.08723755 0.0905241 -0.010145193
0.06229985 0.016953656 0.08496042 0.0783185 0.08106496 0.07394917 0.09141298 -0.037733782

linear_1.weight f4 [1, 25088]
00000000: c825 2ebb 0733 d8ba 78c1 5dbb 72e5 913b
00000010: c8ea d939 038e c5ba fb34 33bb 20fc b7bb
00000020: eac4 133a 0ebb bb3b 345a 913b e524 b33b
00000030: 97df 9a3b 80bc 453b fb6d 7c39 8267 8abb
00000040: 702a a83b 7890 80bb 83b6 6abb b62c 283b
00000050: 5b69 583b ef49 5ebb 724b 813b bc43 c6bb
00000060: 30c7 ae3a 8040 2b3b 9e62 823a f98e 7abb
00000070: c5f6 90bb f021 a13b f5a5 ab3a c0e0 36bb
00000080: ca54 c33b b2d6 b1ba f337 75ba 731d 0b3b
00000090: 08b2 bb3b 9358 1cbb fbe0 ca39 3ffa 26bb
000000a0: 0002 2ebb edfc 12ba 33ef 4a39 1668 663b
000000b0: 41c1 94bb d5e4 7c3b 3718 a83b cdea 13ba
000000c0: 5253 eab9 ef05 c63a 178b c1bb cfa6 943b
000000d0: 01b5 a0ba 8c38 0639 42ee 3b3b 723a 203b
000000e0: a006 4bbb c05e 9cbb 32ee cabb bc80 afbb
000000f0: 9e49 afba 6ab7 97bb 6a07 1eb9 6b38 36bb
00000100: 7d55 843b f049 9a3b 1544 bc3b c0e5 76bb
00000110: 2375 87bb a1f9 1f3b c1cf 76ba 46c2 a93b
00000120: fd9d b7bb 7d7e c83b 3754 87bb 6b76 9fbb
00000130: 702a 02ba 6c1f 2bbb 28d8 79bb f85e 6b3b
00000140: c16b 9f3b 887e 653b 847a 4a3a 7131 82ba
00000150: 3b60 6cbb 1b78 c13b 6868 66bb 46d3 b5bb
00000160: 507b ba3b e4a0 63b8 b46a 9a3b 632e d1ba
00000170: d161 b43b 4c4e 7bbb dd2a 963b db41 b33b
00000180: 734f a539 c2d2 9b3b 10a4 5b3a a0a6 a5bb
00000190: 31af 623b 8e38 95bb e651 e239 fe4c b2bb
000001a0: 26b9 39bb 0fd4 cbba 01c1 0dbb e75d c1bb
000001b0: 12d5 47bb 8905 bebb bc5c adbb 179b dfbb
000001c0: d06b 75bb 3946 cfba fc17 b73b eb27 88bb
000001d0: 7e96 8ebb e26e 98bb 08e1 cd3b 5a5b 88b9
000001e0: fe45 7fba 9111 823b 5612 64bb 574b dbba
000001f0: 4225 be3b 3a03 623b 6490 9bbb 467d efba
00000200: ee55 a339 58c1 153b 6be3 30bb 967c 993b
00000210: c439 a339 8978 a8bb f624 0a3b 35e1 bbbb
00000220: 2200 623a 21f5 ccbb ed13 f6ba 7c1a b9ba
00000230: 8a6f b6bb 47ad dbba 1de1 073a 5906 51bb
00000240: b1ab b83a 3c02 813b 11d0 a83a 5c4b b0bb
00000250: 6fc2 093a 925f 2fbb 69a1 043b f1f1 9ebb
00000260: 301d 89bb 64a3 84b7 9f6f 763b f110 d4ba
00000270: fc79 d5b9 509e afba a72a afbb c268 0eb9
00000280: a954 0b3a 1bcf b53a 0637 533b 2c69 163b
00000290: 3e2d 813b 4939 84ba 8b3c 28bb 1dcf b33b
000002a0: efaa a63b 6036 733b 2fee a33b af48 633b
000002b0: 5e1e c53b 79e9 c23b bbd6 92bb 9030 abbb
000002c0: 2514 38bb ff5e a53b 7dbd ba3b 04b3 f139
000002d0: 479c 91bb 8ccb 42bb e11b 4d3b 2ed1 cd3b
000002e0: 4704 b43a 4f57 96bb b2cc 943b c98f 9c3b
000002f0: b7df 04bb 5194 21bb 3158 873b 8a3f 8cbb
00000300: 708c bc3b 3525 42ba acc4 9f38 2e10 59bb
00000310: 9827 ccbb 76be eb3a 3a94 f4ba 790b 5bbb
00000320: 361d b13b 775d d33a c239 8bba 6510 b7bb
00000330: f19e 69bb ba38 0abb 931f 233b 2a84 bdbb
00000340: d908 873b 3703 ce3b 96ea 233b f0e6 bebb
00000350: 1eee 893a dea5 16bb 3570 e53a 2cb6 7aba
00000360: f332 333b 8833 4239 3121 ff3a f661 473b
00000370: 25e2 84bb 0bf8 c73a a347 c13b 045e 903b
00000380: 9adb 103a 4306 2bba 3635 483b d93b a6bb
00000390: c7da c8ba bfe8 c13b ee7f 813a f713 a3b9
000003a0: fe01 abbb fdbb 87bb 1c3d 673a 04de 93bb
000003b0: 46e1 92ba 6a6b 11bb 92db 363b 7730 f93a
000003c0: 11a2 b3bb b146 273b c9cb 78b9 6982 4bbb
000003d0: b237 973b c263 8cbb 7181 b7bb 93e1 b33a
000003e0: 6533 38bb 0094 16bb 398a abbb 6bab d1ba
000003f0: 402e b23b a1b1 abbb ed5c 79bb 8681 5dba
-0.0026572812 -0.00164947 -0.003383724 0.004452401 0.0004156439 -0.001507223 -0.0027344811 -0.0056147724
0.00056369475 0.0057290858 0.004435802 0.0054670447 0.004726361 0.003017217 0.00024073564 -0.004223765
0.005132012 -0.003923472 -0.0035814352 0.0025661415 0.003302178 -0.003391858 0.0039457614 -0.006050555
0.0013334509 0.0026130974 0.0009947603 -0.003823219 -0.0044239485 0.0049173757 0.0013095724 -0.0027904958
0.0059610354 -0.0013568013 -0.00093543454 0.002122727 0.00572801 -0.0023856505 0.00038696066 -0.0025478748
-0.0026551485 -0.0005607147 0.0001935333 0.0035157255 -0.004539639 0.0038588543 0.0051298398 -0.0005642593
-0.00044694036 0.001510797 -0.0059064734 0.0045364867 -0.0012260975 0.00012800301 0.0028675948 0.0024448899
-0.003097929 -0.0047720373 -0.006192946 -0.0053559225 -0.001337338 -0.004630019 -0.00015070816 -0.0027804624
0.0040385113 0.004708521 0.0057454207 -0.0037673563 -0.004133837 0.0024410265 -0.0009415113 0.00518063
-0.0056035505 0.006118594 -0.0041299122 -0.0048664114 -0.000496543 -0.0026111258 -0.0038123224 0.003591476
0.00486514 0.0035018045 0.0007723945 -0.0009932948 -0.00360681 0.0059042103 -0.0035157446 -0.0055488674
0.0056909695 -5.427086e-05 0.004712427 -0.0015959259 0.0055048247 -0.003834623 0.0045827464 0.005470497
0.00031530447 0.004755349 0.0008378634 -0.0050552636 0.0034589285 -0.004553861 0.00043167098 -0.005441307
-0.0028339117 -0.0015550869 -0.0021629932 -0.0059010866 -0.003049199 -0.0057989997 -0.005290596 -0.006823908
-0.0037448294 -0.0015813775 0.005587576 -0.004155149 -0.004351436 -0.00465189 0.0062829293 -0.00026008004
-0.00097379077 0.0039693792 -0.0034800968 -0.0016730827 0.0058027813 0.0034486786 -0.0047474373 -0.0018271587
0.00031153805 0.0022850838 -0.002699102 0.0046840413 0.00031132821 -0.005141322 0.002107916 -0.005733634
0.00086212356 -0.0062548076 -0.0018774249 -0.0014122273 -0.0055674957 -0.0016760015 0.0005183386 -0.0031894653
0.0014089254 0.003937034 0.0012879391 -0.0053800773 0.0005255108 -0.0026759845 0.002023781 -0.004850619
-0.0041843876 -1.581171e-05 0.0037603152 -0.0016179365 -0.0004071741 -0.0013398621 -0.0053456607 -0.000135812
0.00053150445 0.0013870926 0.0032228841 0.002295087 0.003942161 -0.0010087873 -0.0025670852 0.0054873363
0.005086295 0.0037111267 0.005002759 0.0034680774 0.006015583 0.0059482423 -0.0044811643 -0.005224295
-0.002808818 0.005046725 0.0056988583 0.0004610048 -0.0044436785 -0.0029723374 0.0031297135 0.0062810397
0.0013734185 -0.0045880447 0.004541003 0.0047778827 -0.0020274946 -0.0024655054 0.0041303863 -0.0042800354
0.005754046 -0.0007406057 7.618344e-05 -0.0033121216 -0.006230306 0.0017985839 -0.0018659898 -0.0033423586
0.0054050935 0.0016125877 -0.0010622072 -0.005586671 -0.0035647715 -0.002109094 0.0024890646 -0.0057835774
0.004120928 0.0062870043 0.002501165 -0.0058258697 0.0010523235 -0.0022987048 0.0017504754 -0.0009563889
0.00273436 0.00018520479 0.0019464848 0.003042338 -0.004055279 0.0015256418 0.0058984323 0.004405739
0.0005525887 -0.00065240654 0.0030549294 -0.0050730524 -0.001532399 0.005917638 0.0009880045 -0.00031104658
-0.0052187433 -0.004142283 0.00088210567 -0.0045125503 -0.0011206053 -0.0022189268 0.002790187 0.0019011636
-0.0054819663 0.0025524313 -0.00023727039 -0.0031053072 0.0046147937 -0.004284353 -0.0056001474 0.0013723843
-0.0028106805 -0.0022976398 -0.0052349833 -0.0015996521 0.0054376423 -0.005239681 -0.0038049773 -0.00084497815
